Project/results/CTTEST/CTest/checkpoint.pt (torch, 444623 bytes, 40 tensors)

network_body.vector_processors.0.normalizer.running_mean f4 [7]
0	0x3d36484b	0.044502538
1	0xbc15f349	-0.009152242
2	0x3b53e3cd	0.0032331825
3	0xbc3df4ef	-0.011594041
4	0x3efffe9b	0.49998936
5	0xbd136798	-0.035987467
6	0x429f2c84	79.586945

network_body.vector_processors.0.normalizer.running_variance f4 [7]
0	0x491628d2	615053.1
1	0x4363e398	227.88904
2	0x49166098	615945.5
3	0x4a178618	2.482566e+06
4	0x3f9fff89	1.2499858
5	0x4a177b29	2.4818662e+06
6	0x4ea35d63	1.3704032e+09

network_body.linear_encoder.seq_layers.0.weight f4 [128, 7]
0	0xbe58480c	-0.21121234
1	0x3f53a531	0.8267394
2	0xbe349d9e	-0.17638251
3	0x3de0d9f6	0.10979073
4	0xbea4b26c	-0.32167375
5	0xbf0bd198	-0.5461669
6	0xbe99be51	-0.30028012
7	0xbdadcdaf	-0.08486497
8	0x3eade644	0.3396474
9	0xbde9b051	-0.11410583
10	0x3e453069	0.19256748
11	0xbdeabd9f	-0.114619486
12	0xbf115676	-0.56772554
13	0x3e895ec8	0.26830125
14	0xbe3d205f	-0.1846938
15	0x3d9ca3c6	0.07648425
16	0x3e9f159d	0.31071177
17	0x3ef010a5	0.468877
18	0x3df4498f	0.11928093
19	0xbf70cf14	-0.94065976
20	0xbebae34a	-0.36501533
21	0xbe8371ef	-0.25672862
22	0x3ebbd17c	0.3668326
23	0xbead4a82	-0.33845907
24	0x3de26a4e	0.11055432
25	0x3d68238e	0.056674533
26	0x3f3c9c04	0.7367556
27	0x3e594b8a	0.21220222
28	0x3da927ce	0.08259545
29	0x3c79306b	0.015209298
30	0x3e64d299	0.22345962
31	0x3e56d0e5	0.20978124
32	0x3ef74834	0.48297274
33	0x3e407999	0.18796386
34	0x3eba2d72	0.36362797
35	0xbe9048cb	-0.28180537
36	0x3ad6cad9	0.0016387358
37	0xbf667bf9	-0.9003292
38	0x3e22584c	0.15853995
39	0x3e4392e7	0.19099008
40	0xbedd5a24	-0.43232834
41	0x3f6d05ac	0.9258678
42	0xbeee8cab	-0.46591696
43	0x3eccb62f	0.39982745
44	0xbebff6c4	-0.37492955
45	0xbcaa6b1d	-0.020803029
46	0xbce0c2c0	-0.027436614
47	0x3d26e7ad	0.040748287
48	0xbf03206d	-0.5122135
49	0x3e1bb4ec	0.15205735
50	0x3efb310e	0.49060863
51	0x3f81f640	1.0153275
52	0xbf549cb0	-0.83051586
53	0x3f2d34e4	0.6765883
54	0xbf1c857c	-0.6114118
55	0xbeb47ec8	-0.35252976
56	0xbf17305e	-0.5905818
57	0x3eceb97c	0.40375888
58	0xbea98477	-0.33108875
59	0xbe6c75aa	-0.2309176
60	0xbe3d3ca4	-0.18480164
61	0xbe81c656	-0.2534663
62	0xbeb73a6a	-0.35786754
63	0xbe9c0fc9	-0.30480793
64	0xbe93e053	-0.28882083
65	0x3eabef06	0.33580798
66	0x3e47b6ba	0.19503298
67	0xbe760a49	-0.24027361
68	0xbf028631	-0.5098601
69	0xbf4383de	-0.7637309
70	0x3e956b43	0.29183397
71	0x3ea4108e	0.3204388
72	0x3f4c246d	0.7974308
73	0xbd7c9f20	-0.06167519
74	0x3eb2a7f4	0.34893763
75	0x3f38a22b	0.7212245
76	0x3e8cea63	0.27522573
77	0xbe6b97e2	-0.23007157
78	0xbeb0876c	-0.3447832
79	0xbe48fd38	-0.19627845
80	0x3eaeecd5	0.34165064
81	0xbd94a113	-0.07257285
82	0x3f0bd871	0.5462714
83	0xbf7afb92	-0.98040116
84	0xbed302be	-0.4121303
85	0x3effca0d	0.4995884
86	0x3f028e83	0.50998706
87	0x3e9b8048	0.30371308
88	0xbe42038d	-0.18946667
89	0x3f1fbfda	0.6240212
90	0xbee31876	-0.443546
91	0xbdd5cd61	-0.104395635
92	0x3e7d8f4d	0.24761696
93	0xbec77190	-0.3895383
94	0x3ea3d61e	0.31999296
95	0xbf32fef3	-0.6992027
96	0x3efa84df	0.48929498
97	0xbf871e35	-1.0556093
98	0x3ce93ce1	0.028471412
99	0x3ea0c273	0.31398353
100	0x3d973ab8	0.073842466
101	0x3c1dd9f0	0.00963448
102	0xbf1b8ba3	-0.60759944
103	0x3d0a5d50	0.033780396
104	0xbe636e4d	-0.22210045
105	0x3eb84019	0.35986403
106	0x3e5626fe	0.20913312
107	0xbe1d3b1a	-0.15354577
108	0x3e29a31a	0.16566125
109	0xbe6304b2	-0.2216976
110	0x3efc6059	0.49292257
111	0x3ee10f67	0.43957064
112	0x3f1906d2	0.5977603
113	0x3eb56dc6	0.35435313
114	0xbb9adec7	-0.004726264
115	0x3f0f3235	0.55935985
116	0xbec2482d	-0.3794569
117	0xbeb6a1c7	-0.356703
118	0x3e6ec48e	0.23317167
119	0x3ec95341	0.3932133
120	0xbda40128	-0.08008033
121	0x3f09397a	0.5360333
122	0xbf0059d1	-0.5013705
123	0x3e41a0b5	0.18908961
124	0x3ea8b613	0.32951412
125	0x3dad59dc	0.08464405
126	0x3d7961ce	0.06088429
127	0x3f10fc05	0.5663455
128	0xbf061746	-0.5237926
129	0x3f31ed8f	0.6950311
130	0x3f411623	0.754244
131	0x3ea4455b	0.32084164
132	0xbef49e77	-0.4777715
133	0x3d70a64a	0.058752336
134	0x3c6d397e	0.014479039
135	0x3ea9740d	0.33096352
136	0xbe928885	-0.2861978
137	0xbf70a74e	-0.94005287
138	0x3e85eaaa	0.26155597
139	0x3f254e97	0.64573044
140	0xbdc483e0	-0.09595466
141	0x3ee8f58a	0.4549983
142	0x3e9911a5	0.29896274
143	0x3e488aac	0.19584149
144	0x3e1d13df	0.15339611
145	0x3eb9f4b3	0.36319503
146	0x3ef0a334	0.46999514
147	0xbe5bfeba	-0.21483889
148	0x3e617f06	0.22021112
149	0x3ea945ed	0.33061162
150	0xbd000e4d	-0.03126364
151	0x3d4d00f2	0.05004973
152	0x3d0d3a49	0.034479413
153	0x3ca29504	0.019846447
154	0x3f008987	0.5020985
155	0x3ee95c46	0.45578212
156	0x3c9f1e64	0.019423671
157	0x3e550428	0.20802367
158	0x3ed068f4	0.40705073
159	0xbf2998cf	-0.6624879
160	0x3ec71b91	0.3888822
161	0xbe456534	-0.19276887
162	0xbe2ea275	-0.1705416
163	0xbf07cbc3	-0.5304529
164	0x3dd0068b	0.10157498
165	0xbeb23001	-0.3480225
166	0x3ee159ca	0.44013816
167	0xbe4cb963	-0.19992594
168	0x3ddfc9b5	0.109271444
169	0xbdf395b1	-0.11893786
170	0x3e93338b	0.28750262
171	0x3d87f476	0.06638424
172	0xbe53b0fd	-0.20672984
173	0x3e9e2390	0.30886507
174	0x3f928691	1.1447316
175	0xbe13a025	-0.14416559
176	0xbe0528b5	-0.1300381
177	0x3e021331	0.12702633
178	0x3de1296f	0.10994231
179	0xbf6f8fff	-0.93579096
180	0xbec64620	-0.38725376
181	0xbe2e2dd9	-0.17009677
182	0x3f0af846	0.54285085
183	0xbe7c8516	-0.24660143
184	0x3f4bf298	0.79667044
185	0x3e6e938c	0.23298472
186	0x3e819055	0.2530543
187	0xbdb15fde	-0.08660863
188	0xbf19fee2	-0.60154545
189	0x3b7420f5	0.003725109
190	0xbf458fc8	-0.7717252
191	0xbe5b38ad	-0.21408339
192	0xbf19c54c	-0.60066676
193	0xbeeb366b	-0.45939955
194	0x3d85ea9e	0.0653889
195	0x3ea69dc0	0.3254223
196	0x3d3214b0	0.04347676
197	0xbf698820	-0.91223335
198	0xbf1b7644	-0.60727334
199	0xbedf6df6	-0.4363858
200	0xbe8eba57	-0.2787654
201	0xbe858c62	-0.26083666
202	0x3e6b4de7	0.22978936
203	0xbd6a494d	-0.05719881
204	0xbdc49a89	-0.09599788
205	0xbcadf3c5	-0.021234402
206	0x3e47b926	0.19504222
207	0xbf428f55	-0.7599996
208	0x3e550087	0.20800982
209	0x3edd7c1f	0.4325876
210	0x3dae11ab	0.08499464
211	0x3ed3cd07	0.4136736
212	0xbe1ee337	-0.15516363
213	0x3eabab88	0.33529305
214	0xbd4fd7c6	-0.050742887
215	0xbde0337e	-0.10947321
216	0x3ee50955	0.44733682
217	0xbe1db2ca	-0.15400234
218	0xbb09b8b4	-0.0021014633
219	0x3e8e04b8	0.27737975
220	0xbd52b212	-0.051439352
221	0xbec4bbf0	-0.38424635
222	0x3e51a0e9	0.20471539
223	0xbe86603a	-0.2624529
224	0xbdef7ecc	-0.116941065
225	0x3eb3778d	0.35052148
226	0x3cf0eae3	0.029408878
227	0x3dc52e6e	0.096279964
228	0x3b3b8680	0.0028614104
229	0x3e3d1b8b	0.18467538
230	0x3f69ca9e	0.91324794
231	0xbd1689e8	-0.03675261
232	0xbe113643	-0.14180855
233	0xbf06e190	-0.5268793
234	0xbde05148	-0.10953003
235	0xbee6ecfb	-0.45102677
236	0xbdebfade	-0.115224585
237	0xbe66b641	-0.22530462
238	0xbe2271a3	-0.15863661
239	0xbe35834c	-0.17725867
240	0xbdf6d9a0	-0.120532274
241	0x3e7326a9	0.23745216
242	0x3e609cb3	0.21934776
243	0xbf2478b0	-0.64246655
244	0xbe8dfe9e	-0.2773332
245	0xbe8bf603	-0.2733613
246	0x3d445ebe	0.047941916
247	0xbe6dc2b7	-0.23218809
248	0xbe8a4914	-0.2700888
249	0xbf291cf5	-0.6605981
250	0xbf9344d9	-1.1505386
251	0xbf0c97ec	-0.54919314
252	0xbeeea768	-0.46612096
253	0x3ebebb83	0.37252435
254	0xbe1b2c30	-0.15153575
255	0x3ddb6d5a	0.107142165

network_body.linear_encoder.seq_layers.0.bias f4 [128]
0	0xbd5192b1	-0.051165286
1	0xbd833018	-0.064056575
2	0xbcc702f3	-0.024293398
3	0xbd96d4e5	-0.07364825
4	0xbe09bd8a	-0.1345121
5	0x3c83e15a	0.016098667
6	0xbe27795a	-0.16354886
7	0xbe0aceff	-0.13555525
8	0xbe85b4a6	-0.26114386
9	0xbe1d9a06	-0.15390787
10	0x3d814603	0.06312182
11	0xbd46f9a8	-0.048577935
12	0xbcf0b0d1	-0.029381188
13	0xbd0fd41e	-0.0351144
14	0xbe0af582	-0.13570216
15	0xbc1ac9ce	-0.009447528
16	0x3caa8cef	0.020819155
17	0xbd9d9524	-0.07694462
18	0xbd73e0bc	-0.059540495
19	0xbd0c14fc	-0.0341997
20	0xbdae5501	-0.08512307
21	0xbe82787f	-0.25482556
22	0xbc4f2f54	-0.012645561
23	0x3cc1b730	0.02364692
24	0xbe05c4e0	-0.13063383
25	0xbe86c7ba	-0.26324254
26	0xbcd21827	-0.025646282
27	0xbe1121d3	-0.14173059
28	0x3b032121	0.002000876
29	0xbeb6fe92	-0.35741097
30	0x3d61f0ef	0.055161413
31	0xbe52cda5	-0.2058626
32	0xbe1ecce9	-0.15507855
33	0xbd8f5400	-0.069984436
34	0xbca8466d	-0.020541394
35	0xbde9867d	-0.11402605
36	0xbec68e09	-0.3878024
37	0xbe0e08fb	-0.13870613
38	0x3ca12287	0.019669784
39	0xbdde9991	-0.10869134
40	0xbd86d4c7	-0.06583553
41	0xbbf0afa4	-0.0073451567
42	0x3df9cdf9	0.12197489
43	0xbd21a5ca	-0.03946475
44	0xbe422664	-0.18959957
45	0x3c906263	0.01762504
46	0x3d3ae9e5	0.045633215
47	0xbd87cefc	-0.06631276
48	0xbe16a242	-0.14710334
49	0xbea1a39b	-0.31570134
50	0xbe4c3dc9	-0.19945444
51	0xbd066633	-0.03281231
52	0xbc23c44f	-0.009995534
53	0xbecba12a	-0.39771396
54	0xbd8c0180	-0.068362236
55	0xbe3767d4	-0.17910701
56	0x3d68936a	0.05678121
57	0x3e056ced	0.13029833
58	0xbd7a6e43	-0.06114031
59	0xbdd4d52f	-0.10392224
60	0xbe598981	-0.2124386
61	0xbe0bceaf	-0.13653062
62	0xbc54e643	-0.012994352
63	0xbe09f94d	-0.13474007
64	0xbde6e050	-0.11273253
65	0x3c8e05ae	0.017336693
66	0xbdd3b16f	-0.10336577
67	0xbda4b8e0	-0.080430746
68	0xbdf6cd8b	-0.12050923
69	0xbc13bf9d	-0.009017852
70	0xbe02d41b	-0.12776224
71	0xbca270d9	-0.0198292
72	0xbc58bfba	-0.013229305
73	0xbe1e5558	-0.15462244
74	0xbe851aed	-0.25997105
75	0x3d68d8ae	0.056847267
76	0x3e213902	0.15744403
77	0xbe5c5b0e	-0.2151911
78	0xbe5b668b	-0.21425836
79	0xbeb50135	-0.35352483
80	0xbe04803c	-0.12939543
81	0xbdfbbed9	-0.12292261
82	0xbd954233	-0.07288017
83	0xbd8a63cc	-0.06757316
84	0xbc91c7a1	-0.017795386
85	0xbcb81209	-0.022469537
86	0xbe14a5ad	-0.14516325
87	0xbd273ff6	-0.040832482
88	0x3d8d1a95	0.06889836
89	0xbdae9ac6	-0.085256144
90	0xbe457a96	-0.19285044
91	0xbe192496	-0.14955363
92	0xbde969f1	-0.1139716
93	0xbd496f0a	-0.04917816
94	0xbcc0b5c7	-0.023524178
95	0xbd89b9b1	-0.06724871
96	0xbe80b0c0	-0.2513485
97	0xbcbd1aa6	-0.023083996
98	0xbee0748f	-0.43838927
99	0xbe30a326	-0.17249736
100	0x3d8687ad	0.06568847
101	0x3d266947	0.040627744
102	0xbe131192	-0.14362171
103	0xbd3af701	-0.045645718
104	0xbe83f705	-0.25774398
105	0xbe13fa55	-0.14450963
106	0x3e222025	0.15832575
107	0x3d1ac9cf	0.037790116
108	0x3c407c95	0.011748453
109	0xbde916db	-0.113813125
110	0x3c14a7ee	0.009073241
111	0xbe17b7bc	-0.14816183
112	0xbe0ff119	-0.14056815
113	0xbe2ea432	-0.17054823
114	0xbdb860e6	-0.09002857
115	0xbd144c08	-0.03620532
116	0x3c7eba85	0.015547399
117	0xbe71d0d2	-0.23614815
118	0xbdb96d65	-0.090540685
119	0x3d102835	0.035194594
120	0xbe8fc8a7	-0.28082773
121	0xbe0bfcba	-0.13670626
122	0xbd63cd5a	-0.05561576
123	0xbc927174	-0.017876364
124	0xbdb9fe15	-0.090816654
125	0x3db48bf4	0.088157564
126	0xbe8ab7b1	-0.2709327
127	0xbe1cb557	-0.1530355

network_body.linear_encoder.seq_layers.2.weight f4 [128, 128]
0	0xbdb772d3	-0.08957448
1	0x3e08d4d2	0.13362435
2	0xbc4e0ff1	-0.012577043
3	0xbe1d4e8f	-0.15361999
4	0xbe4e3cfe	-0.20140454
5	0x3c639754	0.01389106
6	0xbd86af32	-0.065763846
7	0xbe13ff3b	-0.14452831
8	0xbd36e88e	-0.044655375
9	0xbc735c2d	-0.014853519
10	0xbd04d44d	-0.03242903
11	0xbe9fe8aa	-0.31232196
12	0xbe476e62	-0.19475701
13	0xbe936c8d	-0.28793755
14	0xbdfe6f44	-0.12423566
15	0xbead4021	-0.3383799
16	0x3c79d1ed	0.015247804
17	0xbd196bf4	-0.037456468
18	0x3cda1481	0.026621105
19	0x3c761e2e	0.015021844
20	0xbec1adf8	-0.3782804
21	0x3c67a83d	0.014139232
22	0x3de1b228	0.11020309
23	0xbe954dbc	-0.2916087
24	0xbec68cb8	-0.38779235
25	0x3daf25f6	0.08552162
26	0x3e15cba9	0.14628471
27	0xbc9590cb	-0.01825752
28	0x3e5e4dca	0.21709362
29	0xbe12ddf7	-0.14342485
30	0xbe01d34f	-0.12678264
31	0xbdee32ff	-0.116308205
32	0xbec57c6e	-0.38571495
33	0x3cae9402	0.02131081
34	0xbdcdd5f4	-0.10050574
35	0x3c6d5eaf	0.014487906
36	0x3da99bf5	0.082816996
37	0x3dd4ddc3	0.1039386
38	0xbe14ae38	-0.14519584
39	0x3dbfef58	0.09371823
40	0xbe64c651	-0.22341277
41	0x3d81c519	0.063364215
42	0xbdd7ef9f	-0.10543751
43	0x3bfa11ff	0.00763154
44	0xbd2c362e	-0.042043857
45	0x3e4f967a	0.20272246
46	0xbe9ffb4b	-0.3124641
47	0xbd312933	-0.04325218
48	0xbe667337	-0.22504888
49	0x3c2f504c	0.010700297
50	0xbe16dddd	-0.14733072
51	0xbd87212d	-0.06598125
52	0xbe00f0aa	-0.12591806
53	0x3d0612e0	0.032732844
54	0xbd8b0c15	-0.06789414
55	0xbda1281a	-0.07868977
56	0xbd5401e4	-0.051759616
57	0x3cb1ff79	0.021728264
58	0xbdb35d44	-0.087580234
59	0x3d71f0b4	0.059067443
60	0xbd8f4d8a	-0.06997211
61	0x3d13414d	0.035950948
62	0xbdc42450	-0.095772386
63	0x3d54de9e	0.051970117
64	0xbf06db1e	-0.52678096
65	0xbc4bd8a2	-0.012441786
66	0xbd6acfdb	-0.057327133
67	0xbe3d589d	-0.18490835
68	0xbe04ba54	-0.12961704
69	0xbcf3f749	-0.029781
70	0x3cc4703e	0.023979302
71	0xbe473971	-0.19455506
72	0xbd910f08	-0.07082945
73	0xbec4f02f	-0.38464496
74	0x3dd3c0b7	0.10339492
75	0xb813e1a1	-3.5257664e-05
76	0xbf0257f9	-0.50915486
77	0xbe6a7f79	-0.2290019
78	0xbe26c7aa	-0.16287103
79	0xbd631470	-0.055439413
80	0x3d34022d	0.043947387
81	0x3e7a7440	0.24458408
82	0xbe03149c	-0.1280083
83	0x3c4a9c28	0.012366332
84	0xbe074995	-0.13211663
85	0xbe231189	-0.15924658
86	0x3c6452de	0.013935773
87	0x3d8bae09	0.06820304
88	0x3e4c0de7	0.19927178
89	0xbe3a27f5	-0.18179305
90	0x3d18ffd8	0.037353367
91	0xbe6d75e4	-0.23189503
92	0xbe092174	-0.13391668
93	0xbdb3ce85	-0.08779625
94	0x3df0c7af	0.117568366
95	0x3c302a30	0.010752246
96	0xbe1205e6	-0.14260063
97	0xbe8038ea	-0.25043422
98	0xbd879cc4	-0.066216975
99	0xbe88befa	-0.26708204
100	0xbdbcf611	-0.09226621
101	0x3d856fca	0.06515463
102	0xbe7aab9c	-0.24479526
103	0xbec75d39	-0.3893831
104	0x3bb02609	0.005375628
105	0xbe002760	-0.1251502
106	0xbb9ecaf9	-0.0048459736
107	0xbdae1d9b	-0.085017405
108	0xbdde550a	-0.10856064
109	0xbd130e38	-0.035902232
110	0xbe09addf	-0.13445233
111	0xbc7c28d9	-0.015390598
112	0x3d0054f7	0.03133103
113	0xbc8be833	-0.017078495
114	0xbda828e8	-0.08210927
115	0xbc86ddb6	-0.016463142
116	0xbe960352	-0.29299408
117	0xbd9bb06a	-0.07602008
118	0xbe597ebf	-0.21239756
119	0xbd8e10e2	-0.06936814
120	0x3d8bbd78	0.06823248
121	0xbe790692	-0.24318913
122	0xbead91fc	-0.3390044
123	0xbd59c097	-0.053162184
124	0xbc8c9957	-0.017162962
125	0x3d0c9d2b	0.034329575
126	0xbe041892	-0.12899998
127	0xbd7e5c82	-0.06209994
128	0xbe7af968	-0.24509203
129	0x3e244c1e	0.16044661
130	0xbd466679	-0.04843757
131	0xbda87f9a	-0.08227463
132	0xbe3d467e	-0.18483922
133	0xbd70ec96	-0.058819376
134	0x3e648804	0.22317511
135	0x3da944ac	0.08265051
136	0x3c03e4bb	0.008050139
137	0xbd09ced2	-0.033644505
138	0xbe215ee7	-0.15758859
139	0x3def9ce7	0.116998486
140	0xbd3607bd	-0.044440974
141	0xbd91e2c7	-0.071233325
142	0x3e040b30	0.12894893
143	0xbe80c34a	-0.25148994
144	0x3e08edf7	0.13372026
145	0xbdad78ac	-0.08470282
146	0xbda1a833	-0.078934096
147	0xbedc8299	-0.43068388
148	0xbf0013d3	-0.5003025
149	0x3c6a12b0	0.014286682
150	0x3e63ba05	0.2223893
151	0xbd4597a6	-0.048240326
152	0xbf0259a5	-0.50918037
153	0xbdf825ce	-0.12116586
154	0xbd4388b3	-0.04773779
155	0x3c4bc45f	0.012436955
156	0x3e35672d	0.1771514
157	0xbdca3fdd	-0.09875462
158	0xbd0d8fbc	-0.034560904
159	0x3e139bdc	0.14414924
160	0xbe8d5d17	-0.27610084
161	0xbdc04c37	-0.09389537
162	0xbdea4214	-0.11438385
163	0xbe9aacdd	-0.3021001
164	0xbe22a4b1	-0.15883137
165	0x3cd2acc8	0.025717154
166	0xbdc1d8ac	-0.09465155
167	0x3cad3738	0.021144494
168	0x3dccd5ab	0.100016914
169	0xbdcf20f3	-0.101137064
170	0xbe01c120	-0.12671328
171	0x3db15187	0.08658128
172	0xbd892345	-0.0669618
173	0x3d72226e	0.059114866
174	0xbe8712f1	-0.2638164
175	0x3b51c861	0.0032010304
176	0xbe99a6ce	-0.30010074
177	0x3d8f4b8e	0.06996833
178	0xbdc24311	-0.09485448
179	0x3e2d096b	0.16898124
180	0xbd04ba1b	-0.032404047
181	0xbce05d9a	-0.027388383
182	0x3ea5798b	0.32319292
183	0xbccbae9a	-0.02486353
184	0x3cb81272	0.022469733
185	0xbca71f5a	-0.020400692
186	0xbc2c6fb5	-0.01052468
187	0xbe0300c1	-0.12793256
188	0xbdf40dd5	-0.11916701
189	0x3e4cc3c1	0.19996549
190	0xbe5d862e	-0.21633217
191	0x3c00065f	0.007814019
192	0xbea4cd35	-0.3218781
193	0xbe14e345	-0.14539821
194	0xbdec14a4	-0.115273744
195	0xbe06115e	-0.13092563
196	0xbd858629	-0.0651973
197	0x3e5ed606	0.21761331
198	0x3b3902f1	0.0028230513
199	0xbd61793e	-0.055047266
200	0xbe75d7c5	-0.24008091
201	0xbc8ded4c	-0.017325066
202	0x3cab796c	0.020931922
203	0x3c8762bd	0.016526574
204	0xbf4a4de7	-0.7902512
205	0xbdbd9467	-0.09256821
206	0x3e0dd129	0.1384932
207	0x3d4335f8	0.04765889
208	0x3d60f93e	0.054925196
209	0xbdcb610c	-0.099306196
210	0x3c9c07d4	0.019046701
211	0x3ed6393d	0.41840544
212	0x3dc9bfb6	0.09851019
213	0x3df5df07	0.1200543
214	0x3b2e09f2	0.002655622
215	0x3e1c0ede	0.15240046
216	0xbda1a4fe	-0.07892798
217	0xbd1a50ad	-0.037674595
218	0xbe005eff	-0.12536238
219	0x3d3340b2	0.04376287
220	0xbe1038de	-0.14084193
221	0xbd897aae	-0.067128524
222	0x3dfdff52	0.12402214
223	0xbbbae050	-0.0057030097
224	0xbd56fe40	-0.052488565
225	0x3d970ff6	0.07376091
226	0xbd038d52	-0.032117195
227	0x3e3c11bf	0.18366145
228	0x3e40b0be	0.18817422
229	0x3e01ef0e	0.12688848
230	0xbe37aa2f	-0.17936014
231	0xbede6822	-0.43438822
232	0x3e90b6ff	0.28264615
233	0xbe062a9a	-0.13102189
234	0xbe8d27bb	-0.27569374
235	0x3e983010	0.2972417
236	0xbe2ff0cc	-0.171817
237	0xbe279510	-0.16365457
238	0x3e49c58d	0.19704266
239	0x3dd1bd6a	0.10241206
240	0x3e2e3a03	0.17014317
241	0xbdb0cc59	-0.08632726
242	0x3da87c32	0.082268134
243	0xbdc067c6	-0.09394793
244	0xbeee2b36	-0.46517342
245	0x3d58f322	0.052966245
246	0xbc16ab0c	-0.009196054
247	0x3bb07e03	0.0053861155
248	0x3c927a62	0.017880622
249	0xbc8c5cc8	-0.017134085
250	0xbe2ba108	-0.16760647
251	0x3ea262f3	0.31716117
252	0x3e0d6f4a	0.13811985
253	0xbd30e32d	-0.0431854
254	0xbdad0ada	-0.084493354
255	0xbd755eed	-0.05990498

network_body.linear_encoder.seq_layers.2.bias f4 [128]
0	0xbd49bb50	-0.0492509
1	0xbd481e93	-0.048857283
2	0x3df1fdaf	0.118159644
3	0xbdfa2b8b	-0.122153364
4	0xbdae0cd2	-0.08498539
5	0x3e00910f	0.12555335
6	0xbb767d73	-0.0037611395
7	0xbb4d6305	-0.0031339538
8	0xbe50f7b7	-0.20406996
9	0x3e52b6ae	0.205775
10	0x3b7b74bc	0.003836914
11	0x3de2e3f1	0.110786326
12	0xbd889fef	-0.0667113
13	0x3e49a9ea	0.19693723
14	0xbe28ebbf	-0.1649618
15	0x3e6dd51c	0.23225826
16	0xbcc1d348	-0.023660317
17	0xbd47d0ce	-0.048783116
18	0xbd8fc96b	-0.07020839
19	0xbc670676	-0.0141006615
20	0x3e8b429f	0.27199265
21	0xbda5f3b3	-0.081031226
22	0x3e11f035	0.14251788
23	0x3e46804c	0.19384879
24	0x3c92e00b	0.017929098
25	0xbded25b8	-0.1157946
26	0x3d08dde2	0.03341473
27	0xbdbb7d58	-0.09154767
28	0xbda52cf8	-0.08065218
29	0xbe3d5880	-0.18490791
30	0xbd459c9e	-0.048245065
31	0x3e102323	0.14075904
32	0xbd8d1a8a	-0.068898275
33	0x3e0b9fae	0.13635132
34	0x3e6a6150	0.22888684
35	0xbd40eddb	-0.047101837
36	0xbd5dd933	-0.054162215
37	0x3e4192e9	0.18903698
38	0x3d9ca389	0.07648379
39	0xbe0a2181	-0.13489343
40	0xbd677156	-0.05650457
41	0xbd586f3f	-0.052840468
42	0xbcc28483	-0.023744827
43	0xbdc2473e	-0.094862446
44	0xbd24dc33	-0.04024906
45	0x3dae0f58	0.0849902
46	0x3e371a62	0.17881158
47	0x3c1e18eb	0.009649496
48	0x3d836a40	0.0641675
49	0xbd90f8d0	-0.07078707
50	0xbd676c4a	-0.056499757
51	0xbc9a152d	-0.018808926
52	0xbe409827	-0.18808042
53	0xbe128f8c	-0.14312571
54	0x3bd61cbc	0.006534187
55	0x3cc07a3a	0.023495782
56	0x3e127efd	0.14306255
57	0xbd0a2747	-0.033728864
58	0x3d253fe6	0.04034414
59	0xbd96764e	-0.073467836
60	0xbd8ef442	-0.06980182
61	0x3e16da69	0.14731754
62	0xbc9d425d	-0.019196684
63	0xbe4891a5	-0.19586809
64	0xbdc29843	-0.09501698
65	0xbc4439f4	-0.011976708
66	0xbd401a8b	-0.046900313
67	0x3c4f4b8e	0.012652291
68	0xbcac1f19	-0.021010922
69	0xbdb96925	-0.09053258
70	0xbe284416	-0.16432223
71	0xbe4b4467	-0.19850312
72	0xbda02c70	-0.07820976
73	0x3d450ef3	0.04810996
74	0x3de478cb	0.11155852
75	0xbda945e3	-0.08265283
76	0x3ddb8ff1	0.10720814
77	0x3e257ea7	0.16161595
78	0xbe000a60	-0.12503958
79	0x3e3ecfba	0.18633929
80	0xbd974848	-0.073868334
81	0xbd46fbf9	-0.048580144
82	0xbd1ddf10	-0.038542807
83	0x3e0b0222	0.13575032
84	0xbd4b456a	-0.049626745
85	0xbdac82d3	-0.0842339
86	0xbdcfae64	-0.10140684
87	0xbd68a991	-0.056802336
88	0xbe3a42fc	-0.18189615
89	0xbc30c92e	-0.0107901525
90	0xbd2987fe	-0.041389458
91	0xbdabe66a	-0.08393557
92	0x3c1a2c0e	0.0094099175
93	0x3db38eb0	0.0876745
94	0xbde96839	-0.11396832
95	0xbca3c4b2	-0.019991253
96	0x3d8b1061	0.067902334
97	0x3dee5d03	0.11638834
98	0xbe04a08f	-0.12951873
99	0xbcb08e16	-0.021552127
100	0xbce9ff66	-0.028564166
101	0x3d0b7933	0.03405113
102	0xbd9e204a	-0.077210024
103	0xbd792d11	-0.060833994
104	0x3ce8d026	0.028419565
105	0xbe268609	-0.16262068
106	0x3d8fb977	0.070177965
107	0xbe013c74	-0.12620717
108	0xbc880b10	-0.016606838
109	0xbcd9b997	-0.026577754
110	0x3d091e26	0.033476017
111	0xbd31bf8c	-0.043395564
112	0x3e1f58ae	0.15561172
113	0x3e2e28ff	0.17007826
114	0xbe022ae5	-0.12711675
115	0xbd62cabd	-0.055369128
116	0xbe5400d9	-0.20703448
117	0xbde9c926	-0.11415319
118	0xbcc6bc5b	-0.024259737
119	0xbe0865a8	-0.13320029
120	0x3e259cad	0.16173048
121	0x3e07a36d	0.13245936
122	0x3db4bf69	0.08825571
123	0xbdf50a7d	-0.11964891
124	0xbc78a9a5	-0.015177165
125	0x3e42b513	0.19014387
126	0x3d189473	0.037250947
127	0xbc6b3fd8	-0.014358483

action_model._continuous_distribution.log_sigma f4 [1, 2]
0	0x3d1be94e	0.038064294
1	0xbe346bae	-0.17619202

action_model._continuous_distribution.mu.weight f4 [2, 128]
0	0x3d9aec51	0.07564605
1	0x3e26917f	0.1626644
2	0x3e810feb	0.25207457
3	0xbcd410f8	-0.025886998
4	0xba99a662	-0.001172256
5	0x3e70a73e	0.23501298
6	0x3b765b11	0.00375909
7	0xbc9b828a	-0.018983144
8	0xbdd6c540	-0.10486841
9	0xbeb026e8	-0.34404683
10	0x3b4bf9bc	0.0031124195
11	0x3bd4cfa4	0.0064944793
12	0xbc0c3930	-0.008558556
13	0xbd0b1a59	-0.033960674
14	0xbe4aaa31	-0.19791485
15	0xbe900ff1	-0.28137162
16	0xbe8b3407	-0.2718813
17	0xbc0b930b	-0.0085189445
18	0x3b398bae	0.0028312015
19	0xbb156f13	-0.00228018
20	0xbe97228b	-0.29518542
21	0x3cc51158	0.024056122
22	0x3ea03c6b	0.31296095
23	0x3e6ca496	0.2310966
24	0x3dd6bbe0	0.10485053
25	0x3d5dd67e	0.054159634
26	0x3df4421f	0.11926674
27	0xbbbfd184	-0.0058538336
28	0x3d8b61de	0.06805776
29	0xbdfb86c3	-0.12281563
30	0xb89bbf6b	-7.42663e-05
31	0x3e8a7910	0.27045488
32	0x3b3b27e6	0.0028557717
33	0xbca11be1	-0.019666614
34	0x3dbcf225	0.09225873
35	0xbc0447be	-0.008073745
36	0xbe229352	-0.1587651
37	0xbe757ea1	-0.23974086
38	0x3e158245	0.14600475
39	0xbd6c859c	-0.057744607
40	0xbb8cbadf	-0.0042947377
41	0xbab26069	-0.0013609055
42	0x3db42960	0.08796954
43	0xbd651eeb	-0.05593769
44	0xbc0657af	-0.008199616
45	0xbcf843bb	-0.030305734
46	0x3e1b99d3	0.15195398
47	0xba71ad9b	-0.00092192896
48	0x3e42f203	0.19037633
49	0xbb93deb7	-0.0045126337
50	0xbab566c8	-0.0013839835
51	0xbad16350	-0.0015975032
52	0x3cddd35f	0.027078329
53	0x399b3e15	0.00029610159
54	0xbe9d84a0	-0.30765247
55	0x3ad17667	0.0015980721
56	0x3e8583bd	0.2607707
57	0xbe65304b	-0.22381704
58	0xbe345430	-0.1761024
59	0x3a62934e	0.0008643166
60	0xbe81043a	-0.25198537
61	0x3e55e5b6	0.20888409
62	0x3e11edb0	0.14250827
63	0xbe8fa3fc	-0.28054798
64	0xb9fe8247	-0.0004854372
65	0xbe006da3	-0.12541823
66	0xbddb4a5e	-0.10707544
67	0x3d6f270c	0.058386847
68	0x3ddf9a2a	0.10918076
69	0xbb307181	-0.0026923122
70	0xbcfc3de2	-0.030791227
71	0xbcd86ac3	-0.026418095
72	0xbbf91651	-0.0076015373
73	0xbe017235	-0.12641223
74	0x3d161a20	0.03664601
75	0x3cba78ac	0.022762619
76	0x3e3ed4a9	0.18635811
77	0x3e985d79	0.29758814
78	0x3dc0bad8	0.094106376
79	0xbc9b4dd6	-0.018958014
80	0xbb064a05	-0.0020490896
81	0xbdc5ad1f	-0.09652161
82	0x3cb0527a	0.021523703
83	0xbe2c7ced	-0.1684453
84	0xbcf47bb3	-0.02984414
85	0xbabdf76f	-0.0014493297
86	0xbcb38d01	-0.021917822
87	0x3e0eb649	0.13936724
88	0xbe2f8f9d	-0.17144628
89	0x3d958434	0.07300606
90	0xbb990526	-0.004669803
91	0xbc699f54	-0.014259178
92	0x3e213a78	0.1574496
93	0x3e5395b6	0.20662579
94	0xbe5de1f3	-0.21668224
95	0x3d71343a	0.058887698
96	0x3c91e2ec	0.0178084
97	0x3e476bee	0.19474766
98	0x3e0e7fbb	0.13915913
99	0xbe1769f3	-0.1478651
100	0xbdfe4566	-0.124155805
101	0x3d750fca	0.05982951
102	0xbd372cb1	-0.044720355
103	0xbd7f838f	-0.062381323
104	0xbdae270a	-0.0850354
105	0x3c833058	0.016014263
106	0xbda9927f	-0.08279895
107	0xbc6e7d65	-0.014556264
108	0xbe838e33	-0.25694427
109	0x3db08f5d	0.086210944
110	0x3e5e938c	0.21735972
111	0x39e0ccac	0.00042877102
112	0x3eac317e	0.3363151
113	0xbe89b90e	-0.26898998
114	0xbba3bbfa	-0.004996774
115	0x3e335ac6	0.17515096
116	0xbc41dbd4	-0.011832196
117	0xbe06f5a4	-0.13179642
118	0xbb55b568	-0.0032609347
119	0x3b6cca4a	0.0036131316
120	0xbe49c372	-0.19703463
121	0x3e29bada	0.16575184
122	0x3db547a8	0.08851558
123	0xbc82a6f9	-0.01594876
124	0x3e86d4ea	0.26334316
125	0x3e97fe85	0.2968637
126	0x3e55562b	0.20833652
127	0xbbc715f7	-0.0060756165
128	0x3d499c24	0.049221173
129	0x3d23c3d5	0.03998168
130	0xbbca9165	-0.006181883
131	0xbd426a5b	-0.04746471
132	0xbc4d9dcc	-0.012549829
133	0xbdf04b14	-0.1173307
134	0x3a0a08b0	0.0005265577
135	0xbaa8971a	-0.0012862415
136	0xbd85af3f	-0.06527566
137	0x3d9021e4	0.07037714
138	0x3b04193e	0.0020156647
139	0x3de2899c	0.11061403
140	0xbc47f7ff	-0.012205123
141	0x3e3a7055	0.18206914
142	0x3c992297	0.018693252
143	0x3cc9669b	0.024585059
144	0x3d2d2a32	0.04227657
145	0xbc461fe4	-0.012092564
146	0xbbb72c24	-0.005589979
147	0xbcd752dc	-0.026284628
148	0x3c23fb08	0.010008581
149	0xbc8b807c	-0.01702904
150	0x3d1419f1	0.036157552
151	0x3d22a242	0.039705522
152	0x3d5b43de	0.05353152
153	0xbd8ed908	-0.06974989
154	0x3b78dd8f	0.0037973856
155	0xbb9f1322	-0.0048545757
156	0xbd2ecca2	-0.04267562
157	0xbd5b5ecc	-0.053557202
158	0x3b9391ad	0.00450345
159	0xbc8a02b0	-0.016846985
160	0xbb284935	-0.00256784
161	0x3e2be086	0.16784868
162	0x3e04f31b	0.12983362
163	0x3ba5efd1	0.0050639887
164	0xbd0fbfcc	-0.03509502
165	0x3bd2cd08	0.006433133
166	0x3d96a474	0.07355586
167	0xbd580318	-0.052737325
168	0xbcca3d5c	-0.024687462
169	0x3a59f680	0.00083146244
170	0xbdace780	-0.084425926
171	0xbd165225	-0.036699433
172	0xb93c7a7f	-0.0001797471
173	0x3da9c620	0.082897425
174	0x3e24b2b3	0.16083793
175	0x3adc03d0	0.0016785804
176	0xbd6e0b5e	-0.05811631
177	0xbb3ae60a	-0.0028518462
178	0x3d45f3ef	0.048328336
179	0x3bfcec74	0.007718617
180	0xbdc9496f	-0.098284595
181	0xb91c7854	-0.00014922145
182	0x3e099bce	0.13438341
183	0x3bb25ec4	0.005443426
184	0xbc0d252d	-0.00861482
185	0xbd2ec183	-0.042665016
186	0xbd85f0a4	-0.06540039
187	0xba5c8ecd	-0.0008413613
188	0x3d7edc40	0.062221766
189	0x3d03098b	0.031991523
190	0x3ccd701b	0.02507787
191	0xbc23b66b	-0.009992222
192	0xba532a36	-0.0008055301
193	0xbdca4b0f	-0.098775975
194	0x3d4afa5f	0.04955518
195	0x3df684b4	0.1203703
196	0xbda2dcf7	-0.07952302
197	0xbb9b5191	-0.004739948
198	0xbca21844	-0.019786961
199	0x3b1ea203	0.0024205453
200	0x3cb6031d	0.022218281
201	0x3d52847c	0.05139588
202	0x3e04a936	0.12955174
203	0x3b4512c0	0.003007099
204	0xbc3425bf	-0.0109953275
205	0xbd373b08	-0.04473403
206	0x3cd9e7a5	0.026599715
207	0x3e3f7203	0.18695836
208	0xbbc3abe0	-0.005971417
209	0xbd3eca3c	-0.046579584
210	0x3deae906	0.11470227
211	0x3c6253f4	0.013813961
212	0xbd9f2ebc	-0.07772586
213	0xbb4b8066	-0.0031051873
214	0xbd19fefd	-0.03759669
215	0xbd853114	-0.065035015
216	0xbc8bc053	-0.01705948
217	0x3d6ebdbb	0.05828641
218	0x3d54ab90	0.051921427
219	0xbc579c2f	-0.013159796
220	0x3d83ad9e	0.06429599
221	0xbd801bea	-0.06255324
222	0x3d1e6e6f	0.038679536
223	0x3c87a6a1	0.016558947
224	0x3cfcaf31	0.030845257
225	0x3cf734c9	0.030176537
226	0x3d0df838	0.034660548
227	0xbd102b16	-0.03519734
228	0x3d3143f1	0.043277685
229	0x3dab9f52	0.08379997
230	0xbd438216	-0.04773148
231	0xbdd021ed	-0.10162721
232	0x3d6d216d	0.057893205
233	0xbcec80c0	-0.028869987
234	0x3dde35d5	0.108501114
235	0x3d291f58	0.041289657
236	0x3dbf02c6	0.09326701
237	0x3c96fba7	0.018430544
238	0x3b281cda	0.0025651962
239	0xbb494c4f	-0.003071565
240	0x3c5e4d02	0.013568165
241	0x3d1ee7c1	0.038795236
242	0xbc8ac69c	-0.016940407
243	0xbc940738	-0.018069848
244	0xbca2e786	-0.01988579
245	0xbd5dbe46	-0.054136537
246	0xbbd81f46	-0.006595525
247	0x3e2d2462	0.1690841
248	0x3cc865d1	0.024462612
249	0x3bb1e439	0.0054288176
250	0x3dc274a9	0.094949074
251	0xbc59f4af	-0.013302966
252	0x3b742afa	0.0037257061
253	0xbbfbccfd	-0.0076843486
254	0xbd807f31	-0.0627426
255	0xbb23e5d9	-0.0025008826

action_model._continuous_distribution.mu.bias f4 [2]
0	0x3da26b27	0.07930594
1	0x3e3e20b1	0.18567158

critic.network_body.vector_processors.0.normalizer.running_mean f4 [7]
0	0x3d36484b	0.044502538
1	0xbc15f349	-0.009152242
2	0x3b53e3cd	0.0032331825
3	0xbc3df4ef	-0.011594041
4	0x3efffe9b	0.49998936
5	0xbd136798	-0.035987467
6	0x429f2c84	79.586945

critic.network_body.vector_processors.0.normalizer.running_variance f4 [7]
0	0x491628d2	615053.1
1	0x4363e398	227.88904
2	0x49166098	615945.5
3	0x4a178618	2.482566e+06
4	0x3f9fff89	1.2499858
5	0x4a177b29	2.4818662e+06
6	0x4ea35d63	1.3704032e+09

critic.network_body.linear_encoder.seq_layers.0.weight f4 [128, 7]
0	0xbdbc8e9e	-0.092068896
1	0x3cbada9a	0.022809315
2	0xbe97d55e	-0.29654974
3	0xbdcb187c	-0.099167794
4	0xbe4ed9ad	-0.20200224
5	0x3da4c14a	0.080446795
6	0x3ea13f32	0.31493527
7	0xbe5d8583	-0.21632962
8	0xbe4d6ec1	-0.2006178
9	0xbeb1a485	-0.3469583
10	0x3d1113a8	0.035419136
11	0xbd6d46ae	-0.057928734
12	0xbe08d891	-0.13363864
13	0x3e26cf4e	0.16290018
14	0x3f0d2814	0.5513928
15	0x3e6ed235	0.23322375
16	0x3f63fbf0	0.890563
17	0xbe02f6fc	-0.1278953
18	0x3ea61d44	0.32444203
19	0x3ee5d7c0	0.44891167
20	0x3ec99c52	0.39377075
21	0x3da93a6c	0.08263096
22	0x3ea92e24	0.33043015
23	0xbdba6db6	-0.09102957
24	0x3e04aa5f	0.12955616
25	0x3f93ecff	1.15567
26	0x3dff5d2f	0.12468945
27	0xbf0c963a	-0.5491673
28	0x3e61b16f	0.22040342
29	0x3fac5d0d	1.3465897
30	0x3e1f67df	0.15566967
31	0x3e98d81f	0.29852387
32	0xbf066169	-0.52492386
33	0x3db8646f	0.09003531
34	0x3e1969a7	0.1498171
35	0x3c902642	0.017596368
36	0x3ee680d6	0.4502017
37	0xbddea35f	-0.10871004
38	0x3debdb5e	0.1151645
39	0x3ed776ec	0.42082918
40	0x3ebdba17	0.37056038
41	0x3ed1ebf3	0.41000327
42	0x3e4e6e91	0.20159365
43	0xbdc2052c	-0.09473643
44	0xbe3bcc75	-0.18339713
45	0xbe890ae0	-0.2676611
46	0xbeba8c9d	-0.36435404
47	0xbf4d58c1	-0.8021355
48	0xbed18643	-0.40922746
49	0xbdbdf384	-0.092749625
50	0xbe992881	-0.29913715
51	0xbf354a32	-0.7081634
52	0x3ee0b45e	0.4388761
53	0x3e8b9ad3	0.2726656
54	0xba4ef77e	-0.00078951556
55	0x3f7c47c0	0.9854698
56	0xbedb9d1c	-0.42893302
57	0x3ebfab3d	0.37435332
58	0xbdcda7f1	-0.10041798
59	0x3d51d784	0.051230922
60	0xbeb5a946	-0.35480708
61	0xbc7d861b	-0.015473868
62	0xbeae6b95	-0.34066454
63	0x3c95eb36	0.018300634
64	0xbf6b5a46	-0.9193462
65	0xbe8a5b83	-0.27022943
66	0xbb28553d	-0.0025685572
67	0xbb8f29ad	-0.004368982
68	0x3f638570	0.88875484
69	0xbd19d266	-0.037554167
70	0xbc3492a1	-0.011021287
71	0x3c8732fb	0.016503802
72	0x3f3e9de1	0.74459654
73	0xbe2a25d4	-0.16615993
74	0xbe90d66a	-0.28288585
75	0x3e8ccbe6	0.27499312
76	0xbe6774ce	-0.22603151
77	0xbe15780c	-0.14596575
78	0x3eaea250	0.3410821
79	0xbeb8a98d	-0.36066857
80	0xbe3d8cff	-0.18510817
81	0xbef1e7f0	-0.47247267
82	0x3e010a42	0.1260157
83	0x3ee3e178	0.44507957
84	0xbe6a9d7c	-0.22911638
85	0x3e8950bc	0.26819408
86	0xbd41f2bc	-0.04735063
87	0x3d7d9158	0.06190619
88	0xbf3cd4e8	-0.7376237
89	0x3dc2bf3c	0.09509131
90	0xbea79921	-0.32734016
91	0x3e577dcc	0.21044081
92	0x3f58fa55	0.84756976
93	0x3f0125c2	0.5044824
94	0x3d4ea997	0.050454702
95	0xbeb251e6	-0.3482811
96	0x3e355c4e	0.17710993
97	0xbdb27923	-0.08714511
98	0x3ebba6ea	0.36650783
99	0x3bcfa681	0.0063369875
100	0xbecd6e98	-0.4012344
101	0x3e8a71d8	0.2703998
102	0x3ea4a0f8	0.3215406
103	0x3e29a059	0.16565074
104	0xbe0e71e4	-0.13910633
105	0x3ed64640	0.41850471
106	0x3ca50c6e	0.020147528
107	0xbe3d7898	-0.18503034
108	0xbd9d2d15	-0.07674614
109	0x3cec5187	0.028847469
110	0x3e83f7af	0.25774905
111	0x3df594cc	0.119912714
112	0x3e62ea98	0.22159803
113	0x3f96dbcf	1.178583
114	0x3d144b6d	0.036204744
115	0xbe76eb83	-0.24113278
116	0x3e7edb7b	0.24888413
117	0x3eec160a	0.46110564
118	0x3e8d5366	0.2760269
119	0xbd49f4af	-0.049305614
120	0xbafc64ff	-0.0019256173
121	0xbeb1d998	-0.34736323
122	0x3d75cd6f	0.06001037
123	0xbf6df9b5	-0.9295915
124	0x3dd29835	0.102829374
125	0x3d6c55ba	0.057698943
126	0x3d2b4ee5	0.041823287
127	0xbee844a8	-0.4536488
128	0x3f20ed20	0.62861824
129	0xbe07582f	-0.13217233
130	0x3ea3d039	0.319948
131	0xbe2bf8fb	-0.16794197
132	0xbe7f7fd0	-0.249511
133	0x3ee386ba	0.44438726
134	0xbe513b35	-0.20432742
135	0x3efd14c5	0.49429908
136	0x3ec00f79	0.37511805
137	0xbfa8d2e1	-1.3189355
138	0x3ee92a1d	0.45539942
139	0x3ed9cb46	0.42537898
140	0xbdf01564	-0.1172283
141	0xbf13d499	-0.57746273
142	0xbe490a10	-0.19632745
143	0x3e9729d5	0.29524103
144	0xbf23d65e	-0.63998973
145	0x3ea1f717	0.31633827
146	0x3e34153b	0.17586224
147	0xbef48aa0	-0.47762012
148	0x3e17f7e6	0.1484066
149	0xbc496654	-0.012292463
150	0x3ef738a8	0.48285413
151	0xbe4c9f86	-0.19982728
152	0x3dc115ab	0.09427961
153	0xbecebaf3	-0.40377006
154	0xbdf437c1	-0.11924697
155	0x3f55adf7	0.83468574
156	0x3e4515a4	0.19246536
157	0xbeb86286	-0.36012667
158	0x3e60d422	0.21955922
159	0xbe3b52e2	-0.18293336
160	0xbd84b146	-0.06479125
161	0x3ea885c9	0.3291457
162	0xbe8f2ba4	-0.27962983
163	0xbe01fe71	-0.12694718
164	0x3d3ed31f	0.04658806
165	0x3e00cb48	0.12577546
166	0xbd1d8fe7	-0.038467314
167	0xbe118258	-0.14209878
168	0x3e8caa91	0.27473882
169	0xbe3c1958	-0.18369043
170	0x3eb7dacf	0.35909125
171	0xbdd512af	-0.10403954
172	0x3f258e6a	0.6467043
173	0xbc591d3b	-0.013251598
174	0x3d454650	0.04816276
175	0x3d3eebfd	0.046611775
176	0xbdc34738	-0.09535068
177	0x3ec2f5bc	0.38078105
178	0xbcb10bf5	-0.021612147
179	0x3db74ffa	0.08950801
180	0xbe8fbcff	-0.2807388
181	0xbd0eb322	-0.034838803
182	0xbd52831f	-0.051394578
183	0x3e64c480	0.22340584
184	0x3eca22b4	0.394796
185	0x3d0a783e	0.033806078
186	0xbbc626e5	-0.006047117
187	0xbe5b2340	-0.21400166
188	0x3ecad866	0.39618224
189	0xbd57edb5	-0.05271693
190	0x3f4811f7	0.7815241
191	0x3dff4c5b	0.124657355
192	0xbec6813d	-0.38770476
193	0x3f512112	0.81691086
194	0xbe03bf0f	-0.12865852
195	0xbe7ef0bd	-0.24896522
196	0xbf00df18	-0.50340414
197	0xbf4b3621	-0.7937947
198	0x3e0caae0	0.13737059
199	0xbd38bad1	-0.045100037
200	0x3ea00249	0.31251743
201	0xbe99a022	-0.30004984
202	0x3e3021b6	0.1720036
203	0xbd34bcff	-0.044125553
204	0x3d7930f3	0.060837697
205	0xbf0ddb09	-0.55412346
206	0x3e81bb77	0.25338337
207	0x3da8da0a	0.08244713
208	0xbf5ae9a1	-0.8551274
209	0x3f3c1dbf	0.7348289
210	0xbf3424d8	-0.7036872
211	0xbe765731	-0.24056698
212	0x3de56113	0.11200156
213	0xbdc741a6	-0.09729318
214	0x3d636043	0.055511724
215	0x3e35f35b	0.17768614
216	0x3d2e8921	0.042611245
217	0xbed80412	-0.42190605
218	0x3df90e6f	0.12160956
219	0x3e525fd0	0.20544362
220	0x3e0781a1	0.13233043
221	0xbe3ddd20	-0.18541384
222	0xbe78d64d	-0.243005
223	0xbe6a646c	-0.2288987
224	0x3ed77512	0.42081505
225	0xbe019834	-0.12655717
226	0x3f3fbb8c	0.7489555
227	0xbf3af4d0	-0.73029804
228	0x3eb80c61	0.35946944
229	0x3ec7de03	0.3903657
230	0xbdc31e1d	-0.09527228
231	0xbe253356	-0.16132864
232	0x3e246d16	0.16057238
233	0x3d168670	0.036749303
234	0x3ea22a37	0.31672832
235	0xbf720dac	-0.9455211
236	0xbdbe5de8	-0.09295255
237	0x3e021681	0.12703897
238	0xbd4d7be3	-0.050166976
239	0x3f3d298f	0.7389154
240	0x3f3fefbf	0.749752
241	0xbd9c118e	-0.07620536
242	0x3edb9976	0.4289052
243	0xbe13ac68	-0.14421237
244	0x3ebf644f	0.37381217
245	0x3e887db7	0.26658413
246	0x3f8a97cc	1.0827575
247	0xbf043158	-0.5163779
248	0xbe3b8ea3	-0.1831613
249	0x3efec40f	0.49758956
250	0xbef407c3	-0.47662172
251	0xbf0166e8	-0.5054765
252	0xbe5e7d0d	-0.2172739
253	0x3df25bbd	0.11833904
254	0xbeaf0d0d	-0.34189644
255	0x3edfb278	0.43690848

critic.network_body.linear_encoder.seq_layers.0.bias f4 [128]
0	0xbebcd00e	-0.36877483
1	0xbe8aaf27	-0.27086756
2	0xbd272091	-0.040802542
3	0x3ea16062	0.31518847
4	0xbe60020c	-0.21875781
5	0x3e854933	0.2603241
6	0x3e5d6589	0.21620764
7	0x3ef37e19	0.47557142
8	0xbe8e21ac	-0.27760065
9	0x3d93ec6d	0.07222829
10	0xbcb75e57	-0.022383852
11	0xbe7d3d45	-0.24730404
12	0xbd874d05	-0.06606487
13	0x3e8c8d87	0.27451727
14	0x3ea4ef7f	0.3221397
15	0x3e9eb742	0.3099919
16	0x3e70501c	0.2346806
17	0xbe59186b	-0.21200721
18	0x3eaa7c17	0.33297798
19	0xbe9e4eb8	-0.30919433
20	0xbe883f7c	-0.26610935
21	0xbed305bc	-0.41215312
22	0x3de3c3f6	0.11121361
23	0xbe459726	-0.1929594
24	0x3e45a6df	0.19301938
25	0x3e94aae4	0.2903663
26	0xbeca635f	-0.3952894
27	0x3e8a9542	0.27067
28	0xbea0c22d	-0.31398144
29	0x3b6a1cec	0.0035722805
30	0xbecbfe17	-0.39842293
31	0xbe91ed1d	-0.28501216
32	0x3e61e8fb	0.22061531
33	0xbe5a3e55	-0.2131284
34	0x3e9b13f4	0.3028866
35	0x3e1dfad7	0.15427719
36	0x3e369063	0.17828517
37	0x3e30b80f	0.17257713
38	0x3e697729	0.22799362
39	0x3cf3d7d7	0.029766006
40	0xbe7fccc2	-0.24980453
41	0x3d369c2b	0.044582527
42	0x3d8fae7f	0.07015704
43	0x3e8f68da	0.28009683
44	0xbe9ffa55	-0.31245676
45	0x3e76f467	0.2411667
46	0xbe3e5faf	-0.18591188
47	0x3ea16fa7	0.31530496
48	0x3e57b052	0.21063355
49	0xbb57a5af	-0.0032905152
50	0x3eb55bb0	0.35421515
51	0x3d2c680c	0.042091414
52	0x3e45a019	0.19299354
53	0x3edf3338	0.43593764
54	0x3d80df2c	0.06292567
55	0xbce586ac	-0.028018318
56	0x3e1bc5d8	0.1521219
57	0xbd857c2d	-0.06517825
58	0x3d99172f	0.07475125
59	0xbdc7b49d	-0.09751246
60	0x3e2dca99	0.16971816
61	0x3e3ef899	0.1864952
62	0xbc76f3f5	-0.015072812
63	0xbea8ccbe	-0.32968706
64	0xbd51c6ed	-0.0512151
65	0x3dd500aa	0.10400517
66	0xbe379a0c	-0.17929858
67	0xbd3fc07a	-0.04681442
68	0xbcb61dc5	-0.022230992
69	0x3ebc42c0	0.36769676
70	0x3decd61c	0.115642756
71	0x3e467823	0.19381766
72	0x3a7cbc8a	0.00096411316
73	0xbe632870	-0.22183394
74	0x3eaab37c	0.3334006
75	0xbeb8aaa6	-0.36067694
76	0xbe729061	-0.23687889
77	0x3edb8398	0.42873836
78	0x3d8aaf97	0.06771772
79	0x3c857ef6	0.016295891
80	0xbcea9bb6	-0.028638702
81	0x3ebe897b	0.37214264
82	0x3e8b1500	0.2716446
83	0x3e1ebada	0.15500966
84	0x3e82278b	0.25420794
85	0x3e8aa8db	0.27081951
86	0xbe174cc0	-0.14775372
87	0xbe03ed25	-0.12883432
88	0x3dbabc85	0.091179885
89	0xbdf70595	-0.120616116
90	0xbe03a17d	-0.12854572
91	0xbe9b4e70	-0.3033328
92	0xbdc1fade	-0.09471677
93	0x3e225b0e	0.15855047
94	0x3e647b49	0.22312655
95	0xbe8fb183	-0.28065118
96	0xbe94ee91	-0.29088262
97	0xbd61c1bd	-0.055116404
98	0xbedbf76b	-0.42962202
99	0xbeb81892	-0.35956246
100	0x3ddc3f12	0.10754217
101	0x3e89b0f1	0.26892808
102	0xbe93071b	-0.2871636
103	0xbe4c0c98	-0.19926679
104	0x3d13261d	0.03592502
105	0x3ded7fdb	0.11596652
106	0x3e6a08d3	0.22854929
107	0x3e0b2b47	0.13590728
108	0x3e102149	0.14075197
109	0xbd1b6972	-0.037942357
110	0x3ed00c80	0.40634537
111	0xbe2d8d01	-0.1694832
112	0x3e1c59b5	0.15268596
113	0xbe0febca	-0.1405479
114	0x3d954033	0.07287636
115	0xbe1c8943	-0.15286736
116	0xbde44a9f	-0.11147045
117	0x3e3d1ef7	0.18468843
118	0xbee7ea62	-0.45296007
119	0x3e1b2cb8	0.15153778
120	0x3d0852b5	0.033282
121	0x3d3862e1	0.045016173
122	0xbd9babc0	-0.07601118
123	0x3ecf70ca	0.4051574
124	0xbe20634f	-0.15662883
125	0x3d34e323	0.044161927
126	0x3e588c6b	0.21147315
127	0x3de6a4bb	0.112618886

critic.network_body.linear_encoder.seq_layers.2.weight f4 [128, 128]
0	0xbea52093	-0.32251415
1	0xbeb9f339	-0.36318377
2	0xbe06a68b	-0.13149469
3	0x3e8ca367	0.27468416
4	0xbd366b5a	-0.044535972
5	0xbc3d61c1	-0.011558951
6	0x3dae04d0	0.08497012
7	0x3dbc0639	0.091808744
8	0xbe553b52	-0.2082341
9	0x3eaaa3c5	0.3332807
10	0xbdd24e99	-0.102688976
11	0xbebf31d2	-0.37342697
12	0xbb7327e4	-0.0037102634
13	0x3d965b33	0.073416136
14	0x3e2b38c9	0.1672088
15	0x3e435f8b	0.19079416
16	0xbe184611	-0.14870478
17	0xbda5acd0	-0.08089602
18	0x3dc9c116	0.09851281
19	0xbcf2cb5b	-0.029637983
20	0x3c1ec962	0.009691568
21	0xbd15fd69	-0.036618624
22	0xbdf8f11c	-0.12155363
23	0x3e29e3ad	0.16590758
24	0x3e88e65c	0.2673825
25	0x3e8dc714	0.27690947
26	0x3e1464f6	0.14491639
27	0xbd8e75d8	-0.06956071
28	0xbd8be0fc	-0.06830022
29	0xbcf543c8	-0.029939547
30	0xbe8113ce	-0.25210422
31	0xbe2db5be	-0.1696386
32	0xbd835e3c	-0.06414458
33	0x3d1a0e61	0.03761137
34	0x3e576b15	0.21036942
35	0xbb2d5d76	-0.0026453412
36	0x3e1bbee2	0.15209535
37	0xbe51ff8f	-0.20507644
38	0x3e134964	0.14383465
39	0xbcae386c	-0.021267138
40	0xbee01ffd	-0.43774405
41	0xbe00f940	-0.12595081
42	0xbe0da008	-0.13830578
43	0x3e1f288d	0.15542813
44	0xbe017d85	-0.12645538
45	0xbd1adfc5	-0.03781106
46	0xbeb98fa5	-0.36242405
47	0x3cd34cc3	0.025793439
48	0x3df9711e	0.121797785
49	0x3c6e3776	0.01453959
50	0x3e0f3762	0.1398597
51	0xbd3432e6	-0.043993853
52	0x3d1a7a17	0.03771409
53	0x3d8f2102	0.069887176
54	0xbe0971bf	-0.13422297
55	0xbd08c34e	-0.033389382
56	0x3dc56b16	0.09639566
57	0xbc4893a7	-0.012242234
58	0x3db79779	0.08964438
59	0x3e42d365	0.19025953
60	0x3e83a211	0.25709584
61	0x3d92225f	0.07135462
62	0xbe741e01	-0.2383957
63	0xbe810036	-0.25195473
64	0xbdebdc9e	-0.11516689
65	0x3db81224	0.08987835
66	0xbdf3dff7	-0.11907952
67	0xbe0cb9fe	-0.13742825
68	0x3d518594	0.05115278
69	0x3da2f125	0.07956151
70	0x3bbb4f3b	0.005716232
71	0xbdc19f5d	-0.09454224
72	0x3e528757	0.2055944
73	0xbe1b0315	-0.15137894
74	0x3e70529a	0.2346901
75	0xbd963abe	-0.07335423
76	0x3e3eb133	0.18622284
77	0x3e6392cb	0.22223966
78	0x3dc908b3	0.09816112
79	0xbcc3943f	-0.0238744
80	0xbd7865b9	-0.060643885
81	0x3db88571	0.09009827
82	0xbd049037	-0.032364096
83	0xbe3450c8	-0.1760894
84	0x3ccf4784	0.025302656
85	0x3a13375a	0.0005615853
86	0xbe1a54d3	-0.1507142
87	0xbe6b8f94	-0.2300399
88	0x3b2fcdca	0.002682554
89	0xbdc4ea7c	-0.09615037
90	0xbd6b21a1	-0.057405118
91	0x3e02ab83	0.12760739
92	0x3d644880	0.055733204
93	0xbcbdc8d7	-0.023167057
94	0x3e850c73	0.2598606
95	0x3d909991	0.070605405
96	0xbd5848a5	-0.052803654
97	0x3e1e59cb	0.15463941
98	0xbdb7a09a	-0.08966179
99	0xbe91c3f5	-0.28469816
100	0xbc5295f5	-0.012853135
101	0x3da18ae0	0.078878164
102	0x3baf40b3	0.005348289
103	0xbea62c86	-0.32455844
104	0x3e282c0d	0.16423054
105	0x3e8baed2	0.27281815
106	0x3ef9e394	0.4880644
107	0x3e656ccc	0.22404784
108	0xbe2dfdcd	-0.16991349
109	0x3def8191	0.11694635
110	0x3e00e700	0.1258812
111	0xbdf3377d	-0.11875818
112	0x3dc13ea1	0.09435774
113	0x3cbdea7c	0.0231831
114	0xbd223e84	-0.0396104
115	0xbe199bf1	-0.15000893
116	0xbc604812	-0.013689058
117	0x3df6570d	0.12028322
118	0xbe5a3656	-0.2130979
119	0xbd3befab	-0.045882862
120	0x3e525032	0.20538405
121	0xbd9467e2	-0.072463766
122	0x3cc08632	0.02350149
123	0xbc9030a0	-0.017601311
124	0x3c5868a1	0.013208539
125	0x3e1310fa	0.14361945
126	0x3e624899	0.22098006
127	0xbc9dcdd5	-0.019263187
128	0x3e03569d	0.12826009
129	0x3e0abaf5	0.13547881
130	0x3e3307eb	0.17483489
131	0xbdaae8ff	-0.08345222
132	0x3cb7cb59	0.02243583
133	0xbda9510d	-0.08267412
134	0xbe29a8c5	-0.16568287
135	0x3e04f75c	0.12984985
136	0x3ce5fb8c	0.028074048
137	0x3ca86f3d	0.020560855
138	0xbd425ffb	-0.047454815
139	0x3d2318d5	0.039818604
140	0xbda58cca	-0.08083494
141	0xbe4a9d08	-0.19786465
142	0xbde4bc17	-0.11168688
143	0xbd8cd9fb	-0.06877514
144	0xbe31e4b9	-0.17372407
145	0xbce6e788	-0.028186575
146	0x3e35114f	0.17682384
147	0x3ce05d0e	0.027388122
148	0x3c97d463	0.018533891
149	0xbd5e8440	-0.054325342
150	0xbed4d1e5	-0.41566387
151	0x3e7fd1ea	0.2498242
152	0xbd6f4e1a	-0.058424093
153	0xbd85b26a	-0.065281704
154	0x3e6494d7	0.22322403
155	0xbebb90be	-0.36633867
156	0x3e410b17	0.18851887
157	0xbe299809	-0.16561903
158	0x3c7720f5	0.015083541
159	0xbd158421	-0.03650296
160	0x3c9e5e00	0.019331932
161	0xbdcf2236	-0.10113947
162	0xbd0d85e1	-0.034551505
163	0x3c80b48f	0.015711097
164	0xbdb8076e	-0.08985792
165	0xbed3270a	-0.41240722
166	0xbe1b60b8	-0.15173614
167	0x3d18c7ff	0.037300106
168	0x3e7794aa	0.24177805
169	0xbd58ff1a	-0.05297766
170	0xbdcec120	-0.100954294
171	0xbd1bfd9c	-0.038083658
172	0x3e416150	0.18884778
173	0xbdfb1beb	-0.12261184
174	0x3e3823a1	0.17982341
175	0xbdcd18d9	-0.10014505
176	0xbecbc03a	-0.39795095
177	0xbd9e91f4	-0.07742682
178	0xbe3f6e8e	-0.18694517
179	0xbe5d145c	-0.21589798
180	0xbddc93b8	-0.107703626
181	0xbe8ba70d	-0.27275887
182	0xbea9acea	-0.33139735
183	0x3d1fe1cb	0.039033692
184	0xbe196a2b	-0.14981906
185	0x3bc37b55	0.00596563
186	0x3e10741b	0.1410679
187	0x3c271d50	0.01019986
188	0x3d1d3fa2	0.038390763
189	0x3c0be13d	0.008537588
190	0xbe15c0a1	-0.14624263
191	0x3e2a91ff	0.16657256
192	0xbd56433f	-0.052310225
193	0x3d233a8b	0.039850753
194	0x3e541ee8	0.20714915
195	0x3e72437d	0.23658557
196	0xbdb9189e	-0.090378985
197	0xbdaf14df	-0.08548903
198	0xbd44e201	-0.048067097
199	0x3e27363e	0.16329286
200	0xbe260a9a	-0.16214982
201	0xbe5efc12	-0.21775845
202	0xbde2cf46	-0.110746905
203	0x3d7c722e	0.061632328
204	0x3e05b3f1	0.13056923
205	0xbdd131ac	-0.10214552
206	0x3e8dc435	0.27688757
207	0xba0de9eb	-0.00054135796
208	0xb9d72d41	-0.00041041712
209	0xbea9490f	-0.33063552
210	0xbdf24198	-0.11828917
211	0xbe3c657e	-0.18398091
212	0xbd60093a	-0.0546963
213	0xbf0ec96d	-0.557761
214	0x3e6823b3	0.22669868
215	0xbe8c2ec4	-0.2737943
216	0x3dfb9fc5	0.12286333
217	0x3d2042ff	0.039126392
218	0x3dd056b5	0.10172788
219	0xbceba168	-0.028763488
220	0x3e23c403	0.15992741
221	0xbcfb7739	-0.030696498
222	0xbd8c7924	-0.06859043
223	0x3d59c68d	0.05316787
224	0x3e28a5d2	0.16469505
225	0x3e331990	0.1749022
226	0xbbbbb2ca	-0.0057281004
227	0x3eaa5fce	0.33276218
228	0x3db92ce3	0.090417646
229	0x3ddc1080	0.107453346
230	0x3dd4980b	0.103805624
231	0x3c08a174	0.008339275
232	0xbde94ce1	-0.113916166
233	0xbd04c6dd	-0.032416213
234	0xbe673f62	-0.22582772
235	0xbc9e9581	-0.019358398
236	0xbdc7eba3	-0.09761741
237	0xbdb77362	-0.089575544
238	0xbec05a1a	-0.37568742
239	0x3d8218e2	0.06352402
240	0xbe121bb8	-0.14268386
241	0x3d32d7f2	0.043662973
242	0x3e7bad0b	0.2457773
243	0xbd2a4373	-0.04156823
244	0xbd8e5816	-0.06950395
245	0xbe6ab6d5	-0.22921307
246	0x3e31dbeb	0.17369048
247	0x3da97270	0.0827378
248	0x3d947be1	0.072501905
249	0xbca28643	-0.019839412
250	0xbd04b38f	-0.032397803
251	0xbe7d7fd4	-0.24755794
252	0x3e6f44dc	0.23366112
253	0xbcfa896d	-0.030583108
254	0xbe591c24	-0.21202141
255	0xbe14636d	-0.14491053

critic.network_body.linear_encoder.seq_layers.2.bias f4 [128]
0	0x3e9630b6	0.29334038
1	0xbeabf193	-0.33582744
2	0xbe863f70	-0.26220274
3	0xbdc6f29d	-0.097142436
4	0x3cb0d83f	0.02158749
5	0xbdc53dc0	-0.096309185
6	0xbe6efa9e	-0.2333779
7	0x3e823bf2	0.2543636
8	0x3e69349a	0.22773972
9	0x3e31df84	0.1737042
10	0x3ea76c62	0.32699877
11	0xbe13177e	-0.1436443
12	0x3e7fe273	0.24988727
13	0xbe314cbb	-0.17314427
14	0xbe5cc442	-0.21559241
15	0xbe4373f3	-0.190872
16	0xbe8c6709	-0.2742236
17	0xbe316666	-0.17324218
18	0x3dddd0de	0.10830854
19	0xbde7e768	-0.11323434
20	0xbddd09a2	-0.10792853
21	0x3e3f2816	0.18667635
22	0xbe407a7e	-0.18796727
23	0xbe3ea6c2	-0.186183
24	0xbe40108c	-0.18756312
25	0xbe8a60d4	-0.27027
26	0xbeb910cf	-0.36145636
27	0xbe00f78d	-0.12594433
28	0xbe484d48	-0.1956073
29	0xbe7fec60	-0.24992514
30	0x3da431ed	0.08017335
31	0xbdf320b2	-0.118714705
32	0xbe026f1f	-0.12737702
33	0x3d83978d	0.064253904
34	0x3dc36646	0.095409915
35	0xbe5fa607	-0.21840678
36	0x3e4b63a7	0.19862233
37	0xbe17ac61	-0.14811851
38	0xbe35da24	-0.17758995
39	0x3e1009bb	0.14066212
40	0xbe41609c	-0.1888451
41	0xbe391de4	-0.18077809
42	0xbe167c71	-0.14695908
43	0xbea2a135	-0.31763616
44	0xbdbc2516	-0.09186761
45	0xbd6b4549	-0.057439122
46	0x3e6be785	0.23037536
47	0x3e58cb96	0.21171412
48	0x3dae50fe	0.08511542
49	0xbe403976	-0.1877192
50	0xbe2c0333	-0.16798095
51	0xbe0c29e1	-0.1368785
52	0x3e6e61b8	0.23279464
53	0xbc954dc1	-0.018225553
54	0xbe44dd1a	-0.19224969
55	0x3e31ffe8	0.17382777
56	0xbe16a7f8	-0.14712512
57	0x3e99fc4e	0.30075306
58	0xbd8242d8	-0.06360406
59	0x3da4ef7b	0.0805349
60	0xbe39819b	-0.18115847
61	0xbd957fe5	-0.072997846
62	0xbe512aef	-0.20426534
63	0xbd615e9c	-0.055021867
64	0x3e8365f8	0.25663733
65	0x3e3f7ff1	0.1870115
66	0xbe29436d	-0.16529627
67	0xbe818705	-0.25298324
68	0xbe284f0e	-0.16436407
69	0xbe27595a	-0.16342679
70	0x3df34f91	0.118804105
71	0x3e2bc9b6	0.16776165
72	0xbe35ac2b	-0.17741458
73	0xbe4dbaa1	-0.20090725
74	0x3e51b93f	0.20480822
75	0xbe3cfbdb	-0.1845545
76	0x3e8eccde	0.27890676
77	0x3d78e200	0.060762405
78	0xbe341bf4	-0.17588788
79	0xbe13f3ac	-0.14448422
80	0x3e72fb08	0.23728573
81	0xbe5dc859	-0.21658458
82	0x3e24d8be	0.16098306
83	0x3c908f02	0.017646316
84	0xbe20d04a	-0.15704456
85	0xbcc9ec00	-0.024648666
86	0xbe11b20b	-0.14228074
87	0xbd6a887b	-0.057259064
88	0x3e26d126	0.16290721
89	0xbe476a54	-0.19474155
90	0xbdc90e15	-0.09817139
91	0xbe2aaa2c	-0.16666478
92	0x3e11fceb	0.14256637
93	0x3d6338a9	0.055473957
94	0xbe4c7874	-0.19967824
95	0xbd22c1e6	-0.039735697
96	0x3e939eda	0.28832132
97	0x3e8994ab	0.26871237
98	0x3e877714	0.26458037
99	0xbdd44473	-0.10364618
100	0xbe3318c1	-0.17489912
101	0x3e872f79	0.26403406
102	0xbe72a581	-0.23695947
103	0x3e231204	0.15924841
104	0xbdecc3aa	-0.115607575
105	0x3e151ae6	0.14561042
106	0xbe79fe04	-0.24413306
107	0xbe411dd8	-0.1885904
108	0x3c74041d	0.014893559
109	0xbe8add49	-0.27121952
110	0xbe1fad5d	-0.15593477
111	0xbddf6a2b	-0.10908922
112	0x3e77a6ad	0.24184676
113	0xbe7a4518	-0.2444042
114	0x3e8a5b02	0.27022558
115	0x3e8fefc7	0.28112623
116	0x3b7bc75f	0.0038418395
117	0x3e21ac61	0.15788414
118	0xbe3dff9b	-0.18554537
119	0xbe1ed243	-0.15509896
120	0xbe2fef6c	-0.17181176
121	0x3dd4fee1	0.10400177
122	0x3e2d389b	0.16916125
123	0xbe125c55	-0.14293034
124	0xbe3b722d	-0.18305273
125	0x3e6e0a0b	0.23246019
126	0x3d0c8e04	0.034315124
127	0xbea1a8d0	-0.31574106
