Project/results/CTTEST/CTest/CTest-499995.onnx (onnx, 73701 bytes, 9 tensors)

62 f4 [7]
00000000: ee90 803f 55c7 ad3c 1489 803f 19fe ff3f
00000010: 203e cf3a 41f5 ff3f 4469 3b42
1.0044229 0.021213213 1.0041833 1.999942 0.0015811361 1.999672 46.8528

action_model._continuous_distribution.log_sigma f4 [1, 2]
00000000: 7b01 53bd 6a98 54be
-0.051515084 -0.20761266

action_model._continuous_distribution.mu.bias f4 [2]
00000000: 3a70 663d fdb4 0c3e
0.05625937 0.13740917

action_model._continuous_distribution.mu.weight f4 [2, 128]
00000000: f3bc ac3d 5770 2c3e d935 5f3e 2c2d 42bc
00000010: c5aa 9c3b 96bb 433e 1b95 e6bb 03ac 253c
00000020: 3b60 94bc f568 b5be 11a3 55bb beb8 493c
00000030: c693 203c f00d 2dbd 7063 29be 00b7 90be
00000040: 4fa6 62be 58f4 ba3a aa71 6739 be09 efb9
00000050: bcbc 95be 519b a3bb a8b9 883e d7a9 423e
00000060: 10aa cf3d 6d1b 92bb 1ad8 9c3d 9f9f f33b
00000070: 6ee2 583d 5900 d9bd 96c1 daba f6be 623e
00000080: 7fa4 abbb 6d72 94bc 377d ca3d 9bf1 d53b
00000090: 94ca c7bd df4b 7ebe db4c fc3d 3e3c 37bd
000000a0: 6761 2bbc 09d5 69ba b594 4d3d 5bed 93bd
000000b0: 05fc f03a d3fe 90bc 465b 2d3e 2e95 fa3a
000000c0: a202 163e ff87 2a3b 1ea6 d13c e62c 303b
000000d0: 1f8b 05bd 8d18 0d3b 63f4 84be f62e 0d3b
000000e0: 54d7 623e f1ae 29be 64ae 2dbe 9f50 1dbb
000000f0: 82d3 44be b1f9 263e 9b95 383e 723c 78be
00000100: 3182 053b b46f f2bd ce38 babd 5135 7c3d
00000110: 6a7f 983d 0b2e 933b 8721 bebc 0688 a8bc
00000120: 94e1 7c3c e083 06be 3e8a 503d 79e8 3e3d
00000130: 207a 123e 822b 7f3e 504d 183e cda9 8bbc
00000140: d0f2 323c 91ca afbd 65e9 cb3d e40b 4abe
00000150: 7f2c 12bd 4512 10bb d641 82bd 7141 d63d
00000160: c571 0abe fff8 f13d 0539 8c3c 1c5b e23c
00000170: 7490 503e 9b18 2c3e b379 3abe 3b08 1e3e
00000180: ca15 8c3c 64e9 243e e30c 2a3e 447a 03be
00000190: c166 c9bd 3672 463d 7036 aebd a7f5 63bd
000001a0: d482 92bd eb4e 96bb 6091 a1bd 02b5 633c
000001b0: 5e4b 52be 6219 073e 40a7 743e dae4 8739
000001c0: 4897 983e 00b4 92be d674 c43b f304 433e
000001d0: a2e7 d7bc 5880 90bd 7cf2 573c 98d2 d8bc
000001e0: 57b4 61be d32d 053e b6b7 a03d b4eb 1d3c
000001f0: a9ea 833e a184 7c3e c2d2 323e 268e 223c
00000200: 30de 293d 8542 de3c e34e 02bc 6452 acbd
00000210: 6cb5 4abc 0d36 00be 09c7 9e3b 59d5 48bb
00000220: 72ed b1bc 6f51 873d 4da4 f339 2984 dd3d
00000230: 4f83 21bc 8514 443e 8be5 493d ce37 cf3c
00000240: 9b1f f93c 5663 21bb 070d 8a3b f54e c1bb
00000250: ab8b 1d3c c1ab 263c 5a2c 913c 0492 313d
00000260: ff39 303d 4603 8fbd a83d b63c cfe9 113a
00000270: cc2c 96bd 5cb9 ebbc 7229 013b b8ca 02bd
00000280: 6b89 023c 8c08 253e f80b fc3d f623 87bc
00000290: 4835 cebc 72ed 0b3c d3f3 753d ff94 51bd
000002a0: 15bc 09bc 3ae3 3bbb 29ca efbd 4f4f 84bd
000002b0: daef 5bbb a17d bd3d 9eaa ff3d 4c73 103b
000002c0: 0b4d 87bd 4052 e3bb 6214 2b3c 957f 08bc
000002d0: dc97 53bd 09e4 b33a 29e2 e73d 72d1 d5ba
000002e0: 3e86 21bc 3230 2dbd 2d01 b7bd 16fe 343b
000002f0: 8a4e 283d 3919 613d 4f37 093d 1686 92bc
00000300: 7c8e 2b39 5a23 f0bd b2da a73d 05ee 7b3d
00000310: 03de d7bd 8e7d 963a fe7a 003c 3248 f6ba
00000320: db01 e93c 53b6 9a3d ecc4 d23d 2134 313c
00000330: 9730 8b3b 7861 61bd 748b c43c afe9 3e3e
00000340: 2278 cabc b77f 03bd cfaf fabc 2c0b 2b3d
00000350: 2ec9 03be 3dc5 b639 d894 77bd f5ff 83bd
00000360: e3ec e93c ec5f 8e3c 96b1 9e3c bdc3 1cbc
00000370: 3acf f83c 73c4 76bd a560 863d 829d 9e3c
00000380: 7233 493d 9b4a 333d 33ca 30bb 487e 89bc
00000390: 07f7 903d 292c e53d bdbd fdbb a803 03be
000003a0: 8461 bd3d 184b 86bd 0584 ea3d 77df 1e3c
000003b0: ba3e 8a3d a53f 5f3d 45a3 34bc 7c41 2ebc
000003c0: fe71 283b 2341 1a3d 91e7 1cbb 4d7a 05bc
000003d0: bb8a 0cbd 584a b7bc aa23 83bb 8260 eb3d
000003e0: 51eb 893c 2103 b73c f71a c03d 60d4 d2bc
000003f0: f505 863b 2078 e5bc e196 76bd f7d6 47bc
0.08434477 0.16839729 0.21797885 -0.01185159 0.0047810995 0.19114527 -0.0070368177 0.010111812
-0.018112293 -0.35431638 -0.0032598416 0.012312112 0.009800857 -0.04224962 -0.16541839 -0.28264618
-0.22133754 0.0014263494 0.0002207222 -0.0004559289 -0.29245555 -0.0049928804 0.26704144 0.19010101
0.10139859 -0.004458836 0.076584056 0.0074348 0.052950315 -0.105957694 -0.0016689773 0.22143158
-0.0052381153 -0.018120969 0.09887164 0.0065290458 -0.097554356 -0.2483363 0.123193465 -0.044735186
-0.010460234 -0.00089199893 0.050190646 -0.07223006 0.0018385655 -0.017699635 0.1692935 0.0019117945
0.14649442 0.0026021001 0.025591906 0.002688223 -0.03260338 0.0021529526 -0.25967702 0.0021542883
0.22152454 -0.16570641 -0.16961056 -0.0024004353 -0.19221309 0.16306187 0.1802582 -0.24241808
0.002037179 -0.11837712 -0.09092866 0.061574284 0.07446177 0.0044915727 -0.023209346 -0.020572674
0.015434641 -0.13136244 0.050913088 0.046608422 0.143044 0.2491894 0.14873242 -0.01704874
0.010922149 -0.08583558 0.09956626 -0.19731098 -0.035686966 -0.0021983546 -0.063602135 0.10461701
-0.13519962 0.1181507 0.017117033 0.027631335 0.20367604 0.16806261 -0.18210487 0.15432827
0.017100234 0.16104656 0.16606478 -0.1283961 -0.09834052 0.048448764 -0.08506477 -0.055654194
-0.0715386 -0.0045870445 -0.07889056 0.013898136 -0.20536563 0.13193277 0.23891926 0.00025919714
0.29802918 -0.28652954 0.0059953732 0.19044857 -0.026355568 -0.0705573 0.013180371 -0.026467606
-0.2204145 0.13005762 0.0784754 0.009638716 0.2576497 0.24659969 0.1746321 0.009921586
0.04147166 0.027131328 -0.007953378 -0.08414152 -0.012372356 -0.12520619 0.004845504 -0.0030644743
-0.021719668 0.06607329 0.00046470985 0.10816223 -0.009857967 0.19148453 0.049291175 0.025295164
0.030410578 -0.002462586 0.0042129788 -0.005899305 0.009615819 0.010172785 0.017721344 0.043352142
0.04302406 -0.06983046 0.022246197 0.0005566151 -0.07332763 -0.02877491 0.0019708541 -0.03193161
0.007967333 0.16116542 0.1230697 -0.01649664 -0.02517189 0.008540498 0.060046982 -0.051167484
-0.008406659 -0.0028669373 -0.11708481 -0.064604394 -0.003355971 0.092524774 0.124837145 0.0022041379
-0.06606492 -0.006937295 0.010441871 -0.008331199 -0.051658496 0.0013724576 0.113224335 -0.001631303
-0.009858666 -0.04228229 -0.08935771 0.0027617267 0.041090526 0.054955695 0.033500012 -0.017886203
0.0001636091 -0.11725493 0.0819601 0.06150629 -0.10540392 0.001148151 0.007841824 -0.0018789826
0.028443268 0.07554307 0.10291466 0.010815651 0.0042477357 -0.055024594 0.023992278 0.1864383
-0.024715487 -0.03210422 -0.03060141 0.0417587 -0.12869713 0.000348607 -0.060444683 -0.06445304
0.02855534 0.017379723 0.019371789 -0.009568152 0.03037225 -0.060245942 0.06561402 0.019362215
0.049121328 0.04377232 -0.002697599 -0.016783848 0.07078367 0.111900635 -0.007743566 -0.12794363
0.09247115 -0.06557292 0.11450962 0.009696833 0.067502454 0.054504056 -0.011025255 -0.01063573
0.002570271 0.037659775 -0.0023941735 -0.008146835 -0.03431199 -0.022374317 -0.004002054 0.11493017
0.01683584 0.02234036 0.09380143 -0.025736034 0.0040900656 -0.028011382 -0.060202483 -0.012197248

network_body.linear_encoder.seq_layers.0.bias f4 [128]
00000000: 32c5 a4bd 0464 63bd cbfe 17bd f3e6 55bd
00000010: 639c a6bd cc61 073d 9c00 2ebe 2296 04be
00000020: 0382 8cbe e94a 18be dd2d a13d 37bd 8ebd
00000030: 64ed 11bd c1dd 7bbd d4df 12be f8dd b23c
00000040: c1b5 033d 9a11 56bd 416c 93bd 40e7 bbbb
00000050: 9584 54bd 5984 64be 5be0 47bc 965a fc3c
00000060: ac58 bbbd 0fb4 83be ca2c 05bd c96b 28be
00000070: 6a9f a1bc ccd7 9fbe ff6b 9c3d 4fd3 45be
00000080: 43f9 e2bd 6ba0 adbd 5bf2 68bd 9e23 2cbe
00000090: 7ce5 b2be fc96 37be ab7c b03c 63c6 94bd
000000a0: 66ad 50bd 0aea 85ba 1345 f63d ac76 49bd
000000b0: 119c 4fbe b9c4 4a3c 6c1e a13d 8098 9abd
000000c0: 6edf eabd d80c 8dbe bd80 15be 4b67 493d
000000d0: cec0 92bb f3f7 b1be 2cdd 9cbd cae2 40be
000000e0: 8b4c 0f3d e989 f63d 2c8a 8ebd c713 d8bd
000000f0: 1feb 50be 101f 0abe da64 1cbd 9b67 9abd
00000100: d7d0 84bd 6582 1c3c 01b9 c1bd 67d5 07bd
00000110: ccca b6bd 7601 34bb 6e98 88bd 395e bbbb
00000120: 9c6b 54bd 2b5b d2bd a250 74be 9bfd 723d
00000130: 0f79 3a3e ed17 26be e20e 5cbe 30a6 abbe
00000140: 36cf 1bbe ab60 22be 32f7 b4bd 1ba8 50bd
00000150: 4acb e1bc 6a9c 36bd 4be3 0bbe 787a 74bd
00000160: 22c4 493d b0cc 97bd 6424 4fbe eea7 00be
00000170: 2779 09be 1ab3 1abd dbf1 9dbc 8b50 72bd
00000180: 7518 63be 3d74 98bc d9a0 c9be 0962 42be
00000190: 9f86 4d3d 0a12 803c 8bdf bdbd ba97 98bc
000001a0: 71ff 78be b768 b2bd 9a40 073e 7aad f33c
000001b0: 0e1a 883c 2302 93bd 8a28 f83c 1b00 1dbe
000001c0: e45f 20be 971c 15be 57fd a7bd df27 45bd
000001d0: f716 433d 0cca 6dbe 0f4b e9bd 7471 9d3c
000001e0: b5fb 82be 2df5 0dbe 2746 38bd 710e 24bd
000001f0: abb0 bcbd 0f9d cd3d 3d31 4cbe b6e8 b8bd
-0.080454245 -0.055515304 -0.037108224 -0.052222203 -0.08135297 0.03305225 -0.1699242 -0.12947896
-0.2744294 -0.14872326 0.07870076 -0.069696836 -0.035626784 -0.061490778 -0.14343196 0.021834359
0.032155756 -0.05226288 -0.07198382 -0.0057343543 -0.051884253 -0.22316112 -0.012199487 0.030804913
-0.09147772 -0.2572331 -0.032513417 -0.16447367 -0.019729335 -0.31219327 0.07637786 -0.19318889
-0.11082699 -0.08477863 -0.056871753 -0.16810462 -0.34940708 -0.1792869 0.021543821 -0.07264402
-0.050946616 -0.0010216844 0.120248936 -0.04918544 -0.20274378 0.012376004 0.07867131 -0.07548618
-0.11468397 -0.27548862 -0.14599891 0.049170773 -0.0044785505 -0.34759483 -0.07659373 -0.18836513
0.034985106 0.12038023 -0.06959948 -0.10550647 -0.20402192 -0.13488412 -0.038182117 -0.075392924
-0.064851455 0.009552573 -0.09459115 -0.0331625 -0.08925399 -0.002746669 -0.06669699 -0.0057180193
-0.051860437 -0.10271295 -0.23858884 0.05932389 0.18210243 -0.16220064 -0.21490052 -0.33525229
-0.15215763 -0.15857188 -0.08836211 -0.050941568 -0.027562756 -0.04458276 -0.13660924 -0.059687108
0.049259312 -0.07412088 -0.20228726 -0.1256406 -0.13425122 -0.03776846 -0.019280365 -0.059158843
-0.22177298 -0.018610114 -0.3938053 -0.1898271 0.050177213 0.015633602 -0.09271153 -0.018627036
-0.24316193 -0.08711379 0.13208237 0.029745806 0.016613986 -0.07178142 0.030292768 -0.15332071
-0.1566158 -0.14561687 -0.082026176 -0.048133727 0.047629323 -0.23221606 -0.113912694 0.019219138
-0.25582662 -0.13863058 -0.044988777 -0.040052835 -0.09213384 0.10039722 -0.19940658 -0.09028761

network_body.linear_encoder.seq_layers.0.weight f4 [128, 7]
00000000: 8b97 74be 28fd 523f b2da 0cbe 3340 043e
00000010: b6bf b3be e7b2 05bf ac4d abbe 128c b5bd
00000020: 9652 ce3e 89dc bdbd 5916 4a3e 3034 d9bd
00000030: e217 0ebf 3505 823e 3a75 72be c82f 9a3d
00000040: 5d3e a13e 3cab e63e 1cf0 d93d 9d78 69bf
00000050: 9f61 e4be 1623 83be 8127 bc3e befb c0be
00000060: 7890 c13d ed17 a03d e334 353f d247 2e3e
00000070: 15d0 d33d feee 59bc 7e35 553e bff7 793e
00000080: d74a 093f 2924 423e d3b4 b43e e039 80be
00000090: bf61 873d e21a 65bf ddbc 063e 7dfb 543e
000000a0: e0df cebe ab6b 713f d3c6 f0be 8d31 ca3e
000000b0: 5fd5 bdbe 224a 4ebd b894 0abd 60e1 30bb
000000c0: 96da e8be 457d 113e 1676 ee3e c252 703f
000000d0: 6404 53bf 5cc5 2e3f 25f7 18bf 7c95 b6be
000000e0: 0ba4 1cbf 7325 c43e 4455 99be 6072 78be
000000f0: ece7 4abe ca45 91be 4d1a a3be ae61 a5be
00000100: ded7 a8be c3a5 b83e d7dd 453e 94bb 70be
00000110: 3ed6 01bf 686e 49bf 4ad6 b33e d20a 803e
00000120: bb31 4d3f 4527 6cbc eba9 ba3e 697d 393f
00000130: ead8 713e 7e93 3bbe b5e6 c8be c66a 30be
00000140: 6a90 a23e 2704 c0bd caac 083f 3706 6cbf
00000150: f840 b2be bce5 d73e 1d24 063f a71e 983e
00000160: 0f68 48be 8282 153f 2273 d6be af03 75bd
00000170: c345 543e 9b5d bcbe 6e1b 973e 0ac5 39bf
00000180: db3c ec3e cfa1 80bf e6cd 053d 089a 8d3e
00000190: 2da3 aa3d d56d 97b9 e387 1dbf 7a0f f13c
000001a0: 391c 5cbe 0907 c33e 9943 3c3e 6699 1abe
000001b0: dd99 4b3e dee1 42be f8d6 f23e ea9f cc3e
000001c0: 1734 153f 5ae7 bb3e e200 91bc d5e6 0c3f
000001d0: 5d76 bcbe 72e3 b4be 7f6d 5d3e ee22 cf3e
000001e0: b8d4 04be 28c7 f83e f96b e8be 4b01 5b3e
000001f0: fd40 a43e 9904 433d bc6e c33d b3a2 0b3f
00000200: 5703 febe b890 2e3f dee3 3d3f cad2 9e3e
00000210: b306 d8be 5740 813d 701d 39bd e7df 8e3e
00000220: 63b3 82be 6257 69bf d46c 6b3e d4d8 1b3f
00000230: 71c3 88bd 6b66 df3e 580e 863e 51b2 653e
00000240: 9939 3f3e 490b b73e aae5 e13e c1cc 72be
00000250: 3f6a 473e ebaa 903e 1d04 2dbc 3d8e a73d
00000260: badb 9f3c d2e8 a63c d1f3 f83e a5ca 003f
00000270: 83bb c73c 5301 4a3e 33a4 d03e c863 26bf
00000280: c755 c13e 0aeb 3fbe ddf8 2abe 617f 0abf
00000290: 7097 683d 1782 aebe bc06 d73e 2a04 18be
000002a0: d252 de3d b6fd 15be 65a1 813e 067c d83d
000002b0: 5b79 2bbe b681 863e 9368 923f 9c98 49be
000002c0: 7db2 1ebe 41c2 223e dffa e43d 8405 6ebf
000002d0: 5119 bebe a675 47be 6c0a 0d3f 247e 7dbe
000002e0: a252 4f3f 5482 5e3e 7111 7c3e 2866 8fbd
000002f0: f6b6 20bf ab19 dc3d 4073 44bf b7af 80be
00000300: 8495 16bf 93e3 f6be f16f 523d ddb0 8b3e
00000310: 0e08 d23d 6479 5abf e05f 18bf 0d90 ddbe
00000320: 36e3 99be a1dd 76be ea47 753e d9ae 88bd
00000330: 00d0 d7bd 3ea4 2cbd 9da2 5e3e f0f2 36bf
00000340: 1945 493e 1af5 e33e 5ebf d13d 8bd0 de3e
00000350: 082f 13be 2fea b63e 3b58 f1bc 566b d7bd
00000360: 0c3e d93e 276a 06be 5904 50bd fd45 813e
00000370: 79d0 80bd b638 bebe 91de 393e eef1 77be
00000380: 65da 06be 9d1f ba3e b947 33bc 6022 f33d
00000390: 9e85 413d 0a6a 213e 08b0 653f 27c7 16bc
000003a0: e69d b6bd e9d1 fcbe ed51 efbd 0786 eebe
000003b0: d5c5 0ebe d893 4dbe 7ed9 43be b388 47be
000003c0: c49b c5bd b6a0 693e fa46 3b3e 94bd 1dbf
000003d0: 3dd1 acbe 5870 86be c191 4bb8 d7ad 45be
000003e0: 0176 8cbe d900 37bf 4fc8 8ebf 7678 15bf
000003f0: 801e 03bf a289 dc3e a472 0bbe 97e7 1d3e
-0.23885934 0.82417536 -0.137553 0.12915115 -0.351072 -0.5222611 -0.33457696 -0.08864607
0.40297383 -0.09270579 0.19735087 -0.10605657 -0.5550519 0.25394598 -0.23677531 0.07528645
0.31492892 0.45052516 0.106415 -0.91199666 -0.4460573 -0.25612706 0.3674889 -0.37692064
0.09451383 0.078170635 0.70783824 0.17019585 0.10342423 -0.013301609 0.20821187 0.24410914
0.5362982 0.18959107 0.35294208 -0.25044155 0.066104405 -0.89494145 0.13157983 0.2079906
-0.40405178 0.94304913 -0.4702669 0.3949093 -0.37076852 -0.050363667 -0.033833236 -0.0026989803
-0.45479268 0.14207943 0.46574467 0.9387628 -0.82428575 0.68269897 -0.5975211 -0.35660923
-0.6118781 0.3830982 -0.29947865 -0.2426238 -0.19815034 -0.28373557 -0.31856003 -0.32301086
-0.32977194 0.36063966 0.19322906 -0.23509055 -0.5071753 -0.7868409 0.35124427 0.25008255
0.8015401 -0.014413659 0.36457762 0.72456986 0.23617902 -0.18317983 -0.39238515 -0.17228231
0.31750804 -0.09375792 0.53388655 -0.92196983 -0.34815192 0.4216746 0.52398854 0.29710886
-0.19570945 0.58402264 -0.41884714 -0.059817966 0.20729737 -0.36790165 0.29513115 -0.7256628
0.4614018 -1.004938 0.032667063 0.2765658 0.083319046 -0.00028882796 -0.6153547 0.029426325
-0.21495141 0.38091305 0.18385161 -0.1509758 0.19882913 -0.19031474 0.47429633 0.39965755
0.5828261 0.36699945 -0.017700616 0.5503972 -0.36809054 -0.35329777 0.216238 0.40456337
-0.12971771 0.48589444 -0.45394877 0.21387212 0.32080832 0.047611807 0.09542605 0.54545134
-0.49611923 0.68189573 0.7417582 0.31020194 -0.4219261 0.063111 -0.04519409 0.279052
-0.25527486 -0.9114896 0.22990733 0.6087773 -0.066779025 0.43632826 0.26182818 0.22431304
0.18674316 0.35750797 0.44120532 -0.2371092 0.19474123 0.282554 -0.010560063 0.08181427
0.019513953 0.02037469 0.48623517 0.5030921 0.024381405 0.19727068 0.40750274 -0.64996004
0.37760755 -0.18742004 -0.16696496 -0.54100615 0.056785047 -0.34083626 0.41997325 -0.14845338
0.108556405 -0.14647564 0.25318447 0.105705306 -0.16745512 0.26270837 1.1438164 -0.19687122
-0.15497775 0.15894414 0.11180662 -0.92977166 -0.3712869 -0.19478473 0.5509403 -0.2475515
0.8098546 0.21729404 0.24616028 -0.07001907 -0.62779176 0.10747083 -0.7673836 -0.2513406
-0.5882189 -0.482205 0.051376287 0.27283373 0.102554426 -0.8534148 -0.59521294 -0.43273965
-0.3005616 -0.24107982 0.23953214 -0.066739745 -0.1053772 -0.04214882 0.2174172 -0.71464443
0.19655265 0.44522935 0.102415785 0.4351848 -0.1437341 0.35725543 -0.029461017 -0.105185196
0.4243015 -0.13126431 -0.050785396 0.2524871 -0.06289763 -0.37152642 0.18151309 -0.24213383
-0.13169248 0.36352244 -0.010942393 0.11871791 0.047246568 0.15763107 0.8972173 -0.009202755
-0.089168355 -0.493789 -0.11685548 -0.4658663 -0.13942654 -0.20075929 -0.19125935 -0.1948574
-0.096488506 0.22815213 0.18288794 -0.616174 -0.33753386 -0.26257586 -4.8534715e-05 -0.19304596
-0.2743378 -0.7148567 -1.1154879 -0.58386934 -0.51218414 0.43073756 -0.1361795 0.15420376

network_body.linear_encoder.seq_layers.2.bias f4 [128]
00000000: ee68 95bd 46af 3dbd 2936 ba3d a99a 84bd
00000010: 7039 89bd 7bb4 023e 3388 0dbb 9c1d 25bd
00000020: 8e6b 43be ff04 433e 15d7 883c d280 c53d
00000030: 1a39 83bd c050 293e db33 2bbe 8a5e 673e
00000040: bc85 2fbd fc7d 49bd e4fb 31bd 2696 1bbd
00000050: c45c 893e b508 22bd 52ac ed3d 1bf1 243e
00000060: 3026 e1ba 377c a9bd 2214 803c db85 a1bd
00000070: 20b9 38bd 186a 00be d9fd 46bd 1a0c e33d
00000080: 6623 50bd 125d fc3d 118e 3a3e 393c 27bd
00000090: 6707 65bd 22cb 453e c83b 293d 3970 babd
000000a0: 24d8 e2bc 35a7 f7bc d309 4a3c 2d2a 8cbc
000000b0: f48c 46bd b51a 9c3d b396 0a3e 0714 c93a
000000c0: 4333 563d f2a7 a1bd 5838 96bd 0d65 9e3b
000000d0: 6ff4 1fbe 3b9d fdbd ec16 8e3b 2764 373c
000000e0: 560e fc3d 2b04 34bd b12e b33d d3d1 85bd
000000f0: c497 c0bd 9168 033e f365 e4bc 2d5e 0ebe
00000100: 433f e9bd 5add 2b3d 8951 22bd 1f44 dfbc
00000110: 8b61 833b 1387 a3bd 52ed cfbd c501 45be
00000120: 4040 b3bd 4a2c 873d 7865 bd3d ef3b 8ebd
00000130: 0418 a83d 3652 0c3e e8e3 dcbd 89f9 253e
00000140: c2c4 00bd dc54 a6bb 3546 71bd 7e8a 153e
00000150: 02d0 a93b 8d3e 9abd a55b 8dbc a4a9 5cbd
00000160: 2c54 39be d953 90bc 2240 34bd afb4 a7bd
00000170: a2a4 de3c c370 a53d 5a60 06be cf68 41bb
00000180: c29f 8f3d 526c aa3d e47d ddbd 1a2c aeb9
00000190: 77e6 bdbc 851f 9e3c eb7d b43c 063a 22bc
000001a0: e09e cf3c 734c 8abd 8939 7f3d 2bb9 20be
000001b0: 9db3 d8bb 6586 d6bc 6124 b63c 9bd9 e13b
000001c0: 1f36 f63d 1f4d 293e 551a debd 05db 5cbd
000001d0: 54d5 eabd d068 e9bd 6f15 11bd 69cd 44be
000001e0: 84cd 233e 9f94 e33d c281 703d 8754 74bd
000001f0: 6408 2fbd cc0e 223e 477c 963c d67b f5bb
-0.072954044 -0.046309732 0.090923615 -0.064748116 -0.067004085 0.1276416 -0.0021596074 -0.04031144
-0.19083998 0.19044875 0.016704122 0.09643711 -0.06407376 0.1653471 -0.16719 0.22594658
-0.04285215 -0.049192414 -0.043453112 -0.03798499 0.26828587 -0.039559085 0.11605133 0.161076
-0.0017177518 -0.08275645 0.0156346 -0.07886859 -0.045098424 -0.12540472 -0.04858193 0.110862926
-0.05081501 0.12322439 0.18218257 -0.040828917 -0.055915263 0.1931577 0.041316777 -0.09103436
-0.027690955 -0.030231098 0.012331444 -0.017109955 -0.048474267 0.076222815 0.1353405 0.0015341052
0.05229498 -0.07893361 -0.073349655 0.0048338235 -0.15620588 -0.12383505 0.0043362286 0.011193312
0.12307422 -0.043949287 0.0874914 -0.065341614 -0.09403947 0.12832858 -0.027880644 -0.13903113
-0.11389019 0.041959144 -0.03962854 -0.027254162 0.0040094308 -0.07984748 -0.10152687 -0.19238956
-0.08752489 0.06600244 0.09247869 -0.06945025 0.082077056 0.13703236 -0.10785657 0.16208471
-0.031437643 -0.005076034 -0.058904845 0.14603612 0.005182267 -0.07531462 -0.017255614 -0.05387272
-0.18098515 -0.017618107 -0.044006474 -0.081887595 0.027178112 0.08078148 -0.13122693 -0.0029511934
0.07012893 0.08321442 -0.10815027 -0.00033220724 -0.023181183 0.019302139 0.022032699 -0.009901529
0.025344312 -0.06752863 0.06231073 -0.15695636 -0.0066132084 -0.026187131 0.022234144 0.0068923957
0.120220415 0.16533326 -0.10844866 -0.05391981 -0.1146647 -0.113969445 -0.03542083 -0.19218983
0.15996367 0.111123316 0.058717497 -0.059650924 -0.04273261 0.15825957 0.018369807 -0.007491569

network_body.linear_encoder.seq_layers.2.weight f4 [128, 128]
00000000: 74cb aebd b13a f53d 0730 9dbb a246 f0bd
00000010: 72a7 49be f487 e9bb 38ac 5bbd 1e26 26be
00000020: 1dcd 8cbd 6060 d33b ed24 c0bc 9611 63be
00000030: fbe7 e4bd be64 60be fa19 b5bd 9f6e a5be
00000040: 3c32 32bc 89a6 08bd abb5 893d d300 d43c
00000050: d9be b4be 74b4 7c3d a42e 913d e8b9 86be
00000060: e4a2 c0be 4481 d73d 43cd ed3d c29e 68bd
00000070: 04b2 263e e05b f2bd 3870 11be 2565 92bd
00000080: 2d1f c0be a83d 4abc 9830 c5bd f3de 3dbc
00000090: b23d b83d 9cce 7e3d e2dd 0dbe 09a8 d23d
000000a0: fd86 70be fcc6 9e3d 9919 0abe 37ce e9bc
000000b0: 8fe3 80bc 4286 1b3e 8850 9cbe 1b9e aabd
000000c0: a050 57be 1fbc 383d fe27 17be 7fd9 00be
000000d0: 574e 06be 2331 bd3d f19e 8f3a 15ea 3ebd
000000e0: a17b babd 67bb 0d3c 87c1 cebd a50a 213d
000000f0: 2780 5ebd dabd de3b cd39 a7bd 0eb9 bf3c
00000100: 4777 0abf 96d4 483d 0a04 aabd 89e8 4bbe
00000110: d064 13be b741 6fbd 14e5 64bc 60eb 59be
00000120: 065c e3bd e79a b1be ce50 9b3d f4b6 d8bc
00000130: 06f0 f0be 9f5f 7fbe 8db3 bebd 1142 2bbd
00000140: e56c 9fbb 2e8d 503e 45d0 d6bd b179 03bd
00000150: 39b3 c3bd f175 adbd c877 e33c f0e1 393c
00000160: 7c3a 2a3e 16d9 40be 6ca7 f73c 8514 74be
00000170: cecc 2cbe 7beb 4dbd 7805 9c3d 8c9c 65bc
00000180: 5ece 0fbe b7b0 4fbe 6e32 08bd 942b 2abe
00000190: 21ce 7ebd e16d 963d 4060 7fbe b3d8 c4be
000001a0: 31a5 15bd 4242 f1bd 5c6c 993b ee0a 75bd
000001b0: bb8e e7bd ab7b 4fbc bbb4 13be 1b23 283d
000001c0: 749d 683d 06f1 193d ec98 ebbd e34e 19bd
000001d0: 53aa 93be fd8d 4bbd 3c07 66be 8f9d e6bd
000001e0: da53 143e dce5 69be 4a3b 94be 6366 9bbd
000001f0: 9587 123d aae0 373d cdc7 a1bd c421 4bbd
00000200: 236c 56be b18d 223e de9a d2bc 64d0 dabd
00000210: 24a0 1fbe 6bf8 85bd 585b 6c3e 5686 a23d
00000220: d5c1 d03b 0ef2 cbbb 71d8 00be 359c 0a3e
00000230: 3638 e3bc f0a6 36bd 9d0b 1f3e 4f27 67be
00000240: f43a f13d 4e79 a4bd c907 07bd a436 d4be
00000250: edf7 e9be 7746 183d d4ff 353e f001 29bd
00000260: b6ff f8be 9cc6 c1bd 9e42 23bd 1585 e6bc
00000270: 311e 3b3e 88cb c9bd c1db 14bd cc01 1a3e
00000280: b059 91be 0f3f 6fbd 51f8 a2bd f240 8ebe
00000290: 775e 1fbe 46aa 153d 3c5e b7bd 59d5 703d
000002a0: c450 c53d 50d5 aebd e137 bfbd c5b0 9d3d
000002b0: 5957 5abd 354c 953d 284e 79be 3281 e9bc
000002c0: 437f 8bbe a092 533d 3437 d0bd db0e 2d3e
000002d0: a565 cdbc 7a61 f5bb d653 aa3e 71de e2ba
000002e0: 09d6 af3c 562e 893c 4ff8 6abc 5864 1abe
000002f0: 14f3 c0bd dcd7 5e3e abdd 36be 704e 9cbc
00000300: 8e75 9cbe c4c6 d9bd f45d 22be fc87 16be
00000310: 43cc a8bd 0fae 503e b881 e53c 951a 32bd
00000320: 9d43 7dbe 78e1 d9bc 0a83 ec3c a0ee 033c
00000330: f844 3dbf 1e3a abbd ad90 253e 42e4 893d
00000340: b08f e33c 6cbf cabd 4b46 4f3d 3de1 bb3e
00000350: 1b71 df3d 7734 e13d e29a 303c 015e 273e
00000360: 084a 8fbd 7137 93bd e828 e7bd 676c 4d3d
00000370: 6c41 2cbe 5113 97bd 9fc3 d53d d7cb 603c
00000380: 118a 66bd cb50 cb3d 9f4b 16bd 7533 383e
00000390: 3ed7 2c3e 297f 183e 7371 32be 331f cbbe
000003a0: 46cc 7c3e 62a3 fcbd 5762 79be c670 8b3e
000003b0: 6b0e 22be 6635 09be 642d 503e a225 033e
000003c0: 53e0 403e 8518 cebd ce42 a93d a8d7 9ebd
000003d0: 816f ecbe 073a 543d 3eb6 bbb9 e551 6d3a
000003e0: 375b ef3c 8a5d d4bb 3e6d 18be efda 933e
000003f0: e9a5 103e fa11 79bd 2600 aabd 291c 0dbd
-0.08534899 0.11974085 -0.004796985 -0.11732222 -0.19692782 -0.0071268026 -0.053631037 -0.16225478
-0.0687506 0.006450698 -0.023455108 -0.22174677 -0.11177059 -0.2191343 -0.08842845 -0.3231096
-0.010876235 -0.033361945 0.067241035 0.0258793 -0.35301855 0.06169553 0.07088974 -0.2631371
-0.37624276 0.10522702 0.11611416 -0.05679203 0.16278845 -0.1183393 -0.14202964 -0.07148198
-0.37523785 -0.012343802 -0.09628409 -0.0115888 0.089961424 0.062208757 -0.13854173 0.102859564
-0.23488994 0.07752797 -0.13486327 -0.028540714 -0.015733508 0.15187934 -0.3053019 -0.083309375
-0.2102685 0.04510128 -0.1476135 -0.12582968 -0.13115822 0.09237888 0.0010957402 -0.046609957
-0.091056116 0.008650637 -0.10095506 0.039316792 -0.054321434 0.0067975344 -0.081653215 0.02340367
-0.5408825 0.049030863 -0.08301552 -0.19912924 -0.14393926 -0.05841228 -0.013970632 -0.21281195
-0.111015365 -0.34688494 0.07583772 -0.026454426 -0.47058123 -0.2493882 -0.0931159 -0.041811053
-0.004865276 0.20366356 -0.10488943 -0.032098476 -0.095556684 -0.08469761 0.027767077 0.011345372
0.16623873 -0.18832812 0.0302312 -0.23835953 -0.16875002 -0.0502734 0.076182306 -0.014014374
-0.14043567 -0.20282255 -0.03325122 -0.16618186 -0.0622083 0.073451765 -0.2493906 -0.38446578
-0.036534492 -0.11780216 0.004682107 -0.059824876 -0.113065206 -0.012663762 -0.14424412 0.041049104
0.056790784 0.037583373 -0.11503777 -0.037428748 -0.28840885 -0.049695957 -0.22463697 -0.11260521
0.14485112 -0.2284159 -0.28951484 -0.07587888 0.035773832 0.04489199 -0.07899437 -0.04959275
-0.20939688 0.15874363 -0.025708612 -0.106842786 -0.15588433 -0.065415226 0.2308172 0.07935779
0.006370763 -0.0062239235 -0.12582566 0.13536151 -0.027736764 -0.044592798 0.15531774 -0.22573589
0.117788225 -0.080309495 -0.03296641 -0.41447937 -0.45696965 0.037176576 0.17773372 -0.041261613
-0.48632592 -0.0946171 -0.039858453 -0.02813963 0.18273236 -0.09853274 -0.036342386 0.15039748
-0.2838874 -0.058409747 -0.07957519 -0.27783924 -0.15563379 0.03653934 -0.08953521 0.058797214
0.096345454 -0.0853678 -0.0933683 0.07699732 -0.053305957 0.07289926 -0.2434622 -0.028503988
-0.2724553 0.051653504 -0.10166779 0.16900198 -0.025072882 -0.0074884268 0.33267087 -0.0017308724
0.021464365 0.016745728 -0.014341428 -0.1507734 -0.094213635 0.21762031 -0.17857997 -0.01908037
-0.30558437 -0.10633615 -0.15856153 -0.14700311 -0.08242085 0.20378898 0.028015956 -0.04348238
-0.24732824 -0.02659677 0.028871078 0.008052498 -0.7393336 -0.08360694 0.1616847 0.0673299
0.027778476 -0.09899792 0.050604146 0.3669528 0.10910245 0.10996335 0.010779114 0.16344453
-0.06996542 -0.07188309 -0.11287099 0.05015221 -0.16821831 -0.07376731 0.104377024 0.013720474
-0.056284014 0.099275194 -0.03669321 0.1798838 0.16878983 0.14892258 -0.1742609 -0.3967224
0.24687299 -0.1233585 -0.2435392 0.27234477 -0.15825813 -0.13399276 0.20329815 0.12807325
0.18835573 -0.100632705 0.08264695 -0.07755977 -0.4617882 0.05181315 -0.000358032 0.0009053036
0.0292183 -0.0064808773 -0.14885423 0.2887797 0.1412579 -0.06080816 -0.083008096 -0.034450684

network_body.vector_processors.0.normalizer.running_mean f4 [7]
00000000: a2ff 013d d324 18bc 8e38 51bb 4b05 7abc
00000010: 9bfe ff3e 2853 16bd db61 a242
0.03173793 -0.009286123 -0.0031924578 -0.015260051 0.49998936 -0.036700398 81.191124
