Project/Project/Assets/VPlayer-afterpaused.onnx (onnx, 681794 bytes, 15 tensors)

action_model._continuous_distribution.mu.weight f4 [1, 216]
-0.04101035 0.040190592 0.05440816 -0.0045053908 0.058802772 0.055904016 0.025525836 0.10110958
0.03126996 0.0032469835 -0.15302402 0.05581843 -0.031968307 -0.009094528 0.11993076 -0.0007364925
0.06353472 -0.037848517 0.117738076 -0.07931593 -0.038170442 0.0272816 -0.047334857 0.004749456
0.09797077 0.042868778 -0.0730231 0.09202244 -0.012576826 -0.020048684 0.0357051 -0.034840148
0.022880016 -0.011768031 0.014719043 0.0263045 -0.035203617 0.014226607 -0.0269615 -0.033645317
0.0105502475 -0.050801523 -0.022119706 -0.025466172 -0.061535206 -0.022927681 -0.057173558 0.059096653
-0.05066832 -0.020962821 0.042092238 0.0053658416 -0.013555569 -0.04280506 -0.056458224 -0.03658596
0.00477804 -0.010928771 -0.0437998 0.020918291 0.025917048 0.028996358 0.043708526 0.041652944
-0.08261558 0.02913927 0.0293042 0.06260959 -0.028505325 -0.13456126 0.025882842 -0.063926406
0.021251544 0.00057294825 0.02428202 0.10324852 -0.004742565 -0.099898845 -0.06914565 0.09051623
-0.10356177 -0.095606774 -0.068327494 0.029105257 0.10137597 -0.024657225 0.0044475906 -0.08749362
-0.037963573 0.040316325 0.058770265 -0.0377291 0.014630274 0.038271245 0.021644332 -0.051045366
-0.04683191 0.09014956 -0.106730536 0.16783272 0.077868916 0.0787809 -0.04284403 -0.06953118
-0.12556335 -0.011353346 -0.057735108 0.037108645 0.03297046 -0.013274819 -0.03035034 0.03729087
0.04769766 0.097038396 0.028057294 -0.11250953 -0.0112016145 0.02121566 0.03689893 -0.014994416
-0.02330271 0.026387338 -0.019578725 -0.15419766 -0.006610127 -0.018540103 -0.09804684 -0.038965162
-0.03936767 0.08545249 0.12340481 -0.08265613 -0.08579573 -0.034529634 -0.02617848 0.03030309
0.06612519 -0.029718772 0.049919825 -0.045098998 0.07119071 0.085115135 0.05448371 -0.019447155
0.00954275 0.096186355 -0.080114186 0.061082564 -0.026660822 -0.053269025 0.055118397 0.07034307
0.038324434 0.059225194 0.027741471 0.08230072 -0.041019276 -0.00033156306 0.008540372 -0.007046219
-0.06018271 -0.061759703 0.06062019 -0.06869664 0.01036463 -0.015771141 0.09287232 -0.037890308
0.014734873 -0.033782538 -0.0818907 0.07189099 -0.030493448 -0.039297406 0.033053316 0.009319015
-0.034983493 -0.08140908 0.054444503 -0.010642515 -0.12248349 -0.010349224 0.10477477 -0.07558013
0.07857515 -0.02015355 -0.15238756 0.038246993 0.100324504 -0.04327751 -0.02529144 -0.028496532
-0.020206738 0.061871983 0.041926417 -0.08978809 -0.104796946 -0.06514856 0.025788443 -0.01153378
0.021982368 -0.05570724 0.035807386 0.031940527 0.060426705 -0.020275453 0.026532842 -0.08946462
-0.00077900465 0.018213987 -0.031223772 -0.05144477 0.0020362292 0.06745864 0.04238907 -0.008216612
00000000: 78fa 27bd e49e 243d 17db 5e3d f5a1 93bb
00000010: 2ddb 703d 9cfb 643d 8f1b d13c 8a12 cf3d
00000020: ee14 003d 58cb 543b 54b2 1cbe dea1 643d
00000030: 33f1 02bd 3701 15bc 429e f53d 2d11 41ba
00000040: 7e1e 823d 0c07 1bbd a920 f13d 6470 a2bd
00000050: 9c58 1cbd a97d df3c 32e2 41bd 53a1 9b3b
00000060: e6a4 c83d 2c97 2f3d 238d 95bd 4376 bc3d
00000070: 080f 4ebc 233d a4bc 833f 123d 8bb4 0ebd
00000080: df6e bb3c b3ce 40bc 2428 713c 897c d73c
00000090: ab31 10bd b716 693c 5dde dcbc accf 09bd
000000a0: f2da 2c3c 4215 50bd 6334 b5bc 6f9e d0bc
000000b0: 570c 7cbd d5d2 bbbc d22e 6abd 550f 723d
000000c0: 9689 4fbd 39ba abbc e968 2c3d f1d3 af3b
000000d0: 2d18 5ebc 5c54 2fbd bd40 67bd 29db 15bd
000000e0: 1b91 9c3b 970e 33bc 6b67 33bd d65c ab3c
000000f0: fd4f d43c c589 ed3c b607 333d 479c 2a3d
00000100: 5b32 a9bd 7ab5 ee3c 5d0f f03c 7539 803d
00000110: 0084 e9bc 6dca 09be 4108 d43c d9eb 82bd
00000120: b817 ae3c e831 163a 16eb c63c f673 d33d
00000130: 8567 9bbb c497 ccbd 3c9c 8dbd 9360 b93d
00000140: 3118 d4bd 7ccd c3bd 49ef 8bbd 266e ee3c
00000150: 349e cf3d f3fd c9bc 18bd 913b db2f b3bd
00000160: b17f 1bbd bb22 253d 17b9 703d d489 1abd
00000170: d1b3 6f3c 4fc2 1c3d 744f b13c f214 51bd
00000180: d1d2 3fbd 55a0 b83d 8a95 dabd 57dc 2b3e
00000190: bd79 9f3d e157 a13d 397d 2fbd 5d66 8ebd
000001a0: ae93 00be 6203 3abc a67b 6cbd 3cff 173d
000001b0: 080c 073d a07e 59bc 47a1 f8bc 50be 183d
000001c0: 9f5e 433d 11bc c63d 69d8 e53c 656b e6bd
000001d0: fa86 37bc 77cc ad3c 5523 173d 24ab 75bc
000001e0: 53e5 bebc 422a d83c 9063 a0bc fee5 1dbe
000001f0: c499 d8bb 6ae1 97bc c8cc c8bd ef99 1fbd
00000200: fe3f 21bd b701 af3d a9bb fc3d 9e47 a9bd
00000210: acb5 afbd f26e 0dbd 4074 d6bc 303e f83c
00000220: a56c 873d c874 f3bc bb78 4c3d bab9 38bd
00000230: 6fcc 913d d850 ae3d 502a 5f3d a44f 9fbc
00000240: 3259 1c3c 5afd c43d e812 a4bd b631 7a3d
00000250: cc67 dabc 9f30 5abd d4c3 613d 0710 903d
00000260: 15fa 1c3d 1e96 723d 1542 e33c 488d a83d
00000270: d403 28bd a4d5 adb9 ebec 0b3c f8e3 e6bb
00000280: 2582 76bd bef7 7cbd e04c 783d d3b0 8cbd
00000290: 69d0 293c 7b32 81bc d833 be3d de32 1bbd
000002a0: 896a 713c 8f5f 0abd 50b6 a7bd 953b 933d
000002b0: 65cd f9bc 51f6 20bd ea62 073d c8ae 183c
000002c0: da4a 0fbd ceb9 a6bd 3301 5f3d f15d 2ebc
000002d0: a0d8 fabd cb8f 29bc 2894 d63d c1c9 9abd
000002e0: 02ec a03d 0f19 a5bc 7c0b 1cbe e1a8 1c3d
000002f0: ef76 cd3d c243 31bd fe2f cfbc 8f71 e9bc
00000300: 9a88 a5bc 7a6d 7d3d 09bb 2b3d d1e2 b7bd
00000310: c89f d6bd 9c6c 85bd 4942 d33c 2ef8 3cbc
00000320: 5e14 b43c 462d 64bd c4aa 123d 12d4 023d
00000330: fe81 773d b518 a6bc 675b d93c 3a39 b7bd
00000340: 1e36 4cba 8035 953c ffc8 ffbc c0b7 52bd
00000350: 4272 053b c127 8a3d 29a0 2d3d f89e 06bc

action_model._discrete_distribution.branches.0.bias f4 [3]
0.092912875 -0.19404423 0.08233121
00000000: 1b49 be3d 88b3 46be 449d a83d

action_model._discrete_distribution.branches.0.weight f4 [3, 216]
0.034024205 -0.0107237 -0.061439626 0.021928167 0.09610374 -0.052913837 0.030116908 0.060827114
0.02436863 0.09997901 0.13006373 0.052567113 0.08400804 0.090908155 0.013849317 -0.14514533
0.078325376 -0.19607228 0.048314933 -0.056333296 -0.15375324 0.03909048 -0.0578459 -0.056591593
0.06524948 -0.22855507 0.021961344 -0.11523438 0.19796485 -0.09268961 -0.15970904 -0.07528102
-0.0031182177 0.06003396 0.08364201 0.047010615 0.05957037 -0.0074858475 -0.15246288 0.0318124
0.06397205 0.1190203 -0.123749025 0.205579 -0.17945522 0.08274159 -0.10832719 -0.075552195
0.17030403 -0.0921145 -0.17146482 -0.00940396 -0.23454195 0.03352136 -0.064457804 0.01497472
-0.15053287 0.056051794 0.013673394 0.0748112 0.054158058 0.0059443647 0.008035099 -0.006367965
0.25892323 -0.040273283 0.11900729 -0.014024911 -0.06950629 0.09183222 0.120459765 -0.13441163
0.050268892 -0.060956277 0.05155281 0.053034496 0.04211733 0.0010276649 -0.12707914 -0.08202234
0.001516544 0.12427638 0.0665958 0.05129127 -0.030962624 0.08763109 0.015711447 -0.018769711
-0.11712601 -0.02934692 -0.045491975 -0.23595871 0.08552665 0.021945357 -0.15444095 -0.05506579
-0.0006985057 -0.07790521 -0.08001252 -0.051312454 -0.080109775 0.010381441 0.07094203 0.017001968
-0.20955804 -0.15880507 -0.19076274 0.13168608 0.04461614 0.13079648 -0.039277505 -0.05667992
-0.011611889 -0.028038865 0.09305702 0.14732867 -0.11009559 -0.1685927 0.00011256813 -0.028732873
-0.041650157 0.006779186 -0.08287019 -0.089401595 0.06645113 -0.2985822 -0.110750034 -0.011092401
0.06338447 -0.17098172 0.010131334 -0.07960863 0.027400952 -0.03370752 -0.09284232 -0.09698698
-0.19715329 -0.13399635 -0.16289645 -0.20384917 0.099037655 -0.07963141 -0.014384872 -0.016146902
-0.07243276 0.07370567 0.008897691 0.09981617 -0.010038691 -0.011256097 0.28350347 -0.04625188
0.015247162 -0.14886221 0.06674354 0.0622029 -0.16252935 -0.14456311 -0.20240703 -0.17182073
0.062816896 -0.06687421 0.021501964 -0.12159106 -0.10964352 -0.023612753 -0.0061367517 0.047431044
-0.11021527 0.11892926 0.04291238 -0.03962902 -0.090807356 -0.006475885 -0.041021854 -0.043359425
-0.047000274 0.12239923 0.028201882 0.028804868 -0.15024044 0.10896476 -0.07067592 -0.14698379
0.0055001276 -0.14517824 -0.007926757 -0.0067939367 0.01074493 -0.06061835 0.038689703 0.058205068
-0.042581763 0.024800608 -0.14799574 -0.12904549 0.018088926 -0.049660917 -0.054422803 0.07993725
0.21921408 0.13040008 -0.01759744 -0.16064933 -0.027015897 0.019890722 0.17185387 -0.021027338
-0.2510097 -0.2706939 0.09381295 0.1525804 -0.10027036 -0.2655961 -0.07736014 -0.053751275
0.03661491 0.19069642 0.036851984 0.0029031977 0.02024281 0.039687943 0.09642509 0.06913411
0.119927265 -0.03832288 -0.047633503 0.08041772 0.019299908 0.004157055 0.23314555 0.28347504
-0.018064743 -0.043754302 0.04025147 -0.028520418 0.003779928 0.07754187 -0.0041660923 -0.26617625
-0.012227365 0.069409594 0.040577434 -0.029897299 -0.016844207 -0.036171034 -0.029965555 -0.0778142
0.0718777 0.008174307 -0.08331544 -0.08685141 -0.09591045 0.0761011 0.028092481 0.045620967
00000000: f75c 0b3d 75b2 2fbc 1ea8 7bbd b3a2 b33c
00000010: 0ad2 c43d 2ebc 58bd bcb7 f63c da25 793d
00000020: b9a0 c73c ccc1 cc3d 6d2f 053e 9d50 573d
00000030: 680c ac3d 0e2e ba3d 3fe8 623c faa0 14be
00000040: 0e69 a03d 2cc7 48be e1e5 453d bebd 66bd
00000050: 7d71 1dbe 571d 203d d3ef 6cbd 96cc 67bd
00000060: 85a1 853d 570a 6abe 47e8 b33c 0100 ecbd
00000070: 4cb7 4a3e 0dd4 bdbd c48a 23be ef2c 9abd
00000080: 035b 4cbb 2be6 753d 814c ab3d 348e 403d
00000090: 0f00 743d d74b f5bb 3b1f 1cbe b84d 023d
000000a0: c703 833d eac0 f33d 2170 fdbd 4d83 523e
000000b0: 1cc3 37be 6c74 a93d a5da ddbd 1cbb 9abd
000000c0: 2e64 2e3e 87a6 bcbd 7994 2fbe 1113 1abc
000000d0: c42b 70be b24d 093d 7402 84bd 8758 753c
000000e0: 4a25 1abe 9196 653d 5f06 603c 9d36 993d
000000f0: d7d4 5d3d f2c8 c23b a6a5 033c 5daa d0bb
00000100: 9691 843e 99f5 24bd 18ba f33d bec8 65bc
00000110: 5059 8ebd 8812 bc3d 9cb3 f63d 34a3 09be
00000120: c1e6 4d3d 4aad 79bd 0a29 533d b33a 593d
00000130: 3983 2c3d b6b2 863a 0921 02be 54fb a7bd
00000140: c6c6 c63a 9d84 fe3d 6163 883d cb16 523d
00000150: 54a5 fdbc ee77 b33d 4bb5 803c f0c2 99bc
00000160: c3df efbd f468 f0bc cb55 3abd 299f 71be
00000170: 9928 af3d c0c6 b33c c525 1ebe aa8c 61bd
00000180: ed1b 37ba c48c 9fbd 9bdd a3bd 022d 52bd
00000190: 9810 a4bd eb16 2a3c 0e4a 913d b647 8b3c
000001a0: 6296 56be cc9d 22be 4f57 43be b7d8 063e
000001b0: 6abf 363d 83ef 053e 73e1 20bd 3429 68bd
000001c0: cb3f 3ebc c3b1 e5bc ae94 be3d 54dd 163e
000001d0: cc79 e1bd 91a3 2cbe 8e12 ec38 3461 ebbc
000001e0: 5b99 2abd ef23 de3b d9b7 a9bd 2f18 b7bd
000001f0: 8817 883d c4df 98be ead0 e2bd e7bc 35bc
00000200: b8cf 813d d515 2fbe e5fd 253c d909 a3bd
00000210: f677 e03c e610 0abd 1d24 bebd 1ca1 c6bd
00000220: 8de2 49be 5736 09be 54ce 26be d6bd 50be
00000230: 41d4 ca3d cb15 a3bd 87ae 6bbc 8246 84bc
00000240: a057 94bd 00f3 963d 9fc7 113c 6c6c cc3d
00000250: 5279 24bc 7e6b 38bc 5e27 913e 9c72 3dbd
00000260: 3ccf 793c 566f 18be d6b0 883d 78c8 7e3d
00000270: 186e 26be 5a08 14be ca43 4fbe c6f1 2fbe
00000280: 25a6 803d 59f5 88bd e324 b03c bc04 f9bd
00000290: c88c e0bd 886f c1bc ce16 c9bb 0e47 423d
000002a0: 8bb8 e1bd 2f91 f33d e4c4 2f3d 0a52 22bd
000002b0: 35f9 b9bd a933 d4bb 8806 28bd a799 31bd
000002c0: 5c83 40bd 73ac fa3d a207 e73c 30f8 eb3c
000002d0: a1d8 19be eb28 df3d 89be 90bd eb82 16be
000002e0: 6a3a b43b 9ba9 14be 3bdf 01bc ac9f debb
000002f0: 810b 303c f24a 78bd 1879 1e3d 7068 6e3d
00000300: 376a 2ebd a52a cb3c 328c 17be 8024 04be
00000310: 3a2f 943c 3f69 4bbd 72ea 5ebd 24b6 a33d
00000320: a879 603e 9987 053e 8228 90bc 4281 24be
00000330: 7150 ddbc def1 a23c 76fa 2f3e 8641 acbc
00000340: 5884 80be 6498 8abe 0121 c03d 093e 1c3e
00000350: 8c5a cdbd 36fc 87be fe6e 9ebd 4c2a 5cbd
00000360: 84f9 153d ec45 433e 1bf2 163d 9343 3e3b
00000370: 40d4 a53c d38f 223d 857a c53d 2f96 8d3d
00000380: 6d9c f53d 74f8 1cbd 591b 43bd 0cb2 a43d
00000390: d71a 9e3c e837 883b b5bd 6e3e a423 913e
000003a0: 83fc 93bc b637 33bd bade 243d a7a3 e9bc
000003b0: abb8 773b 46ce 9e3d b783 88bb 4148 88be
000003c0: 4955 48bc 9e26 8e3d 8634 263d 2eeb f4bc
000003d0: ddfc 89bc 1428 14bd 537a f5bc 0d5d 9fbd
000003e0: 9e34 933d 87ed 053c 49a1 aabd 27df b1bd
000003f0: b36c c4bd e5da 9b3d 3422 e63c 0ddd 3a3d

action_model._discrete_distribution.branches.1.bias f4 [3]
-0.018601459 0.120136485 -0.10554799
00000000: 1662 98bc 1e0a f63d 8b29 d8bd

action_model._discrete_distribution.branches.1.weight f4 [3, 216]
-0.061558235 0.19347963 -0.1229593 -0.18248707 -0.13578923 -0.03950526 -0.18349393 0.032095898
0.07289262 -0.27712643 -0.10331568 0.06500811 0.08370397 -0.15097424 0.06308206 -0.06276545
-0.085959256 0.044565286 0.0026070226 -0.14785326 0.032994203 0.13163774 0.0753369 0.015127535
0.025149642 0.1238405 -0.009835905 0.08126115 -0.031862095 0.082282536 0.020654824 0.015273743
-0.16272335 0.12392634 -0.09442672 0.1068748 -0.11932007 -0.035242457 -0.13055603 -0.19701292
0.20247759 -0.009594111 0.08444573 0.1094931 0.13374493 -0.015244968 -0.031921208 -0.09740248
0.19029985 0.05210967 -0.22514945 0.22913606 0.058778897 0.054139763 0.062867895 0.19519202
-0.11000357 -0.1453898 -0.16119182 -0.28473052 0.023811497 -0.06743396 -0.2308321 0.035404734
0.089240216 0.020349761 -0.22207499 0.04454604 -0.15454176 -0.1596289 -0.052537873 -0.11323525
0.19591366 0.025130805 0.26533684 0.049435146 -0.26781642 -0.090181574 -0.0026637379 0.040632684
-0.10740772 0.06174971 -0.05120792 0.042459972 -0.116239615 0.16157086 -0.1822408 0.01815018
0.2975204 -0.1157214 0.021999123 0.04627005 -0.10781907 0.12229718 0.044346463 0.06800719
0.2525088 -0.0048028925 0.004754128 0.16750826 0.033983435 -0.065928295 -0.008205663 -0.14421128
0.05142417 0.14119425 -0.03790991 0.05442135 0.0068899747 0.05900484 0.04599862 -0.022236215
0.038826644 -0.058241464 0.12181779 -0.13211317 -0.06656072 0.09562721 0.012070149 -0.18548436
0.0561908 0.07378626 0.12952591 0.08812614 0.04473396 0.08625155 -0.02326275 0.18813962
0.037624627 -0.012483131 -0.036975216 0.054652598 -0.025559824 -0.10060829 -0.04416821 -0.14824794
0.08288509 -0.01473904 0.119403586 0.06582172 -0.17597577 0.09957099 -0.071754254 0.13492
0.081308916 0.07688434 0.003748443 -0.045520473 0.018133258 0.00049910415 0.049712695 -0.012915451
-0.019377997 -0.010944469 0.084829755 0.0725172 -0.000781187 -0.029751025 -0.004991133 -0.188084
-0.020118702 -0.059429444 0.05443447 -0.04613025 -0.012842376 -0.07951948 -0.12609796 -0.11058536
-0.1398108 0.09845306 -0.16892636 -0.06965764 0.06624397 0.12875365 0.17928644 -0.1858273
0.05462705 -0.13066524 -0.14861386 -0.14729561 0.10866221 0.09572021 0.11460643 -0.031874344
0.035854783 -0.032210454 -0.02240141 0.059081618 0.08007598 -0.007317065 0.1105758 -0.013774795
-0.073735625 0.11778002 0.07344013 0.029822713 0.070050955 0.067347795 0.15699115 0.1927017
0.19371088 0.10986263 0.13389982 0.017860215 0.11672366 0.041962106 0.115976445 -0.07510636
-0.13700207 0.1383445 -0.014500244 0.1478473 0.08471116 0.12671685 0.1465845 0.061351184
-0.058253895 -0.20286754 0.009350126 0.0917797 0.20908292 0.07379532 0.10178496 0.1927298
0.012341858 0.4430958 0.08360304 -0.07242145 -0.036972173 0.2212129 -0.21440937 -0.05569484
0.024155289 -0.014203233 0.039407387 0.08581443 -0.13893406 -0.09554505 -0.0068868552 0.058265053
-0.009036373 -0.16918242 -0.015548628 -0.046412066 -0.0050924104 -0.17421575 -0.2352318 0.046410717
0.19766971 -0.04900686 -0.2053078 0.072322905 0.03757755 0.017217105 0.14634217 0.0030253357
00000000: 7d24 7cbd 861f 463e 16d2 fbbd e4dd 3abe
00000010: 550c 0bbe 44d0 21bd d5e5 3bbe fd76 033d
00000020: ba48 953d 84e3 8dbe 2c97 d3bd f922 853d
00000030: fd6c ab3d fe98 1abe 2b31 813d 2c8b 80bd
00000040: 680b b0bd 178a 363d 95da 2a3b d866 17be
00000050: ee24 073d 0bcc 063e 3c4a 9a3d 7bd9 773c
00000060: 9f06 ce3c 17a0 fd3d c726 21bc 3f6c a63d
00000070: d481 02bd bf83 a83d 4e34 a93c b93e 7a3c
00000080: f3a0 26be 18cd fd3d cc62 c1bd 2de1 da3d
00000090: 155e f4bd 655a 10bd 7bb0 05be c1bd 49be
000000a0: 4956 4f3e 9e30 1dbc e2f1 ac3d eb3d e03d
000000b0: 6ef4 083e 08c6 79bc d0bf 02bd f47a c7bd
000000c0: f7dd 423e f370 553d 948d 66be a5a2 6a3e
000000d0: 24c2 703d a8c1 5d3d e2c0 803d 6be0 473e
000000e0: 8d49 e1bd 10e1 14be 780f 25be 33c8 91be
000000f0: 5410 c33c d11a 8abd 405f 6cbe 8e04 113d
00000100: 93c3 b63d 8bb4 a63c a067 63be e975 363d
00000110: 3240 1ebe c275 23be f431 57bd e2e7 e7bd
00000120: 979d 483e 1edf cd3c 3bda 873e 827c 4a3d
00000130: 3c1f 89be 1eb1 b8bd 1b92 2ebb 756e 263d
00000140: 94f8 dbbd 44ed 7c3d 65bf 51bd 82ea 2d3d
00000150: 090f eebd d572 253e 559d 3abe b0af 943c
00000160: 9854 983e 57ff ecbd 8137 b43c aa85 3d3d
00000170: 3fd0 dcbd f276 fa3d a3a4 353d 5b47 8b3d
00000180: d548 813e 9561 9dbb 84c8 9b3b 4987 2b3e
00000190: 3732 0b3d 6a05 87bd 0c71 06bc 1fac 13be
000001a0: 27a2 523d 3a95 103e 6c47 1bbd ece8 5e3d
000001b0: 4cc5 e13b 0faf 713d 0d69 3c3d b928 b6bc
000001c0: b008 1f3d 9a8e 6ebd 9b7b f93d ad48 07be
000001d0: fd50 88bd 33d8 c33d e0c1 453c 9def 3dbe
000001e0: 5328 663d 401d 973d 71a2 043e 7a7b b43d
000001f0: f53a 373d a7a4 b03d 8691 bebc aca7 403e
00000200: 481c 1a3d 0c86 4cbc 5373 17bd 67db 5f3d
00000210: d662 d1bc b80b cebd bae9 34bd 4fce 17be
00000220: a8bf a93d 047c 71bc de89 f43d 8acd 863d
00000230: fe32 34be e0eb cb3d e5f3 92bd 7828 0a3e
00000240: 4a85 a63d 8975 9d3d 70a8 753b ad73 3abd
00000250: 338c 943c 50d6 023a 8a9f 4b3d 549b 53bc
00000260: 9bbe 9ebc 6e50 33bc 39bb ad3d e683 943d
00000270: 92c8 4cba 6cb8 f3bc a98c a3bb 1899 40be
00000280: facf a4bc 4a6c 73bd aef6 5e3d 13f3 3cbd
00000290: d468 52bc 1cdb a2bd d31f 01be 947a e2bd
000002a0: 902a 0fbe c2a1 c93d 08fb 2cbe aaa8 8ebd
000002b0: ebaa 873d ffd7 033e dd96 373e 8349 3ebe
000002c0: 9dc0 5f3d 1ccd 05be 3b2e 18be a9d4 16be
000002d0: 4b8a de3d f508 c43d c7b6 ea3d ac8e 02bd
000002e0: 77dc 123d 1cef 03bd 2983 b7bc 91ff 713d
000002f0: e0fe a33d fdc3 efbb 9175 e23d aeaf 61bc
00000300: b402 97bd a736 f13d c767 963d c34e f43c
00000310: e076 8f3d a4ed 893d 4ac2 203e 9853 453e
00000320: 255c 463e a9ff e03d 091d 093e 964f 923c
00000330: d00c ef3d 75e0 2b3d 0f85 ed3d 5dd1 99bd
00000340: 454a 0cbe 2eaa 0d3e 6e92 6dbc 4865 173e
00000350: 0b7d ad3d 10c2 013e 3f1a 163e 614b 7b3d
00000360: a39b 6ebd 82bc 4fbe 4531 193c fff6 bb3d
00000370: d519 563e 0022 973d a274 d03d f65a 453e
00000380: 8135 4a3c 74dd e23e 1238 ab3d b251 94bd
00000390: 2270 17bd a285 623e 218e 5bbe 4620 64bd
000003a0: 50e1 c53c adb4 68bc a469 213d 7abf af3d
000003b0: bb44 0ebe 20ad c3bd 21ab e1bb 56a7 6e3d
000003c0: 4c0d 14bc 283e 2dbe acbf 7ebc 941a 3ebd
000003d0: 3cde a6bb 9d65 32be 9be0 70be 2a19 3e3d
000003e0: ee69 4a3e 6bbb 48bd 353c 52be 081e 943d
000003f0: ebea 193d e30a 8d3c b9da 153e b644 463b

action_model._discrete_distribution.branches.2.bias f4 [3]
0.006868258 -0.037181318 0.03339221
00000000: 200f e13b 704b 18bd 45c6 083d

action_model._discrete_distribution.branches.2.weight f4 [3, 216]
0.025789384 -0.0276158 -0.08550655 0.102154665 -0.031504843 0.09587929 0.090304114 0.04489452
0.03993651 -0.027291186 -0.0780674 -0.0021498362 -0.13146016 0.053323023 -0.20624891 -0.0020081103
0.020649396 0.019753901 0.010553799 -0.02048229 0.15320478 -0.17097755 -0.103656344 -0.06746298
0.076348744 -0.17143041 0.13373403 -0.015019237 0.24895284 0.035873033 -0.048487328 0.040970474
0.008519042 -0.013535959 0.1043615 0.08396294 -0.0010311243 -0.0017589913 0.033300374 0.020012436
-0.017094579 -0.021448974 -0.052224845 -0.035518322 -0.0051733586 -0.052157853 0.0017474722 0.09551809
0.035735153 0.09906683 0.04071233 0.27341357 -0.02618772 0.16963272 -0.044899322 -0.057525806
-0.038625572 0.03673733 -0.0056442907 0.17136203 -0.03596993 0.008950926 0.04003898 0.0512746
0.10956857 -0.08103531 -0.05184155 0.042001 -0.25120342 -0.043559372 0.16991977 -0.0900333
0.076587595 -0.014446668 0.17577587 -0.07812657 -0.112898424 0.15483701 0.046568464 -0.057035405
-0.04085559 -0.086460665 -0.26053533 -0.050318446 -0.1297197 -0.11407879 0.20674682 0.046507884
0.043277323 0.0037526852 0.04087042 -0.08693489 0.10914232 0.04261917 0.20155218 0.100164555
0.0966556 0.009088676 0.010383112 0.024790958 0.02227273 -0.012016395 0.0100525115 -0.015067681
-0.0877204 0.09370207 -0.10429517 0.14295307 -0.03569095 0.027052427 0.012778259 0.18577828
0.0070439354 0.039532512 0.05946134 -0.030552214 -0.0797668 -0.009270018 -0.17663828 -0.09853353
0.09168769 -0.08527575 -0.03370878 -0.09311179 0.17044774 -0.0060688546 0.06733344 -0.0278487
-0.016859686 0.05695347 0.013247712 0.1292409 0.04569841 -0.025554556 0.06078787 -0.059404787
0.11628448 -0.0031963664 0.07710039 0.16557565 0.021317936 -0.08774554 0.15512201 -0.01721937
0.13791853 0.0025179998 0.10454367 -0.039483007 -0.041198958 -0.015055377 -0.018527657 0.05989287
0.08345371 -0.0018510005 0.12583108 0.052806266 -0.025925428 -0.020454748 -0.109896615 0.1024653
0.16202475 0.0071913563 0.03999785 -0.101995885 0.018171886 0.07551304 -0.003911669 0.001103676
-0.06050974 0.005498523 -0.06004183 0.026365865 -0.017337618 0.054220866 -0.15627193 -0.20789576
0.030936684 0.025314223 -0.2039848 0.06397454 -0.20014995 -0.123204395 -0.124778174 0.12698741
-0.11377943 -0.0055577625 -0.020774962 -0.083270244 -0.04289356 0.03749504 0.25973675 -0.13551973
-0.20360743 0.06608923 0.15724123 0.08971477 -0.0066293646 -0.21114512 0.21442723 -0.037819363
-0.015338862 0.096365444 0.09736115 -0.22122999 -0.04746026 -0.26971364 0.06723206 -0.116652235
-0.086614445 -0.042751614 0.08583587 -0.09059419 -0.03337389 0.19533019 -0.045109767 -0.018953692
0.011131457 -0.106803864 0.06424196 -0.022557737 -0.062932715 0.008483954 0.014620548 -0.029760202
-0.084592216 0.08683074 0.018267937 -0.013219283 0.03433738 0.047432784 0.18734963 0.05188013
-0.11198308 -0.06259514 0.04413827 -0.13524899 0.019782793 -0.045349717 -0.14110418 0.1348717
-0.06153344 0.1283718 -0.11201305 0.07821843 -0.17809002 0.003825902 0.07457715 0.03967664
-0.013266075 -0.18363869 0.074169524 0.062863685 -0.008773695 -0.10018996 -0.017820716 -0.012615241
00000000: 4244 d33c 883a e2bc 0f1e afbd 7736 d13d
00000010: 390b 01bd 5c5c c43d 5df1 b83d 51e3 373d
00000020: 7794 233d c491 dfbc cde1 9fbd 44e4 0cbb
00000030: 7e9d 06be 3e69 5a3d ea32 53be 809a 03bb
00000040: ec28 a93c efd2 a13c d7e9 2c3c 7aca a7bc
00000050: b7e1 1c3e bd14 2fbe c749 d4bd 082a 8abd
00000060: bb5c 9c3d 748b 2fbe 93f1 083e 3f13 76bc
00000070: 7eed 7e3e 9aef 123d a69a 46bd a8d0 273d
00000080: 7493 0b3c edc5 5dbc 7bbb d53d c3f4 ab3d
00000090: ca26 87ba f48d e6ba f965 083d 1ff1 a33c
000000a0: ee09 8cbc c2b5 afbc b8e9 55bd a97b 11bd
000000b0: 4785 a9bb 79a3 55bd 700b e53a fd9e c33d
000000c0: 065f 123d 8de3 ca3d f9c1 263d ddfc 8b3e
000000d0: a187 d6bc 33b4 2d3e 5ae8 37bd 2ea0 6bbd
000000e0: d935 1ebd e279 163d bef3 b8bb 8779 2f3e
000000f0: 3555 13bd e8a6 123c eaff 233d 5105 523d
00000100: 7d65 e03d d7f5 a5bd ce57 54bd 3e09 2c3d
00000110: bc9d 80be 506b 32bd 73ff 2d3e 6163 b8bd
00000120: f5d9 9c3d b8b1 6cbc 97fe 333e d300 a0bd
00000130: 4a37 e7bd 988d 1e3e 93be 3e3d f59d 69bd
00000140: 3158 27bd 4a12 b1bd e364 85be b71a 4ebd
00000150: 3ed5 04be 24a2 e9bd 70b5 533e 0d7f 3e3d
00000160: 9043 313d 9cef 753b be67 273d eb0a b2bd
00000170: 0286 df3d 7091 2e3d b263 4e3e 1323 cd3d
00000180: 5ff3 c53d ace8 143c ee1d 2a3c 6816 cb3c
00000190: 4d75 b63c 6ae0 44bc 4ab3 243c 6fde 76bc
000001a0: c1a6 b3bd dfe6 bf3d b598 d5bd 4a62 123e
000001b0: ac30 12bd 0d9d dd3c e75b 513c a93c 3e3e
000001c0: d0d0 e63b d8ec 213d bc8d 733d a348 fabc
000001d0: c75c a3bd 46e1 17bc aae0 34be f3cb c9bd
000001e0: c1c6 bb3d 0da5 aebd 3812 0abd 65b1 bebd
000001f0: da89 2e3e 3edd c6bb 1de6 893d f522 e4bc
00000200: 531d 8abc 0b48 693d ee0c 593c ba57 043e
00000210: 422e 3b3d ca57 d1bc b4fc 783d 6f52 73bd
00000220: 8f26 ee3d 217a 51bb cfe6 9d3d aa8c 293e
00000230: f4a2 ae3c efb3 b3bd 4ed8 1e3e a30f 8dbc
00000240: 843a 0d3e 0705 253b fe1a d63d efb8 21bd
00000250: 3dc0 28bd d4aa 76bc 50c7 97bc 3a52 753d
00000260: c7e9 aa3d 459d f2ba ddd9 003e 624b 583d
00000270: 9061 d4bc b790 a7bc 7a11 e1bd 54d9 d13d
00000280: d1e9 253e 78a5 eb3b c9d4 233d 38e3 d0bd
00000290: 35dd 943c 95a6 9a3d 752d 80bb 39a9 903a
000002a0: 10d9 77bd f42c b43b 6cee 75bd 3afd d73c
000002b0: 9f07 8ebc b316 5e3d c005 20be a0e2 54be
000002c0: ee6e fd3c c65f cf3c 64e1 50be 1505 833d
000002d0: 1cf4 4cbe 9652 fcbd b38b ffbd fd08 023e
000002e0: 3105 e9bd e41d b6bb 4130 aabc 9789 aabd
000002f0: 28b1 2fbd 6694 193d 37fc 843e afc5 0abe
00000300: 777e 50be ca59 873d d803 213e 61bc b73d
00000310: 243b d9bb 6d36 58be d092 5b3e 7ae8 1abd
00000320: da4f 7bbc 3f5b c53d 4865 c73d 1d8a 62be
00000330: b165 42bd e817 8abe f6b0 893d 5ee7 eebd
00000340: ea62 b1bd 511c 2fbd b7ca af3d 7289 b9bd
00000350: 0fb3 08bd a304 483e 05c5 38bd c644 9bbc
00000360: b760 363c fcbb dabd 4a91 833d 01cb b8bc
00000370: dee2 80bd 4800 0b3c 068b 6f3c abcb f3bc
00000380: af3e adbd 51d4 b13d a4a6 953c b195 58bc
00000390: 5aa5 0c3d e148 423d 95d8 3f3e 4280 543d
000003a0: 6357 e5bd e131 80bd 55ca 343d b67e 0abe
000003b0: 860f a23c a0c0 39bd 9d7d 10be cf1b 0a3e
000003c0: 7d0a 7cbd e673 033e 1967 e5bd fc30 a03d
000003d0: 3b5d 36be fcbb 7a3b e8bb 983d f983 223d
000003e0: f459 59bc c80b 3cbe 31e6 973d adbe 803d
000003f0: 8bbf 0fbc 6530 cdbd c0fc 91bc 28b0 4ebc

network_body.linear_encoder.seq_layers.0.bias f4 [216]
-0.009839777 0.014921599 0.007337699 0.0372414 0.05077328 -0.07705404 0.022624128 0.003395644
-0.05229441 -0.00045920946 -0.03301042 -0.044711027 0.0013378208 -0.04273162 -0.03958384 -0.008508563
-0.017987082 -0.015099074 -0.03509005 0.06882125 -0.014988471 0.015609372 0.039268125 -0.042495597
-0.052384693 -0.035275843 -0.09847801 0.042186677 -0.03687593 0.018886462 0.121883295 0.00534956
-0.04143803 -0.051271994 0.056383822 -0.0006736702 -0.013267058 -0.093850955 -0.071797416 -0.054635245
0.034439404 0.024687495 -0.027225971 -0.021620514 -0.024367288 -0.028280698 -0.10024603 0.017350936
-0.025019616 -0.026443468 0.0016075874 0.102924824 0.063938126 -0.017039256 -0.016001545 0.031657033
-0.060523584 -0.079740584 -0.00799422 -0.018218024 -0.010797593 0.011540409 -0.04655035 7.9242964e-05
-0.050504442 -0.0060995775 -0.020074172 -0.0039085215 -0.022535319 0.0076630376 -0.040756106 0.0047239293
-0.062429175 -0.037773598 -0.044538982 0.0009189031 0.039999086 0.020031655 0.042336855 -0.021107655
0.021009564 0.046652544 -0.0025405802 -9.914136e-05 0.031165047 0.025042169 0.0083109895 -0.0123819085
0.054817 -0.016598808 0.012484527 0.056489013 0.029561745 -0.07013407 -0.0033632186 -0.01859327
-0.002904333 0.081391856 0.008913924 0.059220307 -0.018972503 0.013815719 -0.04643267 -0.0007018112
-0.024991546 -0.011518358 -0.083034374 -0.039464794 0.022939533 0.080099076 -0.0016171576 0.016662218
-0.05462653 0.00425117 -0.004560509 -0.03314768 -7.4349705e-06 0.023897609 -0.020057358 -0.026925476
0.057026632 -0.008438608 -0.04479391 -0.022198817 0.007311958 -0.046675783 0.008274037 -0.008354412
-0.026688175 -0.043989483 -0.007826586 -0.024913292 -0.011882334 0.016359286 -0.06825364 -0.08409921
-0.06929072 0.01995489 -0.048369844 -0.018505126 -0.021362394 0.07038165 -0.017746313 -0.06335339
-0.023980996 -0.072902 -0.059671313 -0.0529561 0.011951517 -0.057778172 -0.058454033 0.016765676
-0.048978187 -0.04812095 -0.04963223 -0.102848716 0.027518792 0.08291 0.0012012231 -0.0017603806
-0.049226232 0.016511053 0.054569133 0.009933026 0.035814364 0.00494839 -0.027802346 -0.03898492
-0.01651916 -0.03399234 0.008582958 0.0783238 -0.056504127 0.052221045 -0.06289042 0.03596312
-0.090256564 -0.014758914 0.072364815 -0.0025662475 0.020557182 -0.07023068 -0.010097083 0.049084976
0.06137308 -0.03827969 -0.07125267 -0.05572554 -0.007019695 0.0076036626 -0.102495626 -0.030017236
-0.056591995 -0.005345184 0.007715798 -0.041937575 -0.04251784 0.061925888 -0.029604184 0.0036063055
0.052598156 0.043747153 0.015003378 0.006223043 -0.097927086 -0.04341765 -0.06542159 0.05267024
0.036524966 -0.085007675 -0.0052631474 0.020608725 -0.060587823 0.0020610765 -0.025381565 -0.029284464
00000000: 0437 21bc b979 743c 1571 f03b 708a 183d
00000010: a5f7 4f3d 82ce 9dbd 3c56 b93c 7489 5e3b
00000020: aa32 56bd 0dc2 f0b9 ef35 07bd e922 37bd
00000030: d159 af3a 5a07 2fbd aa22 22bd 8067 0bbc
00000040: a559 93bc 1b62 77bc 96ba 0fbd 28f2 8c3d
00000050: 3492 75bc 74be 7f3c 9dd7 203d dd0f 2ebd
00000060: 5591 56bd 677d 10bd d7ae c9bd f0cb 2c3d
00000070: 370b 17bd c8b7 9a3c f39d f93d 5d4b af3b
00000080: ecba 29bd 9502 52bd b9f2 663d 3e99 30ba
00000090: 135e 59bc ee34 c0bd 860a 93bd 35c9 5fbd
000000a0: 5510 0d3d 6e3d ca3c 0009 dfbc 811d b1bc
000000b0: e89d c7bc ecac e7bc ca4d cdbd 8d23 8e3c
000000c0: f0f5 ccbc f99f d8bc afb5 d23a 40ca d23d
000000d0: fef1 823d e995 8bbc ac15 83bc ceaa 013d
000000e0: 94e7 77bd 084f a3bd 30fa 02bc f73d 95bc
000000f0: 63e8 30bc fc13 3d3c 94ab 3ebd 3e2f a638
00000100: bfdd 4ebd f7de c7bb 9772 a4bc 0e13 80bb
00000110: fd9b b8bc 381a fb3b e0ef 26bd 31cb 9a3b
00000120: bcb5 7fbd 7db8 1abd 826e 36bd 8be2 703a
00000130: 15d6 233d 6d19 a43c 6969 2d3d f6e9 acbc
00000140: 401c ac3c bd16 3f3d dd7f 26bb 1dea cfb8
00000150: d74d ff3c 3c25 cd3c d12a 083c 7ddd 4abc
00000160: ca87 603d 39fa 87bc e78b 4c3c 0661 673d
00000170: 792b f23c 74a2 8fbd 7269 5cbb ea50 98bc
00000180: 9f56 3ebb c6b0 a63d b50b 123c fe90 723d
00000190: 396c 9bbc 535b 623c 2f30 3ebd c1f9 37ba
000001a0: 12bb ccbc 7fb7 3cbc ed0d aabd d6a5 21bd
000001b0: b0eb bb3c fc0a a43d cef6 d3ba 347f 883c
000001c0: 11c0 5fbd 664d 8b3b 5370 95bb ddc5 07bd
000001d0: e979 f9b6 ebc4 c33c 544f a4bc d192 dcbc
000001e0: c294 693d 1642 0abc d279 37bd 4bda b5bc
000001f0: 2699 ef3b 1b2f 3fbd d48f 073c f2e0 08bc
00000200: 29a1 dabc 512e 34bd 153b 00bc f616 ccbc
00000210: 1fae 42bc e903 863c 90c8 8bbd 353c acbd
00000220: 4be8 8dbd 7078 a33c 751f 46bd 1098 97bc
00000230: 3000 afbc 4124 903d b760 91bc 6cbf 81bd
00000240: cb73 c4bc a54d 95bd e869 74bd 7fe8 58bd
00000250: 4cd0 433c cea8 6cbd 7f6d 6fbd 2c58 893c
00000260: 5a9d 48bd 791a 45bd 2a4b 4bbd 59a2 d2bd
00000270: 176f e13c b8cc a93d 5c72 9d3a 92bc e6ba
00000280: 72a1 49bd 3042 873c e283 5f3d 21be 223c
00000290: 15b2 123d 1b26 a23b bfc1 e3bc a7ae 1fbd
000002a0: 3053 87bc 8d3b 0bbd 899f 0c3c 3a68 a03d
000002b0: df70 67bd bce5 553d b1cc 80bd 114e 133d
000002c0: 6fd8 b8bd 5fcf 71bc 0134 943d 7d2e 28bb
000002d0: 8967 a83c 1ad5 8fbd 3c6e 25bc 540d 493d
000002e0: 5762 7b3d 2acb 1cbd ebec 91bd 7740 64bd
000002f0: 7805 e6bb 2528 f93b 3ae9 d1bd b5e6 f5bc
00000300: 02cd 67bd a726 afbb ced4 fc3b bcc6 2bbd
00000310: 3027 2ebd 00a6 7d3d 7984 f2bc c457 6c3b
00000320: 2a71 573d 3730 333d bad0 753c abea cb3b
00000330: ff8d c8bd b5d6 31bd c1fb 85bd c0bc 573d
00000340: 349b 153d 8118 aebd 7b76 acbb a1d3 a83c
00000350: f02a 78bd 2013 073b 00ed cfbc f9e5 efbc

network_body.linear_encoder.seq_layers.0.weight f4 [216, 121]
0.08620781 -0.014225165 0.08734379 0.024700478 0.13622934 -0.11612838 -0.17377928 0.011986019
0.18795052 0.30850506 -0.042251028 -0.10281052 0.07490462 0.009537277 -0.014466302 -0.25450188
-0.12627576 -0.0009383069 0.046700694 -0.11461432 0.28026068 -0.26593018 -0.05734923 0.08131545
-0.120649986 -0.3621786 -0.021465778 -0.12282054 0.02786463 0.3963745 -0.036200777 -0.23442204
-0.14702162 -0.09518385 -0.18372588 0.06302881 -0.20497298 -0.006621571 0.043260086 0.060414296
-0.051820483 -0.007894279 -0.08067782 -0.2029162 0.055235635 0.17886965 0.037828866 -0.12066061
-0.008945996 -0.14851 0.10280339 0.110496484 -0.23782432 -0.14548056 0.100630954 -0.034893516
0.0631388 -0.3043986 -0.09923894 -0.1129917 -0.058235504 0.02427887 -0.0050861933 0.20934409
-0.14149378 -0.15987802 -0.23850833 -0.077818595 -0.09118891 0.014381326 0.19794872 0.014667695
0.26827937 -0.034008604 -0.06900287 -0.19637255 0.15737072 0.11181573 -0.18581104 -0.13874757
0.21070658 -0.12571837 0.2408172 0.0072429446 0.09628666 -0.01684804 0.15681116 0.14587769
-0.22861877 0.16636726 0.07131225 0.070541315 -0.13866754 0.09369476 0.007943956 -0.12052327
0.017576719 0.025350828 -0.15847385 0.08099274 0.10489962 0.089722395 0.071297355 -0.13994715
0.10380761 0.008109048 0.16238293 0.12313533 0.18168493 0.016823847 -0.12537952 0.13810278
0.12619455 -0.015032009 -0.12695973 0.09850617 -0.0031637757 0.13845749 0.21169361 -0.1633968
0.08353032 -0.09620347 -0.089085825 -0.1376679 -0.035054147 -0.16407873 0.1206259 0.15587503
-0.081944846 -0.064380795 0.039951168 -0.07899178 -0.06174167 -0.3198402 0.030908171 0.009116782
-0.057078853 -0.22858666 -0.026160501 -0.32349294 0.14813942 0.14513376 -0.024059266 -0.031472217
0.12271814 0.118483946 -0.18447351 -0.06427916 -0.0035711173 0.39387468 0.1952185 0.0022533545
-0.047724776 0.20415153 -0.015161012 -0.042015385 -0.052783176 0.16378024 -0.15441428 0.27586237
-0.071657345 -0.10538783 0.15641001 -0.14470641 -0.012728634 0.058860496 0.032175425 0.17089817
-0.03067351 -0.06702345 -0.10268812 -0.12871638 0.024609286 -0.11959362 0.28834176 0.15926372
0.054970875 -0.044810604 -0.12383805 -0.1377262 0.08344377 -0.22563204 0.047596827 0.21584003
0.10272363 0.0059697186 -0.100041054 -0.13833347 -0.17201939 -0.30469054 -0.21266535 0.2912391
0.012357844 -0.155104 0.1286147 0.053468518 -0.010268008 -0.3974692 -0.0005643739 -0.13610269
-0.014941131 -0.38203475 0.1669644 0.1971405 0.020557875 -0.15692134 0.19567356 -0.017277414
0.107032694 -0.02218133 0.36437953 -0.091512814 0.05034732 0.27890238 -0.23688704 -0.03524188
0.006966221 -0.20366772 -0.039190408 0.075062834 -0.098669425 -0.28176162 -0.19128269 -0.14669009
0.034418773 0.089350045 0.14297529 -0.031641494 -0.020869207 -0.028475538 -0.0008776511 -0.06194649
0.08034027 0.04132716 0.11879301 -0.17597105 0.09177729 0.013745121 -0.38291377 -0.09287271
-0.04074096 -0.003489537 0.04556972 -0.09020921 -0.27017957 -0.044792835 0.018407801 0.1536912
0.009506419 0.16310398 -0.03120609 0.29852575 0.22691105 0.03123555 -0.10591924 0.0052038766
00000000: b88d b03d ab10 69bc 4de1 b23d a858 ca3c
00000010: b47f 0b3e b7d4 edbd 32f3 31be 0261 443c
00000020: 1a76 403e 60f4 9d3e 6a0f 2dbd 528e d2bd
00000030: 9867 993d 3d42 1c3c 1104 6dbc 124e 82be
00000040: 6f4e 01be b6f8 75ba 3a49 3f3d eaba eabd
00000050: 547e 8f3e 0028 88be 07e7 6abd b788 a63d
00000060: 5717 f7bd 796f b9be 00d9 afbc 5689 fbbd
00000070: 5d44 e43c 99f1 ca3e 4447 14bd 550c 70be
00000080: d68c 16be c0ef c2bd a322 3cbe 4015 813d
00000090: 70e4 51be c3f9 d8bb 7d31 313d fb74 773d
000000a0: b741 54bd 0257 01bc 6a3a a5bd 44c9 4fbe
000000b0: c33e 623d 9b29 373e 71f2 1a3d e91c f7bd
000000c0: 3a92 12bc 0113 18be 958a d23d fb4b e23d
000000d0: 3888 73be dbf8 14be 9a17 ce3d 81ec 0ebd
000000e0: ea4e 813d 22da 9bbe c93d cbbd 3168 e7bd
000000f0: 5a88 6ebd 7be4 c63c 15aa a6bb 4c5e 563e
00000100: bfe3 10be 10b7 23be 873b 74be 5b5f 9fbd
00000110: 40c1 babd a79f 6b3c 12b3 4a3e c650 703c
00000120: ea5b 893e 9b4c 0bbd 6051 8dbd e315 49be
00000130: ca25 213e a5ff e43d 4045 3ebe d813 0ebe
00000140: 77c3 573e 51bc 00be c998 763e 3956 ed3b
00000150: f131 c53d e704 8abc 1b93 203e f660 153e
00000160: 0a1b 6abe 2e5c 2a3e 280c 923d f777 903d
00000170: ddfe 0dbe 0ae3 bf3d 5e27 023c e7d4 f6bd
00000180: 0dfd 8f3c 8aac cf3c f846 22be 86df a53d
00000190: 9dd5 d63d 60c0 b73d 5904 923d 4e4e 0fbe
000001a0: 1699 d43d d0db 043c b647 263e 602e fc3d
000001b0: 9d0b 3a3e 2ad2 893c 7d63 00be d16a 0d3e
000001c0: 2539 013e d148 76bc bb01 02be 9abd c93d
000001d0: 5957 4fbb cdc7 0d3e 36c6 583e 7e51 27be
000001e0: f211 ab3d 5306 c5bd a172 b6bd d0f8 0cbe
000001f0: f094 0fbd 4104 28be b60a f73d b49d 1f3e
00000200: b3d2 a7bd 14da 83bd d6a3 233d 71c6 a1bd
00000210: d5e4 7cbd 18c2 a3be 2233 fd3c 8e5e 153c
00000220: 84cb 69bd 9f12 6abe 8c4e d6bc dea0 a5be
00000230: dcb1 173e f29d 143e f017 c5bc 03e9 00bd
00000240: a653 fb3d b6a7 f23d a0e6 3cbe cba4 83bd
00000250: 6809 6abb f1a9 c93e 5ce7 473e 04ad 133b
00000260: 0e7b 43bd 190d 513e e565 78bc 5318 2cbd
00000270: 2c33 58bd 02b6 273e c71e 1ebe d53d 8d3e
00000280: 16c1 92bd 93d5 d7bd f229 203e eb2d 14be
00000290: c38b 50bc b417 713d 61ca 033d eeff 2e3e
000002a0: 0347 fbbc 9743 89bd 264e d2bd 3ace 03be
000002b0: 6a99 c93c 80ed f4bd 88a1 933e 0716 233e
000002c0: 2429 613d 538b 37bd ce9e fdbd 1908 0dbe
000002d0: 91e4 aa3d 160c 67be e4f4 423d 2b05 5d3e
000002e0: c460 d23d a19d c33b 53e2 ccbd 4aa7 0dbe
000002f0: da25 30be 6600 9cbe f2c4 59be 4b1d 953e
00000300: 8e78 4a3c 95d3 1ebe 92b3 033e ce01 5b3d
00000310: 263b 28bc 1581 cbbe 7ef2 13ba 815e 0bbe
00000320: a5cb 74bc 0f9a c3be b7f8 2a3e 33df 493e
00000330: fd68 a83c fdaf 20be a65e 483e 5d89 8dbc
00000340: f533 db3d 9fb5 b5bc f48f ba3e 126b bbbd
00000350: fe38 4e3d 4bcc 8e3e 8492 72be ca59 10bd
00000360: e644 e43b 458e 50be 1f86 20bd 8bba 993d
00000370: 3213 cabd 0f43 90be 9cdf 43be ed35 16be
00000380: b3fa 0c3d 28fd b63d 1d68 123e 839a 01bd
00000390: e6f5 aabc 8845 e9bc 2b12 66ba 9abb 7dbd
000003a0: 7189 a43d ab46 293d c049 f33d c131 34be
000003b0: bbf5 bb3d 3733 613c 460d c4be 0c34 bebd
000003c0: fedf 26bd b7b0 64bb 51a7 3a3d 9bbf b8bd
000003d0: fa54 8abe b178 37bd f5cb 963c 3a61 1d3e
000003e0: d0c0 1b3c bb04 273e eaa3 ffbc 5ed8 983e
000003f0: 5f5b 683e b2e1 ff3c 30ec d8bd 4885 aa3b

network_body.linear_encoder.seq_layers.2.bias f4 [216]
-0.09181187 -0.12553245 -0.005860893 -0.049618617 -0.11211623 0.035589166 -0.06544696 -0.022938898
-0.07149301 -0.084359735 0.010732495 0.0075809252 -0.068833806 -0.041097153 -0.053373955 -0.013248443
0.048400976 -0.02858516 -0.09290312 0.037009474 0.105517186 0.04375874 -0.084939346 0.015466716
-0.010905501 -0.034986548 -0.008269929 -0.028526274 -0.055051755 0.046022173 -0.026738465 0.0896009
-0.061741658 -0.03625611 -0.11285199 -0.059671637 -0.031608794 -0.008764794 -0.023755684 -0.017984357
0.0020121033 0.007709986 -0.053870715 0.019247858 -0.09865828 0.046266086 -0.03673568 -0.045194127
-0.100048766 0.005916266 -0.056582 0.062360957 -0.022015413 -0.039905243 -0.10396137 -0.040565766
0.0430018 0.078037485 -0.15035185 0.04226065 -0.059669923 0.04778468 0.06261838 0.0024313808
0.05219518 -0.08650142 -0.095083795 0.03214915 -0.13466413 -0.025413891 -0.04926015 -0.09920724
-0.041748192 -0.065558106 -0.021100102 0.018754346 0.000888702 -0.060985073 -0.022546299 -0.11862427
-0.06436655 0.055326268 -0.08531691 -0.007603741 -0.08440119 -0.12663211 -0.06041086 -0.0036305005
-0.06075578 -0.029595954 -0.0949706 0.015752135 -0.042636465 -0.0057737785 0.08027564 0.10977417
0.0086314 -0.06093911 -0.048742503 -0.06526273 0.057300903 -0.12740853 -0.00046705973 -0.0052781487
-0.13931413 -0.04003343 -0.0060376646 -0.0765126 -0.081633426 -0.08844573 -0.09251372 0.027437368
-0.049533583 0.040962547 -0.041460387 -0.08009278 0.02946863 -0.107213914 -0.017091801 -0.10125707
-0.091444045 -0.024779864 -0.08858981 -0.010154521 0.038405493 -0.04589837 0.03755314 0.0010568943
-0.035307657 -0.009144451 -0.046092536 0.04455812 0.026148567 0.0022275883 0.0116383005 0.024091944
-0.025670078 -0.04308401 0.06731802 0.073030315 -0.056103792 -0.1449634 -0.08091525 -0.0541169
-0.10161003 0.10427959 -0.057794273 -0.065187424 -0.102084614 -0.031069519 -0.086391926 0.049656745
-0.024675807 -0.038840875 -0.06951475 0.027147472 -0.09386954 0.025508229 -0.11285755 -0.041302674
-0.036418896 0.04869049 0.014085029 -0.024451725 0.018735772 0.021373583 -0.014511849 0.042469583
-0.064770944 0.06352907 -0.017449966 -0.02142601 -0.061529327 0.013189701 0.063091256 -0.06310299
-0.1330963 -0.083301716 0.020084834 -0.08892568 -0.036925666 -0.037960745 -0.05402103 -0.013805794
-0.03675425 -0.06406377 0.03158349 -0.04327857 -0.08706373 0.0023658855 0.026653798 -0.113688715
0.03476644 0.06599749 0.036041033 -0.07110046 0.04159336 -0.03032259 -0.13838194 0.037195936
-0.033338845 -0.1190171 -0.14675587 0.044051252 0.073968254 -0.020932313 -0.10328024 -0.038814608
0.017782569 -0.018942993 -0.053601276 -0.026536902 0.0754553 0.0023637891 0.017402852 0.020960357
00000000: dd07 bcbd 948b 00be bc0c c0bb e43c 4bbd
00000010: 329d e5bd f2c5 113d 0e09 86bd 5bea bbbc
00000020: ed6a 92bd ccc4 acbd 59d7 2f3c 6969 f83b
00000030: bdf8 8cbd 7d55 28bd a69e 5abd ff0f 59bc
00000040: 1a40 463d 6d2b eabc fe43 bebd 3f97 173d
00000050: 6519 d83d 5d3c 333d aef4 adbd 1c68 7d3c
00000060: fdac 32bc 0e4e 0fbd 997e 07bc efaf e9bc
00000070: f37d 61bd bf81 3c3d a00a dbbc ad80 b73d
00000080: d2e4 7cbd 4981 14bd f21e e7bd 3f6a 74bd
00000090: 3978 01bd 369a 0fbc 489b c2bc ee53 93bc
000000a0: 7edd 033b 0da4 fc3b 8aa7 5cbd afad 9d3c
000000b0: 5a0d cabd 8281 3d3d 2778 16bd 7a1d 39bd
000000c0: 5ee6 ccbd 3cdd c13b 87c2 67bd 346e 7f3d
000000d0: ab59 b4bc ae73 23bd b3e9 d4bd 4a28 26bd
000000e0: a822 303d 1ed2 9f3d d6f5 19be 8119 2d3d
000000f0: 7368 74bd deb9 433d 113e 803d cd57 1f3b
00000100: 9dca 553d a827 b1bd 4bbb c2bd d4ae 033d
00000110: 65e5 09be cb30 d0bc 03c5 49bd 2a2d cbbd
00000120: 2700 2bbd 5443 86bd 1fda acbc b7a2 993c
00000130: c8f7 683a 7ccb 79bd 04b3 b8bc 48f1 f2bd
00000140: 9cd2 83bd cc9d 623d a2ba aebd cd28 f9bb
00000150: 88da acbd d9ab 01be 6171 77bd b1ed 6dbb
00000160: 0edb 78bd 3773 f2bc f27f c2bd 9f0a 813c
00000170: 93a3 2ebd f731 bdbb 8e67 a43d 48d1 e03d
00000180: b76a 0d3c 4a9b 79bd 38a6 47bd 77a8 85bd
00000190: 5ab4 6a3d 6277 02be b2df f4b9 52f4 acbb
000001a0: 5da8 0ebe 18fa 23bd 9ad7 c5bb a3b2 9cbd
000001b0: 6d2f a7bd 0923 b5bd d577 bdbd 55c4 e03c
000001c0: bae3 4abd 58c8 273d 5ed2 29bd af07 a4bd
000001d0: 3268 f13c f892 dbbd 1b04 8cbc de5f cfbd
000001e0: 0447 bbbd 24ff cabc 936e b5bd 265f 26bc
000001f0: 144f 1d3d eeff 3bbd 52d1 193d 7d87 8a3a
00000200: c39e 10bd 9bd2 15bc 87cb 3cbd 9382 363d
00000210: 8535 d63c bbfc 113b 92ae 3e3c 785c c53c
00000220: 0e4a d2bc dc78 30bd 08de 893d eb90 953d
00000230: 17cd 65bd 4971 14be e5b6 a5bd afa9 5dbd
00000240: eb18 d0bd 8a90 d53d b0b9 6cbd fc80 85bd
00000250: bd11 d1bd 8185 febc 40ee b0bd df64 4b3d
00000260: eb24 cabc 9c17 1fbd c05d 8ebd 6064 de3c
00000270: ac3e c0bd a2f6 d03c dc21 e7bd fe2c 29bd
00000280: fb2b 15bd ae6f 473d e5c4 663c fc4e c8bc
00000290: c37b 993c a717 af3c 1bc3 6dbc 96f4 2d3d
000002a0: a1a6 84bd 871b 823d 3bf3 8ebc 9a85 afbc
000002b0: 2d06 7cbd 9e19 583c fd35 813d 243c 81bd
000002c0: 654a 08be 179a aabd f388 a43c ab1e b6bd
000002d0: 5e3f 17bd ba7c 1bbd 2845 5dbd b231 62bc
000002e0: a08b 16bd de33 83bd b15d 013d df44 31bd
000002f0: 784e b2bd f90c 1b3b 1159 da3c a1d5 e8bd
00000300: 4167 0e3d b129 873d c39f 133d 1e9d 91bd
00000310: cd5d 2a3d 1567 f8bc ffb3 0dbe c45a 183d
00000320: 508e 08bd 3dbf f3bd 2c47 16be 166f 343d
00000330: ab7c 973d 3e7a abbc 9784 d3bd 11fc 1ebd
00000340: c0ac 913c 562e 9bbc 038d 5bbd eb63 d9bc
00000350: 4f88 9a3d cde9 1a3b 6d90 8e3c 0eb5 ab3c

network_body.linear_encoder.seq_layers.2.weight f4 [216, 216]
-0.14472187 0.075258724 0.13925397 -0.005683507 0.06297928 0.027804501 0.19596894 -0.05298745
-0.18462245 -0.02881932 -0.08617644 -0.093128905 -0.027682384 0.023341663 0.12209401 0.05171376
-0.02934115 0.107456975 0.08012459 -0.077439524 0.09496505 0.22660407 -0.02612701 -0.19482668
-0.097264335 -0.02001772 -0.16413336 -0.104577035 -0.02510118 -0.07837155 -0.045695644 -0.044099193
0.10730295 -0.0632247 0.034222666 -0.036375687 0.03945119 -0.005801598 -0.058777794 0.033825804
0.1438312 -0.059459314 -0.10907522 0.107151665 -0.023666319 -0.018522756 -0.01459831 -0.042032566
0.04784374 -0.112452455 0.35160446 0.14856613 -0.00961586 0.09826091 -0.0028419201 -0.09925814
-0.091435015 -0.11437278 -0.1452496 -0.16464013 -0.04263196 0.09421971 -0.08764192 0.060097147
-0.016230067 -0.02345665 0.031108374 -0.0071657845 0.2550835 -0.089543365 -0.14946896 -0.011447606
0.12412059 -0.1611214 -0.1731113 0.14497963 0.10136054 -0.04513481 -0.13710389 -0.11482727
0.065971166 -0.16248779 0.030563809 0.098923355 0.1532693 -0.5151056 -0.12692374 -0.113595605
-0.14034145 0.00027117116 0.07182945 0.055745415 0.06620282 -0.026886223 -0.13537967 -0.035449013
0.05814323 -0.031672824 -0.11744706 -0.11672183 -0.25896952 0.010623325 -0.1328217 -0.1637334
-0.04281265 -0.17463028 0.0028666502 0.17148454 -0.04179265 -0.14656113 -0.030960556 -0.015564351
0.07067266 -0.11700481 -0.20885083 0.0836491 -0.12266438 -0.38500968 -0.08879265 -0.2229528
0.2061393 0.15450004 0.108615585 -0.0194433 -0.006594764 -0.017250342 -0.092711516 0.07613474
0.16106236 -0.08768285 0.12746806 0.089309566 -0.13633385 0.14801921 -0.113888346 0.04177705
-0.17082562 0.039832566 -0.33269757 0.06708325 0.15088455 -0.01079571 0.03875778 -0.049046103
0.010240383 0.00883318 0.09492101 0.10886345 0.0151188215 0.013850376 -0.000732188 -0.11081077
-0.13213639 0.21223657 -0.0133451205 0.049948394 -0.234534 -0.15192536 0.13456467 -0.09731812
0.12229561 -0.13655412 0.1091595 0.02140747 0.023957111 0.043648094 0.013943688 -0.096347
-0.054001648 -0.052227948 -0.084501036 0.12253044 -0.08544805 -0.09093166 -0.012984733 -0.07772796
-0.011414093 0.124062024 -0.02336681 0.16673271 0.08557013 0.05398262 0.22060668 0.027853563
-0.1160972 -0.007898381 -0.08704559 -0.0997355 -0.013347193 -0.07271983 -0.06856356 -0.27721915
-0.041433785 0.083180174 -0.08352517 0.14262171 -0.008472154 0.04573877 0.016220156 -0.15119477
0.09331109 0.05560632 0.13593714 0.0757256 -0.10912274 0.058423832 -0.031685226 -0.02994515
-0.0961575 0.06485134 0.11409167 -0.27337408 -0.1978685 0.092317574 -0.01396768 0.022221245
-0.19212265 -0.10404588 0.073464066 0.19614191 0.020053957 -0.20592558 -0.18889493 0.06890081
-0.065849125 0.23741162 0.044194236 -0.15122461 0.2912422 -0.18272802 -0.2510656 0.16834664
0.06995437 -0.18332936 -0.31806841 0.19809891 -0.021643618 0.2862764 -0.014912935 0.21260686
0.014421137 0.096894145 0.17423499 0.25311378 -0.1245732 0.051730394 0.016194263 0.08086468
0.12641813 -0.16258653 -0.04631867 -0.18785754 -0.06287065 0.11668022 0.14206955 -0.019347163
00000000: f831 14be 3f21 9a3d 9898 0e3e b63c babb
00000010: 48fb 803d 44c6 e33c 15ac 483e 5e09 59bd
00000020: ab0d 3dbe 7f16 ecbc 467d b0bd 5eba bebd
00000030: 2bc6 e2bc 0437 bf3c 6d0c fa3d cfd1 533d
00000040: da5c f0bc 6712 dc3d 5c18 a43d 9d98 9ebd
00000050: 097d c23d e60a 683e 5008 d6bc a580 47be
00000060: 8632 c7bd 34fc a3bc 9312 28be 7c2c d6bd
00000070: fda0 cdbc 4381 a0bd 5b2b 3bbd 5ba1 34bd
00000080: a6c1 db3d f47b 81bd 112d 0c3d acfe 14bd
00000090: 9297 213d 551b bebb fcc0 70bd ed8c 0a3d
000000a0: 7c48 133e 9c8b 73bd d462 dfbd 5572 db3d
000000b0: dedf c1bc 09bd 97bc c02d 6fbc 572a 2cbd
000000c0: ccf7 433d 794d e6bd 8005 b43e b821 183e
000000d0: d78b 1dbc 043d c93d 823f 3abb da47 cbbd
000000e0: 4842 bbbd 473c eabd 50bc 14be 6c97 28be
000000f0: da9e 2ebd 43f6 c03d 9b7d b3bd 6d28 763d
00000100: ebf4 84bc 2928 c0bc fdd6 fe3c f5ce eabb
00000110: 4e9a 823e 8362 b7bd 640e 19be bd8e 3bbc
00000120: f032 fe3d 02fd 24be 1744 31be 8a75 143e
00000130: 1d96 cf3d 47df 38bd f664 0cbe 8f2a ebbd
00000140: e41b 873d 3363 26be f460 fa3c 5498 ca3d
00000150: a1f2 1c3e f6dd 03bf 4cf8 01be d0a4 e8bd
00000160: abb5 0fbe fa2b 8e39 521b 933d 4e55 643d
00000170: 5895 873d 7f40 dcbc f8a0 0abe fc32 11bd
00000180: 9827 6e3d 5dbb 01bd 1688 f0bd db0b efbd
00000190: a797 84be 740d 2e3c 6902 08be baa9 27be
000001a0: 515c 2fbd 48d2 32be 69de 3b3b a599 2f3e
000001b0: c52e 2bbd 1f14 16be fea0 fdbc 9f01 7fbc
000001c0: d4bc 903d 38a0 efbd fedc 55be 3850 ab3d
000001d0: 7637 fbbd fd1f c5be ecd8 b5bd bd4d 64be
000001e0: 2e16 533e 4235 1e3e d971 de3d 8e47 9fbc
000001f0: e418 d8bb 9750 8dbc 89df bdbd 88ec 9b3d
00000200: 88ed 243e 1193 b3bd fd86 023e efe7 b63d
00000210: 1a9b 0bbe 5992 173e 4b3e e9bd 691e 2b3d
00000220: e9ec 2ebe 7927 233d 5657 aabe f162 893d
00000230: 7b81 1a3e 7de0 30bc 7ac0 1e3d 91e4 48bd
00000240: 48c7 273c 0bb9 103c f265 c23d cdf3 de3d
00000250: efb4 773c b0ec 623c 4ef0 3fba c2f0 e2bd
00000260: c34e 07be 8b54 593e 7ea5 5abc b096 4c3d
00000270: ae29 70be 5292 1bbe 52cb 093e b94e c7bd
00000280: 1f76 fa3d d8d4 0bbe 048f df3d b85e af3c
00000290: b441 c43c 58c8 323d 1174 643c 9351 c5bd
000002a0: d530 5dbd f9ec 55bd e10e adbd 3df1 fa3d
000002b0: 63ff aebd 613a babd ebbd 54bc d62f 9fbd
000002c0: 2d02 3bbc 3b14 fe3d c16b bfbc fbbb 2a3e
000002d0: 643f af3d e11c 5d3d b8e6 613e 282d e43c
000002e0: 5ec4 edbd 3668 01bc f544 b2bd 2042 ccbd
000002f0: 2fae 5abc 22ee 94bd 0d6b 8cbd abef 8dbe
00000300: 79b6 29bd 5e5a aa3d 3f0f abbd 6d0b 123e
00000310: cace 0abc 9458 3b3d 22e0 843c cdd2 1abe
00000320: e219 bf3d 74c3 633d 1b33 0b3e 0616 9b3d
00000330: be7b dfbd d44d 6f3d 5ec8 01bd 884f f5bc
00000340: 39ee c4bd c8d0 843d e5a8 e93d b0f7 8bbe
00000350: 0a9e 4abe ff10 bd3d b2d8 64bc 5409 b63c
00000360: cdbb 44be 0216 d5bd 5474 963d 6dd9 483e
00000370: 3248 a43c 28de 52be ac6d 41be de1b 8d3d
00000380: e8db 86bd 081c 733e 0405 353d a0da 1abe
00000390: b31d 953e 0e1d 3bbe ac8b 80be 1063 2c3e
000003a0: 3d44 8f3d b1ba 3bbe ddd9 a2be 71da 4a3e
000003b0: f54d b1bc d292 923e 6255 74bc 9db5 593e
000003c0: a246 6c3c 7070 c63d a86a 323e 2198 813e
000003d0: 3c20 ffbd 40e3 533d d5a9 843c 629c a53d
000003e0: c173 013e 157d 26be a5b8 3dbd ba5d 40be
000003f0: 54c2 80bd 0af6 ee3d ae7a 113e f17d 9ebc
