Project/results/VPlayer-First/VPlayer/VPlayer-2000.pt (torch, 294271 bytes, 16 tensors)

network_body.linear_encoder.seq_layers.0.weight f4 [128, 141]
00000000: 27fa c5bd d460 333d 37f5 6c3c 9ac4 343e
00000010: 218e 39bd 8d8a a73d 96dd 903d 1fad ebbc
00000020: 0e86 0ebd 169b 513d 7f61 b5bc fd96 133d
00000030: 0455 1b3e 9412 c2bc 2761 cdbc a3a2 8b3d
00000040: 7de5 06bb 54c6 cb3d 7502 f1bc a3b6 f03a
00000050: c273 38bd 65de a03d 5437 613d 9cfd 0dbd
00000060: bede 8dbd c72d 7d3d bcab e13c 59e5 a7bd
00000070: 0f2e 91bd d082 d03d 9da5 af3d da9c 5e3d
00000080: db2d 0a3d 241b cabd db2a 89bd 9b06 a53c
00000090: 1bd9 2b3d ac86 e5bd c7ee 7dbd 762c 463d
000000a0: 521f e53d 7eb5 8ebb 80c7 c9bc 8e09 fd3c
000000b0: bf6e 283d d2ff 30bd c72b 1b3e 29f1 963d
000000c0: faa6 a6bc b0b1 d0bd 6679 b43d 0df4 14be
000000d0: 021a ce3d ae1c 0cbd d66f 283d c593 4e3d
000000e0: e909 4fbd cf5c 44be 6ea4 7abd ca22 ff3d
000000f0: 7117 ca3b 544a 8bbc 40b6 cb3d 46b3 9fbc
00000100: 5e4d c03d 81a6 aabd 9684 6abd 775b f639
00000110: c7f6 d6bd 1f45 ad3d 86e8 15bc deb4 4f3a
00000120: c23e cabb 101b 473d 7bf8 a23d 5d35 99bd
00000130: 2428 7f3d 066b 953d cf4c c9bd 547f 013d
00000140: 890c f23c 55f8 ba3c 0cc2 85bd e230 8f3d
00000150: a60e d3bd d376 df3b 81a8 273c d88f f73c
00000160: 746b 033e e851 753d 75ad df3d ae9b cb3d
00000170: 5e84 de3d cbfb 8b3d 7131 343d 8ead 123e
00000180: 8a9f 203d b0f5 f93d 5572 82bd b7ab edbb
00000190: 2c5f d33d 5d21 81bc 7de5 c43c 4d19 05bd
000001a0: 1eca c63d e8c8 3bbd b11f fbbd 166b cfbd
000001b0: 34ba 1ebd 5e38 b5bd 537b 5ebd 40b1 40bd
000001c0: 8c44 bc3c 2273 efbc dce7 cfbd fe79 bb3d
000001d0: 0c94 ae3c d553 45bc 2b1a d6bd 683b b9bd
000001e0: 5aed b03c 4fc8 01bd a47e a5bd ea7b b63d
000001f0: f941 a13c f697 143e f1cd 143e 3093 9d3c
00000200: b7f6 683d 5011 79bc 0173 06be 6429 0fbd
00000210: 4a75 db3d 1f6a 7d3d 8fe5 8cbd 048a 0bbd
00000220: c726 8dbd 1132 9e3c fbf7 83bc 11c7 dabd
00000230: 1306 dbbc 9bcc 88bd 054b c5bd e1cb 28bd
00000240: f317 3b3c cddd 0f3d ec66 a53c 918c 173c
00000250: ac6d 8cbd 34d9 783d e481 24be 18d1 89bd
00000260: 9163 b73c 5bee ddbd 413a 413b 1f1a c0bd
00000270: ae7b 323d 3b6b 35bd d0f8 93bd 62be 003c
00000280: 15e0 953c fc98 ee3d 1ca7 803d 556a 953d
00000290: dece a63c 326a 5f3e e2ad ee3c f30e 0f3c
000002a0: 66f1 843c 942c 8b3d 812b a23c 2bae 773b
000002b0: 9540 eabd 5e78 433d df5f 81bb 9d8c 69bd
000002c0: af2e 5fbd a63b 0ebe ae24 ae3c 742d 25bd
000002d0: 6274 c43d ce4d febd 86ce 023a b368 f23b
000002e0: 6b77 19bd 832e ebbd de5f 5cbd ac98 ab3d
000002f0: 2340 913d 2317 9c3d e69f 7bbb fb18 273d
00000300: ca2d e13d b01a abbd 1bf6 293d 3b5f 363d
00000310: 9966 a7bd 3c9b 4a3c 7dcf 3a3d 310b 143c
00000320: f870 3b3d 3e5f 27be 5c2b 97bc 5a04 8c3d
00000330: 0e98 77bc 4ee1 54bd 5f21 283b 224a 8fbd
00000340: 39ad b13c 2d2a 3cbb b4e2 773d 7b17 23bd
00000350: e16b 1c3e 9090 f03d 89d1 34bd 967d 773c
00000360: 6589 adbd 04e1 2a3d de20 73bc 229d 8abc
00000370: 2c58 753a 258d d73d 39dd 23be ff97 963d
00000380: 9d4b 013c 09f2 aebd d7e9 b03d 270f 8f3d
00000390: e7c0 663c 519b 523d c6aa 9e3b 67ec 7d3d
000003a0: 764f 61bd b155 233d c099 0abe 24cb 8c3d
000003b0: dfbe a43c bb47 053d 43c5 babd f608 723e
000003c0: 6981 01bc c436 c63c 1b73 1b3e d3a7 04be
000003d0: 8abd 9f3d 5c21 f1bc 97b9 d63b 3f1e 6bbd
000003e0: 6392 fe3d 5f96 84bd f5af 4f3d fac1 22bd
000003f0: bade fa3c 23e0 b93d f5f5 eb3d 0959 35be
-0.096668534 0.043793514 0.014462761 0.17653123 -0.04530156 0.08180723 0.07073514 -0.028769074
-0.034795813 0.051173292 -0.022141216 0.036032666 0.1516915 -0.0236905 -0.02507074 0.0681813
-0.0020583563 0.099499375 -0.029420117 0.0018364977 -0.04503227 0.078549184 0.054984406 -0.03466569
-0.0692725 0.061811235 0.02754771 -0.081980415 -0.07088863 0.101812005 0.0857651 0.054348804
0.033735137 -0.09868458 -0.06697627 0.020144751 0.041955095 -0.11207327 -0.061995294 0.048382245
0.111876145 -0.0043551316 -0.024631262 0.030888345 0.04112124 -0.04321272 0.15153418 0.073702164
-0.020343293 -0.10190141 0.088122174 -0.14546223 0.10063554 -0.03420704 0.04112228 0.050433893
-0.05054656 -0.19176029 -0.06119197 0.12457807 0.006167345 -0.017003216 0.09946871 -0.019494664
0.093897566 -0.08332539 -0.05725535 0.00046988923 -0.10496288 0.084604494 -0.009149676 0.00079233747
-0.006172032 0.048609793 0.0795755 -0.07480881 0.06229414 0.07295804 -0.09829103 0.03161557
0.029546993 0.022823492 -0.06531152 0.069917455 -0.10305528 0.006819585 0.010233046 0.030219957
0.12833959 0.059892565 0.10921756 0.09941803 0.10865091 0.06835135 0.043992463 0.14324018
0.03921465 0.12205064 -0.06369463 -0.007253136 0.10320887 -0.01576298 0.02403521 -0.03249483
0.097065195 -0.045845896 -0.12261904 -0.10127847 -0.038751796 -0.08848642 -0.05431683 -0.04704404
0.022981904 -0.029229704 -0.101516455 0.091541275 0.021310829 -0.012043913 -0.1045421 -0.09044534
0.021597553 -0.03168517 -0.080807954 0.089103535 0.019684779 0.14511093 0.14531685 0.019235224
0.05687591 -0.0152018815 -0.13129808 -0.034951583 0.107157305 0.061868783 -0.06879722 -0.03406717
-0.06892162 0.019310983 -0.016109457 -0.106825 -0.026736295 -0.066796504 -0.096334495 -0.04121006
0.011419284 0.035123635 0.020190679 0.009249822 -0.06856856 0.060754016 -0.16065174 -0.067293346
0.022386344 -0.10836478 0.0029484185 -0.09379982 0.04357498 -0.044291716 -0.072251916 0.007857891
0.018295327 0.11650273 0.062818736 0.07295672 0.020362314 0.21817854 0.029135648 0.0087315915
0.016228389 0.06795612 0.019796135 0.0037793021 -0.11438099 0.047722213 -0.0039481963 -0.057018865
-0.05448788 -0.13889942 0.021257725 -0.04032655 0.09592511 -0.12417184 0.0004989881 0.007397735
-0.0374674 -0.11483481 -0.053802364 0.08378729 0.07092311 0.076216005 -0.0038394867 0.040795308
0.10995062 -0.083546996 0.04149447 0.044524413 -0.08173866 0.012366112 0.045608032 0.009035871
0.045762032 -0.16344926 -0.018453293 0.068367675 -0.015111936 -0.05197268 0.0025654656 -0.069965616
0.021689044 -0.0028711662 0.060518935 -0.039817315 0.15275528 0.11746323 -0.04414514 0.015105626
-0.084734716 0.041718498 -0.014839379 -0.01692063 0.0009359147 0.10524968 -0.16002358 0.0735321
0.007891563 -0.08542258 0.086383514 0.06985312 0.014084077 0.051417653 0.004842135 0.06199303
-0.05500742 0.039876644 -0.13535213 0.068746835 0.020110546 0.03253911 -0.09119656 0.23636231
-0.007904389 0.024196036 0.15180628 -0.12954645 0.077998236 -0.029434852 0.0065528858 -0.05740189
0.12430265 -0.064739935 0.050704915 -0.03973577 0.030623782 0.09075954 0.11521522 -0.17709745

network_body.linear_encoder.seq_layers.0.bias f4 [128]
00000000: 0000 0000 0000 0000 0000 0000 0000 0000
00000010: 0000 0000 0000 0000 0000 0000 0000 0000
00000020: 0000 0000 0000 0000 0000 0000 0000 0000
00000030: 0000 0000 0000 0000 0000 0000 0000 0000
00000040: 0000 0000 0000 0000 0000 0000 0000 0000
00000050: 0000 0000 0000 0000 0000 0000 0000 0000
00000060: 0000 0000 0000 0000 0000 0000 0000 0000
00000070: 0000 0000 0000 0000 0000 0000 0000 0000
00000080: 0000 0000 0000 0000 0000 0000 0000 0000
00000090: 0000 0000 0000 0000 0000 0000 0000 0000
000000a0: 0000 0000 0000 0000 0000 0000 0000 0000
000000b0: 0000 0000 0000 0000 0000 0000 0000 0000
000000c0: 0000 0000 0000 0000 0000 0000 0000 0000
000000d0: 0000 0000 0000 0000 0000 0000 0000 0000
000000e0: 0000 0000 0000 0000 0000 0000 0000 0000
000000f0: 0000 0000 0000 0000 0000 0000 0000 0000
00000100: 0000 0000 0000 0000 0000 0000 0000 0000
00000110: 0000 0000 0000 0000 0000 0000 0000 0000
00000120: 0000 0000 0000 0000 0000 0000 0000 0000
00000130: 0000 0000 0000 0000 0000 0000 0000 0000
00000140: 0000 0000 0000 0000 0000 0000 0000 0000
00000150: 0000 0000 0000 0000 0000 0000 0000 0000
00000160: 0000 0000 0000 0000 0000 0000 0000 0000
00000170: 0000 0000 0000 0000 0000 0000 0000 0000
00000180: 0000 0000 0000 0000 0000 0000 0000 0000
00000190: 0000 0000 0000 0000 0000 0000 0000 0000
000001a0: 0000 0000 0000 0000 0000 0000 0000 0000
000001b0: 0000 0000 0000 0000 0000 0000 0000 0000
000001c0: 0000 0000 0000 0000 0000 0000 0000 0000
000001d0: 0000 0000 0000 0000 0000 0000 0000 0000
000001e0: 0000 0000 0000 0000 0000 0000 0000 0000
000001f0: 0000 0000 0000 0000 0000 0000 0000 0000
0.0 0.0 0.0 0.0 0.0 0.0 0.0 0.0
0.0 0.0 0.0 0.0 0.0 0.0 0.0 0.0
0.0 0.0 0.0 0.0 0.0 0.0 0.0 0.0
0.0 0.0 0.0 0.0 0.0 0.0 0.0 0.0
0.0 0.0 0.0 0.0 0.0 0.0 0.0 0.0
0.0 0.0 0.0 0.0 0.0 0.0 0.0 0.0
0.0 0.0 0.0 0.0 0.0 0.0 0.0 0.0
0.0 0.0 0.0 0.0 0.0 0.0 0.0 0.0
0.0 0.0 0.0 0.0 0.0 0.0 0.0 0.0
0.0 0.0 0.0 0.0 0.0 0.0 0.0 0.0
0.0 0.0 0.0 0.0 0.0 0.0 0.0 0.0
0.0 0.0 0.0 0.0 0.0 0.0 0.0 0.0
0.0 0.0 0.0 0.0 0.0 0.0 0.0 0.0
0.0 0.0 0.0 0.0 0.0 0.0 0.0 0.0
0.0 0.0 0.0 0.0 0.0 0.0 0.0 0.0
0.0 0.0 0.0 0.0 0.0 0.0 0.0 0.0

network_body.linear_encoder.seq_layers.2.weight f4 [128, 128]
00000000: 44f8 b23d 51ed 36be 14de 93bc e2cf 873d
00000010: 3c40 f33d 8375 5abb 698b c83d e9b0 bfbd
00000020: c20a f93d 6c60 bebc 02a6 143b 668f b8bd
00000030: 489c 8abd b919 8f3d 3bfe 8dbc eabd 743c
00000040: c847 063e 5892 3bbe cab0 c93c e1d0 a43d
00000050: 5486 1a3d 6b4d fdbd 07fe 4b3d f354 d23d
00000060: 7585 62bd 644f bbbd bd99 54bc 567a 713c
00000070: 1718 7dbd bfc2 a7bd 4e85 6a3d 7468 4c3e
00000080: 5792 4e3d 5c3f 643d afeb 873d 92e1 17bd
00000090: 0381 ea3d 21ca d2bd a0d8 c43c f887 1dbe
000000a0: f8cb 3abd 5df1 313d fda2 053e ed56 ae3d
000000b0: f4d8 6abd 8f86 96bc 14a8 2fbd 80e8 103b
000000c0: 2d64 e93c 339e ac3b 7ecb f53d e7aa 84bd
000000d0: e080 753d 68bc 0f3d 1121 8dbd 9e6a afbc
000000e0: 29b4 a03d 38bf 8c3c 12bb 8d3d 19c5 dabc
000000f0: cc4b 43bd e13c 92bd c75c fabd 6b0d a5bd
00000100: da9e 1bbe 1487 03be 2410 af3d 9830 ed3d
00000110: b8a8 ce3d 6c87 debd 6784 863d ed32 58bd
00000120: 7d69 c33d 63fa 993d f254 4b3d 8125 9cbd
00000130: 826a 003e 4d33 3ebe 1bde c33c d2c1 e13d
00000140: f2a5 f7bc c211 d2bd 8f18 89be 5979 debd
00000150: e1bf 763d 83c6 c63d 9e99 debd 4cf7 d03d
00000160: 76e1 e2bb 3a1b 0e3d 5214 333e a567 293d
00000170: 6375 173e 31c0 033e 5f00 52bc ed3a 59b9
00000180: 0203 113e ed16 8cbd bef6 f0bc 15fb d93d
00000190: 2946 ccbc e644 343e c4d2 0ebe a220 dcbc
000001a0: 60a3 8e3c 4952 fd3d 58cb 693d 5530 8bbd
000001b0: e26c 4e3d ef56 e73b c637 babb a120 ec3c
000001c0: 60cc 76bd 08f9 94bd ea86 d3bd a7f3 a63d
000001d0: 340f 30bd e312 c83d baff 343d 0a08 86bd
000001e0: 9df0 803d 934a 153d 9b74 21bc 18af e53d
000001f0: 2598 973d 9580 473e 04ae 4a3d aca2 1c3d
00000200: 47e6 eabc 0166 21bd 755a 633d 3eb2 87bd
00000210: e8f4 853d a6d9 46bd 5ebd 17bd 85ae a6bd
00000220: a8b2 e93d 6267 e03c 3ab4 453d dc7b b13d
00000230: 1371 59bd e15c b1bd 26a3 07be 73d8 173e
00000240: 0321 893d 347a 823c e231 023e e6f2 523d
00000250: 0d58 8a3b 9138 81bd 66a6 ae3c 3bb0 d2bc
00000260: 3de6 d93b a821 ee3d fd8e 8abb 37c6 7e3c
00000270: 41fa ddbd 1527 03bd 5fc5 77be 73c3 273e
00000280: 16a9 15bd 4ac8 bb3d dc29 58bd 7784 4c3d
00000290: dc48 bdbd 8db5 2dbd ef8b 2f3d 6b77 2f3c
000002a0: 618f 2b3d 5087 a13d 3cbd 1e3d 086d 74bd
000002b0: 9b7c 023e 2885 eabb 0b13 103e ef76 f33d
000002c0: 9aa6 aa3c 67b6 be3d 0ac0 443d 26ad 0d3e
000002d0: 973a 78bc 800f 09be 17b2 49bc d3d5 913c
000002e0: 7579 dbbc df8b a33c b13d d8bd d8a7 893d
000002f0: aff8 1ebd dd6a 9bbd 0865 0c3e 69a0 4cbc
00000300: 0292 df3d ee32 29be 7a8c a13c 312e 443c
00000310: 4848 803d d125 0abc 1254 bd3d 1a0a 163b
00000320: 80fb 67bc 732d 8cbc 88ec b6bd eb45 00bd
00000330: f1e8 50be e64c acbd a428 58bd c0a5 7a3d
00000340: d60e af3d 968a 173e 1716 81bd 2662 2e3d
00000350: 81fb 8c3c 2ce1 2f3d d2bb 483d 2eb9 22bb
00000360: 6b56 54be 0125 413d 93df b83c 365c 003e
00000370: 5723 a73d 17bf 31bc 865a a5bc 4835 1bbd
00000380: 0ed1 11bd 9f99 d6bd 0a10 c0bd cb3e c0bd
00000390: df9e 273e 9ced 573d 0c6d bc3d 3db2 dd3d
000003a0: 0dd3 983b 11ec e63c 3d3b 39bd 80c7 653e
000003b0: 0302 043d b964 02be d818 033e ea49 4b3e
000003c0: a21d 85bd 19cd 813d 7377 51bd 0fc7 d63d
000003d0: 37a9 e73c e070 07be e1ed 1fbe 3f44 c5bc
000003e0: 3ff2 22be b2c2 153d d050 ed3d b4fe 173e
000003f0: f555 5a3e eec9 953d 16fc e5b9 2727 2fbd
0.08738759 -0.17863967 -0.018050231 0.066314474 0.11877486 -0.0033334203 0.097922154 -0.09359915
0.12160255 -0.023239337 0.0022681956 -0.09011726 -0.067680895 0.06987328 -0.01733314 0.014937857
0.1311332 -0.18317544 0.024620432 0.08047653 0.03772576 -0.12368282 0.049802806 0.10270109
-0.055303056 -0.09146002 -0.012976107 0.01473864 -0.061790552 -0.08191442 0.057256036 0.1996172
0.05043253 0.055724487 0.0663675 -0.037080355 0.11450388 -0.10292459 0.024029076 -0.15383899
-0.045604676 0.043443073 0.13050456 0.085126735 -0.05733581 -0.01837471 -0.0428849 0.0022111237
0.02849015 0.0052678823 0.12001704 -0.064779095 0.059937358 0.035091788 -0.068910725 -0.021413144
0.07846863 0.017181024 0.069204465 -0.026705312 -0.047679707 -0.07140518 -0.12224727 -0.080592
-0.15197316 -0.12844497 0.085480005 0.11581534 0.10090774 -0.108656734 0.065682225 -0.05278294
0.09541605 0.075184606 0.049641557 -0.07624341 0.1254063 -0.18574257 0.02390962 0.110232964
-0.030230496 -0.10257293 -0.2677655 -0.10862989 0.060241584 0.09705832 -0.10869144 0.10203418
-0.0069238497 0.034693934 0.1748822 0.04135861 0.14790873 0.12866284 -0.012817471 -0.00020716684
0.14161304 -0.0684031 -0.02941453 0.10643593 -0.024935799 0.17604408 -0.13947588 -0.02687103
0.017411888 0.1236921 0.05707869 -0.06796328 0.050396807 0.007059924 -0.0056829182 0.028824152
-0.0602535 -0.072740614 -0.10328467 0.08151942 -0.04298325 0.09769227 0.044189192 -0.06544502
0.06295893 0.036448073 -0.009854461 0.11215037 0.07402066 0.19482644 0.04948236 0.038241073
-0.028674258 -0.03940392 0.05550619 -0.06625794 0.06540853 -0.04854741 -0.03704583 -0.08138756
0.11411029 0.027393047 0.04826758 0.086662024 -0.05308635 -0.08660293 -0.1324583 0.14828663
0.066957496 0.015927412 0.12714341 0.051501177 0.0042219223 -0.06309617 0.02131958 -0.025718799
0.006649761 0.11627513 -0.0042284713 0.015550188 -0.10838748 -0.032019693 -0.24196385 0.16383152
-0.036538206 0.091690615 -0.052774295 0.049931016 -0.092424124 -0.04240947 0.04285806 0.010709624
0.041884784 0.07887137 0.038754687 -0.059674293 0.12742846 -0.0071569867 0.14069764 0.11887919
0.020831395 0.09312134 0.048034705 0.13835582 -0.015150688 -0.13384819 -0.012310526 0.017802155
-0.026791314 0.019964157 -0.10558642 0.06721467 -0.038811382 -0.07588742 0.13710415 -0.012489417
0.10916521 -0.16523334 0.019720305 0.0119739035 0.062637866 -0.008431868 0.09244551 0.0022894205
-0.014159083 -0.017111516 -0.089318335 -0.03131668 -0.2040136 -0.08413105 -0.052773133 0.061193228
0.085477516 0.1479896 -0.063030414 0.04257407 0.01720977 0.04293935 0.049007244 -0.0024829614
-0.20736091 0.04715443 0.022567546 0.12535176 0.081610374 -0.010848782 -0.020184767 -0.03789261
-0.03559976 -0.1047852 -0.09378059 -0.09386977 0.16369198 0.052716836 0.092004865 0.10825012
0.004663831 0.028188737 -0.04522251 0.22439384 0.03222848 -0.12733735 0.12802446 0.19852415
-0.06499793 0.063379474 -0.051139306 0.10487186 0.02827893 -0.13226652 -0.15618087 -0.024080394
-0.15912722 0.03656263 0.115876794 0.14843255 0.21321853 0.07313906 -0.00043866102 -0.042761948

network_body.linear_encoder.seq_layers.2.bias f4 [128]
00000000: 0000 0000 0000 0000 0000 0000 0000 0000
00000010: 0000 0000 0000 0000 0000 0000 0000 0000
00000020: 0000 0000 0000 0000 0000 0000 0000 0000
00000030: 0000 0000 0000 0000 0000 0000 0000 0000
00000040: 0000 0000 0000 0000 0000 0000 0000 0000
00000050: 0000 0000 0000 0000 0000 0000 0000 0000
00000060: 0000 0000 0000 0000 0000 0000 0000 0000
00000070: 0000 0000 0000 0000 0000 0000 0000 0000
00000080: 0000 0000 0000 0000 0000 0000 0000 0000
00000090: 0000 0000 0000 0000 0000 0000 0000 0000
000000a0: 0000 0000 0000 0000 0000 0000 0000 0000
000000b0: 0000 0000 0000 0000 0000 0000 0000 0000
000000c0: 0000 0000 0000 0000 0000 0000 0000 0000
000000d0: 0000 0000 0000 0000 0000 0000 0000 0000
000000e0: 0000 0000 0000 0000 0000 0000 0000 0000
000000f0: 0000 0000 0000 0000 0000 0000 0000 0000
00000100: 0000 0000 0000 0000 0000 0000 0000 0000
00000110: 0000 0000 0000 0000 0000 0000 0000 0000
00000120: 0000 0000 0000 0000 0000 0000 0000 0000
00000130: 0000 0000 0000 0000 0000 0000 0000 0000
00000140: 0000 0000 0000 0000 0000 0000 0000 0000
00000150: 0000 0000 0000 0000 0000 0000 0000 0000
00000160: 0000 0000 0000 0000 0000 0000 0000 0000
00000170: 0000 0000 0000 0000 0000 0000 0000 0000
00000180: 0000 0000 0000 0000 0000 0000 0000 0000
00000190: 0000 0000 0000 0000 0000 0000 0000 0000
000001a0: 0000 0000 0000 0000 0000 0000 0000 0000
000001b0: 0000 0000 0000 0000 0000 0000 0000 0000
000001c0: 0000 0000 0000 0000 0000 0000 0000 0000
000001d0: 0000 0000 0000 0000 0000 0000 0000 0000
000001e0: 0000 0000 0000 0000 0000 0000 0000 0000
000001f0: 0000 0000 0000 0000 0000 0000 0000 0000
0.0 0.0 0.0 0.0 0.0 0.0 0.0 0.0
0.0 0.0 0.0 0.0 0.0 0.0 0.0 0.0
0.0 0.0 0.0 0.0 0.0 0.0 0.0 0.0
0.0 0.0 0.0 0.0 0.0 0.0 0.0 0.0
0.0 0.0 0.0 0.0 0.0 0.0 0.0 0.0
0.0 0.0 0.0 0.0 0.0 0.0 0.0 0.0
0.0 0.0 0.0 0.0 0.0 0.0 0.0 0.0
0.0 0.0 0.0 0.0 0.0 0.0 0.0 0.0
0.0 0.0 0.0 0.0 0.0 0.0 0.0 0.0
0.0 0.0 0.0 0.0 0.0 0.0 0.0 0.0
0.0 0.0 0.0 0.0 0.0 0.0 0.0 0.0
0.0 0.0 0.0 0.0 0.0 0.0 0.0 0.0
0.0 0.0 0.0 0.0 0.0 0.0 0.0 0.0
0.0 0.0 0.0 0.0 0.0 0.0 0.0 0.0
0.0 0.0 0.0 0.0 0.0 0.0 0.0 0.0
0.0 0.0 0.0 0.0 0.0 0.0 0.0 0.0

action_model._continuous_distribution.mu.weight f4 [1, 128]
00000000: 3ae6 673b 007d da3a fbca d43b 50eb 03bd
00000010: a31e 83bc 7d40 0cbb 28cd 71bc b7ac f63c
00000020: af29 583b 22c1 e93b 07ab 09bd 7d73 ed39
00000030: 1353 35bc b35d 41bc 37a1 f5bc 6df1 ad3a
00000040: efe2 5dbc 1f07 4bbb 1bc0 cdbc f51b 4f3c
00000050: 8f21 163c 9db3 9dbb e7d1 573c ac9c a63c
00000060: 1b7f 02bc 010a 37ba 1f46 84bc bcae 9139
00000070: 43b9 34bc f348 ab3c cfe3 553c c20e ddbb
00000080: f7cd 2b3c 24ed 8f3c 551c ef3b 8393 b3bc
00000090: 09a4 123d 71c5 bbbc bcb3 a23c 80f1 8a3c
000000a0: d21c 93bc 3d57 d3bc 52f4 fd3c 1246 bf3b
000000b0: 4a00 b4bb 05cc 12bc 4f72 53bc 9f57 e0bc
000000c0: af1d c43a 0ebf 8fbc 2a2d 773c 4f84 cabb
000000d0: bff3 1a3c 0dd1 563c b7a0 b7bc 2df2 f03b
000000e0: ce1a 8cbc ea45 633c c370 1cbb c359 60bc
000000f0: 7bf2 85bb 091c 133d 78b4 073c 1a47 d13a
00000100: d3ce 9ebb 671d 403c aa87 f63c e269 9937
00000110: b2e8 babc 9dd8 6dba c7d5 55bc b9f2 1f3b
00000120: 18cf bebc 44ce 203b 8fa9 5c3a 62f1 5f3c
00000130: 57af af3c c168 3b3c 8f1a a73b 0b78 d4bb
00000140: a7a8 3f3c e070 533c 6bce 05bc f5b5 d03b
00000150: 9a7a 923c d301 62bc b44d 95bc 9970 8c3c
00000160: ab4d 3cbc f39c 81bc bde9 173c ff31 7bbb
00000170: 5639 04bc eca4 8fbb e889 533c ad89 82bc
00000180: 1fed 353c 7934 803c 88df 8b3c 2bb9 34bc
00000190: db42 f83c e22a 46bc 2735 afbc ffad bf3b
000001a0: a5c1 93bc 1fc1 f83b e423 953c 73bf bf3c
000001b0: 7b72 373b c8f3 b13c 0543 ad3c a81d 8fbb
000001c0: 8f2d 593c 3339 b3bc 200e a2bc 7893 14bb
000001d0: 98ea 103d b515 863a 00b3 e63c 3b9a 9ebc
000001e0: 158c 8cbc a5e2 063d aa4c 8b3c 1a3d 98bb
000001f0: e034 7abc 00c5 6cbc b5fd 32bc 04d3 023b
0.0035385028 0.0016669333 0.0064939237 -0.032206833 -0.01600582 -0.0021400743 -0.014758386 0.030111654
0.003298383 0.007133619 -0.03361037 0.00045290208 -0.01106717 -0.011802125 -0.0299841 0.0013270803
-0.013542875 -0.0030979586 -0.025116017 0.012640943 0.009163274 -0.0048126713 0.013172603 0.020338379
-0.007964875 -0.00069823867 -0.016146718 0.00027786742 -0.011030498 0.020908808 0.013054802 -0.006746144
0.010486118 0.017569132 0.0072970786 -0.021920925 0.035800967 -0.022921296 0.019861095 0.01696086
-0.017958079 -0.025798434 0.03100029 0.0058372105 -0.0054931985 -0.008959775 -0.012905671 -0.027385531
0.001496246 -0.017547157 0.015086452 -0.006180323 0.009457528 0.013111365 -0.022415502 0.0073530884
-0.017102625 0.013871649 -0.0023870922 -0.013693276 -0.004087744 0.03591541 0.008282773 0.0015966624
-0.0048464327 0.01172576 0.030093987 1.8288327e-05 -0.022816036 -0.00090731104 -0.013051457 0.0024406149
-0.02329211 0.0024537006 0.00084176 0.01366839 0.021445913 0.0114385495 0.0050996016 -0.006484037
0.011697925 0.0129053295 -0.00816689 0.006369347 0.017880727 -0.01379438 -0.018225528 0.017143534
-0.011493127 -0.01582191 0.009272036 -0.003832936 -0.008070311 -0.004383674 0.012911297 -0.01593479
0.011103897 0.01565002 0.017074361 -0.011030476 0.030305317 -0.012095185 -0.02138765 0.0058495994
-0.018036673 0.007591381 0.01820559 0.02340672 0.002799182 0.02172269 0.021150121 -0.004367549
0.013255491 -0.02187786 -0.019782126 -0.0022670906 0.035379976 0.0010229858 0.028161526 -0.019360652
-0.01715664 0.03293099 0.01700433 -0.0046459557 -0.015271395 -0.014451265 -0.010924746 0.00199622

action_model._discrete_distribution.branches.0.weight f4 [3, 128]
00000000: 377d c1bb efc2 fc39 e01e f53b b52c f5ba
00000010: 3512 d13b 5229 043c e32e 53bc 97e6 843c
00000020: e71e 2739 f9c4 3b3b 97c5 95bc b967 b3bc
00000030: 939a 0cbb 1519 d1ba cd0f d13b f0a5 11bb
00000040: 4d2f 6a3b 178f 57ba f3a4 8c3c 834f 05bc
00000050: add7 9fba ac5f 15bb 7713 ba3b 5d6a 2bbc
00000060: 82ee 63bb 2e28 293c 74e7 3e3c 93ee b43a
00000070: aaac f73a 4665 1e3c 2d88 ba3b b33c ec3a
00000080: 23b9 46bc a515 5c3a 2387 433b 5fad 8d3c
00000090: b5c4 e13b a334 2e3c d515 4e3b dc94 0cbc
000000a0: d00c 92bc 7ea5 32bc fd19 933b 575a 85b9
000000b0: 3f5b 92bc 9300 d13b 5814 ff3b 7304 d83b
000000c0: ba2e a53a 2f64 fb3a 8a94 8bbb a287 21bc
000000d0: 3d57 0b3c 2bee bbbb 9b6a deba 7387 403b
000000e0: 7b42 343c 14b7 403c 3f06 55bb 327c 723c
000000f0: a8c1 39bc 96e8 49bb 43dd 9f3a 1e7d 133b
00000100: 6aa9 ddbb 81b2 8c3b 8485 873c b639 223c
00000110: 40b4 893c ecd1 9e3c 78a1 583c 6dbc edbb
00000120: 6f82 1b3a 6536 fa3b 3fdf 09ba 35f3 d0bb
00000130: 2f0b ecba 27ef b9bb 0bfe 35bb 7136 843b
00000140: 0877 90bb e334 cabb fec2 073c 530f 943a
00000150: 0f43 013c 20ae 4abc 4b1c 8bbb 8152 12ba
00000160: 55b7 e23b d215 03bc adfc 10bb b3b5 72bb
00000170: 18ee 7c3a 22f6 45ba c7e3 233c 0ce3 a639
00000180: 8309 9c3b d5c1 6bbc f073 b5ba d861 e83b
00000190: 23e3 453c bbe1 18ba b380 cdbb 7139 80b7
000001a0: fd89 25bc f8cf e43b 0397 8bbc cf52 d7bb
000001b0: 0a96 023b 2073 a03b 6345 3fbb 8a4e e0bb
000001c0: c899 10ba 774d 62b9 8e27 07bc 502e a13a
000001d0: c3bc 2cba 16d9 17bc 6bac 513c ea70 103b
000001e0: 5f50 03bb f2c8 cf3b f3e3 063b 0ba7 943b
000001f0: f1c7 8c3b 1a2f 64bb ccb6 183c 579f bfbb
00000200: bab3 f0bb 6f0c 693b 4ff1 59bb a74a 52bc
00000210: 2e56 30bc c286 d7bb 8e25 0ebb 16d7 29bc
00000220: aa0f 5c3c babd 553a 3f65 dcbb 98ae 563a
00000230: 87a2 d33a 50f1 52bb b5cd ecbb e388 2e3c
00000240: a0c3 35bb c986 803c bdea 783c 7025 12bc
00000250: 4970 b03b 986e eb3b ef17 39ba a7f5 adbb
00000260: af2c cfbb e7ec 7fbc e159 28bb e095 023c
00000270: 0b12 45bc 3be9 603c f33f 2d3c 7a69 e638
00000280: 4a5d e13b a557 833b 17c7 553c df8f 5a3b
00000290: 16eb 2ebb 4647 93bc b7f8 8e3c 6e43 3cbc
000002a0: 7876 6c3c 7301 773b f081 5ebb 0041 acbb
000002b0: abd3 663c 4012 723b ecbf 33ba 53f2 63bb
000002c0: ba86 5eba 639b 7d3b 2eb2 00bb fa46 47bc
000002d0: 3fe6 e23b 6f5d 083c 203d 7bbc 2779 d9ba
000002e0: 27b5 2f3b f34a a33c 1a26 ce3b 60bc eabb
000002f0: de59 3e3c 088a e9bb 9b8b a4ba 77fd 3dbb
00000300: 6558 52ba 4260 193c b249 91bb a20e 773c
00000310: 1144 4bbc 15a7 5cbc d708 04bb 6bdc 393c
00000320: f300 133b 2738 c4bb 3b5f d13b 90aa babb
00000330: 4b1f f6bb 7800 56bc be78 a1bb 8b93 373c
00000340: 55ff 8c3b 3d88 ce3b c316 ed3a 845d a73b
00000350: 2f41 17bc f54f b43b d7c8 9f3b 0396 343c
00000360: 45eb 6bbc 9216 e5b9 f264 b03b a725 b43a
00000370: 13a5 1ebb 59d9 b9bb c751 4a3b 7f94 413c
00000380: d389 68bb 6bcd 193b d8b5 1ebc 2390 413c
00000390: 37b9 a1bb df53 353c 4a9f 7b3c 5a78 52bb
000003a0: ae71 a43c 74d2 44bb 535b 9eba b7f1 9b3b
000003b0: 60b7 68bb daa5 c7bb 0567 873b bf41 d2bb
000003c0: 83e4 473a b077 efbb cff1 213c b624 81bc
000003d0: 4dbb 76bc 0c2c bd3a 03be 0dbb f46e a43b
000003e0: 4842 1bbc 9fc4 06bb 6f35 9fba b2cf 5bbb
000003f0: fbf9 c3bb b099 f0bb 05b4 1cbc c4df 3d3a
-0.0059048194 0.00048210422 0.007480487 -0.001870534 0.0063803443 0.008066492 -0.012889597 0.016223235
0.00015937873 0.002865134 -0.018282695 -0.021900045 -0.0021454438 -0.001595291 0.0063800574 -0.002222415
0.003573376 -0.0008222921 0.017168498 -0.008136633 -0.0012195014 -0.002279262 0.00567859 -0.010462371
-0.0034779613 0.010324521 0.011651862 0.0013804011 0.0018896062 0.0096677 0.005692503 0.0018023461
-0.012129101 0.0008395559 0.0029835186 0.017294584 0.0068899044 0.010632667 0.0031446118 -0.008580413
-0.017828375 -0.010903714 0.004489182 -0.00025435045 -0.017865775 0.0063782423 0.0077844076 0.0065923273
0.0012602427 0.0019179637 -0.0042596506 -0.009858998 0.008504686 -0.005735179 -0.0016969027 0.002937761
0.011002178 0.011762399 -0.0032504944 0.014800118 -0.011337675 -0.0030808798 0.0012196678 0.0022504996
-0.0067645805 0.0042937403 0.016543157 0.009901455 0.016809583 0.019387208 0.013222091 -0.007255128
0.0005932217 0.007635879 -0.00052594015 -0.006376649 -0.0018008704 -0.005674261 -0.002776983 0.0040348102
-0.004408721 -0.0061708554 0.008286236 0.0011296071 0.007889523 -0.012370616 -0.004245316 -0.0005581752
0.0069188275 -0.008000808 -0.0022123263 -0.003703457 0.0009648516 -0.000755163 0.010003037 0.0003183115
0.004761876 -0.014389475 -0.0013843756 0.007091742 0.012078079 -0.00058319763 -0.0062714457 -1.5285537e-05
-0.0101037 0.0069827996 -0.017039781 -0.006571151 0.0019925856 0.0048965365 -0.0029185645 -0.0068453
-0.0005516079 -0.00021581897 -0.008249177 0.0012297127 -0.0006589407 -0.009268066 0.012797455 0.0022039958
-0.0020036919 0.006341093 0.0020582646 0.0045365146 0.004296296 -0.0034818114 0.009320926 -0.005847852
-0.007345644 0.003556039 -0.0033255403 -0.012835181 -0.010762734 -0.0065773437 -0.0021689865 -0.010366222
0.013431469 0.00081535766 -0.0067259367 0.00081894686 0.0016146459 -0.003218729 -0.0072266706 0.0106527535
-0.002773501 0.01568927 0.015192685 -0.008920059 0.005384479 0.0071848147 -0.00070607563 -0.005308825
-0.0063224654 -0.015620447 -0.0025688338 0.007970303 -0.012028228 0.0137274815 0.010574329 0.00010986901
0.006877576 0.004008251 0.013047955 0.0033349914 -0.0026690415 -0.017978322 0.01745258 -0.011490686
0.014432542 0.0037690073 -0.003395196 -0.005256772 0.0140885515 0.0036937147 -0.00068569067 -0.0034781888
-0.0008488704 0.0038697354 -0.0019637453 -0.012162918 0.00692442 0.008323058 -0.015334398 -0.0016591892
0.0026810856 0.0199332 0.006291163 -0.0071635693 0.011618106 -0.0071270503 -0.0012553813 -0.0028990188
-0.0008024036 0.009361329 -0.004433834 0.015079172 -0.012406365 -0.01346757 -0.002014687 0.011344056
0.0022430986 -0.005988139 0.006389526 -0.005696602 -0.0075110546 -0.013061635 -0.0049277237 0.011204611
0.004302899 0.006302862 0.0018088449 0.0051075835 -0.00923185 0.0055026957 0.004876237 0.011022094
-0.014399354 -0.000436951 0.0053831274 0.0013744131 -0.0024207279 -0.005671662 0.0030871497 0.011815189
-0.003548254 0.0023468386 -0.00968691 0.01181415 -0.0049354094 0.01106736 0.015357802 -0.0032115192
0.020073738 -0.0030032666 -0.001208166 0.0047590393 -0.003550969 -0.006092769 0.004132154 -0.006416529
0.00076252985 -0.007307969 0.009884312 -0.015764575 -0.015059304 0.0014432683 -0.0021628148 0.0050181095
-0.009476252 -0.0020563973 -0.0012146662 -0.0033540544 -0.0059807277 -0.0073425397 -0.009564404 0.00072431215

action_model._discrete_distribution.branches.0.bias f4 [3]
00000000: 0000 0000 0000 0000 0000 0000
0.0 0.0 0.0

action_model._discrete_distribution.branches.1.weight f4 [3, 128]
00000000: 3f4f 30bc f061 ed3b 3788 1d39 1d73 d7bb
00000010: dcae 143c 0faf 1db9 2a84 5cbb 2a9a 3e3c
00000020: a18f 85bb 905c b03b dd87 f438 19d2 1c3c
00000030: ef43 4abc f8c4 353c f30c e3ba b730 7d3b
00000040: b86b 443b 5fe6 5abc 1116 25ba e914 c43b
00000050: 9785 383c f7e3 96bb e2d7 7a3b 7e52 883c
00000060: f384 2bbc f179 a63b 11e1 2bbb 79f0 02bc
00000070: d1b3 3cbb 8b30 a43a 9853 673b 1467 c9bb
00000080: 8257 233c 1536 d6bb 37b4 933c 03af ba3a
00000090: 0365 33bb 13df 3f3b aac7 7fba a7d2 e23b
000000a0: aaa7 5f3c b765 5dbb e64e 9f3b 3716 1d3c
000000b0: f3dc d0bb 9289 db3b 1f20 6fba a60a ca3b
000000c0: 07d5 393c 1767 78bb abf3 f8bb 8f1e eb3a
000000d0: 5d67 d43b c815 233b dd4d 43bc 884f 6fb9
000000e0: 666f 48bc 4b9e 47bc bfcd d53b e0e0 91bb
000000f0: 6354 243b d02b 06bc a8ab 41bb c28c 7cbb
00000100: 047d 043c 065d 06bc 55f6 1c3c c668 083b
00000110: 1f1e ac3b df7c 2fbc 8a68 e4bb 6362 e13b
00000120: f643 39bc 6164 143b 543a 1f3c 7ae3 06bb
00000130: 3c47 8eb8 8f26 febb 05b6 613c c45e b53b
00000140: 522a f4bb 9328 293c 479b c2b7 58fd d93b
00000150: 6dd8 d3bb 9549 07bc 95a9 633b 6b6c 22bc
00000160: 8bab debb 6adc cbba 13d1 843c 8c5a b13a
00000170: 4c83 90bb 43b7 9eba 1bee 333c 9b82 833b
00000180: c89f ef3b c6b6 0a3c 93d0 23bc 8bec 8d3b
00000190: a2db 3a3c 28d4 d93b f735 f2ba 27c5 d8ba
000001a0: a51a d33a 2392 373c 159b 1a3b 18e3 31bc
000001b0: af37 40bc dd73 f23b 2bf1 6bbc dbe8 6dbc
000001c0: 39f4 9a3b 43df 923c ebda 07bc 1f1c 1d3c
000001d0: e785 4aba d3df ecbb c471 c7bb b8dd 893b
000001e0: 738c a33b eb3f 933b 22ee 02bb f96f 073b
000001f0: 5566 443c 3ece 213a f873 e4bb 5629 0ebc
00000200: 4118 a43b 1fd1 34bb aced c4bb 2ddc 463c
00000210: 851d 4f3b fed0 8838 0319 2fbc c339 0abc
00000220: 22b8 82bb 225a a1bb 2595 603b 30c8 643b
00000230: 83e4 82bb 85ef 533b 5d6a 0ebb f475 81bc
00000240: 66e9 2a3b 6f0f 8a3c 090e 92bb e93a 9aba
00000250: ff2d 61bb c695 1c3c 906b f039 d097 57ba
00000260: 13f3 a538 4df5 63bb c267 6bbc 32e0 1cbb
00000270: a880 88bc 856f 8f3c c035 713b 2b9b e3bb
00000280: da66 613c edb1 e93b 450e bc3c 1fd9 893c
00000290: 3e18 933b b332 243c 9475 293c 7708 37bc
000002a0: f5a4 8bbb bfce c9bb c76a aa3b 0b8e 5f3b
000002b0: acae 27ba 43ae c6b9 2275 633b 01e3 843a
000002c0: 2f88 fabb 2c2e 0ebc aa3b 6bbb 1e3a 2abb
000002d0: dfbe 853b 7f4e edbb 3d64 703b acdb 39bc
000002e0: 1a93 8b3b a520 f9ba 11b1 0fbc 8521 fe3b
000002f0: abeb 2abb 9bba 083c b934 2cbc e7a4 37bb
00000300: 38d9 10bc cd98 823b 291e beba 2128 003b
00000310: e883 75bc 7ffe 043b 1871 6c3c ed4f 7cbc
00000320: 8ab6 c1bc f0aa 84bc 63f8 08bc c805 73bb
00000330: 2a50 273a 2f13 cbbb 2190 13bc 3919 c5bb
00000340: 2084 0339 b7f1 39bc 1a86 c4b9 2f28 02bb
00000350: cb79 953b d205 c8bb 62db 59bc fbfd 993b
00000360: 6d5c 043c d4e0 0b3b c8e6 2cba ec50 2e3c
00000370: 5902 afba 1204 303c b74f 883c 8e26 b3ba
00000380: 250c a43b 2f93 6b39 18fb 8c3b dfe9 543a
00000390: 2c40 1b3b b3d5 7cbb 0f46 5dba 60c4 e13c
000003a0: dfe9 34bc 3801 e139 5281 1b3a e07d 05bc
000003b0: f79d 0c3c a683 393b 438c 00bc 6a03 7bbc
000003c0: 82f3 76bc 9b39 1dbc c89b 683c 5b60 293b
000003d0: ba4d 49bc ea37 55b9 a30a 70bb d7fd 263c
000003e0: fa19 433c e2de 3f3b 9a00 8a3c 8340 b639
000003f0: 43ba 0f3b c5f2 debb 156d 5fbc da3e 7e3b
-0.010761081 0.007244341 0.00015023431 -0.006575002 0.009074893 -0.00015037901 -0.0033648112 0.011633435
-0.00407596 0.005382128 0.00011660133 0.009571576 -0.012345298 0.011094324 -0.0017322585 0.0038633773
0.0029971432 -0.013360589 -0.00062975386 0.005983938 0.011262319 -0.0046048122 0.003827565 0.016640898
-0.010468709 0.0050804545 -0.002622668 -0.007991903 -0.0028793702 0.0012526674 0.0035297628 -0.006146321
0.009969594 -0.006537209 0.01803027 0.0014242831 -0.002737344 0.002927725 -0.00097572303 0.0069220844
0.013650814 -0.003378255 0.0048617003 0.009587816 -0.0063739954 0.0066997493 -0.0009121913 0.00616582
0.011342294 -0.0037903243 -0.007597407 0.0017938184 0.0064820484 0.0024884809 -0.0119204195 -0.00022822444
-0.012233591 -0.012183736 0.006524771 -0.004451856 0.0025074712 -0.008189157 -0.0029551778 -0.0038536047
0.008086447 -0.008200889 0.0095802145 0.0020814403 0.005252614 -0.010710924 -0.00697047 0.0068781837
-0.011307707 0.0022642838 0.009718496 -0.0020582364 -6.784356e-05 -0.0077560614 0.013776307 0.0055349786
-0.007451334 0.010324615 -2.3198909e-05 0.0066525154 -0.006465009 -0.008257289 0.003473853 -0.009913544
-0.006795352 -0.0015553359 0.016212976 0.0013531013 -0.004410183 -0.001210906 0.010982062 0.004013372
0.0073127486 0.008466428 -0.009998458 0.0043311766 0.011404904 0.0066476054 -0.0018479218 -0.0016538248
0.0016105963 0.011204275 0.0023590971 -0.010857366 -0.011732026 0.007399066 -0.014400761 -0.014520849
0.0047288206 0.017928725 -0.00829194 0.009589224 -0.00077256415 -0.0072288304 -0.00608656 0.004207339
0.004991108 0.0044937036 -0.0019978364 0.0020666106 0.0119872885 0.0006172395 -0.0069718324 -0.008676847
0.005007774 -0.0027590466 -0.006009778 0.012137455 0.0031603288 6.523913e-05 -0.010687116 -0.008436623
-0.0039892355 -0.0049240747 0.0034268585 0.003490936 -0.003994526 0.003233881 -0.0021730878 -0.015803315
0.0026079058 0.016853062 -0.0044572395 -0.0011766824 -0.0034359691 0.009557193 0.00045856507 -0.0008224221
7.913089e-05 -0.0034783662 -0.0143679995 -0.0023937342 -0.01666291 0.017509231 0.003680572 -0.0069459877
0.013757432 0.007131806 0.022956023 0.016827164 0.004488974 0.010021853 0.010342974 -0.011171452
-0.004261608 -0.0061586793 0.005200717 0.0034111764 -0.00063965726 -0.00037895338 0.0034707268 0.0010138453
-0.007645629 -0.008678 -0.0035893717 -0.0025974582 0.0040815915 -0.0072420235 0.003668084 -0.011343878
0.004259479 -0.0019006921 -0.008770243 0.0077554607 -0.002608041 0.008345271 -0.010510617 -0.0028021873
-0.0088408515 0.0039855004 -0.0014504838 0.0019555169 -0.014985062 0.0020293293 0.0144312605 -0.015399915
-0.023646612 -0.01619479 -0.008360001 -0.0037082303 0.000638249 -0.006197355 -0.009006531 -0.0060149697
0.00012542354 -0.011349133 -0.00037483947 -0.0019860377 0.004561638 -0.0061042095 -0.013296934 0.0046994663
0.008078677 0.0021343725 -0.00065956684 0.0106394105 -0.001335214 0.010743158 0.016639573 -0.0013668106
0.0050063306 0.00022466177 0.0043023936 0.0008122008 0.0023689372 -0.0038579523 -0.00084409205 0.02755946
-0.011042087 0.00042916252 0.0005932051 -0.008147687 0.008582584 0.0028307228 -0.007845941 -0.015320638
-0.015072705 -0.009596254 0.014197297 0.0025844786 -0.012286598 -0.00020334093 -0.0036627434 0.010192356
0.011908049 0.0029277136 0.01684599 0.0003476181 0.002193109 -0.0068038427 -0.013636847 0.0038794787

action_model._discrete_distribution.branches.1.bias f4 [3]
00000000: 0000 0000 0000 0000 0000 0000
0.0 0.0 0.0

action_model._discrete_distribution.branches.2.weight f4 [3, 128]
00000000: cda1 f5ba 47a5 403c 308d 8ebc 7029 ea3b
00000010: acef 88bc 1da6 3abc 8876 f13b 185b 093b
00000020: 9b31 cebb 9751 713b 7b3b 1bbb 7c8f 1bbc
00000030: 4d61 df3b 007d ff3b 2f43 213c f7aa e53a
00000040: 131a b93b a93f 48ba 0318 80bc 3691 a8bc
00000050: e0fd c837 51c6 b0bb 2fa7 6bbb 3ae0 663b
00000060: 0936 8cba 3245 efbb 3cef 0abc 726e d0bb
00000070: 388f a7bb df3e fdba 2010 0b3c 5dc2 473b
00000080: d385 573b 6a8f 7bbc 0463 863b 7778 483c
00000090: 3dc2 68bb 0722 03bb 3725 c73b 7aa4 263a
000000a0: 8e1e 0f3a 7f45 0abc 6083 173a 5560 1c3b
000000b0: 6ea8 833c 979f e83b 351f eb3b 7f16 493c
000000c0: 0ab2 f53b 42e4 ce3b 7d09 833b a85c 6d3b
000000d0: 663f a83b a0dc 77bc 6eb2 32bc a59c 413c
000000e0: ef20 2d3c dc8a ac3b 6e73 343a 9128 aaba
000000f0: 8d77 7bbb fa01 7a3c 5380 0f3b a4f6 8dbc
00000100: e574 8f3b ef8f 2a3a 290f 303c 9308 97bc
00000110: a71c 21bb 31c7 003c a780 b93b 6b71 85bc
00000120: c6ea ac3b 40cd 253c 0a7e af3b beb3 81bb
00000130: 667e 423b 98e3 923c eae7 213b d280 1fbb
00000140: fd42 513b 2280 07bb 1705 be3b 2730 a7ba
00000150: 1fb1 043c 1004 7a3a 5dd3 c439 0991 1d3b
00000160: 147f b3ba 7033 3abc bbac 78b8 1b63 8dbc
00000170: 0aaf e5bb 0c56 173c 33a2 b5bb 13c6 383b
00000180: da3d 14bc bde8 70bb 0f2e 143c 3e82 c03b
00000190: 6763 973b 89b9 073a fb89 98bb 2030 75bb
000001a0: b73b 4ebc 7e81 02bc 23ec 8a3c b40d 0ebc
000001b0: c3fb faba 6002 553b 7b30 fd3b cb43 39bb
000001c0: c0d1 b3bb e6a7 3cbc 0cbf 03bb f0b5 0abc
000001d0: 631c 143b 09b0 bbba 975a df39 326e 553b
000001e0: 786b c8b9 5fd7 653c de2c a5bb 36a7 3e3a
000001f0: 3f8a 953b b3f2 36bb 6729 053b 6fd9 95bb
00000200: 83d8 d53b 9a62 58bb 6b47 6a3c df2a ebbb
00000210: 9bb5 2b3c 6f69 0cbc 4d9b 01bc a5fe 74bb
00000220: 16a8 1abb 519e 3bbb 35ba 0a3c adfe d43b
00000230: cea6 1fbc 6892 f93b 5fad 04bc 2527 6abc
00000240: 9799 613c 07b3 22bc e8e5 94bb 2b3d d13b
00000250: cd4d 4dbc 392c 3e3c 8f66 01bc ed85 9cba
00000260: 0316 aa3b f26c 153c 639e 85ba a7bf bc3b
00000270: acac 9d3a 1168 b4bb 28c3 66bc 5845 723b
00000280: e4cf 3d35 e456 203c 1098 643c aa2b 1b3c
00000290: 1997 bcbb d236 6bbb 6bb3 13bc c78f 173c
000002a0: fae2 8bbc 4df3 a7bc cdac cd3a 2450 8e3b
000002b0: cfd7 ce3b 5ed5 01bb e3b2 533c b375 c13b
000002c0: e25c e9ba 5cd0 13bc 70cf 8c3c b42f a8bc
000002d0: 77ed 05bc af1c 5b3c cabe 4c3c a773 4c3b
000002e0: 82bf 10bc be93 8e3b fbdd aa3a a861 9d3b
000002f0: f325 32bb 4e06 433c fec3 08bc 620a 4e3a
00000300: 6721 f33b 7fd9 4b3b d68c b3ba 5d58 673c
00000310: f3a7 f8bb 8fc7 343c 9991 813c 3781 bd3b
00000320: 1742 8e3b 1d58 fb39 ba05 5e3c 2f12 07bc
00000330: 895f 803b 8d41 58b8 7a79 d0bb 4e80 2aba
00000340: 6a3e 393c 0121 453c fdcb 60bb dfad 0a3b
00000350: 804a c2ba e404 203c 375d 2dbc 381a c8bb
00000360: 0425 8dbc 5aba 66bc 4a7f 26bc 26d4 42bc
00000370: f585 8f3a 5919 2c3c 5337 79bc 8084 7fbb
00000380: df97 4d3c 81d6 91bc 83f0 7e3c deaf 903c
00000390: ae1d 8c3b 8214 793b 5060 9abc 71c5 8d3b
000003a0: 388a f5ba b7da 85bb 8bb1 9b3c bfbe 1abc
000003b0: bded 3bbb d5b2 6739 8b35 4f3b 1242 113c
000003c0: d29b c43a 5bd7 493a 63b7 4bbb c69f 00bc
000003d0: d335 23bb af3a 113b 2338 cc3b b271 8c3b
000003e0: 13dd 12bc 3fcf 493c a74b 1b3b f384 99bb
000003f0: dba6 90bb 4b8f 12bb c3f5 20bc 8178 8939
-0.0018740237 0.011758155 -0.017401308 0.007146053 -0.016715847 -0.011392144 0.0073688664 0.0020958837
-0.0062925345 0.0036822313 -0.0023686576 -0.009494659 0.006817019 0.0077968836 0.009842678 0.0017522265
0.0056488602 -0.00076388806 -0.01563645 -0.020577054 2.3960078e-05 -0.005394735 -0.0035957803 0.0035228864
-0.0010697256 -0.00730195 -0.0084798895 -0.0063608224 -0.0051135086 -0.0019321105 0.008487731 0.003048084
0.0032886162 -0.015354017 0.004101159 0.012235752 -0.0035516166 -0.0020009296 0.0060774344 0.00063569064
0.000545957 -0.008439421 0.0005779769 0.002386113 0.016071524 0.0070991027 0.007175351 0.01227343
0.0074980306 0.0063138315 0.003998934 0.0036218558 0.005134511 -0.015128285 -0.010906799 0.011817132
0.010566934 0.0052655768 0.00068836554 -0.001298206 -0.0038370818 0.01525926 0.0021896556 -0.017329521
0.0043779486 0.0006506433 0.010745802 -0.018436706 -0.0024583729 0.007859991 0.0056610885 -0.016289433
0.0052770106 0.010119736 0.005355601 -0.0039581945 0.002967739 0.01793079 0.0024704882 -0.0024338257
0.0031930797 -0.0020675738 0.0057989466 -0.0012755439 0.00809887 0.00095373485 0.0003754151 0.0024042747
-0.0013694488 -0.011364803 -5.9288675e-05 -0.017259171 -0.0070093917 0.009236824 -0.0055430173 0.0028194233
-0.00904795 -0.0036759817 0.009044184 0.005874901 0.004620004 0.0005177488 -0.0046551204 -0.0037412718
-0.012587479 -0.007965444 0.016958302 -0.008670259 -0.0019148517 0.0032502636 0.0077267266 -0.0028269168
-0.0054876506 -0.0115146395 -0.0020102886 -0.008466229 0.0022599928 -0.001431943 0.0004260137 0.0032566902
-0.00038227043 0.014028399 -0.005040749 0.0007272841 0.0045635994 -0.0027915656 0.0020318867 -0.0045730392
0.0065260543 -0.0033017755 0.014299254 -0.0071767415 0.01048031 -0.008570059 -0.007910562 -0.0037383225
-0.0023598722 -0.00286283 0.008467247 0.0065000863 -0.009744359 0.00761633 -0.0080979755 -0.014291559
0.013769529 -0.009930379 -0.0045440085 0.0063854656 -0.012530756 0.011607223 -0.007897987 -0.0011941768
0.0051906123 0.009120213 -0.0010194298 0.0057601514 0.001202961 -0.0055055697 -0.014084615 0.0036967602
7.071051e-07 0.009786341 0.01395227 0.00947086 -0.005755317 -0.003589083 -0.009014945 0.009250588
-0.017076004 -0.020501757 0.0015691757 0.0043430496 0.0063123475 -0.0019811015 0.012921068 0.0059039234
-0.001780417 -0.009021845 0.017188758 -0.02053056 -0.008174292 0.013373538 0.0124966595 0.0031196864
-0.0088347215 0.0043511083 0.0013036126 0.0048029013 -0.0027183264 0.011903359 -0.008347509 0.00078598235
0.0074197534 0.003110498 -0.0013698589 0.014120189 -0.0075883805 0.011033907 0.015816497 0.005783226
0.0043413746 0.000479401 0.01355117 -0.008244081 0.0039176387 -5.1559462e-05 -0.0063621374 -0.0006504104
0.011306385 0.0120317945 -0.0034301274 0.0021160764 -0.0014823228 0.009766791 -0.010581306 -0.006106641
-0.017229564 -0.014082516 -0.010162184 -0.0118914 0.0010949956 0.01050409 -0.015210944 -0.0038988888
0.012548416 -0.017802479 0.015560272 0.017661985 0.004275999 0.0038006608 -0.018844754 0.0043265154
-0.0018733209 -0.0040849107 0.019005558 -0.0094448915 -0.0028675639 0.00022096497 0.0031617607 0.00886585
0.0015000051 0.0007699632 -0.0031084649 -0.007850593 -0.0024903908 0.0022160222 0.006232278 0.0042860145
-0.008963841 0.012317478 0.0023696215 -0.0046850382 -0.004414422 -0.0022363241 -0.009824219 0.0002622046

action_model._discrete_distribution.branches.2.bias f4 [3]
00000000: 0000 0000 0000 0000 0000 0000
0.0 0.0 0.0

critic.network_body.linear_encoder.seq_layers.0.weight f4 [128, 141]
00000000: b503 05bc 2a20 92bd c689 9a3d b961 b13d
00000010: 35ee 94bd 62fc b9bd f4b2 cabc 313f 0c3c
00000020: 4f7a ee3c 3390 fcbc 8bb6 3fbd d2ca 2c3e
00000030: 3cd0 e5bd 4cb1 9a3d 4ce4 96bd 464e 553d
00000040: ab97 a7bc 711b 0b3e 88df cabd 2ae1 043d
00000050: ca72 ab3d 1825 f63c b715 563d 095e c3bc
00000060: 6f94 04bc 9886 733d a5ad 8a3d 271b 26be
00000070: 3061 e53d 66cd 433d d626 e13d 3757 e43c
00000080: 79aa 933d ae9d 8d3c 9fe8 1cbe 260d c13c
00000090: 2dff c23d 80ed 0d3e 2518 15bd ad51 af3d
000000a0: a319 b33d 2479 333d 27ab ff3c 2840 e439
000000b0: 003d f1bc a242 d83c 63da 133d 5d76 17bd
000000c0: 4a26 0d3e ccb8 d5bd ec1c 91bb 925e dcbd
000000d0: 995e c43b 0018 a03d 2188 b4bd 247b 18bb
000000e0: 5e58 05be 536e f5bd c008 c1bd 7c50 523c
000000f0: 2309 023e 64b2 893d 7652 00be ad5d f53c
00000100: ed4a 2a3c 9035 9abd f4a7 33bd 3894 63bc
00000110: 3672 2e3c 365e 113e da7f 7cbd cdb3 f33d
00000120: 93f2 8bbd 2e88 a5ba d53c c5bd 5f14 ce3a
00000130: 4099 56bd 5f15 ba3d 81ea 373d 63dd 5b3c
00000140: 8756 903c f9ab 2e3d 8a12 a63d e9ee 683d
00000150: da3f 153e 8813 adbc ad13 24bd 751e 033e
00000160: 1e29 b639 be23 84bd 975b 1abe 4f82 053e
00000170: cad6 d8bd 189e 1ebd 48bd cabd f447 263d
00000180: dd41 763d 099e 38bc c3f0 cf3c d156 33be
00000190: 20db 5b3d 11e2 30bd ac09 19be b73b 3ebc
000001a0: b2ec 62bd 4b38 603d 3077 cbbd 2d4f fbbc
000001b0: dd41 8fbc 8a80 c13d 01b6 693d ba63 69bd
000001c0: 721c a63d 154c ca3c 478a adbd 4261 edbc
000001d0: a223 383c bae9 033e 0980 2e3d 54b7 06bd
000001e0: 44ce 7fbc f2c1 bc3c 0993 5fbd 863d a9bd
000001f0: 79f1 a1bd b15c db3d af7e e4bc e2c5 9abd
00000200: 2a70 8c3c f832 debd edb5 3bbc 821f 9bbd
00000210: 178d b03d c352 743d 3f3b 0dbe b269 a53d
00000220: 6ab9 b33a ef04 8f3d 23ae 093c f4b1 73bb
00000230: 3afa ec3d b46c 40bd 0eb5 ddbd 105f 093d
00000240: 0246 973b f247 cabb e152 2abd 5170 81bd
00000250: d4f6 1e3d aa49 0f3d 8abe 2bbd c675 99bc
00000260: c396 49bd 1542 dfbc a83b cfbd 4208 8d3c
00000270: 662f c13d ce63 1f3d e9c8 663d 72b6 423e
00000280: 7d86 8fbc f55f bf3d d2de ad3c c490 d33a
00000290: 593c e83d 9e21 033d 72c6 8c3d 414a bbbd
000002a0: 0702 3e3d 5461 cbbd 2784 333d 12ba a1bd
000002b0: 6518 9f3d f9e1 2cbe 3f5c cdbd 8aa5 143d
000002c0: 44e0 373d 053c 9dbd 2dfe 99bd 2969 c03c
000002d0: 09d5 9fbb ec33 0f3d 09a7 dcbd d05a 9abd
000002e0: 351a a438 5c54 e73d 8b5f 1b3d 8a65 28bd
000002f0: f5f7 a43b bf9e be3d 1d82 2a3e 6623 2bbb
00000300: 1f37 673d 8983 28be 17a1 23bd 1b11 ccbc
00000310: 5f5a 103e c87d b1bd 8ba5 5cbe cba4 12bb
00000320: 9507 f5bd 3d8e 9b3d 66f6 b93d c4d3 8a3c
00000330: 4149 1dbd b153 e8bd 1bce a13c d8ce a2bc
00000340: 87cb 0ebd 07b6 f6bc b70e 4d3c 11db 1ebe
00000350: 4ed5 c43c ba8c 063c aeef 64bd 8ea2 6a3c
00000360: 3b09 1cbd c68b 183e 4404 7f3c f6f2 1ebe
00000370: ee34 183d 0c7b 49bd 5ee0 7cbc 36ae c4bc
00000380: 3dc5 df3d 136a 2f3e cb62 3cbc 90e2 24be
00000390: ea61 5b3d bc23 bebc 5b43 0c3d ca43 3e3d
000003a0: e2a2 ea3d cf41 c03c 315d 50bd 356b f03b
000003b0: aee3 1ebd 3901 e5bd 7c37 d53b 39df 32be
000003c0: a250 0b3d 3ff3 6d3c adec a93d d476 db3d
000003d0: a505 06bc 09c3 a0bd 6c76 d63b e9c9 2c3c
000003e0: e929 68bc 550b a13c d377 803d d77d 2ebd
000003f0: b444 a2bc 3723 983d be3b 33bc c632 733c
-0.00811856 -0.07135041 0.075458094 0.08661217 -0.07271997 -0.09081341 -0.024743535 0.008559988
0.029111056 -0.030830478 -0.046804946 0.16874245 -0.11221358 0.07553348 -0.07367763 0.0520766
-0.020458063 0.13584687 -0.099059165 0.032441296 0.08371504 0.030046985 0.052266803 -0.02384855
-0.00809203 0.05945453 0.06771401 -0.16221295 0.11200178 0.047803305 0.109937355 0.027873619
0.072102495 0.017287102 -0.15323113 0.02356584 0.09521327 0.1386013 -0.03639998 0.085605
0.08745124 0.0438167 0.031209541 0.0004353535 -0.029448032 0.02639896 0.03609694 -0.036978114
0.13784137 -0.10435638 -0.0044284966 -0.10760225 0.005992722 0.07817078 -0.08815027 -0.0023266757
-0.1302199 -0.11983933 -0.09425497 0.012836572 0.12698798 0.067234784 -0.12531456 0.029951895
0.01039384 -0.075297475 -0.043861344 -0.013890319 0.010647347 0.14196095 -0.061645366 0.11899529
-0.06833377 -0.0012629086 -0.096307434 0.0015722624 -0.052392244 0.090861075 0.044901375 0.013419482
0.017619384 0.042644475 0.08109005 0.056868467 0.14575139 -0.021127477 -0.040057827 0.12804587
0.0003474438 -0.0645213 -0.15074001 0.1303799 -0.10587843 -0.03872499 -0.09899384 0.040595964
0.060121406 -0.011268147 0.025383359 -0.17513587 0.05367577 -0.043184344 -0.14945096 -0.011610917
-0.05540151 0.054741185 -0.099348426 -0.030677402 -0.01748746 0.09448345 0.057058338 -0.056979872
0.08110894 0.024694482 -0.0847364 -0.02897704 0.011238964 0.12882128 0.042602573 -0.03288968
-0.015613142 0.0230417 -0.054583583 -0.08263688 -0.079073854 0.10711039 -0.027892439 -0.075572744
0.017143328 -0.10849565 -0.011456949 -0.07574369 0.08620661 0.05964924 -0.13792132 0.080768004
0.0013711874 0.06983363 0.008403334 -0.0037184926 0.115711644 -0.046978667 -0.10825549 0.033537924
0.0046165 -0.0061731273 -0.041582946 -0.06320251 0.038809612 0.03498236 -0.04192976 -0.018732917
-0.049216043 -0.02725319 -0.101188004 0.017215852 0.09432869 0.03891354 0.056343947 0.1901491
-0.017520184 0.09344474 0.021224413 0.0016141166 0.113396354 0.03201448 0.06873788 -0.09145022
0.046388652 -0.09930673 0.043827202 -0.07896818 0.07768325 -0.16883077 -0.1002736 0.036290683
0.04489161 -0.076774634 -0.07519183 0.023487644 -0.0048776907 0.034961626 -0.10774047 -0.07536852
7.825011e-05 0.11295387 0.037932914 -0.04111246 0.0050344416 0.09307622 0.16651197 -0.0026113628
0.056449052 -0.16456427 -0.03994855 -0.0249105 0.14096974 -0.08666569 -0.21547525 -0.0022376056
-0.11964337 0.07595489 0.090802 0.01694668 -0.03839994 -0.11344088 0.019751599 -0.019874021
-0.034862068 -0.030116094 0.012515715 -0.15513255 0.024027493 0.008212263 -0.05589264 0.014320983
-0.03809474 0.1489707 0.015564982 -0.1552237 0.037159853 -0.049189612 -0.015434353 -0.024008851
0.10926292 0.17130308 -0.011498163 -0.16102052 0.053560175 -0.023210399 0.034243923 0.046451367
0.11456849 0.02346888 -0.050870124 0.007336999 -0.03879135 -0.11181874 0.0065068584 -0.17467965
0.034012444 0.014523326 0.082970954 0.10716024 -0.008180057 -0.078497 0.0065448787 0.010546186
-0.014170148 0.019658724 0.06272855 -0.04260048 -0.01980815 0.07428592 -0.010939537 0.014843648

critic.network_body.linear_encoder.seq_layers.0.bias f4 [128]
00000000: 0000 0000 0000 0000 0000 0000 0000 0000
00000010: 0000 0000 0000 0000 0000 0000 0000 0000
00000020: 0000 0000 0000 0000 0000 0000 0000 0000
00000030: 0000 0000 0000 0000 0000 0000 0000 0000
00000040: 0000 0000 0000 0000 0000 0000 0000 0000
00000050: 0000 0000 0000 0000 0000 0000 0000 0000
00000060: 0000 0000 0000 0000 0000 0000 0000 0000
00000070: 0000 0000 0000 0000 0000 0000 0000 0000
00000080: 0000 0000 0000 0000 0000 0000 0000 0000
00000090: 0000 0000 0000 0000 0000 0000 0000 0000
000000a0: 0000 0000 0000 0000 0000 0000 0000 0000
000000b0: 0000 0000 0000 0000 0000 0000 0000 0000
000000c0: 0000 0000 0000 0000 0000 0000 0000 0000
000000d0: 0000 0000 0000 0000 0000 0000 0000 0000
000000e0: 0000 0000 0000 0000 0000 0000 0000 0000
000000f0: 0000 0000 0000 0000 0000 0000 0000 0000
00000100: 0000 0000 0000 0000 0000 0000 0000 0000
00000110: 0000 0000 0000 0000 0000 0000 0000 0000
00000120: 0000 0000 0000 0000 0000 0000 0000 0000
00000130: 0000 0000 0000 0000 0000 0000 0000 0000
00000140: 0000 0000 0000 0000 0000 0000 0000 0000
00000150: 0000 0000 0000 0000 0000 0000 0000 0000
00000160: 0000 0000 0000 0000 0000 0000 0000 0000
00000170: 0000 0000 0000 0000 0000 0000 0000 0000
00000180: 0000 0000 0000 0000 0000 0000 0000 0000
00000190: 0000 0000 0000 0000 0000 0000 0000 0000
000001a0: 0000 0000 0000 0000 0000 0000 0000 0000
000001b0: 0000 0000 0000 0000 0000 0000 0000 0000
000001c0: 0000 0000 0000 0000 0000 0000 0000 0000
000001d0: 0000 0000 0000 0000 0000 0000 0000 0000
000001e0: 0000 0000 0000 0000 0000 0000 0000 0000
000001f0: 0000 0000 0000 0000 0000 0000 0000 0000
0.0 0.0 0.0 0.0 0.0 0.0 0.0 0.0
0.0 0.0 0.0 0.0 0.0 0.0 0.0 0.0
0.0 0.0 0.0 0.0 0.0 0.0 0.0 0.0
0.0 0.0 0.0 0.0 0.0 0.0 0.0 0.0
0.0 0.0 0.0 0.0 0.0 0.0 0.0 0.0
0.0 0.0 0.0 0.0 0.0 0.0 0.0 0.0
0.0 0.0 0.0 0.0 0.0 0.0 0.0 0.0
0.0 0.0 0.0 0.0 0.0 0.0 0.0 0.0
0.0 0.0 0.0 0.0 0.0 0.0 0.0 0.0
0.0 0.0 0.0 0.0 0.0 0.0 0.0 0.0
0.0 0.0 0.0 0.0 0.0 0.0 0.0 0.0
0.0 0.0 0.0 0.0 0.0 0.0 0.0 0.0
0.0 0.0 0.0 0.0 0.0 0.0 0.0 0.0
0.0 0.0 0.0 0.0 0.0 0.0 0.0 0.0
0.0 0.0 0.0 0.0 0.0 0.0 0.0 0.0
0.0 0.0 0.0 0.0 0.0 0.0 0.0 0.0
