Project/results/VPlayer-First/VPlayer/VPlayer-19760.onnx (onnx, 148446 bytes, 11 tensors)

action_model._continuous_distribution.mu.weight f4 [1, 128]
00000000: d791 aabb 54ec 4f3c 7850 8a3b 149b c2bb
00000010: 0ed3 96bb 6d67 0b3c ad21 6cbb 965d a83c
00000020: ab83 743b df6c 743b aa0c bc3c 49c2 85bc
00000030: e439 aa3c 9b62 cebc ba2e 09bd f215 ccbb
00000040: 5ed4 7abc e1b3 81bc 76e0 ecbc b855 b8bb
00000050: 696b 3fbb 2c55 063b 4e1c b0bc 57dd 3e3c
00000060: 9181 03bc a542 1b3b 02be 433c 680d c43b
00000070: ca94 43bc 0b70 e43b bdd7 dabc 5025 a33c
00000080: 636d 423c 3e82 883c 7bb8 e6b9 190a 223b
00000090: 0e09 083c 5dd3 a3bc 65e0 22ba c00d 86ba
000000a0: b11f 41bc 2149 b43c be19 5bbb a0e8 6dbb
000000b0: 0476 743c 845a cbbb 11ff a1bc 3402 173d
000000c0: 70f9 8f3c 7b16 8bbc b247 6e3c a7a3 85bb
000000d0: ce68 d8bc dcd0 c33b f454 b13b 6f24 0a3c
000000e0: d4b3 33bc 5a5f b93b e85d 5e3a 16f4 57bc
000000f0: 5d73 743b 1245 2cbb c0b1 973a a3af 9dbc
00000100: 2766 97bb dfcc 663c d930 bdbc 2ba3 243c
00000110: 681f 243c 1124 413c b0cd 893c 0663 0b3d
00000120: b375 04bc f6cf abbc 16f0 9cbc 36eb 68bc
00000130: 6e28 f4bb 069f f3ba 565f 793b 1e21 d23a
00000140: 648a 77bc cb8e 663c c776 b0bc 7472 bdbc
00000150: 0e1c 9a3b 5107 a8bc 397c 4d3c 0077 213c
00000160: 635b a0bb 148f 9ebc e497 78bc b2aa d1bb
00000170: 0e2b 9fbc cb90 86bc fb8a ebbc bdb5 40bb
00000180: de18 9a3b 3e6b 41bc 91dc 5c3c 6b34 803b
00000190: 17b6 7bbc 5a1f 3e3b 2ab9 6dbc b3f3 253c
000001a0: 5742 a7bb 4705 393b 1d85 a2bc 7282 323c
000001b0: fcd3 bf3c dcd2 8d3b 8c4e 1ebc 0c13 a33c
000001c0: 5335 bc3b 1cb2 1db8 2918 de3b aa30 bfb9
000001d0: f433 aebc a016 443c 1cea eab9 fe66 10bd
000001e0: a9d3 3dbc 8563 4a3d e5e9 6ab8 55ad 133b
000001f0: 4e12 a2bc fe14 2bbc eabc 3d3c bcf8 6b3c
-0.0052053737 0.012690622 0.0042210184 -0.005938897 -0.0046027964 0.008508545 -0.0036030815 0.020552438
0.0037309926 0.0037296338 0.022955257 -0.016327994 0.020779558 -0.025193503 -0.033491828 -0.006228202
-0.015309421 -0.015832843 -0.028915625 -0.005625453 -0.0029208309 0.0020497544 -0.021497872 0.011649451
-0.0080264965 0.0023690846 0.011947157 0.0059830435 -0.01193733 0.0069713644 -0.0267142 0.019915253
0.0118669 0.016663667 -0.00044006467 0.0024725257 0.00830294 -0.019998247 -0.0006213247 -0.0010227486
-0.011787341 0.022007527 -0.0033432092 -0.0036301985 0.014920715 -0.0062058587 -0.019774945 0.036867335
0.017574996 -0.016978493 0.014543461 -0.004078347 -0.026417162 0.0059758257 0.0054117385 0.008431538
-0.010968167 0.0056571187 0.0008482621 -0.013180753 0.0037300207 -0.0026286286 0.0011573359 -0.01924879
-0.004620332 0.014086931 -0.023094581 0.010048668 0.010017253 0.011788384 0.016821712 0.034029983
-0.008084702 -0.020973187 -0.01915745 -0.014216235 -0.0074511087 -0.0018586821 0.003805121 0.0016031598
-0.0151086785 0.01407213 -0.021541012 -0.023125865 0.0047030514 -0.020511301 0.012541824 0.009855032
-0.0048937066 -0.019355334 -0.015172932 -0.0063985223 -0.01942971 -0.016426465 -0.028752794 -0.00294052
0.0047026714 -0.011805354 0.0134803215 0.0039124987 -0.015363238 0.0029010386 -0.014509479 0.010128903
-0.005104344 0.0028231905 -0.019838864 0.010895358 0.023416512 0.004328115 -0.009662282 0.019906543
0.0057436614 -3.7597594e-05 0.0067777825 -0.00036466616 -0.021265008 0.011968285 -0.00044806383 -0.03525447
-0.011586108 0.049411315 -5.600778e-05 0.0022533734 -0.019784119 -0.010442017 0.011580685 0.014402565

action_model._discrete_distribution.branches.0.bias f4 [3]
00000000: d4a0 5f3b 0182 52ba ee49 24bb
0.003412296 -0.00080302363 -0.002506848

action_model._discrete_distribution.branches.0.weight f4 [3, 128]
00000000: c293 233c 3a7f 96ba 8e2d 4f3c 69dd a6bc
00000010: d717 823a 2fea 54bb 5e5a 23bb d1c7 093b
00000020: 368b a4ba c545 8ebc 45cb 62bc e365 b7bc
00000030: 16bb 87bc 97a0 8fbc 5375 5c3a e322 e9ba
00000040: 1306 143c 9b40 b73b 9a7e 4f3c f867 01bc
00000050: e89d d4bb 0e5e 6db8 687d 393c abf3 1bbc
00000060: 3238 f33b 7614 293c 3f8f 3abc a9ad dfbb
00000070: 2c8e 64bc e43c d23a d339 0dbc de4c aabb
00000080: 7e71 95bc de74 133c 0cb4 fb3b d06e b33b
00000090: 616e aa39 dea2 96bb 4678 c9bb bcc2 f0ba
000000a0: b04c 873b 133b 1d3b eb3c 30bc 0364 8ebc
000000b0: 286e 44bb a5f2 33bc 2f10 16ba c8c2 d339
000000c0: 7a2d 8abc 9679 903c 62c8 aabb a0bd 45bb
000000d0: b80a 8cbc 26b4 9bbc 2a73 3abc 4cd5 bebb
000000e0: d0ec b83b 48fd 57bc 20a0 16bc 245a 653b
000000f0: 4415 fbbb 657b e3bb f153 0c3b c559 2ebc
00000100: c0b2 70bb fbc7 94bc 4851 1bba 748e 6bbc
00000110: 0896 5ebc a6a0 c73a 45e3 a13b 01fd 023c
00000120: 6e47 ca3c 381a dcb7 6e8b 943b 5170 303b
00000130: 3c9d 2dbb 8fe4 aaba 5824 87bb e848 28bb
00000140: 518f d4bc 654a b4bb 7640 a8bb 7faa 383b
00000150: f18a 39bc 07a3 87bb ef71 acba e2a4 84ba
00000160: 6399 bd3c 153a 55bc cda6 08bc dc1a 02bb
00000170: b92f 34bb 4415 4ebc eab6 403c 4d63 1abc
00000180: 9be6 1fbc cb16 863b 5b68 62bc 47fe 04bc
00000190: 9c54 04bc d085 c2bb 0dc4 be3a 50f8 52bc
000001a0: 17d9 e83b ff31 b43b 13c4 e8bb 215b 47bb
000001b0: 973d 4fbc 4be6 c63b fdd3 2cbb fdcc f93b
000001c0: 40e1 01bb 7e5e 713c a6d1 0b3b 07b4 c03c
000001d0: aaa5 613c 178b 273c f2ea ad3a fbf1 983a
000001e0: fa99 21bb fd7c 123b 4eed 793b 6fe1 9a3c
000001f0: f880 653b ea0f 12bc b635 1abb 1526 62ba
00000200: e8a3 1539 9342 893b cd1e 8cba 3a29 a83b
00000210: 3c2b c338 ec49 8bbc 7e6c 043a f5e3 85bc
00000220: 9114 8b39 1949 5c3b 85d8 ea3b bac1 a13b
00000230: dee1 8338 17ad 8fb8 592f bcba 8646 3e3b
00000240: 88a2 413b 32c3 b73b 8997 0e3c 6945 d23c
00000250: 896f 6d3c 9401 e63b e7af 153c c6f7 0e3b
00000260: 3ba4 24bb c122 013c b97d 17bb 28c7 2ebc
00000270: c0fc 07bc 37ef 013b 8edf 073c 9e82 eebb
00000280: bb6e 3c3b be66 723b 78ef 433c da73 223b
00000290: adb3 9a3c 537a 583c ea13 9539 2d6f 7f3c
000002a0: c701 9bbb 3021 623c 8089 d33b d8a7 e6b9
000002b0: 09a1 c1bb 576b 143c 171b b13b cf84 f3bb
000002c0: 35f1 27bb 6a48 b0bb 8a07 7cbb b326 373b
000002d0: 04f3 083c dd0b 36bc f4a9 a1bc 76fd d6bb
000002e0: 7c81 43bb b324 a8bc 54a0 773b 1466 17ba
000002f0: bc40 ccbb 91da 863a a63b 72bb 67ae 4dbb
00000300: 214d 60bc 79fd f0bb 9127 f9ba 78b9 ec3a
00000310: 8b36 473b 6c73 02ba d767 ce3b 61e6 9039
00000320: 6b60 1ebc 2ea4 a73b ce69 95bb 8a43 72bb
00000330: 2eef 9dbb e266 3abb 55d2 673b 1c5a 573b
00000340: 4885 b33a b8f4 22bb 6939 16bc 31c3 a13c
00000350: 2839 96bb caa7 833a 3c60 503b 7dd2 3b3c
00000360: aa3d ccbb 4f17 9dbb 6b5f 823c 8c75 96bc
00000370: c016 293b c33c 6cbc 0a78 223c 0e72 9eb9
00000380: ab90 973b 1aee 023a 3d62 f5bb 8a19 313c
00000390: 3f85 b23b 0a49 fcbb 12c3 613a a1db 96bc
000003a0: b3d5 4ebc ab71 50bc e488 153a 16db 8dbc
000003b0: 51f8 2fbc 0677 91bb ded4 a33c 340b f73a
000003c0: bc42 873b a89d 843c 283c 04bc 8d11 afbb
000003d0: 4793 7e3b 013f 0b3c 0d6a 033b 40b2 1d3b
000003e0: cd78 f73b c2c1 b0bb e21a 7f3b 2f5e 873b
000003f0: ac06 9b3b 7f54 8d3c 433a be3b 55bd 1b3a
0.009983959 -0.0011482008 0.012645138 -0.020369248 0.0009925318 -0.0032488217 -0.002492569 0.002102364
-0.0012553695 -0.017367253 -0.013842409 -0.02238745 -0.016568702 -0.01753263 0.00084098167 -0.0017786886
0.009034651 0.0055924184 0.0126644615 -0.007898323 -0.0064885505 -5.65928e-05 0.011321403 -0.009518544
0.0074224705 0.01031982 -0.011386692 -0.006826122 -0.013949912 0.0016039875 -0.008619743 -0.0051971516
-0.018242594 0.009000031 0.0076813754 0.0054758564 0.00032507165 -0.004597052 -0.006148371 -0.0018368582
0.004129015 0.002399151 -0.0107567115 -0.017381674 -0.0029972885 -0.010983144 -0.00057244574 0.0004039018
-0.016867388 0.017636102 -0.005211876 -0.003017284 -0.017094955 -0.0190068 -0.011379996 -0.005823767
0.0056434646 -0.013182946 -0.00919345 0.0034996355 -0.007662447 -0.0069422 0.0021412338 -0.01064152
-0.0036727637 -0.018161764 -0.00059248926 -0.014377225 -0.013585575 0.0015230372 0.0049404227 0.007994891
0.024692263 -2.6238253e-05 0.004533223 0.0026922415 -0.0026491424 -0.0013038086 -0.0041242056 -0.002567822
-0.025947245 -0.0055020326 -0.0051346375 0.0028177795 -0.01132463 -0.0041393074 -0.0013156513 -0.001011994
0.02314443 -0.013014336 -0.00834055 -0.0019852435 -0.0027494265 -0.012578312 0.01176236 -0.009423089
-0.0097595705 0.0040920726 -0.013818826 -0.008117265 -0.008076813 -0.005936362 0.0014554277 -0.012876585
0.0071059573 0.005499124 -0.007103452 -0.0030419307 -0.0126489615 0.0060699335 -0.0026371472 0.0076233135
-0.0019818097 0.014732001 0.0021334677 0.023523344 0.013772408 0.010226033 0.0013268872 0.0011668795
-0.0024658428 0.002235233 0.003813583 0.018906323 0.0035019498 -0.008914927 -0.002353055 -0.00086268905
0.00014270807 0.0041888445 -0.0010690332 0.0051318677 9.3063776e-05 -0.017003022 0.0005051567 -0.01634405
0.0002652747 0.0033612906 0.0071669244 0.004936424 6.288638e-05 -6.851012e-05 -0.0014357372 0.0029033734
0.002954634 0.005607986 0.008703121 0.025667863 0.014491924 0.007019231 0.009136177 0.0021815165
-0.0025122303 0.007881821 -0.0023115708 -0.0106676 -0.008300006 0.001982642 0.008293046 -0.0072787544
0.0028752524 0.0036987509 0.011958949 0.0024788291 0.018884504 0.013212758 0.00028434332 0.015590471
-0.0047304365 0.013801858 0.0064556003 -0.00043994072 -0.0059090895 0.009058795 0.0054048407 -0.0074316035
-0.0025625948 -0.005379726 -0.0038456642 0.002794665 0.008358721 -0.011111227 -0.01973436 -0.0065609766
-0.0029831817 -0.020525312 0.0037784772 -0.00057754037 -0.006233303 0.0010288527 -0.0036961823 -0.003138447
-0.013690264 -0.007354435 -0.0019008984 0.0018060645 0.00303975 -0.00049763056 0.006299 0.00027637466
-0.0096665425 0.0051160073 -0.004559732 -0.0036966526 -0.004819772 -0.002844267 0.003537317 0.0032860106
0.0013696337 -0.0024865102 -0.009168961 0.019746395 -0.0045844503 0.0010044512 0.0031795641 0.011463759
-0.006232937 -0.0047940384 0.01591464 -0.018366598 0.0025800914 -0.014418784 0.009916315 -0.00030221086
0.0046254 0.00049945863 -0.0074885176 0.010809312 0.005448013 -0.0076991366 0.00086121366 -0.018415274
-0.012624192 -0.012722413 0.0005704297 -0.017316382 -0.010740356 -0.0044392375 0.019998964 0.0018847943
0.0041278284 0.016188458 -0.008070983 -0.0053426684 0.0038845108 0.008498908 0.0020052225 0.0024062544
0.0075522424 -0.0053941915 0.0038925936 0.0041311006 0.00473102 0.017252205 0.005805285 0.00059409934

action_model._discrete_distribution.branches.1.bias f4 [3]
00000000: af4c 823a b8ea a0ba 0a21 883a
0.0009941066 -0.0012276983 0.0010385823

action_model._discrete_distribution.branches.1.weight f4 [3, 128]
00000000: c8a1 22bb 6742 7a3c d7ec 1cb9 212d 1c3c
00000010: 816b 913b af3b 02bc 9ca4 42bc 9c34 1f3c
00000020: 0946 3abc c284 8fbb c39f debc 69f5 73bc
00000030: 5ea0 8fbb edf8 df3b b455 3439 42a9 08bb
00000040: 770e 2fbc 5076 1d3b 2596 5e39 a88a 45bb
00000050: ca4a 2fbc 94c8 4cbc 508b 0c3c 7854 c8bb
00000060: 2918 8e3c 169f 9a3b f013 03bc d187 043c
00000070: 6ef4 903b 150b fb3b f0c4 2a3b 41f6 abbb
00000080: 678e d4bb e4cd 3bbc a0c9 be3b c200 e23b
00000090: 676b 3bbc d127 04bc 5e92 89bb 09fd 4bbc
000000a0: 47f1 57bc f71f 2a3c 270c 88ba 551a a83b
000000b0: 8947 3dbc 2759 a23a ea24 f4bb f94f 39bb
000000c0: 2009 e0b9 532a 053c ad02 4e3c 6809 edbb
000000d0: bc20 0b3c 9f7f 3d3c 6cd2 3d3a 23a3 f03b
000000e0: f15e 7aba 4615 963b 949e 133c 0b4b 4abc
000000f0: b164 d8b9 d8cd d73b fff8 64bc 01ea 0cbb
00000100: 4e14 253b 7a55 333c 911b 193b 7f79 3d3c
00000110: 5159 773b 861f 1c3b 6453 ad3b b20b 3db7
00000120: 10ab bcbb d373 24bc ece9 7c3c 30a2 81bb
00000130: 60e5 e8bc ef45 84bb f7e0 05bc 4492 693c
00000140: 937a 49bc 6f89 923b 9aa9 36bc 4d92 62bb
00000150: f732 af37 83e8 2f3c 7654 4cba 9cc0 033c
00000160: df78 92bb 4b82 db3a fa74 debb d07e 633c
00000170: 2a34 b1bb 8d51 5d3c a1d2 a43b e2df 863b
00000180: a732 3fbc a7ed e0ba 04f1 b83b 49b9 9f3c
00000190: 0939 22bc 5218 03bc bc7c b5bb 50c8 8038
000001a0: 4e1c 83bb 4cd1 babb 5188 c63b f8c7 9cbc
000001b0: 21e9 b4ba 244c 223b 5cd9 d7bb 2562 13bc
000001c0: e533 9c3b 921c 62ba 2032 5b3b a6e7 13ba
000001d0: 4471 bdbb f5a3 573c 7943 1abc 0556 653c
000001e0: f5a7 acba 1b3c 213c d5f4 4d3c e71c 18bb
000001f0: acb7 42bb b9b5 acbc bb4b cfbb acf1 293c
00000200: 5a93 fabb 0e9d 39bc 3997 503a b3c0 a8bb
00000210: bcb1 e1bb de12 573c a2c7 a03c 12f3 21bc
00000220: 706a 363c d7da b53b 2498 b13b 093e 2cbb
00000230: 3af5 c738 7674 073c c3b5 d23a ec22 0d3c
00000240: 44bb 0f3b fd24 d6ba 7ff4 393c 8c48 173b
00000250: 9ce4 8b3b 6626 063b 5af4 8c3c a4a6 b73c
00000260: d5fa b4bc 28ba c53b 7293 7b3c d22c 7b3c
00000270: dbd0 a43b 95de 0fbc d90c 903b f985 b83b
00000280: 9770 37bc 5a22 613b 79f0 283c 7c79 22bb
00000290: fd7d 9cba 1b06 f03a 26f6 cebb 4937 9abc
000002a0: 527a abba 80fc efbb ee62 31bc 4258 59bc
000002b0: 7880 d63c f5ea 643b d42a 40bb 1ed2 97bb
000002c0: f086 b0bb 64b7 67bc e556 13bc 7426 e53a
000002d0: b650 3bb9 2856 1c3c 3605 1f3c 31f2 953a
000002e0: 7d50 b33b 3fda 293c f4cc 7bbc e2b1 e33c
000002f0: cb45 da3b 36ad 073c 7735 15ba 475d 4fbb
00000300: a103 e1ba 7cf1 303b a069 19bc b97c 60bc
00000310: 04b1 5f3c 943d 7c3b 6333 ec3b 9ece 7abc
00000320: f22c 923b 50d0 e53a 92d7 51bc 0694 9f3b
00000330: 9d39 c1bb fbb9 443c ffb1 083c 2f43 973b
00000340: 1879 12bb ffe5 473a c8b3 00bc e050 2e3c
00000350: 2fcc 1a3c 5097 ddbb fb3a 16bc ea99 a9bc
00000360: 565e 613c 7ebf 66bc 00d5 253a b5aa f93c
00000370: 8d6a 2cbc bc25 83bc 1bc4 88ba a630 803c
00000380: 1b86 c5bb 0cd9 393c fbf9 133c dc66 e8bb
00000390: a498 923c c951 6bba d249 97ba 390a 643c
000003a0: 7322 7eba e600 003b dfe0 8c3c da47 bbbc
000003b0: b806 9d3c ff09 f93b 0203 643c 1151 223c
000003c0: 1a4e 1b3c 69b8 263b 814a 14bb 28f3 36bc
000003d0: 9d1e 9d3b 5539 8f3c e0c6 69ba 416a c83a
000003e0: ac65 4f3b 5777 2dbc 110c d63a 9860 1d3c
000003f0: d455 13bb 87a5 a7bb ea0a a5bb b2e6 443c
-0.0024815667 0.015274621 -0.00014965549 0.009532244 0.0044378643 -0.0079488 -0.011880066 0.009717133
-0.011369237 -0.0043798396 -0.02717579 -0.014890053 -0.004383131 0.006835094 0.00017198065 -0.0020852839
-0.010684601 0.0024026819 0.00021227503 -0.003014246 -0.010698983 -0.012498993 0.008578137 -0.006113585
0.017345505 0.0047186716 -0.008000359 0.008089022 0.0044236695 0.007661233 0.0026057325 -0.0052478616
-0.0064867022 -0.011462662 0.0058223754 0.006897063 -0.011439181 -0.008066134 -0.0041983565 -0.012450465
-0.013180084 0.010383598 -0.0010379598 0.005130092 -0.0115527 0.0012386189 -0.0074506896 -0.0028276427
-0.00042731408 0.008127767 0.01257388 -0.0072337873 0.008491691 0.011566072 0.0007241133 0.007343666
-0.00095508905 0.0045801727 0.009009976 -0.012346993 -0.0004127375 0.006585818 -0.013975381 -0.0021501782
0.0025189104 0.010945672 0.0023362378 0.011564611 0.0037742446 0.00238225 0.005289482 -1.1268001e-05
-0.005757697 -0.01003738 0.015436631 -0.003956102 -0.028429687 -0.004036657 -0.008171312 0.014256064
-0.01229729 0.00447195 -0.011148835 -0.0034572065 2.0885358e-05 0.010736587 -0.0007794568 0.008041527
-0.0044699754 0.0016747204 -0.006788847 0.013885215 -0.00540783 0.013508213 0.0050299917 0.0041160444
-0.011669791 -0.001716067 0.0056439657 0.01949753 -0.009901294 -0.008001404 -0.005538551 6.140827e-05
-0.004001177 -0.0057012197 0.0060587307 -0.019138321 -0.0013802388 0.0024764622 -0.0065871906 -0.008995567
0.0047669285 -0.0008625473 0.0033446625 -0.0005642123 -0.0057813246 0.013161649 -0.009415501 0.013997559
-0.0013172614 0.00984099 0.01257058 -0.0023210587 -0.0029711528 -0.021082746 -0.0063261664 0.0103725605
-0.00764696 -0.011328949 0.0007957104 -0.0051499247 -0.0068876427 0.013127057 0.019626442 -0.009884613
0.011133775 0.0055497694 0.005419748 -0.0026282093 9.5347365e-05 0.008267513 0.0016075898 0.008614283
0.0021931687 -0.0016337928 0.011349796 0.0023084013 0.0042691957 0.0020469665 0.01720636 0.022418328
-0.022092262 0.0060341544 0.015354978 0.01533051 0.0050297803 -0.008781095 0.004396063 0.005631205
-0.011196277 0.003435275 0.010311239 -0.0024791649 -0.0011939403 0.0018312366 -0.0063159643 -0.01882519
-0.0013082719 -0.0073238015 -0.010826809 -0.013265671 0.026184306 0.0034930084 -0.0029322403 -0.004633202
-0.0053871796 -0.014142845 -0.008992885 0.0017482773 -0.00017863777 0.009542026 0.009705832 0.0011439977
0.0054722414 0.010366975 -0.015368689 0.027794782 0.006661152 0.008281043 -0.0005691866 -0.003164129
-0.0017167219 0.0026999405 -0.009363562 -0.013701611 0.013653044 0.0038488852 0.007208274 -0.01530805
0.0044609243 0.0017533395 -0.012807744 0.0048699407 -0.0058967606 0.012007232 0.008343219 0.004616163
-0.002235001 0.00076255196 -0.007855363 0.010639399 0.009448095 -0.0067624226 -0.0091693355 -0.020703275
0.013755402 -0.014083741 0.000632599 0.030476907 -0.010523451 -0.016009204 -0.001043442 0.015648197
-0.0060279495 0.011343252 0.009031768 -0.00709234 0.01789505 -0.00089767255 -0.0011542386 0.013918453
-0.00096944644 0.0019531786 0.01719707 -0.02286141 0.019168243 0.0076000686 0.013916733 0.009907023
0.00947907 0.0025439507 -0.0022627416 -0.011166371 0.004794909 0.017483393 -0.00089178793 0.0015290455
0.0031646295 -0.010587535 0.00163305 0.009605549 -0.0022481577 -0.005116168 -0.0050367014 0.012017893

action_model._discrete_distribution.branches.2.bias f4 [3]
00000000: a73c 323b 0ffb f6b7 4d5e b2ba
0.0027196796 -2.9442393e-05 -0.0013608426

action_model._discrete_distribution.branches.2.weight f4 [3, 128]
00000000: 8c14 7dbb b22f 803b 54d7 06bc d6f3 40bc
00000010: ca29 08bc 2928 b43b 5c5f f3b9 6f2b 6cbb
00000020: 065b 22bc 932a a4bb 9ca0 46bc 5dbe 0abc
00000030: e62d 40bb dc3a d3bb 2b4a e9bb ddc7 0bbc
00000040: 82d8 96bc 58c0 b0ba 931b 97bb f88f 823c
00000050: 1ded 21bb 1eac b7bb 711f 3abc ea75 d6bb
00000060: 7933 583c 2ed5 15bc a2c8 82bc 76b4 823b
00000070: caa2 32bb b266 813b e391 66bb 245d 89bb
00000080: 4b76 ab3b 1e0d baba baab 3e3c 8db5 873b
00000090: f9c2 89bb f246 71bb ba68 04bc 9793 8dbb
000000a0: af2a 6ebc 2daf e43a c105 9dbc f5c9 93bc
000000b0: 15ee a73b 09c4 6dbc a32c 41bc d930 3c3b
000000c0: 8769 68bc 9167 613c 2eb7 26bb 20ac 37bc
000000d0: 57db 063b 825d abbb 221a 5bbc e4ea b1bb
000000e0: f50d 5f3b 9232 173a bd6f 003c 6cac 71bb
000000f0: f69e 303b 5417 ff3a 3dde 74bb 8f96 1dbc
00000100: ecaa 18bb 8fbb 8339 5654 cf3b a823 e3bb
00000110: 1529 fbbb 88c6 1bbc b646 673b 8fbb e63a
00000120: c9fb 2d3b ad28 c73b 0950 13bc e976 0a3c
00000130: f440 01bc ea73 fe3b 813d c6bb 5582 22bc
00000140: f93f 00bc 037a 7dbc f684 623b 9b75 1a3c
00000150: 79ce e23b 6249 25bc 50db 923c 0c43 903c
00000160: c2c4 2abb 9019 0dbc 81ae 443c 97be cc3b
00000170: 1876 f9bb de08 d8bb f051 afbc 3e8d 84bc
00000180: 296f 0d3b cab7 56bc 9cb4 bfba 82c5 843b
00000190: cfdb 3e3a a3cb 52bc 3ff7 b1ba 9d8e f03b
000001a0: ba69 b9bb 8e60 16bc 5b5d 3fba ddee bdba
000001b0: 69bf 03bc 8d66 8d3c 9a01 4e3b 768f ebbb
000001c0: e0ad 5abb dd96 b83b afae 12bc f0bb d63b
000001d0: 9500 c7bb 5474 693b 90a5 f43b dbc3 79bc
000001e0: 1983 b83a a405 ccbb 8602 16bb 7be0 cb3a
000001f0: 8a9a a53b 6aa9 a0bc 548b 0c3c d7ec e83a
00000200: fa22 cbbb 65ec cfbb 3892 31bb 3e67 27bb
00000210: 9747 fb3c 8f3d 143b d1b6 5c3c 3553 86ba
00000220: 11b7 1abb 3645 20bb 8865 b7bb b7ee 8bbb
00000230: 2184 723b 42e9 ebbb cf0d bdba 42d1 25bc
00000240: 7351 363b 93b2 833b 7db0 a3bb 489d 3b3c
00000250: d8b4 463b 34f6 c539 cdac 613b d31e 0dbc
00000260: 17ce e0bb 00c6 e1bb 8a37 223c 9738 8b3b
00000270: 3d83 8cbb 085d e839 ea75 573a 2bff 1d3c
00000280: 7898 ff3b e716 bb3b 75c1 b1bb 3fcc d3bb
00000290: f959 89bc 9192 babb c533 fe3c 9105 0a3b
000002a0: ecd6 60bc 298e 9f3b c407 7ebc 3157 803b
000002b0: 96b9 9a3b 6e96 d6ba 0f0b 70bc 1fa0 75bb
000002c0: c880 48bb c359 16ba 1ee2 f43b 4a4e b5bb
000002d0: e3d2 423c 0fe5 dabb f22c c03a dd11 083c
000002e0: ff9e 083c f0f9 5fbc f3da 40bc 62f5 933b
000002f0: 83f2 1cbc b250 cfbb 0ae1 96bb 23d8 6e3b
00000300: aa0c cc3b c89c b9bb 46ff 9abb 8d8e 143b
00000310: 7180 95ba d3c7 463b eef0 2a3b 73cd 9e3c
00000320: df4d 3d3c 6540 333b 8e24 173b 9817 67bb
00000330: 906c 77bc c351 363c 333e 31bc fb21 ac3a
00000340: 1747 b43b 1afc 433c 6525 c53b 4c79 bdbb
00000350: 4cfb 85bb 674e 423c ac7e 5ebc b757 f9bb
00000360: e50d e73c 0ee5 3539 51e1 c0bb 34c6 663c
00000370: cce2 5a3b 1d76 92bb cb20 5fbc f11c 813a
00000380: fc5d e03b 4efb 6c3b d4e3 4b3c 83fb 963b
00000390: 3de2 92ba 8a31 263c b510 07bc b49e a53b
000003a0: 83c8 cbba 9017 75bb 1ca1 0c3c fbf8 27bc
000003b0: 4688 2b3c 7a3a 1dbc c884 0abc 7067 ca3a
000003c0: 4305 553c 55be 0c3b 00ac 9f3c 24ea 523b
000003d0: 692c 21bb b742 4fbb 5f2f 003c 3c17 c13b
000003e0: 1f9d 87bc eae7 963c 3480 c0bb b14c 3739
000003f0: 1b61 28bc d6f2 d7bb c87e b13b b550 973b
-0.0038616983 0.0039119357 -0.008230049 -0.011776885 -0.008310745 0.0054979515 -0.0004641962 -0.003603663
-0.009909397 -0.005009958 -0.012123253 -0.008468238 -0.0029324233 -0.0064462256 -0.007119437 -0.008531538
-0.018413786 -0.0013485057 -0.0046114414 0.01593779 -0.002470798 -0.0056052348 -0.011360035 -0.006544818
0.013195866 -0.009145064 -0.01596481 0.003988798 -0.0027257674 0.00394901 -0.003518217 -0.0041920114
0.0052326075 -0.0014194583 0.0116376225 0.0041415156 -0.0042041508 -0.0036815968 -0.008081609 -0.0043205726
-0.014536544 0.0017447226 -0.019167783 -0.018040637 0.005124817 -0.01451207 -0.011790427 0.002871564
-0.014185316 0.013757602 -0.0025438773 -0.011210471 0.0020577514 -0.005229653 -0.01337293 -0.0054296125
0.0034035419 0.00057677284 0.0078391405 -0.0036876453 0.0026950217 0.0019461908 -0.003736391 -0.0096184155
-0.0023295237 0.0002512601 0.0063271923 -0.006931741 -0.0076648095 -0.009507783 0.003528995 0.0017603504
0.002654778 0.006077847 -0.00899125 0.008451202 -0.007889021 0.007765283 -0.0060498123 -0.009918769
-0.007827752 -0.015470984 0.0034564114 0.009427453 0.006921586 -0.010088297 0.017926842 0.017610095
-0.0026057218 -0.008612052 0.012004496 0.006248306 -0.007612955 -0.006592854 -0.021401376 -0.01618063
0.002158115 -0.013105342 -0.0014625969 0.004051865 0.0007280679 -0.012865934 -0.0013577713 0.0073412196
-0.0056583555 -0.009178294 -0.0007299983 -0.0014490742 -0.008041241 0.017260814 0.003143406 -0.0071887327
-0.0033367798 0.0056332187 -0.008952781 0.0065531656 -0.0060730674 0.0035622315 0.0074660257 -0.0152444495
0.0014077156 -0.0062262584 -0.0022889688 0.0015554571 0.005053823 -0.019612033 0.00857814 0.0017770779
-0.006199238 -0.006345319 -0.002709521 -0.0025543715 0.030673785 0.00226197 0.013471321 -0.0010248186
-0.0023607651 -0.0024455315 -0.0055968203 -0.0042704004 0.0037005024 -0.0071994374 -0.0014423671 -0.010120692
0.0027819544 0.0040190904 -0.0049954043 0.011451073 0.0030320194 0.00037758204 0.0034435273 -0.008613306
-0.0068605053 -0.0068900585 0.009900937 0.0042486894 -0.0042881058 0.00044319802 0.00082191697 0.009643356
0.007800158 0.0057095173 -0.005424673 -0.006463557 -0.016766535 -0.0056937416 0.031030545 0.0021060447
-0.013723116 0.0048692417 -0.015504781 0.003916644 0.0047218306 -0.0016371736 -0.014651074 -0.0037479473
-0.0030594338 -0.00057354214 0.0074732443 -0.0055330144 0.0118911 -0.006680138 0.0014661832 0.00830504
0.008338689 -0.01367043 -0.011770952 0.004515336 -0.009579304 -0.0063267583 -0.0046044635 0.0036444745
0.0062270956 -0.0056644417 -0.004730138 0.0022667975 -0.0011406076 0.0030331507 0.0026083547 0.019385075
0.01155421 0.0027351615 0.002306256 -0.0035261866 -0.015101567 0.011127892 -0.010818052 0.0013132686
0.0055016386 0.011961961 0.0060164207 -0.005782282 -0.004088795 0.011859513 -0.013580006 -0.0076093334
0.028204868 0.00017346835 -0.005886235 0.014085341 0.0033399342 -0.0044696466 -0.013618658 0.0009850544
0.0068471413 0.0036160531 0.012444455 0.0046076193 -0.001120634 0.010143647 -0.008243729 0.0050543193
-0.0015547428 -0.0037398078 0.008583333 -0.010252233 0.010469502 -0.009596461 -0.008454509 0.0015442204
0.013001743 0.0021475751 0.019491196 0.0032183016 -0.002459312 -0.0031625459 0.007823794 0.0058926623
-0.016554413 0.018421132 -0.005874658 0.0001748081 -0.010277058 -0.0065902276 0.005416725 0.0046177753

network_body.linear_encoder.seq_layers.0.bias f4 [128]
00000000: d665 98bb bb6e 6a39 ec47 43b9 7a5f 8e39
00000010: ffa7 a33a 8761 d139 3957 213b 57de 6e39
00000020: 1298 0b3b ac1b 313a 35a3 fe39 7fec 063b
00000030: 5962 8cbb b101 893a ee1e 633b c78f 82b8
00000040: e142 15bb 1624 0cba 335c 58b9 ca4f f3ba
00000050: 9019 b137 c3e5 303a c877 733a 9a91 693a
00000060: e8c8 ba38 3285 6939 1e99 13ba 55a2 5c3b
00000070: e96e dfba 8c58 4f3b 641b deb9 4ebf 9abb
00000080: 690e 073b 89aa 1f39 5560 8936 9124 943a
00000090: d50c ccb9 2105 043b 2346 923b 5aff 5cba
000000a0: fa9e 0dba c9f7 edba 55a3 b73a f3f9 093b
000000b0: 4ad5 a239 81ad 823b 05a7 bab9 7a61 96ba
000000c0: 82fb 89ba 56e0 8fbb 7396 91ba a5ab ce3a
000000d0: 1a4a 3339 b13f d23a 3bec 23bb e363 8037
000000e0: 663a 4cba 5539 873a 5d7f 5a3b 2128 a73a
000000f0: 7fd6 c6b8 2cf1 a539 354a 473a 035c f9ba
00000100: 2d43 16bb 78c1 8fb9 3aac ff39 8864 57bb
00000110: 3fe4 4f3b e529 e7ba 9f57 073b f048 57ba
00000120: 1d58 603a a230 f238 b0b5 8239 402a 9439
00000130: 0519 f239 ef48 273b 2ac9 80ba 6cf1 4b3a
00000140: 99c1 6bb8 d02e 6d3a a41e a5ba caf7 10b9
00000150: 6635 47ba 9e09 41ba 103a a1ba 8536 fa3a
00000160: fd6c 613a 9b50 16bb 4893 b5b9 c88b 27bb
00000170: 3e0a a2bb 6411 263a ef48 b7ba c914 81ba
00000180: e142 353a 3930 f7ba 8eff 7fba 9d2a ccb9
00000190: 9811 6c39 9f7f 94b8 0c50 d8ba 72d5 793b
000001a0: 0958 6339 5b22 03bb 835c 803a 360b a239
000001b0: fa1d 94ba 67aa e4ba 32ec 55ba 2d9f 5b3b
000001c0: 4d5d 6d39 37c8 c0ba 02d4 6639 6106 443a
000001d0: 5432 6b3b 07df f3b9 247f d43a 333b 243b
000001e0: 4131 d339 1243 afb8 a67c 6038 96eb ca39
000001f0: 5f8c 103a 537a 78b9 73ad 8dbb 5836 8abb
-0.0046508117 0.0002235723 -0.00018623442 0.00027155486 0.001248598 0.0003993625 0.002461864 0.00022780277
0.0021300358 0.00067561376 0.00048568254 0.002058774 -0.004284185 0.0010452775 0.0034655887 -6.225664e-05
-0.0022775459 -0.00053459534 -0.00020633712 -0.0018563208 2.1111948e-05 0.00067481044 0.0009287563 0.0008909941
8.906593e-05 0.0002227023 -0.0005630421 0.0033666093 -0.0017046604 0.0031638471 -0.00042363547 -0.0047225123
0.0020607954 0.00015226951 4.0941327e-06 0.0011302402 -0.00038919473 0.0020144659 0.0044639274 -0.00084303843
-0.00054024125 -0.0018155511 0.0014010469 0.0021053522 0.0003105796 0.0039879684 -0.00035601124 -0.0011473142
-0.0010527226 -0.0043907566 -0.001110746 0.0015767707 0.00017098375 0.001604071 -0.002501263 1.5305302e-05
-0.00077906845 0.0010316769 0.0033340075 0.0012753048 -9.481329e-05 0.0003165094 0.0007602305 -0.0019024614
-0.0022928223 -0.0002741923 0.0004876571 -0.0032866318 0.0031721739 -0.0017636387 0.0020651591 -0.00082124677
0.0008558052 0.00011548518 0.000249309 0.00028260238 0.00046176478 0.002552565 -0.0009825577 0.000777981
-5.6208668e-05 0.0009047808 -0.0012597633 -0.00013825219 -0.00075992045 -0.0007363799 -0.0012300629 0.0019089734
0.00085993094 -0.0022936228 -0.00034632743 -0.0025565494 -0.0049450686 0.0006334989 -0.0013983528 -0.0009848113
0.0006914568 -0.0018858976 -0.00097655586 -0.00038941661 0.00022513268 -7.080961e-05 -0.0016503348 0.0038121608
0.00021681203 -0.002000949 0.0009793196 0.000309074 -0.0011300438 -0.0017445803 -0.0008160501 0.0033511624
0.00022636839 -0.0014708106 0.00022013488 0.0007477757 0.0035888152 -0.0004651474 0.0016212207 0.00250597
0.00040281753 -8.357143e-05 5.352185e-05 0.00038703968 0.0005514081 -0.00023696692 -0.0043236553 -0.004217904

network_body.linear_encoder.seq_layers.0.weight f4 [128, 141]
00000000: c7ca bf3d bed7 a9bb 3901 713d 2a6c 82bd
00000010: a6b9 573c f3c0 e9bc 30da 18be b829 d9bc
00000020: 6ffb 5cbd 629c 66bd e068 16be 7078 1fbc
00000030: ed1b a23d 8fda 053d 5e0b d03d a24f 7dbd
00000040: 61c2 433c 723b 22bc 0d6e 993d 762a 5b3d
00000050: d296 d93d c6ae 033e 13eb 733c e78b 4c3e
00000060: 6119 383d 505b ac3d f9bb a8bd b4d7 4bbd
00000070: e191 9d3b aaaf 1a3d 9df9 a63d 0bf0 01be
00000080: d0b4 87bd 911d 13bd 60e7 883d aaa1 b1bd
00000090: 9bc9 4c3d 1aec a13d 8ff9 2f3d e62d 8cbc
000000a0: dac7 87bd 0234 afbd 8760 983d b57e 23bd
000000b0: a391 24be 2217 cc3c c2f8 0e3e 5fbb 9f3c
000000c0: 297f 4bbe 8110 583d c8e4 2bba 824d 4dbd
000000d0: 633f 783d 6a52 02be 849f 51bd 4841 6f3d
000000e0: 803f 52bd 20e5 6e3d 9483 b3bd d0db 593e
000000f0: 7cfc 44bc b679 3a3e 9959 56bc 2784 813d
00000100: 465a e63b 6ead f73c f75e d9bd e422 ba3c
00000110: ce49 103e c845 593e c110 d13d 9e2a 4b3c
00000120: cdca 85bd d200 963d ca6f 113d 1cc3 aa3c
00000130: 7d92 f5bc 7537 223e 692a d4bd 5605 90bc
00000140: 9c07 82bd d71f 14be a181 babd 2c33 923c
00000150: bb0f c63d 863a 93bd 54e6 7fbc 23a8 e93d
00000160: 57e6 66bd 0c79 eb3d 14f1 31be b1e9 623c
00000170: 6ca6 373b 7f88 f8bd a740 85bd 22d9 c73b
00000180: 6284 67bd 46de d4bd ad60 ba3d f9f0 0cbd
00000190: 45e3 1dbd 9eeb 233c 4eab e8bc b5f2 07bd
000001a0: 08de 2b3c b9ef 22be b473 053d 6ec2 04bd
000001b0: 50b2 643b 311b aabd 3b0a 993b 4c5b 3cbe
000001c0: 4351 ebbd 0aa2 243e a202 23bd 9dc5 bbbd
000001d0: 9470 973d 546f 873d c8eb cf3d eb0a debd
000001e0: 8fc0 a4bb 5387 4bbd 1be0 c9bd 5b37 ebbd
000001f0: ee8c 27be 367e 973d 97e4 4ebd 8bb7 06bd
00000200: e148 62bd 2b55 9b3d 5f25 c9bb f01f 1fbe
00000210: 0c04 7c3d 89ae 823d b774 fdbc 4bdb b0bd
00000220: 5c12 b83a 6c14 88bc cb44 b8bd ebbd 51bd
00000230: 4e9f 90bd 3c67 03be 66ff c63d a6e9 073d
00000240: 8d5a e03d 9fd0 80bd 3b57 9fbd 994b dbbb
00000250: 8c4d 8c3d 585b 903d 8212 04bc 65b0 e3bb
00000260: 906c f13d 12c4 d8bd b4c8 03ba 6c8f 28bd
00000270: a69a ca3c c4aa 213d 222f dc3c 359c d83d
00000280: 15b3 edbc 395f 45bd 3285 5dbb 8a4d 77bc
00000290: 4dad b53d e143 babd 2b04 2abd c8de 6abd
000002a0: fe54 3f3e 3149 803c c3de f23d 1736 c1bb
000002b0: f2a7 9e3a c3a2 f3bb 8d16 293d 1694 853c
000002c0: 4845 74bc 0a4a 323d f79c 543d 6e67 003d
000002d0: 6d10 f1bd 9fdb 0fbe 73a2 813d f132 383d
000002e0: 900c 7fbd 9d7d 34bd ef4b d6bc 3de6 923d
000002f0: 600a 1d3d ac4f 1ebc 12f1 143d add1 a6bd
00000300: dd3a 993b 3565 303c dfb3 5a3a 05f4 c63b
00000310: 7f5b 0fbd abbf 8a3d e235 ad3c 0cbb 653d
00000320: 3d99 e2bd 0b28 163d a109 d43b 3649 f5bc
00000330: 6a42 e13d f1cf 9f3c 2995 debd b454 443d
00000340: 68fd 81bd 1fd1 4abd e16a d7bd f26d a33d
00000350: 571d b7bc 4ae6 c6bd 1dc2 6a3e 2c9c 883d
00000360: e3f7 f9bc d359 073e a14a 83bb a2b1 0a3e
00000370: 71a1 16be 2ff5 8cbd 3303 11be 03b2 15be
00000380: 08bc c839 9f1b 54bd 9817 afbd 77bb 21bd
00000390: 6352 5fbd f9c4 423a 11fa a03d 706b cebd
000003a0: 0314 7fbd 27b9 cbbc 6581 f83d bd58 90bd
000003b0: bd6b 883d 834a c03d b846 153d cb32 283d
000003c0: df13 8bbc 23f2 203d ce05 96bd a2a8 33bd
000003d0: 339c 83bd 7688 0fbd 2444 c63d 9858 fb3c
000003e0: d0f3 0d3e aa24 95bd e3c0 36be 5d96 6c3d
000003f0: b37b 62bd 10a8 143d 6cf2 843c 4fce 3ebd
0.093648486 -0.005183189 0.058839057 -0.06368287 0.013166821 -0.028534388 -0.14926982 -0.02650915
-0.053950723 -0.056301482 -0.14688444 -0.009733304 0.07915483 0.032679137 0.10158418 -0.061843522
0.011948199 -0.009901868 0.07491694 0.05350729 0.1062447 0.1285964 0.014887589 0.19975244
0.04494608 0.08415854 -0.08238978 -0.049766257 0.00480865 0.037765183 0.08153079 -0.12689225
-0.06626284 -0.03591687 0.06684756 -0.08673413 0.049996953 0.07906361 0.042962607 -0.01711173
-0.066299155 -0.085548416 0.07440286 -0.03991576 -0.16071181 0.024913374 0.13962081 0.019498525
-0.19872727 0.052750114 -0.00065572234 -0.050122745 0.060607325 -0.12726751 -0.051177517 0.058411866
-0.05133009 0.05832398 -0.08765331 0.21275258 -0.012023088 0.18210492 -0.013082885 0.06324034
0.0070298044 0.030234065 -0.10613816 0.022721715 0.14090654 0.21218026 0.10208274 0.012400297
-0.06532822 0.07324375 0.035507 0.020844989 -0.029977078 0.15841468 -0.103596516 -0.01758067
-0.063491076 -0.14465271 -0.09106756 0.017846666 0.09670969 -0.07188897 -0.015618879 0.11409023
-0.056372013 0.11497697 -0.1737712 0.013849662 0.002802278 -0.121354096 -0.06506472 0.0060988823
-0.056522734 -0.10393958 0.09100471 -0.034409497 -0.03854682 0.010004906 -0.028401997 -0.033190448
0.010489948 -0.1591176 0.032581046 -0.032411985 0.0034896322 -0.083059676 0.004670409 -0.18394202
-0.11490109 0.16077438 -0.039797433 -0.09168551 0.073945194 0.06613031 0.101523936 -0.10841926
-0.0050278376 -0.049689602 -0.09857198 -0.114851676 -0.16362354 0.0739712 -0.05051097 -0.032889884
-0.055245284 0.07584604 -0.006138488 -0.15539527 0.061527297 0.06380946 -0.030939443 -0.08635577
0.0014043557 -0.0166113 -0.08997496 -0.05120651 -0.07061635 -0.1283235 0.09716682 0.03318181
0.10954771 -0.06289791 -0.0778031 -0.0066923616 0.068507284 0.070486724 -0.008061053 -0.006948518
0.11788285 -0.105842724 -0.00050271605 -0.041152403 0.024731945 0.039469495 0.026877943 0.10576669
-0.029016057 -0.048186515 -0.0033801314 -0.01509417 0.08870945 -0.09094978 -0.04150788 -0.057341367
0.18684766 0.0156599 0.11858895 -0.0058963406 0.0012104495 -0.007435174 0.04128127 0.016305964
-0.014909096 0.04352764 0.051907506 0.03134864 -0.11770711 -0.14048623 0.06329813 0.044970457
-0.06226784 -0.044065107 -0.026159255 0.07172821 0.038339972 -0.00966255 0.036362715 -0.08145461
0.0046762065 0.010766317 0.0008342843 0.00607157 -0.034999367 0.06774839 0.021143857 0.056086585
-0.11064384 0.03665928 0.0064708744 -0.029942136 0.109989956 0.019508334 -0.10868294 0.04793234
-0.063471615 -0.04951584 -0.105184324 0.07979955 -0.022352858 -0.09711893 0.22925611 0.066704124
-0.03051371 0.13217859 -0.004006699 0.13544324 -0.14710023 -0.068827026 -0.14161377 -0.14618687
0.00038287067 -0.051784154 -0.08549422 -0.03948542 -0.05452193 0.0007429864 0.078601964 -0.10079086
-0.062274944 -0.024868561 0.12134055 -0.070481755 0.066611744 0.09389212 0.036444396 0.041064065
-0.016977249 0.03929342 -0.07325326 -0.043861993 -0.06426277 -0.03504225 0.096809655 0.030681893
0.13862538 -0.07282384 -0.17847018 0.057760585 -0.05529375 0.03629309 0.016228877 -0.04658347

network_body.linear_encoder.seq_layers.2.bias f4 [128]
00000000: d3d2 123a 6d7b c138 1b0d 96ba d079 c63b
00000010: 469f ab39 0787 373b 5fb9 96ba 9a2b 5838
00000020: bbbb 3dbb 6786 64ba 672c 5bbb f27f 4b38
00000030: 0964 6eb9 b33d 9dba 17cc dbb9 dc1a dbba
00000040: ec05 e83a fc71 ec38 02fe a8b9 d60d 813a
00000050: c569 2bbb cb31 f735 790b 02bb 07ca 7eb9
00000060: 75dd 473b e36e 303b bc9e 1cbb f06c 8fbb
00000070: eaae 5abb 1cb8 873a de6c 38ba aef3 86ba
00000080: 8ab3 8f39 1e7c b0b9 6813 acba 069b a339
00000090: 3c27 2eba 6a10 26bb 188e 81bb 53f1 5cba
000000a0: d6bf 523a 9e25 873a 383d 75bb 1eb6 b33b
000000b0: e37b c739 4364 323b a140 1236 1f91 e7b9
000000c0: 90ff 513a 4eb2 283a 008c d2b9 8a82 85bb
000000d0: 8d10 393b bf7a 63ba a2a2 25bb 4f29 bdba
000000e0: 99e7 f9ba 133a dbba 078b 273a 1a14 6ebb
000000f0: 8bdd 2e3a 32d0 86bb b817 4db9 1100 bfba
00000100: 7598 adb8 45ae f7ba c8d7 1fba 793d 2f3a
00000110: 7d11 fdba 58b4 7139 2b0f 8bba d4cf 8539
00000120: 6df9 303a 3055 39ba 1589 7f3b 88ef 78ba
00000130: 28f7 14bb 3ccd f0ba 8535 03bb 95bd ecba
00000140: 5210 3dba dc89 b1b9 b6d9 fdb8 8ef0 6639
00000150: 83a1 ffba 753e 993a be57 713b 1804 a239
00000160: 10a6 9c3a 310d 1f3b f991 71ba db91 1fba
00000170: 5dac 84ba 739e 4a39 e93e 1b3a 2907 52ba
00000180: dd2c a039 1485 6538 9cd9 0ebb 958a 60b9
00000190: 357e caba c62d 16bb 04ce e63a 24a3 4bbb
000001a0: fa6e 31ba c5f6 1aba 5698 803a 805b 343b
000001b0: 9ac1 40b9 8a25 383a 561a 1d3b f0d8 b4ba
000001c0: 841a 6bba e4a0 083b 04ee efb9 37d7 5d3b
000001d0: e24c 76ba c852 163a 8953 afba 6caf 613b
000001e0: 25b8 bfb9 b163 82b8 43c7 193a 6178 963a
000001f0: a0f9 49ba d4e9 17ba c25b 343a 9828 ae3a
0.0005600873 9.225947e-05 -0.0011447998 0.0060570017 0.0003273433 0.0028004067 -0.0011499337 5.153902e-05
-0.0028951007 -0.0008717537 -0.0033443214 4.851813e-05 -0.00022734715 -0.0011996537 -0.00041922994 -0.0016716379
0.001770196 0.00011274588 -0.00032232708 0.0009846042 -0.0026155573 1.8417426e-06 -0.0019843264 -0.00024298589
0.003049699 0.0026921562 -0.0023898324 -0.004377 -0.0033368417 0.0010354551 -0.00070352654 -0.0010296011
0.00027408852 -0.0003366181 -0.0013128342 0.00031205284 -0.00066434196 -0.0025339373 -0.0039537065 -0.0008428294
0.000803945 0.0010310893 -0.0037420522 0.0054843565 0.0003804854 0.0027220405 2.1793314e-06 -0.00044167877
0.0008010799 0.0006435261 -0.0004015863 -0.0040743994 0.0028238625 -0.00086776534 -0.0025273939 -0.0014431867
-0.0019066214 -0.0016725681 0.0006391261 -0.00363279 0.0006670586 -0.0041141743 -0.0001955916 -0.0014572163
-8.27768e-05 -0.0018896541 -0.00060975226 0.00066848804 -0.001930758 0.00023050734 -0.0010609379 0.0002552258
0.00067510345 -0.0007069884 0.003899162 -0.0009496142 -0.0022730324 -0.0018371711 -0.0020020914 -0.0018061871
-0.000721221 -0.00033862784 -0.00012104532 0.00022024123 -0.001950309 0.0011691587 0.003682598 0.00030902098
0.0011951346 0.0024269337 -0.0009215172 -0.0006087103 -0.0010122169 0.00019323248 0.0005922155 -0.0008011931
0.00030551004 5.4721793e-05 -0.0021797186 -0.0002141393 -0.001544899 -0.0022915467 0.0017609005 -0.0031072581
-0.0006768551 -0.00059114053 0.0009811025 0.0027520359 -0.00018382669 0.0007024637 0.0023971996 -0.0013797563
-0.000896849 0.0020847851 -0.00045762968 0.0033850202 -0.00093956117 0.0005734381 -0.0013376336 0.0034436835
-0.00036567557 -6.217452e-05 0.0005866179 0.0011479968 -0.00077047385 -0.0005795036 0.0006880128 0.0013287244

network_body.linear_encoder.seq_layers.2.weight f4 [128, 128]
00000000: 5d33 333e d6dc 273e 6fd6 e93c be4d a339
00000010: 39bc 0ebd 44d7 44bd d0a6 203d 2cce cd3b
00000020: c302 f4bd f909 9dbd 7292 e83c bfec 73bd
00000030: 7edb cebd d6a7 5f3d 1616 1338 34be 733d
00000040: 1b45 5ebe 18e4 e63d 2751 4c3d d918 7cbd
00000050: 9fba 45be 5d64 1abe fc60 9b3d c06c fdbc
00000060: 5647 da3d 98b1 123b f832 94bd b84b 85bd
00000070: fb14 44bd c65a b9bd da89 72bd 4779 ad3c
00000080: 96a0 813c a1cb fa3c 15c0 343e 655e 1bbd
00000090: 3624 bb3c 235d e4bd 2d60 263e 0e60 173d
000000a0: c1b6 093e 4b4e 87bd c2ca 46bd 3c6a 0d3e
000000b0: 38a0 ef3c 8063 1abd 6f0d 863c 555e f1bd
000000c0: 88ca 46bd 547d 0ebe aaf7 133e 09ac debd
000000d0: 5355 1e3e 7016 06be 7f4a 8abc b2f5 bbbd
000000e0: eebf 013e 8f51 9abd 9b27 fabd 6c70 adbd
000000f0: 75d4 51be b141 303d aa46 9e3d aeff 533d
00000100: 761b dcbc f060 663c 6c9f 0ebd 9402 21be
00000110: ac94 b9bd bc21 b03d c17d 57bd c522 40bd
00000120: 4248 b1bc b0f7 cd3c a0b3 14bc 33ac 96bd
00000130: 53c9 a8bc 42ba 67bd 0d51 023e 9d1e ba3b
00000140: fb27 6dbd 675b 173e 6f6e b7bd 8c50 19bd
00000150: e058 913c 8642 da3d 905e c03c 908d 94bd
00000160: afb4 1e3e accb 9e3d eb8e 1c3d 4098 c7bc
00000170: 42b7 543d 8fac 393d ee5d 133d f3cd 9e3d
00000180: efc2 383d c250 c8bc 7817 133d 4625 ba3b
00000190: 50aa 383d 7048 7f3d 4ea7 50bc 5186 dabc
000001a0: 45ad 52be 9d01 573c bda1 243b e364 073d
000001b0: 1868 3e3b d0b8 03be 37d7 b6bd 28a2 d43c
000001c0: 3381 ea3d 71a6 debb fde7 a53d 128d 93bd
000001d0: 2330 51bd 22b9 4c3c a9e0 a23d 6435 babd
000001e0: 2625 efbd 0aa5 03be dccd c43d b184 7abd
000001f0: e6d7 82bd 6267 4d3e 48ba 923d f328 9e3b
00000200: 9ebf a3bd cbf1 053e b0a6 553d 20b5 0c3e
00000210: 6281 84bd fa4f a63d 7efe 293e 43b9 6abd
00000220: 43d3 96bc 8875 19bd 0c4c 3fbd 5437 373e
00000230: 6195 3c3d 57f4 713d 8ab5 103e cd31 cbbd
00000240: 09da 7dbd 55d3 3d3d 1634 31bd f819 c93d
00000250: 3bb5 9d3d 4722 56be 81cc 00be 5f43 f33c
00000260: dce3 f2bc 6af0 51bb b87e e03d af5c e93d
00000270: 7133 f8bd d2ab aa3d 96cd 9dbc 3181 df3d
00000280: 3480 0cbc 1b37 c93d cb32 63bd f831 383d
00000290: 5457 bdbd c5b2 f73d 36a6 a83d a2bf 923d
000002a0: 3345 d83d f08d 953d d4d9 603c 2ef3 d03c
000002b0: aa44 83bc 32e5 1a3d 35c3 1d3c b13c a13d
000002c0: 9fa7 66bc 0342 27bb 987b 18bd b135 4a3e
000002d0: 49b5 ff3d 30e0 e93c 5084 2fbc 386e 393d
000002e0: ac87 6fbe c643 27be e671 03be 3b81 923d
000002f0: 5203 b3bd f76b 3d3d ea72 503d 4a15 cabd
00000300: 4111 703d 3fff b23c 771c 023d 0968 6cbd
00000310: 7812 3cbb 56ef 85bd e6bd c5bd a6f7 2fbd
00000320: 880f 1bbd a686 303d 8e4a cebc 7284 c4bd
00000330: d8c8 1dbd 4d1d 703d bc42 bc3d c732 d93d
00000340: f48e 0bbe d51f 31be cbfc e03c 00e5 36bd
00000350: a164 cc3c 2fcd 24be 124a dc3d 36d5 dbbc
00000360: d921 d5bc e4c8 0a3d 0ce2 17be 5e9e b5bd
00000370: 180b e03d deda 6f3d 624c 3cba bdbb 3a3d
00000380: d0f2 013c 7dac fabd 0693 833d 822b 163d
00000390: 1e00 013e 2cae d7bd 3fc6 8bbd 0fa5 2b3e
000003a0: 9a6e 59bd a1a6 be3c ab2c 2a3c c137 e93d
000003b0: 79ab 26bd d239 8f3d d14d c0bd efcf bdbd
000003c0: ed88 15be e7d4 1c3d 844a f7bd 078a e4bd
000003d0: e775 b7bd ccba 00bd b022 313d 5fef 87bd
000003e0: 461e 083d 758c 2e3d faed bfbd a672 533e
000003f0: 5fb7 bebc 07fa 083e 466b 963b edd4 323d
0.17500062 0.16392836 0.028544633 0.00031147705 -0.034847472 -0.048056856 0.039221585 0.006280681
-0.11914589 -0.07667918 0.028390143 -0.05955195 -0.101004586 0.05460342 3.50681e-05 0.059507564
-0.21706049 0.11273974 0.04988208 -0.061547134 -0.19309472 -0.15077348 0.07586858 -0.030935645
0.106581375 0.0022383686 -0.07236284 -0.06508583 -0.04787157 -0.09050517 -0.059213497 0.021175994
0.015823644 0.030614676 0.17651398 -0.03793182 0.022844415 -0.11150577 0.16247626 0.03695684
0.13448621 -0.0660673 -0.04853321 0.13810056 0.029251203 -0.037692547 0.016363828 -0.117855705
-0.048532993 -0.13914996 0.14449945 -0.10872657 0.15462236 -0.13094497 -0.016881226 -0.09177722
0.12670872 -0.07535087 -0.122145854 -0.084687084 -0.20491202 0.0430314 0.07728322 0.051757507
-0.026868563 0.014061198 -0.034820005 -0.1572364 -0.0906156 0.08600184 -0.052610163 -0.04690816
-0.0216409 0.02514252 -0.009076029 -0.07357063 -0.020603811 -0.056574114 0.12726231 0.005679919
-0.057899456 0.14780961 -0.089566104 -0.03743033 0.017742574 0.106572196 0.02348259 -0.072535634
0.15498613 0.07753691 0.038222235 -0.02436459 0.05193258 0.04533058 0.03597825 0.077541254
0.04510778 -0.02445257 0.035911053 0.005680713 0.045084298 0.06232494 -0.012735201 -0.026675375
-0.2057391 0.013122943 0.0025120818 0.033055197 0.0029053744 -0.12863469 -0.08927768 0.025956228
0.11450424 -0.0067947437 0.08100889 -0.072046414 -0.051071297 0.012495311 0.07953007 -0.09092215
-0.116770074 -0.12855926 0.09609577 -0.0611617 -0.063888356 0.20058969 0.071644366 0.004826659
-0.079955325 0.13080518 0.05216092 0.13740969 -0.0646999 0.08120723 0.16600987 -0.057305586
-0.018411284 -0.037465602 -0.046703383 0.178922 0.046040896 0.05907091 0.14131752 -0.09921608
-0.061975513 0.04634412 -0.043262564 0.09819406 0.077005826 -0.20911513 -0.12578012 0.029695211
-0.029649667 -0.0032034167 0.1096167 0.11394631 -0.12119187 0.083335534 -0.01926307 0.10913313
-0.008575488 0.09824964 -0.05546836 0.04496953 -0.09245172 0.120946445 0.08234827 0.07165457
0.10560074 0.07302463 0.013723809 0.025506582 -0.016023953 0.037816234 0.0096290605 0.07872904
-0.01407805 -0.0025521524 -0.037227243 0.19747044 0.12485749 0.028549284 -0.010712698 0.04527113
-0.23391598 -0.16334447 -0.12836418 0.07153555 -0.08740868 0.04624554 0.05089084 -0.09867342
0.058610205 0.021850226 0.031765427 -0.057716403 -0.0028697532 -0.0653979 -0.09655361 -0.042960785
-0.03785661 0.04309716 -0.025182035 -0.095955744 -0.038521618 0.058621693 0.09192416 0.10605388
-0.13628751 -0.17297299 0.027464291 -0.044651985 0.024950327 -0.16093896 0.10756315 -0.026835065
-0.026017116 0.03388299 -0.14832324 -0.08868097 0.10939616 0.058558337 -0.0007183013 0.045589197
0.007931426 -0.12239931 0.06424527 0.036662586 0.12597701 -0.105312675 -0.06824922 0.16762184
-0.053083993 0.023272814 0.010386626 0.11387587 -0.040690873 0.0699345 -0.09389842 -0.09268176
-0.14603014 0.038288977 -0.120747596 -0.11159139 -0.08958035 -0.031428143 0.04324597 -0.06637453
0.033231996 0.04261442 -0.09371562 0.20649204 -0.023280798 0.13376628 0.0045904247 0.043660093
