Project/results/VPlayer-FirstButCorrected/VPlayer/VPlayer-2499988.onnx (onnx, 681794 bytes, 15 tensors)

action_model._continuous_distribution.mu.weight f4 [1, 216]
00000000: 8f6d a1bc 9799 3dbc b9f9 3f3d 71dc 88bc
00000010: e82a 9fbc 7676 d53b aa21 58bd a537 823d
00000020: 6350 44bc 50ec f8bc 4594 73bd a005 38bc
00000030: 3e29 c6bc 3df7 e4bc 43c0 733d 5db2 38bb
00000040: 4e83 153d aea0 843c 645c af3d d709 10bc
00000050: bdff 843c a4b0 b6ba 4d67 913c cf3c f6bc
00000060: 25d8 613d 3fe4 7f3c 52bf 3c3b 3d10 a93c
00000070: f3d4 9d3c d1f3 063d f350 153c 4afb 403c
00000080: 4e10 9f3c 16ec 773c a5ea d1bc f04f b6bb
00000090: ed2d 91bd 4dc6 a8bd f24b 0bbd ee25 303a
000000a0: 6577 d43c d513 0dbc c8bd f83c 5d86 343c
000000b0: 3dd5 36bd 8aae 85bb ab6b 02bd ef9f 253d
000000c0: 5bf8 40bd 248d 4a3c 1e53 0dbb c925 cdbc
000000d0: 84b5 a4bc 7606 52bc d204 743c 3ece 8fbd
000000e0: cb41 2c3c ba6d 093d 812a 18bd 24d4 9abc
000000f0: b297 84bb f578 a1bb d275 7b3c 67da 043c
00000100: 0f9d 77bb 0566 a13c 213b b83c ff14 1a3d
00000110: cce3 dfbc 9da2 223c 8015 32bc 5fb6 ba3c
00000120: c935 d23c 9bc1 cb3c d0bf fa3c 8c1c 833d
00000130: 3493 0bbc 548f 60bd 6ba6 903c 3253 b33d
00000140: ec36 42bc 792f 6ebd 9a26 443c e1e5 003c
00000150: 51bd 813d 86e0 a83b dfc9 a33d 5c79 6ebd
00000160: dc67 463b 92da 24bc 34dd d43c 1b14 8fbd
00000170: a3f0 cc3b 8d05 73bc aeb4 9c3c 9c13 cd3b
00000180: 8402 56bd f144 fc3c 6ff3 6cbd e04d 0fb9
00000190: 4b68 7ebd 8a85 353d 5a1c 8b3b ec27 f0bc
000001a0: 19ce 45bd 2f88 9fbb 8b9a 443c a564 fd3b
000001b0: 534e d3ba 1f80 64bd 4628 00bc aced 8c3c
000001c0: 5bd9 d03b c4b3 4c3d b030 eabc e12d 2bbd
000001d0: 6531 b0bb 30f7 acbc 0452 12bb fa11 54bc
000001e0: 556b 8c3d 06cb 9dba a0e3 abbb 1c21 cbbc
000001f0: 4b8e a0bb a18f 613c 7072 c5bc fb39 66bb
00000200: a429 d7bc 5190 933d 80a2 563d 9800 67bb
00000210: 4a55 6ebd e2df ff3c a1dc b4ba 1d0a 50bc
00000220: ac9c d23c 9951 613a 478c 173d d2cf 33bb
00000230: 858d 163d ca09 863d 895a bc3c 8da7 5a3d
00000240: baa6 213d 52aa 3b3d 580d bcbd 77da 473c
00000250: bdbe 81bc 7135 f63a 6cc0 60bc 90c9 213d
00000260: 86d2 353d 9d9b 3d3b de34 d8bc 8af9 1d3c
00000270: 95d9 6fbd b85b 883a 7c24 bebb 4db7 963c
00000280: 58c8 bfbc 990f ff3b c71c 693c c690 53bc
00000290: e91a cc3c 05c1 89bd a81c 543d 0c4a f93b
000002a0: 904a 113d c10a bdbd 3804 a0ba 2a99 e03c
000002b0: 1eae 003c 4dc6 92bc 6465 83bb e0fb 92bc
000002c0: a3f9 11bd 4bf4 9ebc a3be 3cbc 5408 453c
000002d0: c969 93bd 17e2 03bc 27c2 893a 61cd 8a3c
000002e0: bfd7 d4bc 9497 90bc a508 a7bd d2b2 09bd
000002f0: 8a0d 933d 6dbb 1f3d 5d6c 333c fc74 44bd
00000300: 8aa0 103d 925a 263d d1bc 243d 9816 43bd
00000310: 108f 90bd fc9e a0bb 92fe 2f3a b203 333c
00000320: e489 213b a98f c4bc e801 f23c 0734 0a3d
00000330: 1116 133d 3f95 a4bc 6f23 e9bc 97d1 fd3b
00000340: abf2 59bc 3891 adb9 b359 f2bb 337f a0bd
00000350: 188c 02bd 039e 3b3c ea63 32bd d1e7 f9bd
-0.019705562 -0.011572263 0.046869013 -0.016706677 -0.019429639 0.006514366 -0.05276648 0.063582696
-0.011982056 -0.03038612 -0.059467573 -0.01123181 -0.024189588 -0.027949924 0.059509527 -0.0028182485
0.036502175 0.0161899 0.08562544 -0.0087914085 0.016235227 -0.0013938141 0.017749453 -0.030058293
0.055137772 0.015618383 0.002880056 0.020637626 0.019266581 0.032947365 0.009113538 0.011778662
0.019416954 0.015131971 -0.025624583 -0.0055637285 -0.07088838 -0.08240948 -0.034007974 0.0006719519
0.025935838 -0.008610685 0.030363932 0.011018363 -0.044636954 -0.0040796446 -0.03184096 0.040435728
-0.04711185 0.012362752 -0.0021564434 -0.025042431 -0.020106085 -0.012818923 0.014893727 -0.070217595
0.010513733 0.03355191 -0.03714991 -0.018899985 -0.004046404 -0.0049277493 0.015347915 0.008108712
-0.0037782823 0.019701967 0.022489132 0.03761768 -0.027330302 0.009926465 -0.010869384 0.02279204
0.025660412 0.024872592 0.030609041 0.06401929 -0.008518983 -0.05482419 0.01765748 0.087561026
-0.011853915 -0.058150742 0.011972094 0.007867307 0.06334937 0.0051537184 0.07997488 -0.058221206
0.0030274307 -0.010061877 0.025984384 -0.06986257 0.006254272 -0.014832866 0.019129124 0.006258441
-0.052248493 0.030794593 -0.057849344 -0.00013666553 -0.06211118 0.044316806 0.004245323 -0.029315911
-0.048292253 -0.0048685293 0.011999737 0.007732945 -0.0016121365 -0.05578625 -0.007822102 0.017203175
0.006373567 0.049976125 -0.02858767 -0.0417918 -0.005376982 -0.021113962 -0.0022326717 -0.012943739
0.068564095 -0.0012038655 -0.005245641 -0.024796061 -0.004899775 0.013767154 -0.02410242 -0.0035129774
-0.026264973 0.072052605 0.052401066 -0.0035248157 -0.058186807 0.031234685 -0.0013798663 -0.012697724
0.025709473 0.0008595228 0.036999013 -0.0027437103 0.036756057 0.06544836 0.02299239 0.053382445
0.039465643 0.045816727 -0.091822326 0.012198082 -0.015838021 0.0018784237 -0.013717752 0.039498866
0.044390224 0.0028931864 -0.026392397 0.009642014 -0.05855711 0.0010403311 -0.005802689 0.018397951
-0.023410961 0.007783842 0.014228052 -0.012912935 0.024915176 -0.06726269 0.05178514 0.007607704
0.0354715 -0.09230567 -0.0012208289 0.027416784 0.007854013 -0.017916823 -0.0040098894 -0.017942369
-0.035638463 -0.019403597 -0.011520061 0.012025911 -0.07197911 -0.0080495095 0.0010510132 0.016943635
-0.025981782 -0.017650403 -0.08155946 -0.033617802 0.07180317 0.038997103 0.010951129 -0.047963127
0.035309352 0.04061372 0.04021913 -0.04762897 -0.07058537 -0.004901765 0.0006713654 0.010926174
0.002464884 -0.023994284 0.029541925 0.033741023 0.035909716 -0.020090697 -0.028459279 0.0077459323
-0.013302485 -0.00033105328 -0.007395947 -0.07836761 -0.031871885 0.011451247 -0.043552317 -0.122024186

action_model._discrete_distribution.branches.0.bias f4 [3]
00000000: e3f5 4d3d 1170 07be 2d35 973d
0.050283324 -0.13226344 0.07383189

action_model._discrete_distribution.branches.0.weight f4 [3, 216]
00000000: 81c0 d13d bff9 2f3c 204d 10bd 7400 5cbd
00000010: 0f96 263d e7a9 e33c 4a8d 41bc 9d75 253d
00000020: d337 8e3d 8cd4 9a3b 06f1 bf3d d082 c63d
00000030: 8ee3 263d 3c23 d7bc 9bd9 403d 3df1 373c
00000040: 0579 dc3d 4902 aabd 8966 6a3d eb59 c8bc
00000050: ad65 bfbc af5d 0e3d 5341 46bd cd51 c23b
00000060: 5afa 7f3d 3883 bfbd 4cc7 bfbc cd81 68bd
00000070: 5abd 5b3d 0912 5abd 91e0 a5bd d183 fdbc
00000080: b579 813d 0da4 42bc 9f03 173d 93f9 723d
00000090: 2d76 923d e444 13bd f6e8 0ebd f698 703d
000000a0: 4208 a03c 0778 a9bc 1099 c8bd cb77 59bc
000000b0: 4ece f3bd 38ee 153d acc3 53bc b5cf 56bd
000000c0: 25b6 5f3c af16 b3bd f9e2 d6bb 1495 843d
000000d0: bb02 a7bd 6ff3 c73c 76bf 39bd 30a7 21bd
000000e0: 5d87 21bd cadf 163d 6187 483b fd1a 053d
000000f0: 6c70 9f3c 0946 b83d 9f02 b93d 7ae0 2a3d
00000100: 8afc b0ba beb9 f13b 6d28 773d 42bb d93b
00000110: dcd5 0d3d 174f 9b3a 2ff5 753d bd54 0dbc
00000120: 3c84 a0bd 03d2 febd f0b4 863c 04d8 d43c
00000130: e343 623d 8bdd 09bd b605 55bd ba3d 63bd
00000140: b068 8cbc 39b0 b53c 960f dcbc 83aa 783d
00000150: d775 603d eaac 923d 0cd5 0b3d 4f4d 55bd
00000160: a5ee 28bd 4b78 bc3b ccb2 0a3d d424 72bd
00000170: 7885 133d c42e bd3c dd63 97bd 2c36 d6bc
00000180: 55a5 b53c d111 73bc 62fb 0abd c9fb 04bd
00000190: 26f4 25bd 8b4e 4e3d acef ac3c 210e c4bc
000001a0: de9a 60bd a01f a5bd d596 d1bb 82f1 19bd
000001b0: 9a4d 003d ec42 06bc e27e b03d ab04 24bd
000001c0: 98df 603d b870 8cbc d6fe 0cbc c8df 533b
000001d0: 19cd 8cbc 1b7d 84bd 3454 143d eed8 54bc
000001e0: 6f6f 793b 5bcf 423d 9e75 a6bc e11e 573c
000001f0: 5204 013e 0696 f9bd 3461 07bd 9468 86bd
00000200: e63b 8dbb ba61 c7bd 515b e83b 2e7b 62bd
00000210: ba27 263d 72a4 96bc 5077 c7bb 2578 49bc
00000220: 9926 c5ba fc9e 873b f05e dabd 7829 e8bd
00000230: bb3e 88bd 4688 fdbc 96d0 3fbc 6666 0cbd
00000240: 914d 0abd aa7a a13d 91f2 a63c ecf4 c93d
00000250: 72ce 983c 6131 0abd 7f8d 273e ed0b 30bd
00000260: 1ab4 0bbc 65bb 98bd a7f9 93bc 13f9 b33d
00000270: 25c7 7d3c a514 cfbd 3178 5bbc ca9d 62bd
00000280: 74a2 773d 762d 71bd b23b fd3c 9a2d eebb
00000290: d166 2ebd 34fb 25bd 2b98 cd3c bdba 1e3d
000002a0: 0628 c3bd 7c1f 7b3c 5be5 513d 09ea ea3a
000002b0: f3f5 52bd 7693 ef3c 20f8 3f3c 86d8 983d
000002c0: af74 2dbd a805 103d c769 5b3d 8c6c 59bb
000002d0: 8477 a2bc dc0b 6bbb 06ff 48bd 4ac6 84bd
000002e0: f2d2 a0bd b448 91bd 0539 513c f737 9bbc
000002f0: 193c ea3c f0ea 2dbc 00cc 083d a292 233d
00000300: efbc bcbd 2748 5a3d ee1c 0bbe 3222 8dbd
00000310: 80c4 3c3c bf34 803d 8b03 2cbb 8bb4 c13d
00000320: da00 b33d a6b6 0e3e d8f8 933c 3312 f0bc
00000330: 45ff 953c 3461 27bc b108 0c3e 0e17 e13b
00000340: b303 16bd 1430 ecbd c8ae 8c3d dfbc 3e3d
00000350: 7cda 0cbd 10ef 9abd dc65 c6bd 7dee 873c
00000360: 127e 7f3c 704f 9e3b 1bd2 563c ee6d b63c
00000370: 1533 693c 52bc 66bb f604 8ebc eef9 543d
00000380: 65bd c83c d4bf a7bb 70f3 d53c 76fc 073d
00000390: e1ad c0bc a6f2 80bb 3564 013e 3e30 303c
000003a0: a3d9 1ebd 8683 ce3c 8624 aebb ac49 aebd
000003b0: 184a 123d 783b b6bc efd4 863d 5901 2fbd
000003c0: c1ca 8bbb aad9 613d 39b6 f13c 2b9f 1e3d
000003d0: 3d21 973c ba74 a6bd c8b4 96bb e065 7dbd
000003e0: 8574 313c 9ed9 9abd 711d 84bc 71cb b63b
000003f0: d213 4dbd f902 093d 83d1 62bc 87ca f5bc
0.10241795 0.010740696 -0.035229802 -0.05371137 0.04067045 0.027790977 -0.011813471 0.040395368
0.069442414 0.0047250446 0.093721434 0.09692919 0.040744357 -0.026261918 0.047082525 0.011226949
0.1076527 -0.08301217 0.05722669 -0.024456939 -0.023363912 0.034757312 -0.04840214 0.0059301616
0.062494613 -0.093512 -0.023410462 -0.056764413 0.053647377 -0.053239856 -0.08099473 -0.030946644
0.06322042 -0.011879933 0.036868688 0.059320044 0.071514465 -0.03595437 -0.034890138 0.058739625
0.019535188 -0.020687116 -0.09794819 -0.01327319 -0.11904584 0.036604136 -0.01292507 -0.05244418
0.0136542665 -0.08744561 -0.006557819 0.06473747 -0.08154818 0.02440807 -0.045348607 -0.039466083
-0.039435733 0.036834516 0.003059827 0.03249644 0.019462787 0.08997733 0.09033703 0.041717984
-0.0013502997 0.0073768785 0.060341287 0.0066446373 0.03462778 0.0011849132 0.06004828 -0.00862616
-0.07837722 -0.124424 0.0164437 0.02598191 0.055240523 -0.033658545 -0.0520074 -0.05547879
-0.017139763 0.022178756 -0.0268629 0.060709488 0.05479988 0.07161887 0.034138724 -0.05207568
-0.041243214 0.0057516447 0.03386192 -0.059117153 0.036015958 0.023093589 -0.07392094 -0.026148878
0.022173563 -0.014835791 -0.033931144 -0.032466684 -0.04051604 0.050367873 0.021110378 -0.023932518
-0.054835193 -0.080626726 -0.0063961544 -0.037583835 0.031324007 -0.008194666 0.08617951 -0.040043514
0.054900736 -0.017143592 -0.0086056795 0.003232943 -0.017187642 -0.064691745 0.036213115 -0.012991173
0.0038060804 0.04756103 -0.020319756 0.013129921 0.12599304 -0.12186818 -0.033051684 -0.065629154
-0.004310119 -0.09735437 0.007090964 -0.055293255 0.04056523 -0.01838896 -0.006087221 -0.012296711
-0.001504141 0.0041388255 -0.10662639 -0.113360345 -0.0665259 -0.03094877 -0.011707446 -0.034277342
-0.03376538 0.078847244 0.020379337 0.09861168 0.018653128 -0.033738498 0.1636257 -0.042980123
-0.008526826 -0.07457618 -0.01806338 0.087877415 0.015489374 -0.101113595 -0.013395355 -0.05532626
0.06045766 -0.058881246 0.030912254 -0.0072686197 -0.042578522 -0.04052277 0.025096973 0.038752306
-0.09529118 0.015327331 0.05124412 0.0017922531 -0.051504087 0.02924512 0.011716872 0.074631736
-0.042347606 0.035161644 0.053567674 -0.0033176271 -0.01983238 -0.0035865223 -0.049071334 -0.06483133
-0.078527346 -0.07093945 0.012769942 -0.018947585 0.02859311 -0.0106150955 0.033397675 0.03993476
-0.09215724 0.053291466 -0.13585255 -0.06891288 0.011521459 0.062600605 -0.002624723 0.09458264
0.08740397 0.13936862 0.018062994 -0.029305553 0.018310199 -0.010216046 0.1367519 0.0068692034
-0.03662462 -0.11532608 0.068692744 0.04656684 -0.03438805 -0.07565129 -0.09687397 0.016593212
0.015594022 0.004831247 0.0131116165 0.022269215 0.01423337 -0.0035207462 -0.01733635 0.051996164
0.024504373 -0.0051193032 0.026117057 0.03319975 -0.023520412 -0.003935176 0.12635882 0.010753689
-0.038781773 0.0252092 -0.0053144125 -0.085101455 0.035715193 -0.022245154 0.065835826 -0.042725895
-0.0042661135 0.05513922 0.029505836 0.038726013 0.018448466 -0.081277326 -0.0045991875 -0.061864734
0.010831003 -0.075610384 -0.01612732 0.0055784513 -0.05006773 0.0334501 -0.013843897 -0.0300038

action_model._discrete_distribution.branches.1.bias f4 [3]
00000000: 8b5f 4ebc c212 183d 4335 f5bc
-0.012596021 0.037127264 -0.029932624

action_model._discrete_distribution.branches.1.weight f4 [3, 216]
00000000: 824d fc3b 5422 8c3d a77c b9bd 811a e4bd
00000010: ceec 5ebe 3321 a8bc 27e3 21bd 68d8 87bc
00000020: c210 833d e8e2 25be b659 07be 4172 c03d
00000030: 3101 783d f83e 2e3d 2d60 093d 8cc0 54bc
00000040: b15a 55bd f283 d3bc d99c e83c 4916 60bd
00000050: 2fd0 f63c e6ea a03c f197 9bbc 7860 0b3d
00000060: 5daf eebc 46a1 603d 10dc b2bd 9103 d539
00000070: 3044 333d bad7 ad3d ddb9 8e3d 0051 b03d
00000080: c28a d9bd 0811 973d f1ac 62bd 1707 c93c
00000090: fe82 0ebd f3ed 58bd 8829 00be 7b1f 92bd
000000a0: 7827 323e 6681 9ebd d2e4 1dbc ac08 963d
000000b0: 02e7 0c3c 76a5 083e e4b0 eebc 9dfe 47bd
000000c0: 1e24 263d d812 9fbc 9c6b 24be 6d4a c83d
000000d0: a316 8f3c 30c4 acbc 5983 583b abb7 d93d
000000e0: ba3a 99bd 3145 d7bd 6177 9fbd 809b 01be
000000f0: 0c0a 803c 256c ca3c 4a48 8fbd 8e1c 1c3d
00000100: cf00 8b3b 7645 2dbc 0fc9 9fbd 7514 e93c
00000110: 1942 46bd 64eb 99bb ca39 4bbc 74c5 d3bd
00000120: 00d2 863d 5f3d 723d c5be 193e 35e0 903c
00000130: 4e41 ebbd f17c 69bd c0d9 a0bd f86a af3d
00000140: d47a dabc 16bf 783d 3eb5 afbb 9f9b 683d
00000150: 9b19 4fbd 0cf5 773d 758d 4dbd e305 523d
00000160: f156 1d3d 522f 07bd 3a87 f23c 46cd 1d3d
00000170: 75a6 a5bc dd62 c13d b425 a13d 1975 5b3d
00000180: 2cfa 823d 9d98 b0bb c45d 3cbd 1116 1b3d
00000190: ca40 083d d0a8 bcbd e52c c9ba c40f 82bc
000001a0: abdd 2abd 7390 a73d 622d b2bc 8302 65bd
000001b0: 6c45 fd3c 462d 3b3c 90d7 3fbd fd98 40bc
000001c0: d98f 403d 1ed7 f5bc 592e 553d 5780 78bd
000001d0: 6b84 40bd 2705 163e d34c 57bd c3ab 7cbd
000001e0: e683 c4bc f81e 713c 44ed 3b3d eab5 833d
000001f0: 2ab7 903d 6f68 4f3d cc7e aabb 3031 ab3d
00000200: 634a 69bd fec2 4abd 5b25 06bd b34b 5e3d
00000210: 1a48 013d 7b71 b83b c7cf 0abb c7ca e4bd
00000220: 420a fb3c cba0 82bc 2728 323d ced5 3d3d
00000230: 1c45 92bd c5a5 b53d df7c 973c 184c e83c
00000240: 491f a83d bf3b f33d 921c a73c 3a61 1f3d
00000250: 907a 413d 5223 413c db84 433d 1301 e93c
00000260: 9778 11bd 4517 89bc bc45 cdbc 33df db3c
00000270: c0ac 9e3c 06a2 4ebb a831 943c 6ece cabc
00000280: 9049 a1bd 8ce1 3bbd 8850 523d 6c74 89bd
00000290: cb3c 95bd c8f6 60bd 2ef2 24bd b130 743c
000002a0: 0da1 e2bc aae4 333d c22f cdbd ae91 c2bc
000002b0: 63ac fd3d 87ca fdbc 28af e23c 1fa8 63bd
000002c0: da57 3ebc c286 70bd 5513 9bbd 4209 a8bc
000002d0: 6cb6 ab3a 77e8 213d 8d8a 1ebc 0b8d 753b
000002e0: 2a0e 673c d4e8 e1bc fad0 883c 19e1 cd3c
000002f0: 7f03 053e 3249 4a3d 0424 16bc bbad 013c
00000300: a6bc 4bbd 634d e23d 7810 653d 4211 753b
00000310: 8203 3c3d b5ca cdbc 1d67 7d3d a9cb 883d
00000320: ee1f 873d d4ed 8d3d 15cd f03d e58f 59bb
00000330: 7a87 c03d 5d33 1bbd ef59 e13d 5b22 613c
00000340: 8175 fc3a de12 493a 6ae0 81bd 1ea7 5f3c
00000350: b90c 3a3d b5c8 db3d 7eff aebc e4e9 cbbc
00000360: f53a c6bc 7963 bbbd f722 833d ea7c 213e
00000370: cefa 3f3e 57ac 803d 68e0 6dbd a20b 0d3e
00000380: ec0f b1bc 3098 753e b441 0dbb ba8c d2bd
00000390: 6221 0cbd 2a4c 083d 7a3f edbd 3272 05bd
000003a0: e04f 383d 05f5 72bd e314 e63c e05e b63c
000003b0: 2364 dfbd a071 043c 0fa1 47bc 7c86 673d
000003c0: bfa3 8a3b 7494 c6bd b47b ac3d 0578 4fbd
000003d0: 7bf5 31bd f993 f1bd 9a6d 0bbe a6ef d53b
000003e0: 88d3 203e 8155 9ebd 24ea 92bd 2ee6 773d
000003f0: ba15 4dbc 0aff 2a3c 83ad 0f3e 4cc9 cfbb
0.0076996693 0.06842485 -0.09056979 -0.11137868 -0.21770021 -0.020523643 -0.03952327 -0.016582683
0.06399681 -0.16199839 -0.13217816 0.09396792 0.06054801 0.04254052 0.033538986 -0.01298536
-0.052088443 -0.025819752 0.028395103 -0.054708753 0.030128567 0.019643258 -0.01899335 0.034027547
-0.029136354 0.054841302 -0.0873338 0.00040629183 0.0437662 0.08488412 0.06969044 0.086091995
-0.10622169 0.07376295 -0.05534071 0.024539514 -0.034792893 -0.0529613 -0.12515843 -0.07134911
0.17397869 -0.077395245 -0.009637075 0.07325873 0.008599998 0.13344368 -0.029137082 -0.048826803
0.040561788 -0.019418165 -0.16056675 0.097798206 0.017466849 -0.021089643 0.0033037274 0.10630735
-0.07481904 -0.10511244 -0.077864416 -0.12656975 0.01562979 0.02470977 -0.0699621 0.03811317
0.0042420398 -0.010575643 -0.07802021 0.028452137 -0.04840288 -0.00469725 -0.012403915 -0.103403956
0.06583023 0.05914056 0.15014179 0.017685035 -0.11487065 -0.05700392 -0.078540325 0.085653245
-0.026669897 0.06072911 -0.005362182 0.056789037 -0.05056153 0.06053643 -0.050183732 0.051275145
0.038412992 -0.033004113 0.029605497 0.038525842 -0.020220974 0.09442685 0.078685194 0.05357847
0.06395373 -0.0053892867 -0.04598786 0.03786284 0.033264913 -0.09211886 -0.0015348463 -0.015876658
-0.041715305 0.081818484 -0.021750156 -0.0559106 0.030916892 0.011424368 -0.046836436 -0.011755225
0.047012184 -0.030009802 0.052046154 -0.06066927 -0.047001284 0.14650403 -0.0525635 -0.061687242
-0.023988675 0.014716856 0.04588057 0.06431182 0.07066186 0.050636705 -0.0052031036 0.08358991
-0.056955706 -0.049502365 -0.03275047 0.05427141 0.031562902 0.0056287623 -0.0021180974 -0.11171489
0.03064454 -0.015945813 0.043495324 0.04634648 -0.07142088 0.08869509 0.01849216 0.028356597
0.08209092 0.1187663 0.020399366 0.03891108 0.047236025 0.011788206 0.047734123 0.028442895
-0.035515394 -0.016734729 -0.025057666 0.026839828 0.019369483 -0.003152968 0.018090084 -0.024756636
-0.07875359 -0.045869395 0.05134633 -0.06711659 -0.07286986 -0.05492285 -0.040270023 0.014904187
-0.027664686 0.043919243 -0.10018875 -0.023751106 0.12386396 -0.030980362 0.027671412 -0.055580255
-0.011617625 -0.058722265 -0.07572047 -0.020512227 0.0013100631 0.039528336 -0.009676588 0.0037468101
0.014102498 -0.027576841 0.01670121 0.025131749 0.12989615 0.04938621 -0.00916386 0.007914956
-0.049740456 0.110499166 0.05592391 0.003739432 0.045901783 -0.025121072 0.061865915 0.0667947
0.06597887 0.06930128 0.11757866 -0.003319734 0.0940084 -0.03789078 0.110034816 0.013741101
0.0019261093 0.0007670353 -0.06341632 0.013650684 0.04542229 0.10731641 -0.021362063 -0.024891801
-0.024198035 -0.09149832 0.064031534 0.15770307 0.18748018 0.06282871 -0.05807534 0.13773969
-0.021614037 0.23983836 -0.0021554055 -0.10280748 -0.034211524 0.03327576 -0.11584373 -0.03257961
0.04499805 -0.0593157 0.028086131 0.022262037 -0.109077714 0.008083731 -0.012184395 0.05652474
0.004230946 -0.09696284 0.08422032 -0.05065157 -0.043447 -0.11795802 -0.13616028 0.0065288125
0.15705693 -0.07731152 -0.07173565 0.06052225 -0.012517387 0.010436783 0.14031033 -0.006341135

action_model._discrete_distribution.branches.2.bias f4 [3]
00000000: b71b 263d 0fb7 21bd 7974 bdba
0.040553775 -0.03948122 -0.0014454267

action_model._discrete_distribution.branches.2.weight f4 [3, 216]
00000000: 16c8 09bc f005 e5bc ca66 b4bd 1f9f 833d
00000010: d111 24bc dbce aebc c036 27bd aee7 3ebd
00000020: e1df 123d 4636 893d 0a86 75bd e0dc 0fbd
00000030: 3611 e3bd 8b10 4a3c 9844 92bd 1543 f6bc
00000040: 5077 9abd c7fd 86bd d393 993d 0534 62bd
00000050: f97c 2fbd 4749 2cbd 9ce5 c6bd 4965 8ebb
00000060: 7a24 453d a65f d8bd 2464 813d 622d 82bd
00000070: a019 cb3d a9b8 00bd 5925 afbd dcd3 233c
00000080: 7064 cc3c b631 5dbd 0114 b03b 3fe7 d63c
00000090: 0922 ca3b e11b ccbb 23ca d83b 432f 0fbd
000000a0: e90b ecbc 007f edbc bf14 a1bd 4c96 44bc
000000b0: df67 b2bc d107 23bd aaae c3bd 44aa 6b3d
000000c0: 0151 7cbd 69c3 be3d 646e 3a3d bc94 d53d
000000d0: b7ff 703c c679 d23c d2fd 113d 55e7 2b3a
000000e0: d654 c13c f8b1 b4bc c47b 0fbc 0735 fa3c
000000f0: 1dd1 02be 2f26 9abc 462a 2d3d 649a 103c
00000100: 152d c93c cf33 ddbd 6cec 0ebb 664e 2d3d
00000110: 9ed0 4dbd 653f a3bd a3ab 0c3e 1526 b8bd
00000120: 6333 923d f8c6 053d 61de 283e ac83 78bd
00000130: d81f eabd 827b 3a3d d55b b13c 1a7b 8abd
00000140: 75f0 7cbd ffff 9fbd ff40 89bd 47cf 78bd
00000150: cee4 cfbd ef16 3cbd 77d7 973d daa7 c53b
00000160: c467 a7bc 617c 5fbd 03cf 06bd 632c dfbc
00000170: 3dcd 353d 6272 1bbc 8b81 bb3d d036 ac3d
00000180: 6b6b 733c 3d88 a1bd 7110 093c b7ff 12bd
00000190: aacd ce3c bd17 82bd e6e1 193d 43b5 57bd
000001a0: 72eb 4f3d bf0d d23c d888 a8bd d3f7 553b
000001b0: 83e7 b7bc f2ac b9bd 1957 553c 5c7d e03d
000001c0: b473 71bd cbf9 efbc 81be 69bd acfe 053d
000001d0: cd20 21bd 447d 3d3c 6b89 ffbd 6cc0 5abd
000001e0: 7f6a 493d 489c 61bd 274f 3dbd ec6b 86bc
000001f0: 2c97 993d 3e55 c8bd cdbb b33d 40fc febd
00000200: ba34 e9bc 81be e03c dd6f cd3b 409d 933c
00000210: 9d8e e53c b922 80bd cc71 ca3c 3f93 0ebd
00000220: 0313 273d 7cf3 233c f2c8 6e3d a490 233d
00000230: 280b 24bd 8aea 73bd 0fed 413d 197d 813d
00000240: 364a 713d e4fe 0cbd ef30 ddba f76f 16bd
00000250: a986 a2bc 1dc4 bd3c 2450 e1bb d8eb d33c
00000260: 4c8c 203e 1c10 fdbc fa96 b13d a0ac 3f3c
00000270: e3fe 94bc aaae febc a9f4 87bd c9c9 a53c
00000280: 5bdd da3d 892b 0fbd dce8 253d bb6d 7fbd
00000290: 608b 9ebd bbd9 5c3d 72a0 4cbd 0f1f a83d
000002a0: 042c f23c a380 c3bd 434c 6a3d 5ab2 e4bb
000002b0: 0b3d 8ebc 531c 233e be85 dcbd ca89 afbd
000002c0: 6429 df3c 0e7f a23c ce10 13be 4dbc d8bc
000002d0: f808 5bbd c9f7 08bd 5808 a23c 5f10 b53d
000002e0: 937a 8e3c fc8d e63c 6f72 6ebc f4b5 8bbd
000002f0: 67d4 863c 98b5 753d 72cc a43d 2ced 9bbc
00000300: 4264 3bbd 1cb2 a1bc f5fe 623d 9ffd 21bd
00000310: 6b30 903c de6a 08be 5fc4 9e3d 7092 be3c
00000320: 0c51 b03c b29d 0f3e d7e7 2b3b 5184 debd
00000330: a823 7dbc 9307 f4bd 6113 ec3c 5515 64bc
00000340: e77c 54bd ab08 793c 5e41 babc 7b2e dbbd
00000350: cdea 8cbd 4a1e 7d3d 2c18 dcbc fcc6 903d
00000360: b6d7 7ebc 6966 853c 2947 99bc e1a0 ad3c
00000370: bb79 a3bc a936 b43d 1315 283c 1427 853c
00000380: c36b 26bd 84a3 fcbc 77f9 76bc 24c0 e5bc
00000390: 5fd7 bcba f94a 52bc ba1a 423d 97b0 503d
000003a0: 8553 b0bb 2163 0e3d 9725 c6bc 9eef c7bd
000003b0: 7618 163b ab57 2bbd b7d4 60bc 1aeb 283c
000003c0: 38ac 92bd be4a ac3d 3d20 25bd 7735 823d
000003d0: 8225 94bd 8dc5 233d 415c 333b 29ba 79bc
000003e0: 601e d33a 419e 55bc 9235 3e3d f589 9b3c
000003f0: c6d6 89bd 42b3 92bc 7df2 0cbd cac5 1bbc
-0.008409521 -0.027956933 -0.08808668 0.06426834 -0.010014013 -0.02133887 -0.040823698 -0.046607666
0.03585804 0.06699805 -0.059942283 -0.035122752 -0.11087267 0.012333046 -0.071419895 -0.030061284
-0.07542288 -0.06591373 0.07498898 -0.05522539 -0.042843793 -0.04206207 -0.09711763 -0.00434557
0.04813049 -0.105651185 0.063179284 -0.06356312 0.09916997 -0.031426106 -0.085520454 0.009999242
0.024950236 -0.054002486 0.0053734784 0.026233314 0.006168608 -0.0062289094 0.0066158934 -0.03495718
-0.028814273 -0.028991222 -0.07865285 -0.011998724 -0.021778045 -0.039802376 -0.09554799 0.057535425
-0.06160069 0.09314615 0.045515433 0.104287595 0.014709405 0.025692832 0.035642453 0.00065576035
0.023600023 -0.022057518 -0.008757535 0.030542864 -0.12775083 -0.018817035 0.042276643 0.008825872
0.02455763 -0.10800897 -0.00218084 0.042311095 -0.05024778 -0.07971076 0.13737349 -0.089916386
0.071387075 0.032660455 0.16491081 -0.060672447 -0.11431855 0.045527942 0.021650234 -0.06761761
-0.061752755 -0.07812499 -0.0670185 -0.06074455 -0.10151063 -0.04592031 0.074141435 0.0060319724
-0.020435221 -0.054561976 -0.032912266 -0.027242845 0.044385184 -0.00948772 0.09155568 0.08408892
0.014857153 -0.078873135 0.008365736 -0.0358884 0.025244553 -0.06352184 0.03756895 -0.0526631
0.050761648 0.02564132 -0.08229226 0.0032648935 -0.02244926 -0.0906619 0.013021254 0.109614104
-0.058948234 -0.029293915 -0.057066444 0.032713577 -0.039337922 0.01156551 -0.12477382 -0.053406164
0.04917383 -0.055080682 -0.046218064 -0.016408883 0.07499537 -0.09781884 0.087760545 -0.124504566
-0.028467525 0.02743459 0.0062694387 0.018019319 0.028022105 -0.06256623 0.024712466 -0.034808394
0.040789615 0.010006782 0.058297105 0.039932862 -0.040049702 -0.059549846 0.047345217 0.063226886
0.058908664 -0.03442277 -0.0016875545 -0.03672787 -0.019839602 0.023164803 -0.0068760086 0.025869295
0.15678519 -0.03089147 0.086713746 0.011698872 -0.018187946 -0.031089146 -0.06638462 0.02023782
0.106867515 -0.034953628 0.040505275 -0.062360507 -0.077414274 0.05391858 -0.0499577 0.08209049
0.029562004 -0.0954602 0.057201635 -0.006979269 -0.017363092 0.15928774 -0.10767697 -0.08571203
0.027241416 0.019835975 -0.14361879 -0.026456976 -0.05347535 -0.03343943 0.01977937 0.08841013
0.017392432 0.028143875 -0.01455365 -0.06821814 0.016458703 0.059987634 0.08046807 -0.01903399
-0.04574991 -0.01973825 0.055418927 -0.039548513 0.017601212 -0.13322017 0.077522986 0.023263186
0.021523021 0.14025 0.0026230717 -0.10865081 -0.015450396 -0.11915507 0.028817834 -0.013921102
-0.05187693 0.0151998205 -0.022736248 -0.10702225 -0.06880722 0.061796464 -0.026866995 0.07069203
-0.015554359 0.016284185 -0.01871069 0.021194877 -0.019955507 0.08799488 0.010258931 0.016253985
-0.040630113 -0.03083969 -0.0150741255 -0.028045721 -0.0014407447 -0.012835258 0.04738877 0.05094966
-0.00538105 0.034762505 -0.024187846 -0.097625 0.0022902763 -0.041831654 -0.01372259 0.010309959
-0.07161754 0.084126934 -0.040313948 0.06357854 -0.072337165 0.03998332 0.002736822 -0.015242138
0.0016107075 -0.013038219 0.046437807 0.018986681 -0.06730418 -0.017907742 -0.034410942 -0.009507606

network_body.linear_encoder.seq_layers.0.bias f4 [216]
00000000: 17f5 8f3b 7ef8 cdbc 8869 603c 6518 933b
00000010: 0155 f93c fc02 273c 00e3 c8b7 d466 10bb
00000020: 3d4b 2f3c f7c8 84bc ead7 9abc 9e66 23bc
00000030: 79ce 55bc 2683 183a 7a33 9c3c 932e 9abc
00000040: d29a 83bd c7ce 21bc 8a36 493a 558a a63c
00000050: 6c3e a9bc fb02 d13a aaf9 553d 5fd5 d6bc
00000060: 8341 6abc 1d11 1fbd 1465 48bd a641 3a3c
00000070: 84d0 02bc 7186 0b3d 070d 83bb f052 07bb
00000080: ec2b 06bd 072c 49bd 84dd 843c 648a 48bc
00000090: 7140 03bd fd64 2abd 4e32 b8bc d308 bfbc
000000a0: 7c6c 963b 40ad 723b 00b6 02bc f822 efba
000000b0: 8558 9dbc 808b 1c3c 3622 6fbd 2066 92ba
000000c0: 4880 f1bb e400 64bd 0238 6f3c d07a 7b3c
000000d0: 7f0a 38b9 0e1a 813c aeb9 7ebb 1970 afba
000000e0: 690e 3bbd f33e 09bd 10bf 8c3c 7426 01bc
000000f0: ce9d ddbc 224c 013d cde5 87bc b013 77bd
00000100: efe1 3dbc 2713 88bc d71b 3c3c 2199 1fbb
00000110: c5e4 30ba 5305 84bc 21c5 bcbc e437 3c3c
00000120: 969e ccbc 342c 84bc 7826 98bc 72bb 5c3c
00000130: d52e 583c db87 4abd 5ecd 763c c8e7 ba3c
00000140: 70d6 b03a da99 e13c 81b4 2a3d f806 d03c
00000150: eb16 30bb c670 543b 4964 4dbb a2bb b1bc
00000160: 23f8 bcbc 5b46 01bd fbce 503c c0d5 d83c
00000170: 7e9b 373c 4ef0 80bc 79ec 083a 86f7 afbc
00000180: bc3d 8c3c 7f43 3a3d 13fe d7bc 7202 813c
00000190: db52 fcbc d089 f63b 87df 81bd 46b2 60bc
000001a0: 56bf ea3c c384 14bc 7161 5ebd 1c01 76bc
000001b0: e10d 0f3c 0701 10bc 827f 2ebc 472c 683d
000001c0: 660f 86bc 7c89 e1bb 510d 1dbc 7843 52bc
000001d0: 9dfc fcbc 3019 8c3c debc d23c 3278 ac39
000001e0: f517 953c 2a10 53ba f837 22bd 5977 98bc
000001f0: ad09 1a3b e5a6 97bc 1aa1 5fbd 80c3 803b
00000200: e95a 02bd d938 53bc 80e2 bd3b fff8 ecb9
00000210: 7bba ffbc fa5b 46bb 45d2 863b 6758 28bd
00000220: 2ed3 5fbd 72ef 9cbb a205 86bc dca2 e63b
00000230: be2a bd3c 2d91 033d ed8d 1abd 77c0 42bc
00000240: da68 48bd 1fdf a5bc d53c e7bc 54a9 c6bc
00000250: 8b28 1cba f179 60bd 3e1f eebc 5acb f03b
00000260: a396 92bc 56f3 c2bc 865a 01bc 4a95 60bd
00000270: 3dc3 103b 7bc5 753d 10fd 1ebb 7b35 a13c
00000280: 3b6d f53b bbe5 fbbb 5629 4dba 170e b23b
00000290: 3b5e fe3c 5a8e 07bc 3a8f 28bc f662 21bc
000002a0: e67b 32bd 2a2c 87bb 0508 90bc 9c9c 253d
000002b0: 8e20 32bd 7e90 9abc d435 dfbc 8569 10ba
000002c0: 2a0c 6cbd 7239 3cbd 89be f93c c312 823d
000002d0: 81bc 1b3c 6449 d4bc 0fb7 b23b 241e 0f3d
000002e0: 6ba1 7e3c 10e8 d2bc 9ca0 0dbd 0f5d d7bc
000002f0: f162 20ba c841 bb3c 8f03 67bd 8ec0 4ebd
00000300: a802 3fbd d8b1 923c 7f30 39bd a7e2 4ebc
00000310: 5ea6 25bb c69e 863c 16cd 1f3b 269e f03b
00000320: 78e7 833c 0a8c be3c d307 423c f4b7 593c
00000330: c1f8 7dbd 3a3a cfbb 2b86 a9bb e0df bd3b
00000340: b9fd 363c 2a9b 69bd 59bd 2d3d 7012 26bc
00000350: 9f6c 4fbc 8796 20bc 2687 a63c 36f0 41bb
0.0043932307 -0.025142904 0.013697036 0.004488992 0.03043604 0.010193583 -2.3947563e-05 -0.0022033947
0.010699091 -0.016209109 -0.018901784 -0.009973196 -0.013049715 0.00058178825 0.019067515 -0.018821036
-0.06426014 -0.00987596 0.00076756685 0.020329634 -0.020659648 0.0015946323 0.05224005 -0.02622479
-0.014297846 -0.03883468 -0.04892452 0.011368191 -0.007984284 0.03406376 -0.0039993557 -0.00206488
-0.03275673 -0.049114253 0.016218908 -0.012240026 -0.032043878 -0.041600216 -0.022484925 -0.023319637
0.004590569 0.0037029535 -0.0079779625 -0.0018244674 -0.019207248 0.009554744 -0.058382235 -0.0011169352
-0.0073700286 -0.055664912 0.014600756 0.015349105 -0.00017551518 0.015759494 -0.0038867998 -0.0013384848
-0.04566804 -0.0335073 0.01718095 -0.007882703 -0.027052786 0.031566747 -0.01658907 -0.06032151
-0.011589511 -0.016610695 0.011481247 -0.0024352747 -0.00067479565 -0.01611582 -0.023043217 0.011487935
-0.024977963 -0.016134359 -0.01857303 0.013472425 0.013194759 -0.049445968 0.015063612 0.0228156
0.0013491642 0.027539182 0.04167605 0.025393948 -0.002686913 0.003241585 -0.0031340292 -0.021695916
-0.02306754 -0.031561237 0.0127446605 0.026469111 0.011206506 -0.015739586 0.00052232255 -0.021480333
0.017119281 0.045474526 -0.02636627 0.015748236 -0.030801227 0.0075237527 -0.063414626 -0.013714379
0.02865569 -0.009064856 -0.054292146 -0.015014913 0.008731336 -0.008789307 -0.010650517 0.05668285
-0.016364764 -0.0068828445 -0.009585694 -0.012833469 -0.030882174 0.017101854 0.025724825 0.0003289595
0.0181999 -0.000805142 -0.039604157 -0.018611597 0.0023504302 -0.018512199 -0.054596998 0.0039295554
-0.03182498 -0.0128919715 0.005794823 -0.00045198944 -0.03121685 -0.0030267225 0.0041144216 -0.041099932
-0.054644756 -0.0047892863 -0.016360108 0.0070384573 0.02309167 0.032120872 -0.037733007 -0.0118867075
-0.04892812 -0.020247994 -0.02822725 -0.024250664 -0.0005956969 -0.054803792 -0.029067632 0.00734846
-0.017894095 -0.023797672 -0.007895118 -0.054829873 0.0022089027 0.060002785 -0.0024259724 0.019678822
0.007489828 -0.007687298 -0.0007826289 0.0054338085 0.031050792 -0.008273685 -0.010288054 -0.009850254
-0.04357519 -0.004125138 -0.017581949 0.040432557 -0.043488078 -0.018867727 -0.027247347 -0.00055088877
-0.057628788 -0.04595322 0.030486362 0.06351235 0.009505392 -0.025913902 0.005453951 0.034940854
0.015541415 -0.025745422 -0.034576997 -0.026289491 -0.0006118259 0.022858515 -0.056399878 -0.050476603
-0.046633393 0.017907068 -0.045212265 -0.01262728 -0.0025276165 0.016433131 0.0024383715 0.0073430715
0.016101584 0.023260135 0.011842686 0.013288487 -0.06200481 -0.00632408 -0.005173465 0.0057945102
0.011168891 -0.05703274 0.042416904 -0.010136232 -0.012660175 -0.0098015135 0.020328116 -0.002959264

network_body.linear_encoder.seq_layers.0.weight f4 [216, 121]
00000000: 385e 113d 9d8a 943c 37b9 fe3d e61c 013d
00000010: 20c2 4f3e 2f68 99bd 9685 223d f755 2f3d
00000020: 83b7 6a3e ff29 1b3e 82c3 113b 641f e7bd
00000030: cb0e 203e ac70 803d f94f d83c c93b 47be
00000040: 9ccd 37bd fdf8 553d 1059 b33d f6f4 5fbd
00000050: ef90 3e3e b896 4dbe 02db 0fbc 2825 ce3d
00000060: 4485 cbbd 9bcc 79be 7a69 dfbd c66d fdbd
00000070: 2fd2 2c3d 9f03 783e 402e 1fbd 630e 54be
00000080: 911d 90bd cfcb b6bd 3fbb afbd 278a d53d
00000090: 4d2a 76be b3af bcbd 2d83 8cbd cd86 023d
000000a0: c361 99bd f13d f8bd dc21 83bd 91c9 22be
000000b0: ccb0 723c 4966 603e cc64 66bd 4f27 19be
000000c0: 07d9 27be b483 ef3c e3df 4abc 271e 0f3e
000000d0: 3ab5 85be 88a5 d2bd ab94 3b3d 29fb c1bd
000000e0: 2407 c3bd 8b68 74be ff36 0abe e508 8cbd
000000f0: 8a4f 933d d58b 473d d888 4fbd e45f 183e
00000100: 7e65 8dbe 9460 0abe 56f5 21be 5056 02bd
00000110: f1c5 87bc 6e05 e1bd 7dbd 993d f319 97bd
00000120: e7d1 1f3e ae96 fbbc eb1f 60bd d303 2fbe
00000130: ad3a 523e e292 6cbd a40f 79be 02bc 1dbe
00000140: a803 0b3e 9783 03be d5b8 5e3e 6af6 89ba
00000150: 95c3 ae3c 1f40 a0bc 31b3 083e 5de2 0c3e
00000160: 8e7c 85be c364 9d3d a122 8d3d 8a32 fe3c
00000170: 9c02 ebbd 1b77 163e 132f 123d 8ae8 abbd
00000180: f213 94bc 06c6 643d 2562 1ebe 4319 c73d
00000190: 4ee1 043e ba0b 9d3c a0fe 943d 1ed9 03be
000001a0: 6ff0 e53d 8f35 ac3b faee d13d 1914 9a3d
000001b0: 4f8f ac3d b897 bb3c abb6 ccbd dd72 063e
000001c0: d8d4 c63d 73d6 403d 7a8a f9bd 41d1 d13d
000001d0: 71eb b03c 4f25 093e 4119 6e3d 0434 0abe
000001e0: 0ae5 ab3d 980a 3abe d077 f7bd 6328 05be
000001f0: d71e c0bd d4da f3bd 1071 cc3d f4de 893d
00000200: ae2c 13be f2de 213d 849c 3cbd 31c2 02bd
00000210: 6167 edbd 383b 4cbe c868 fdbb d928 4b3d
00000220: db61 b8bd 4893 ddbd c9b6 84bd a9e6 90be
00000230: b3e7 eb3d 428a b43d d992 40bd 4535 4fbd
00000240: 610e 8a3d d543 ca3d 5613 3abe 8e5b cabd
00000250: a886 d33b e598 9c3e 7046 083e 0025 b63b
00000260: 2cef eebd e7d4 603e f667 f9bc eceb 4d3c
00000270: 4a6c 6cbd b996 1f3e 1c8f 3abe 48cd 2e3e
00000280: b558 10be b275 28be 942e 423e ef3b febd
00000290: 3aac 69bd 607b ce3d fe09 8a3c 6397 783d
000002a0: da22 99bd 3fda 5fbe 4743 673d a41a e1bd
000002b0: ced2 ca3c 1d1c 34bd c161 723e f0ae df3d
000002c0: 42a4 553c 4d6d 33be 0862 27be 774d 77be
000002d0: 4254 04bd 2f33 54be c7a8 f83c 4436 193e
000002e0: 4170 1f3d 1731 adbd 3cda 38be 152e e0bd
000002f0: 6b9d 4bbe 2516 6dbe ec26 8abe 9585 633e
00000300: 1860 a1bd 9242 59be f175 683b 0b6f 1cbb
00000310: 39b2 cabd c3f3 a7be 4a67 99bd b761 1dbe
00000320: 5cef 8abd a255 7abe c84f e73d 6600 0e3e
00000330: 2290 94bd 437f 9ebc db0d 113e bf1f 9bbd
00000340: 894c 643c 38ae 2ebd 8473 563e b189 a1bd
00000350: d1f2 0f3c d6d3 6c3e 6d45 49be 9b8b 82bd
00000360: 0b17 00bd 9c8c 91be 3be4 97bd a10d 183d
00000370: 80a7 d2bd 54ae e2bd fd06 c8bd 9d59 acbd
00000380: 1951 25bc 406c 5a3d c787 ef3d 959d e4bc
00000390: a916 fb3b cbac c13b 54e9 22bd 7bf7 36bb
000003a0: 2afd a23d 308f f43c b618 bb3d 475c 84be
000003b0: 5eef 2d3d 78dd 8f3d f922 94be 775d f3bd
000003c0: 5a16 b9bc ff8c 93bd 2b5b cb3c f26e 9cbd
000003d0: 80bc d1bd 0b98 debc 84c1 9b3d 52f9 0c3e
000003e0: 3c80 353e b4aa 423e fb1e 79bd e3c9 2d3e
000003f0: 735a f83d 8066 1b3d 244c c2bc 7ca5 58bc
0.035490245 0.018132502 0.12437671 0.0315217 0.20288897 -0.074905746 0.03967818 0.04280659
0.22921567 0.15152739 0.0022241776 -0.11285284 0.15630643 0.062714905 0.026405321 -0.194564
-0.04487382 0.052239407 0.08757222 -0.054676972 0.18609975 -0.20077026 -0.008780243 0.10065681
-0.09937528 -0.24394457 -0.1090879 -0.12374453 0.042192634 0.24220131 -0.038862467 -0.20708613
-0.07036889 -0.08925592 -0.08580636 0.10426741 -0.24039574 -0.092131995 -0.06860957 0.031866837
-0.0748935 -0.121211894 -0.064029425 -0.15897204 0.0148126595 0.21914019 -0.05624847 -0.14956401
-0.16391383 0.029237606 -0.01238248 0.13976346 -0.26114827 -0.10285479 0.045796078 -0.09471733
-0.09522846 -0.23868005 -0.13497542 -0.06837634 0.07192905 0.04871734 -0.050667614 0.1488033
-0.27616495 -0.13513404 -0.15816244 -0.031820595 -0.016573878 -0.10987364 0.07506845 -0.07377996
0.15607415 -0.030711498 -0.05471794 -0.17091303 0.20530196 -0.057757266 -0.24322373 -0.1540375
0.13575613 -0.12843166 0.21750195 -0.0010525708 0.021333495 -0.019561825 0.13349606 0.13758226
-0.2607159 0.076852344 0.068913706 0.031029958 -0.11475107 0.14693873 0.035689425 -0.08393963
-0.018075917 0.055852912 -0.15467127 0.09721615 0.12976572 0.01917063 0.07275128 -0.12875792
0.112275 0.005255408 0.10250659 0.075233646 0.084257714 0.022899494 -0.09995779 0.13129754
0.097085655 0.047079515 -0.121846154 0.1024499 0.021596642 0.13393138 0.058129553 -0.13496405
0.08393295 -0.18168104 -0.12083399 -0.13003688 -0.09380882 -0.119069725 0.099825025 0.06731978
-0.14372513 0.039519258 -0.046047702 -0.031923477 -0.115919836 -0.19944465 -0.007733438 0.049599502
-0.090030394 -0.10819107 -0.06480176 -0.2830098 0.115188025 0.08815433 -0.047015045 -0.05058791
0.06741024 0.09876219 -0.18171439 -0.09880744 0.0064552613 0.305854 0.1330812 0.00555861
-0.11666712 0.21956216 -0.03044508 0.012568455 -0.05772046 0.1558484 -0.18218654 0.17070496
-0.14096339 -0.16451147 0.1896308 -0.12413775 -0.057049014 0.10082126 0.016850468 0.06069125
-0.074773505 -0.21860598 0.056460645 -0.109914094 0.024758723 -0.043972123 0.23670103 0.109220386
0.01303965 -0.17522164 -0.1634599 -0.24150644 -0.032306917 -0.2072265 0.030353917 0.14962107
0.038925413 -0.08456629 -0.18052 -0.109462894 -0.19884269 -0.23152979 -0.2698282 0.22218926
-0.078796566 -0.21216801 0.003547069 -0.0023869898 -0.098972745 -0.32803163 -0.07490404 -0.15369307
-0.067839354 -0.24446729 0.11294514 0.1386734 -0.07254054 -0.019347792 0.14165442 -0.075744145
0.013934263 -0.042646617 0.20942503 -0.07887591 0.008785919 0.23127684 -0.1965539 -0.06374284
-0.031271975 -0.2842759 -0.074165784 0.037122373 -0.10285854 -0.11068407 -0.09766958 -0.0841553
-0.010090136 0.05332589 0.11695819 -0.027907172 0.0076626134 0.005910491 -0.0397733 -0.0027918506
0.079584435 0.029853433 0.091355726 -0.25851652 0.042464606 0.07024664 -0.28932932 -0.118830614
-0.022593666 -0.07204627 0.024823746 -0.07638349 -0.10241032 -0.02717211 0.076052696 0.13766983
0.17724699 0.1901043 -0.06082056 0.16971545 0.12126627 0.03793955 -0.023717947 -0.013223048

network_body.linear_encoder.seq_layers.2.bias f4 [216]
00000000: bab8 c0bc fa0e a9bd 3b47 b13c f99e dabc
00000010: a4db 48bd f422 22bc 08ab 82bb 47c3 b3bc
00000020: 1b6a 17bd f993 6ebd 55e2 dfbb f4bb 893c
00000030: 4e96 f8ba 7bdd e0bc 9376 a3bc 80f4 d2bc
00000040: 8266 843c 713b 87bc db1a b1bc 6aba 08bc
00000050: cee0 0b3d 62b8 f1bc b518 babc 2a97 60bd
00000060: 4443 dabc 808d a53b 8ea8 393d 74b9 97bc
00000070: 5ab0 c1bc b465 883c 4afe aebb af48 23bc
00000080: 7ea1 4abd f0dd 893c 316e 4dbd 570c d3bc
00000090: 761b 0fbc a98c 4dbd 5bcb 8d3a 4e69 4abc
000000a0: 07ca 633b 959e 53bd 8a3f 7abc 34d8 e93b
000000b0: 6253 6dbd 5327 193d c0a0 dabc 38dc 85bb
000000c0: 50e5 98bc a7be cabb 38ca 1dbc f7f3 fcbc
000000d0: 3f94 44bd 6103 8b3c b866 a0bc be47 9fbc
000000e0: 3fcc 88bc f63b c7bc 3eea 9fbc 8223 bb3c
000000f0: 8454 33bd 3bda d63b 2cc4 003c dd79 0abd
00000100: e436 ec3c 8c88 34bd 2cbc b6bb 16ff 8e3b
00000110: af1c cdbd c2df 15bd bf0b 6bbc a0ab 5fbd
00000120: fede be3c b2d1 89bd 2683 ad3c 86ea 5dbd
00000130: a553 44bc 0721 21bd 419b a0bb 7b77 7dbd
00000140: 1c70 6fbd 950b 6339 c064 27bd 3c06 61bd
00000150: 0ea9 38bd 458c 9fba 77b6 4dbd f109 4cbc
00000160: e768 8abd f7ae e5bc d21d 423b 8d69 3f3b
00000170: 0989 fcba 021e 5cbd 7105 1a3c 126b bc3c
00000180: 94cb f0bc 79f6 75bd 2791 8bbc 46bb 813c
00000190: d4bd c1ba c886 6cbd c4f6 83bc 2c7e 643c
000001a0: cf4d 94bc 702f debb 8339 c03c bea7 b4bc
000001b0: be74 11bd 0566 61bd e554 b8bd 0064 60bc
000001c0: 1099 393c 3e99 263d 114a 06bd 470a 1dbd
000001d0: a45c 933c 7256 8fbd ad45 22bc a600 193a
000001e0: e7ff 5ebd 6259 9dbc fda3 b9bd eae3 66bb
000001f0: 323a 21bd 2b64 efbc 64da 043c 5a8d 6f3c
00000200: 25ac 92bc b7fe 14bd 0974 bfbc fbf2 f33b
00000210: 2199 8f3c 01aa efbc 6f3e 42bc 1f5f 38ba
00000220: ac41 2b3c 5605 86bd e67a b13c 58ed 1d3d
00000230: a57b c7bc 3133 86bd 1d3b 1fbd ddf5 2bbd
00000240: c3ae 89bd 2f3b 3b3c 57f1 2ebd 887e 04bd
00000250: 4fff 20bd fdbf 4fbd fd6f 60bd c93d 2b3c
00000260: f84e c2bc 3fa2 14bc 818d 89bd 128c 9ebd
00000270: cec2 27bd 9adb 61bc ad98 35bd 009b c8bc
00000280: 4482 adbc 9a14 ea3c c7a3 08bd e780 da3b
00000290: 1f14 913c 5a9d 823c d86f 3ebc 398a 31bd
000002a0: ed0f 33bd b649 243d 04b0 5cbc 2714 553c
000002b0: a865 00bd f8ea 913c f40d 03bc cc2e 0ebd
000002c0: 71bf 9cbd 52aa 45bd f4e3 f8bc 1285 05bd
000002d0: a300 2cbc f9ac 7fbc 2725 05bb 69e4 86bb
000002e0: 7dc0 2ebd 945d d2bc 5e20 763c 8d0d 983b
000002f0: 4965 21bd 02ab 363b bb02 f63b 97e8 30bd
00000300: 1eb3 a3bb b5ea a5bc 74cd 55bc a872 06bd
00000310: 22aa b3bc 783b 97bc 513f 9ebd 6043 833c
00000320: 4f58 cbbc fb66 25bd 0726 35bd 4bc5 2bbc
00000330: 7295 9c3c 282c efbb c4eb 38bc 3c3c c4bc
00000340: 696d 90bc 2c76 84bc f563 8dbd 5f9c 32bd
00000350: 538b 7dbc 510e 713c 231c c73c ef02 7a3a
-0.023525584 -0.0825481 0.02164041 -0.026687132 -0.04903759 -0.009896029 -0.0039876737 -0.021943701
-0.036966424 -0.058246586 -0.006832401 0.016813256 -0.0018965693 -0.02744936 -0.019954002 -0.025751352
0.01616216 -0.016507836 -0.021619251 -0.008345226 0.034149937 -0.029506866 -0.02271686 -0.05483166
-0.026643403 0.0050522685 0.045326762 -0.018521048 -0.023643661 0.016650058 -0.005340372 -0.00996606
-0.049470417 0.01682946 -0.050153915 -0.02576272 -0.008734575 -0.050182972 0.0010818051 -0.012354208
0.003475787 -0.051664907 -0.015273938 0.007136369 -0.05794085 0.037391018 -0.02668798 -0.00408509
-0.018664032 -0.0061872783 -0.009630732 -0.03087805 -0.04799294 0.016969385 -0.01958023 -0.019443389
-0.016698955 -0.024320584 -0.019520875 0.02284408 -0.043781772 0.006556777 0.007859271 -0.033807624
0.028834768 -0.044075534 -0.005576631 0.0043639047 -0.100152366 -0.036590345 -0.014346062 -0.054607034
0.02329969 -0.06729449 0.0211807 -0.054178737 -0.011982833 -0.039338138 -0.00490132 -0.061881524
-0.058456525 0.00021652722 -0.040867567 -0.054937586 -0.045083098 -0.0012172541 -0.05022284 -0.012453542
-0.0675829 -0.028037531 0.0029619825 0.00292072 -0.0019266914 -0.053739555 0.009400711 0.023000274
-0.029393949 -0.060049508 -0.017036987 0.01583637 -0.0014781305 -0.057745725 -0.016108878 0.013946097
-0.018103508 -0.0067805573 0.023464924 -0.022052642 -0.035511725 -0.055028934 -0.09000567 -0.013695717
0.011327997 0.040673487 -0.03278548 -0.03833988 0.01798851 -0.0699891 -0.009904307 0.00058365834
-0.054443266 -0.01920766 -0.090644814 -0.0035231062 -0.03936214 -0.029222568 0.008108709 0.014621103
-0.01790435 -0.036375728 -0.02337076 0.007444737 0.017529072 -0.029255869 -0.011855706 -0.0007033217
0.010452669 -0.065439865 0.021665048 0.038556427 -0.02435095 -0.06552733 -0.038874734 -0.04198252
-0.06722786 0.011427685 -0.04271063 -0.032347232 -0.03930598 -0.050720204 -0.0547943 0.010451742
-0.023719296 -0.009071886 -0.06716443 -0.0774156 -0.040957265 -0.013785267 -0.044335056 -0.024487972
-0.02118028 0.028574277 -0.033359315 0.0066681984 0.01770979 0.015944172 -0.011623345 -0.04334471
-0.04371636 0.04010936 -0.0134697 0.013005293 -0.031346947 0.017812237 -0.007998932 -0.034712598
-0.07653702 -0.048258133 -0.030382134 -0.03259761 -0.010498199 -0.015605205 -0.0020316334 -0.004116584
-0.04266404 -0.025679387 0.015022365 0.0046402873 -0.039403234 0.0027872925 0.0075076497 -0.043190565
-0.0049957177 -0.020253519 -0.013049472 -0.03282419 -0.021931712 -0.018460974 -0.077269204 0.016023338
-0.024822382 -0.040381413 -0.04422572 -0.01048405 0.01911423 -0.007298965 -0.01128668 -0.023954503
-0.017630296 -0.01616963 -0.06903831 -0.04360616 -0.015475112 0.014712886 0.024305409 0.00095371803

network_body.linear_encoder.seq_layers.2.weight f4 [216, 216]
00000000: 2798 80bd 55f3 083d 1d76 ff3d 7d05 11bd
00000010: a9ed b93d e201 5f3d 5dfc 063e c141 4bbd
00000020: 53c3 49be e7ac 84bd 61f2 19bd 1e86 c9bd
00000030: 785b 50bd 91e7 103d 6dea e13d b36a 293d
00000040: 3c8a b1bc 4474 2a3d 250b cb3d 24b4 96bd
00000050: cb4d 813d 5c99 263e 46eb dd3b 4e79 cabd
00000060: b01e 11bd 8427 bfbd d3e9 2fbe d34c 0bbe
00000070: b210 2ebd 0f90 873d 4984 35bd 91ca 7ebd
00000080: 563b c53d 7bef 04bd ef74 0c3d 78ea 5a3d
00000090: 5100 2c3d be5a 52bd c550 a83b fcb9 a73b
000000a0: 494e 9d3d 0666 2fbd 4724 ecbc f000 0d3d
000000b0: a9f8 80ba 6c1a 4cbd 3e90 903c 6c2f dfbc
000000c0: 7f00 713d e73f 0abd 2a32 8f3e 4850 0d3e
000000d0: e2f1 633d 835a c63d e05c 5b3d 080a a0bd
000000e0: 1ee1 9b3c c0b9 b8bd 50f5 aebd 22dd 79bd
000000f0: 8eb0 cbbc a165 0b3e 41dd e8bd 29f5 c5bc
00000100: 7624 c73d 5702 2ebd c2bc 453d c6dc b93d
00000110: fd43 0b3e cad0 6dbd b05a 97bd d569 c0bc
00000120: bb44 e23d 0834 88bd 7c63 3cbe 21f8 a03d
00000130: 3c59 c13d 87cd 59bd 5ef5 b7bd bcee adbd
00000140: 2517 333d 4903 debd 5eae ba3d 86ab cb3d
00000150: 1500 073e 7973 cfbe 17bb 9cbd 2af9 0cbd
00000160: 6150 adbd 018b e4bc 2658 e43d e1fa 503d
00000170: 009a 383d a661 47bc 5a81 89bd d112 cb3b
00000180: 2a09 073d 7a40 7c3d 2d57 8cbd 6b4d e4bd
00000190: 0bcd e3bd ef7e 2ebd 8029 eebd bbfd ecbd
000001a0: be2a f2bc 7090 01be 5253 22bc 79ea 0c3e
000001b0: 0193 b9bc fd97 95bd 9a36 c53b 5d68 c93c
000001c0: 8e27 5d3d 27dc 61bd d7a7 aabd fe9a 5f3d
000001d0: 2909 9a3c e0e4 58be c944 e83b 10ae 2cbe
000001e0: 14e4 2f3e 4220 a03d 31b2 963d 83f3 0fbe
000001f0: fa27 47bd 0455 4ebc a751 213d 6176 d23d
00000200: 23a7 983d a383 14be 0d4f 023e 6b5e 193d
00000210: e51a 7abd 6119 9e3d f1a2 82bd 943b c63b
00000220: bbd5 34bd dd3e 1a3d 8664 16be d62a 053e
00000230: 8a13 273e a12a c938 634e 0fbd 4d1e 92bd
00000240: 2a00 6ebc 4c5a f73b 0775 953d eba7 c23c
00000250: 36de 983b 11c3 51bc 465d 423d f1e9 ed3a
00000260: d87a eebd 1428 2d3e 9eff a0bc 59c4 5cbd
00000270: 98d4 43be 008b 0cbe d4f3 b23c 64ba c7bd
00000280: e58e 193e 19fd 0bbe 7f22 263d c779 973c
00000290: 984a ff3c 149f b63c 9d1f 193b e935 9fbd
000002a0: d12f 613c 8362 66bb 4d72 0dbd 2353 493e
000002b0: 1511 abbd 85b4 1abd 9a89 573c 9b2b ecbc
000002c0: b6c7 3d3c b53b 1e3d 25c3 ecbd 2f8c 253e
000002d0: 9aaf fd3d 7ae8 8d3d fc46 263e 91fc 433d
000002e0: 6d4c 7fbd c419 d5bd bf87 7bbd 99a2 1abd
000002f0: 2c7a fabc fa68 2bbd 0885 cbbc 8d2d d8bd
00000300: bbf7 323d e018 b23d fbd3 e43c 948e 0a3e
00000310: 7972 033c 8d59 773c ffcf 4bbd c12b d0bd
00000320: c6bf dd3d b8df e83c f327 8f3d 70f5 973d
00000330: 8baa 85bd 987d 1b3b 1fbd 4fbd 9b7a a1bb
00000340: 6e1c b8bd 8ad7 ca3d 5629 db3d 2810 f8bd
00000350: 10d6 82bd a36f 1f3d f0fc aebc 71a1 c5bd
00000360: cfeb fcbd 4ed6 10be e455 843d 8130 013e
00000370: eeab 753c 673b 40be b7a7 50be fb65 adbb
00000380: be2a abbd 567c 463e 0a34 583b 6b11 d1bd
00000390: 3368 5b3e c390 05be 2dde 66be e3c6 3d3e
000003a0: 0949 a63d fa56 fbbd 7de8 38be 8be8 463e
000003b0: 85aa 48bc 5a2e 333e afc5 a53d cbb9 b33d
000003c0: 9f4c 5cbd 1dd0 7b3d 21a5 fe3d a73d 5e3e
000003d0: 884b 81bd 9c2e 87bb 4a6f 133d 1b49 c53d
000003e0: b0d6 903d f58c 58be 5b87 80bd 8469 37be
000003f0: f7a8 9abd 247e a93d 4770 033e e1a1 813d
-0.06279021 0.033435185 0.124737 -0.035405625 0.09078533 0.054445155 0.13182206 -0.049623255
-0.19703417 -0.06478291 -0.037584666 -0.09840034 -0.05086848 0.03537709 0.11031041 0.041361522
-0.02167236 0.041614786 0.09914235 -0.07358578 0.06313666 0.1626944 0.0067724315 -0.09886418
-0.035429657 -0.09333709 -0.1717904 -0.13603525 -0.04249639 0.06619274 -0.04431561 -0.0622049
0.09630458 -0.03245495 0.034291204 0.053446263 0.04199249 -0.05135607 0.0051365816 0.0051186066
0.07680947 -0.042821907 -0.028825892 0.034424722 -0.0009839732 -0.049829885 0.017646905 -0.027244292
0.058838364 -0.03375235 0.2796796 0.13800156 0.0556506 0.096852325 0.05355537 -0.07814413
0.019028243 -0.09019804 -0.085428834 -0.061001904 -0.024864461 0.13612987 -0.11370326 -0.024164753
0.09723751 -0.0424827 0.048275717 0.09075312 0.13600154 -0.058060445 -0.07390344 -0.023487965
0.110482655 -0.06650549 -0.18397325 0.07859827 0.09440848 -0.05317452 -0.08982347 -0.084928006
0.043723244 -0.1084047 0.09115289 0.09944825 0.13183625 -0.40517786 -0.07652872 -0.03441731
-0.08462597 -0.027898313 0.111496255 0.051020507 0.04506874 -0.012169277 -0.06714125 0.0061973114
0.032967724 0.061584927 -0.06852565 -0.11147579 -0.11123093 -0.042601522 -0.11629009 -0.11571833
-0.029561397 -0.12652755 -0.00990756 0.13761319 -0.022653105 -0.0730438 0.006018472 0.024585897
0.0539928 -0.055141594 -0.08332794 0.05459117 0.018803196 -0.21181059 0.007088278 -0.16863275
0.17176849 0.07818653 0.07358206 -0.14057736 -0.04862211 -0.0125935115 0.03938451 0.10276485
0.07453754 -0.1450334 0.12725468 0.03744356 -0.061060805 0.077196844 -0.06378735 0.0060495827
-0.04414914 0.037657607 -0.14686784 0.13004622 0.16316047 9.592367e-05 -0.034986865 -0.07134686
-0.014526406 0.007548606 0.07297712 0.02376171 0.0046651615 -0.012802855 0.047452234 0.0018151385
-0.11644524 0.1690982 -0.019653138 -0.05389819 -0.19124067 -0.137249 0.021844782 -0.09752348
0.14995916 -0.13670768 0.04056024 0.018490685 0.031163499 0.022292651 0.002336479 -0.077739544
0.0137443105 -0.0035153932 -0.034532834 0.1966062 -0.083528675 -0.037769813 0.013155365 -0.028829386
0.011583259 0.03863116 -0.11560658 0.16166757 0.12387009 0.06929107 0.16238016 0.047848288
-0.062328745 -0.10405305 -0.061408754 -0.03775272 -0.030575834 -0.04184816 -0.024843708 -0.10555563
0.043693285 0.08696151 0.027933111 0.13530952 0.008022898 0.015097034 -0.049758907 -0.101645954
0.108275935 0.02842699 0.069900416 0.0741986 -0.06526669 0.0023725983 -0.05071747 -0.004927946
-0.089897975 0.09904392 0.107012436 -0.121124566 -0.063884854 0.038924824 -0.021360844 -0.09649933
-0.123496644 -0.14144251 0.06461695 0.12616159 0.0149946045 -0.1877266 -0.20376478 -0.005291698
-0.08357762 0.19383368 0.0032990002 -0.102084 0.21426468 -0.13043503 -0.22545691 0.185329
0.08119399 -0.12272449 -0.18057437 0.19424646 -0.012247686 0.1749815 0.08094346 0.087756716
-0.05378401 0.06147777 0.124338396 0.21703206 -0.063132346 -0.0041254293 0.035994805 0.096330844
0.070721984 -0.21147521 -0.06275817 -0.17911345 -0.07551759 0.082760125 0.12835799 0.06329704
