Project/results/VPlayer-FirstButCorrected/VPlayer/VPlayer-3999988.onnx (onnx, 681794 bytes, 15 tensors)

action_model._continuous_distribution.mu.weight f4 [1, 216]
-0.027202662 0.010091696 0.04410309 -0.019083137 0.011397749 0.066119365 -0.05328261 0.11169957
0.041689962 -0.013563371 -0.11695919 0.06521107 -0.04749851 -0.025141345 0.03504999 -0.019584708
0.07254228 0.01580609 0.1260735 -0.03463485 0.04826109 -0.008603534 0.03144329 0.009137588
0.10605952 0.009117254 -0.020867838 0.017294135 -0.007975635 -0.0007164293 -0.009518295 -0.020918237
0.04852628 -0.020618582 -0.006023675 0.014564353 -0.038340967 -0.04349993 -0.0015499071 -0.030708387
0.0674492 0.0049941083 0.00864754 -0.020743174 -0.010376759 -0.031640872 -0.0511036 0.06601864
-0.06798238 -0.021488938 0.020011254 -0.028591832 -0.04687414 -0.010663841 -0.014139086 -0.051529102
-0.001958281 -0.015752396 -0.0149307605 -0.007327454 -0.0051334035 0.044414606 0.013331312 0.053692818
-0.038142674 0.036535285 0.01385152 0.07360199 -0.037514806 -0.014692333 -0.0089361565 -0.005342077
-0.005265148 -0.0017997476 0.0027528037 0.11360837 -0.023630468 -0.038081724 -0.010558609 0.10719605
-0.025405519 -0.070865184 -0.0065305443 0.036183637 0.11039714 -0.015874812 0.03047774 -0.0436354
-0.06387697 0.0543735 0.0721859 -0.04115401 -0.013928806 -7.0890776e-05 0.03309876 -0.009193927
0.0055970345 0.101918414 -0.067537956 0.0041931667 0.03592109 0.08778832 -0.022011517 -0.043684524
-0.034284197 -0.019201962 -0.0047052577 0.02736229 0.049498364 -0.09304812 -0.06402495 0.049113017
0.056690127 0.106776424 -0.0024016926 -0.07372729 -0.009570055 -0.023342375 0.041439746 -0.0045295903
0.010130439 0.030444233 -0.008791403 -0.07267928 0.01937312 0.01929078 -0.030011734 -0.016121985
-0.05298664 0.09420842 0.13094546 -0.0048507894 -0.044908874 -0.002460432 -0.005040711 0.04786728
-0.014831982 -0.0016600532 0.06239271 -0.029228847 0.023711717 0.09554373 0.069997974 0.01677908
0.028834803 0.10570105 -0.12213375 0.06919638 -0.011066692 0.015748587 0.016382528 0.081486806
0.026610797 0.07100515 -0.0093102325 0.09085342 -0.0353546 -0.021957023 0.024202952 -0.014180637
-0.012297806 -0.011879121 0.07110319 -0.027807122 0.029457727 -0.04483663 0.10280749 -0.036223587
0.002599565 -0.08240044 -0.0070034857 0.08274989 -0.011360814 -0.03000034 0.0014348199 -0.020658163
-0.07215107 -0.015279452 0.060702674 0.026527144 -0.067173526 0.009401489 0.0360997 -0.014595675
-0.011899234 0.0001273269 -0.10186942 -0.027406901 0.1113852 0.06846341 0.015034386 -0.044137694
0.026893904 0.07446803 0.057944287 -0.047253642 -0.077482946 -0.048351668 0.0037385114 -0.0030778905
-0.0070776874 -0.03546885 0.05699073 0.012290692 0.068383224 -0.039876524 -0.021932114 -0.046870984
-0.03603415 -0.0016950273 -0.041902535 -0.08388504 -0.048617195 -0.006212315 -0.0103933 -0.07774423
00000000: 1ed8 debc a457 253c 71a5 343d 3d54 9cbc
00000010: a0bd 3a3c 9769 873d de3e 5abd bfc2 e43d
00000020: 18c3 2a3d e738 5ebc 4d88 efbd 628d 853d
00000030: cc8d 42bd 39f5 cdbc 9490 0f3d 1c70 a0bc
00000040: 0c91 943d c67b 813c 6919 013e 46dd 0dbd
00000050: 6cad 453d d6f5 0cbc aeca 003d d2b5 153c
00000060: bc35 d93d 8960 153c 07f3 aabc 6eac 8d3c
00000070: 3dac 02bc c2ce 3bba 9ff2 1bbc b95c abbc
00000080: 7ec3 463d 4de8 a8bc 4062 c5bb 539f 6e3c
00000090: 6b0b 1dbd fc2c 32bd 4126 cbba 2890 fbbc
000000a0: ce22 8a3d 9ea5 a33b 69ae 0d3c 97ed a9bc
000000b0: 4803 2abc dc99 01bd 0252 51bd c834 873d
000000c0: 593a 8bbd 9209 b0bc a4ee a33c 6b39 eabc
000000d0: 19ff 3fbd 64b7 2ebc a0a7 67bc 2e10 53bd
000000e0: 8156 00bb 2b0b 81bc 26a0 74bc 241b f0bb
000000f0: 1c36 a8bb 17ec 353d 936b 5a3c 00ed 5b3d
00000100: 7e3b 1cbd 06a6 153d 7cf1 623c a4bc 963d
00000110: 20a9 19bd 1cb8 70bc f568 12bc 970c afbb
00000120: 4387 acbb 82e5 ebba 6268 343b 81ab e83d
00000130: af94 c1bc 95fb 1bbd 04fe 2cbc 9a89 db3d
00000140: 3c1f d0bc c421 91bd 2dfe d5bb 4b35 143d
00000150: e517 e23d e50b 82bc 74ac f93c 08bb 32bd
00000160: eed1 82bd bfb6 5e3d 33d6 933d 1b91 28bd
00000170: a635 64bc 32ab 94b8 9192 073d 20a2 16bc
00000180: 5467 b73b 9aba d03d 5751 8abd d566 893b
00000190: fe21 133d 5dca b33d 7f51 b4bc 8bee 32bd
000001a0: 966d 0cbd 6f4d 9dbc 902e 9abb e226 e03c
000001b0: ccbe 4a3d 0390 bebd 831f 83bd bb2a 493d
000001c0: e833 683d 99ad da3d b765 1dbb 55fe 96bd
000001d0: b8cb 1cbc 8238 bfbc b9bc 293d f56c 94bb
000001e0: 24fa 253c 2f66 f93c d109 10bc e0d8 94bd
000001f0: 61b4 9e3c b307 9e3c 2bdb f5bc 4112 84bc
00000200: 8508 59bd 58f0 c03d 9116 063e 5ff3 9ebb
00000210: 5ef2 37bd 333f 21bb 8c2c a5bb 7b10 443d
00000220: d701 73bc 2496 d9ba 808f 7f3d 5671 efbc
00000230: 133f c23c 6eac c33d 195b 8f3d 4874 893c
00000240: f736 ec3c cb79 d83d 4221 fabd d5b6 8d3d
00000250: 1251 35bc 2e03 813c a734 863c 8ee2 a63d
00000260: e3fe d93c 266b 913d f289 18bc 5c11 ba3d
00000270: fccf 10bd 37df b3bc 4545 c63c e755 68bc
00000280: bd7c 49bc a5a0 42bc 8d9e 913d c3cb e3bc
00000290: 5551 f13c 9da6 37bd bc8c d23d 2f5f 14bd
000002a0: 775d 2a3b 90c1 a8bd 7f7d e5bb c678 a93d
000002b0: b522 3abc 46c3 f5bc 9110 bc3a 4f3b a9bc
000002c0: f1c3 93bd ab56 7abc 5ea3 783d 744f d93c
000002d0: 4692 89bd b408 1a3c 47dd 133d b322 6fbc
000002e0: 01f5 42bc 0e83 0539 eaa0 d0bd 7084 e0bc
000002f0: ec1d e43d 8b36 8c3d c952 763c bac9 34bd
00000300: 9b50 dc3c b282 983d fd56 6d3d 098d 41bd
00000310: 61af 9ebd 660c 46bd d001 753b 6fb6 49bb
00000320: f2eb e7bb c947 11bd 1d6f 693d e65e 493c
00000330: 810c 8c3d 9155 23bd faaa b3bc cafb 3fbd
00000340: 8b98 13bd ae2b deba fea1 2bbd ebcb abbd
00000350: d322 47bd ad90 cbbb a948 2abc 5e38 9fbd

action_model._discrete_distribution.branches.0.bias f4 [3]
0.06725281 -0.17118727 0.090497
00000000: d7bb 893d b74b 2fbe 7e56 b93d

action_model._discrete_distribution.branches.0.weight f4 [3, 216]
0.013200054 -0.036464255 -0.035587866 -0.051716328 0.05456024 -0.015002991 -0.015034035 0.05884863
0.06569441 0.03731924 0.0873245 0.08803069 0.010308752 0.016272945 0.021397457 -0.003230544
0.085443534 -0.1377663 0.06822483 -0.03696534 -0.09609951 0.02249641 -0.066464804 -0.06045422
0.06171924 -0.11721399 -0.008578809 -0.08568816 0.116904564 -0.10786265 -0.09361707 -0.076854266
0.05147661 -0.024803177 0.047605224 0.08476784 0.053726897 0.006544242 -0.04250745 0.041749064
0.10113382 -0.041889496 -0.06957428 0.028730307 -0.17770898 0.031372022 -0.031751208 -0.050952777
0.005134949 -0.10075639 -0.06253949 0.12275246 -0.08051115 0.07333216 -0.039507773 -0.0460648
-0.13607676 0.026107399 0.016012438 0.017383805 0.0014742329 0.105688006 0.08821604 0.028176319
-0.009731535 0.0077453754 0.08695926 -0.023038179 -0.018257808 -0.035364922 0.051432345 -0.023892604
-0.061372165 -0.0016524584 0.047339246 0.044888623 0.049745362 -0.05542485 -0.0817404 -0.08102655
-0.0047446773 0.09139194 -0.032156024 0.084142335 -0.006546828 0.056217093 0.08122916 -0.036100566
-0.090456076 -0.010501484 -0.0041103177 -0.055686027 0.09111827 0.00046416966 -0.12129183 0.044558164
-0.056735076 -0.047455087 -0.053818773 -0.04569652 -0.12103023 0.02695689 0.060837552 0.005894029
-0.102668166 -0.17567241 -0.024342794 0.07690009 0.06057951 0.03222352 0.12061344 -0.0126211485
0.036356896 -0.008978065 0.04215612 0.03701984 -0.035759196 -0.16399306 0.036588833 -0.003730762
0.029723004 0.05356942 -0.057754785 -0.028507637 0.1625684 -0.17669375 -0.07772021 -0.16211024
-0.02875197 -0.11913431 0.02577781 -0.061410338 0.003146313 -0.015927555 -0.093736045 -0.036315426
-0.0071290433 -0.0353922 -0.09608205 -0.18018648 -0.050098475 -0.058595918 0.008352437 -0.02911742
-0.06126694 0.09478934 -0.0022255525 0.1068025 -0.030833058 -0.032433823 0.24908438 -0.021351963
-0.005429073 -0.1099322 0.01230271 0.08817976 -0.03868929 -0.1447231 -0.11905143 -0.07963796
0.02818999 -0.062851585 0.03519351 -0.037007786 -0.10183402 -0.040521037 0.039399195 0.06392558
-0.12919584 0.01143726 0.080661036 -0.010789971 -0.11955019 0.08237204 0.006910319 0.036228556
-0.053541236 0.068869375 0.07431919 0.029856516 -0.06995776 -0.011070934 -0.09346951 -0.07016415
0.036538392 -0.073547564 0.006292667 -0.018460557 0.03712196 -0.028355496 0.017336516 0.09894636
-0.14178538 0.038456097 -0.09382155 -0.067078605 0.026799485 -0.016801948 0.052940596 0.119888365
0.12708089 0.12918112 0.0028624886 -0.031039022 0.018575754 -0.061349954 0.11032686 -0.03983433
-0.06880139 -0.20062698 0.104994304 0.11197723 -0.061339974 -0.15632267 -0.12487911 -0.023912394
0.04767577 0.039876457 -0.010363222 0.008039817 0.023771787 0.0026017698 0.037566643 0.05043246
0.069917426 -0.026639767 0.039875276 0.05108909 -0.08333496 -0.02037718 0.15532221 0.032123677
-0.018765282 0.05498549 0.010806073 -0.09366661 0.07825932 0.02825554 0.08655344 -0.031807415
-0.031170906 0.017206293 0.014808016 0.050229687 0.02218834 -0.05227031 -0.052960508 -0.08902187
0.034098435 -0.09171102 -0.008328887 -0.0015346961 -0.07286434 0.058671672 -0.0021454156 -0.0129337115
00000000: 0a45 583c 8b5b 15bd 95c4 11bd 80d4 53bd
00000010: 8f7a 5f3d 1bcf 75bc 5051 76bc 430b 713d
00000020: ca8a 863d 0fdc 183d 30d7 b23d 6f49 b43d
00000030: 0ae6 283c d74e 853c b849 af3c 89b7 53bb
00000040: 05fd ae3d 9c12 0dbe 76b9 8b3d f868 17bd
00000050: d2cf c4bd 644a b83c b31e 88bd d89e 77bd
00000060: 50cd 7c3d e30d f0bd 228e 0cbc 467d afbd
00000070: a96b ef3d 18e7 dcbd 4eba bfbd c565 9dbd
00000080: 23d9 523d 0830 cbbc b2fd 423d c39a ad3d
00000090: bc10 5c3d 1571 d63b 4b1c 2ebd 1101 2b3d
000000a0: 401f cf3d 5294 2bbd f67c 8ebd d25b eb3c
000000b0: 58f9 35be f37f 003d 8e0d 02bd dcb3 50bd
000000c0: 1343 a83b 5e59 cebd b414 80bd a465 fb3d
000000d0: 08e3 a4bd 2c2f 963d e7d2 21bd 72ae 3cbd
000000e0: b557 0bbe 2fdf d53c 842c 833c 7b68 8e3c
000000f0: 0c3b c13a f472 d83d 9caa b43d 06d2 e63c
00000100: 0471 1fbc ebcc fd3b b217 b23d 90ba bcbc
00000110: 6691 95bc cfda 10bd b9aa 523d 6cba c3bc
00000120: 6161 7bbd 4e97 d8ba cce6 413d 22dd 373d
00000130: cbc1 4b3d 2b05 63bd 8367 a7bd 3ff1 a5bd
00000140: 3d79 9bbb b32b bb3d 09b6 03bd d152 ac3d
00000150: c686 d6bb e543 663d 795b a63d 30de 13bd
00000160: 0941 b9bd 6b0e 2cbc d8af 86bb 0817 64bd
00000170: 379c ba3d cc5b f339 da67 f8bd 9f82 363d
00000180: 0a63 68bd 4460 42bd 1371 5cbd 462c 3bbd
00000190: b2de f7bd b2d4 dc3c cc30 793d b322 c13b
000001a0: b043 d2bd 78e3 33be 8a6a c7bc cb7d 9d3d
000001b0: 3822 783d cffc 033d 2e04 f73d efc8 4ebc
000001c0: f8ea 143d bc18 13bc e5ab 2c3d 1ea2 173d
000001d0: 3c78 12bd cced 27be 2cde 153d cd7f 74bb
000001e0: a87d f33c 9c6b 5b3d 4890 6cbd d988 e9bc
000001f0: 5578 263e 35ef 34be c62b 9fbd 3a00 26be
00000200: 4089 ebbc b0fc f3bd fc2b d33c 6889 7bbd
00000210: 5f32 4e3b 817a 82bc aff8 bfbd 7cbf 14bd
00000220: c09a e9bb 69f7 10bd aac6 c4bd ce82 38be
00000230: 0f34 4dbd 4602 70bd a9d8 083c a887 eebc
00000240: 0bf3 7abd ea20 c23d 93da 11bb 45bb da3d
00000250: 9c95 fcbc 54d9 04bd fa0f 7f3e 50ea aebc
00000260: 5de6 b1bb 2224 e1bd 4e91 493c 9797 b43d
00000270: a978 1ebd 4b32 14be 3cd1 f3bd 3a19 a3bd
00000280: b2ee e63c 55b8 80bd 1227 103d 7a95 17bd
00000290: 5b8e d0bd 63f9 25bd 0d61 213d 6aeb 823d
000002a0: ea4b 04be 5863 3b3c 9d31 a53d 6bc8 30bc
000002b0: bbd6 f4bd acb2 a83d f56f e23b 6564 143d
000002c0: 0e4e 5bbd 630b 8d3d a934 983d a795 f43c
000002d0: 0446 8fbd dd62 35bc f16c bfbd 39b2 8fbd
000002e0: 48a9 153d 1ba0 96bd b732 ce3b 983a 97bc
000002f0: 320d 183d c949 e8bc 4f05 8e3c 64a4 ca3d
00000300: 3030 11be 2484 1d3d 8325 c0bd 8260 89bd
00000310: 988a db3c 3da4 89bc 3dd8 583d 0888 f53d
00000320: 7e21 023e 0e48 043e 9798 3b3b 8c45 febc
00000330: 2e2c 983c 174a 7bbd 0cf3 e13d 5329 23bd
00000340: bee7 8cbd 2971 4dbe 4107 d73d 5154 e53d
00000350: a03f 7bbd 0d13 20be 9ec0 ffbd ede3 c3bc
00000360: ab47 433d 7f55 233d 81ca 29bc 70b9 033c
00000370: 0dbd c23c 7482 2a3b 7bdf 193d 4492 4e3d
00000380: de30 8f3d a43b dabc 4254 233d cb42 513d
00000390: 85ab aabd 0bee a6bc c90c 1f3e 1e94 033d
000003a0: a6b9 99bc 7738 613d f50b 313c 48d4 bfbd
000003b0: 6c46 a03d 2a78 e73c ee42 b13d 7e48 02bd
000003c0: 215a ffbc 36f4 8c3c 529d 723c a5bd 4d3d
000003d0: 52c4 b53c 6519 56bd 1eed 58bd 1951 b6bd
000003e0: cdaa 0b3d fdd2 bbbd e275 08bc db27 c9ba
000003f0: e639 95bd b551 703d 1a9a 0cbb ebe7 53bc

action_model._discrete_distribution.branches.1.bias f4 [3]
-0.008350403 0.05912341 -0.05886619
00000000: 21d0 08bc 642b 723d ad1d 71bd

action_model._discrete_distribution.branches.1.weight f4 [3, 216]
-0.07670544 0.069149725 -0.061352856 -0.17404272 -0.22181432 -0.033482186 -0.10806075 -0.0019394452
0.087853394 -0.2308869 -0.15773597 0.09955628 0.0950914 -0.0035060344 0.04850183 -0.005003259
-0.0665144 -0.039656702 0.0020080693 -0.07256159 0.0046755197 0.053255077 0.042434964 0.03147055
-0.01989799 0.07672176 -0.1338775 0.012062034 -0.020466324 0.085057326 0.086408466 0.10864573
-0.117219955 0.08614359 -0.10256918 -0.052456655 -0.03310065 -0.06470388 -0.10292872 -0.11290622
0.2160869 -0.079192206 0.0306645 0.07834715 0.07661697 0.12453275 -0.02259291 -0.059076335
-0.0109022735 -0.0059244595 -0.150564 0.19265285 0.025097849 -0.040078692 -0.030803815 0.14814848
-0.13350438 -0.1781915 -0.107489325 -0.19870812 0.046076186 -0.051489234 -0.0673574 0.057938825
-0.031398907 0.018286003 -0.07571914 -0.0044543245 -0.019001143 0.019314203 -0.026721545 -0.089147575
0.08669626 0.057375386 0.22987477 0.043077063 -0.13707638 -0.13845268 -0.09598765 0.074443236
-0.05108366 0.10688959 -0.019519528 0.060366895 -0.075067766 -0.00436224 -0.105414055 0.020044275
0.061569117 -0.079347976 0.012508052 0.013850183 -0.06486958 0.076520614 0.035122305 0.068341516
0.09951353 0.011775093 -0.04196054 0.044328153 0.033935267 -0.09333456 0.016864285 -0.031384796
-0.042504612 0.13981484 -0.025107844 -0.01501262 0.02473063 0.029450227 -0.024404313 -0.030257985
0.04124504 -0.059815027 0.06630784 -0.11784437 -0.053287093 0.19276549 0.003983529 -0.14323859
-0.047099974 0.033694286 0.0832271 0.070345 0.08242042 0.035307612 -0.030847097 0.14050682
-0.07530974 -0.02232151 -0.028216222 0.06320264 0.018350972 -0.012270657 0.049289852 -0.1551875
0.0017590774 -0.020430718 0.05660722 0.06940559 -0.08555716 0.09501702 -0.036275133 0.05513654
0.066101484 0.08752622 -0.0072637126 -0.036824424 0.039200664 0.0014773599 0.020033346 -0.015699286
-0.025663259 -0.029283661 -0.030759068 0.085345425 0.026314318 -0.01687798 0.032019228 -0.09789129
-0.09622999 -0.09047455 0.07478162 0.026127994 -0.04481122 -0.058845393 -0.096948415 0.004318558
-0.032602977 0.061188072 -0.15300524 -0.07085463 0.18465343 0.040999763 0.07759928 -0.045665026
-0.010857822 -0.12064084 -0.051197067 -0.06683578 -0.023831898 0.0516954 0.04391762 0.0011882515
-0.017515771 -0.0040152064 0.055994716 0.047004577 0.12588996 0.06980737 0.0031797714 -0.04782739
-0.069564484 0.09145373 0.10593015 -0.013421255 0.072359465 -0.03290711 0.111336105 0.056156363
0.0752298 0.095565096 0.10674927 0.04108816 0.1248849 0.003120631 0.12424151 0.023630287
-0.004093415 0.052779116 -0.018777313 0.013223834 0.04407556 0.1615228 0.072883375 -0.00863491
-0.0013873891 -0.088127516 0.025862154 0.17229338 0.24399869 0.06920071 -0.05960741 0.1479312
-0.03005126 0.31948707 0.057076156 -0.10846754 -0.03264617 0.0890858 -0.15963879 -0.084407955
0.004590401 -0.025566475 0.036526218 0.06478768 -0.12058239 -0.017106354 -0.023735812 0.06266804
0.05316199 -0.07996467 0.081134655 -0.072104886 -0.043018438 -0.078294836 -0.14811322 0.01635368
0.1497058 -0.13529138 -0.12417753 0.14407179 0.013985099 0.02025951 0.12832612 0.028957922
00000000: be17 9dbd 5f9e 8d3d 224d 7bbd 4138 32be
00000010: 4b23 63be 9e24 09bd f44e ddbd fb34 feba
00000020: 7bec b33d 9e6d 6cbe 8a85 21be 2ae4 cb3d
00000030: 48bf c23d 7fc5 65bb dba9 463d 61f2 a3bb
00000040: b438 88bd 116f 22bd d099 033b 2c9b 94bd
00000050: 1a35 993b ff21 5a3d 49d0 2d3d 43e7 003d
00000060: 1c01 a3bc 4c20 9d3d 2f17 09be d69f 453c
00000070: fea8 a7bc 8932 ae3d ecf6 b03d a781 de3d
00000080: 0411 f0bd 0d6c b03d ca0f d2bd cadc 56bd
00000090: 8c94 07bd 7883 84bd 4bcc d2bd 603b e7bd
000000a0: e245 5d3e 862f a2bd 1e34 fb3c 7874 a03d
000000b0: 5ce9 9c3d 070b ff3d c414 b9bc 07fa 71bd
000000c0: 739f 32bc f821 c2bb 732d 1abe ca46 453e
000000d0: 019a cd3c 8e29 24bd 4858 fcbc 3cb4 173e
000000e0: 5fb5 08be d577 36be 5d23 dcbd 247a 4bbe
000000f0: 62ba 3c3d 60e6 52bd adf2 89bd 4351 6d3d
00000100: 249c 00bd 87cc 953c a312 9bbd 95f5 91bb
00000110: 49a8 9bbc d238 9e3c 24e7 dabc 0193 b6bd
00000120: cf8d b13d 7402 6b3d 4b64 6b3e 9371 303d
00000130: c05d 0cbe 8ac6 0dbe 2c95 c4bd b275 983d
00000140: 1a3d 51bd eee8 da3d 6be7 9fbc 4743 773d
00000150: 21bd 99bd 1ff1 8ebb 53e3 d7bd e433 a43c
00000160: e62f 7c3d 3181 a2bd 93ee 4c3c e1eb 623c
00000170: 58da 84bd d7b6 9c3d 68dc 0f3d a3f6 8b3d
00000180: c0cd cb3d 52ec 403c d1de 2bbd 7091 353d
00000190: b5ff 0a3d 3126 bfbd f826 8a3c 588d 00bd
000001a0: 5119 2ebd 9f2b 0f3e f7ae cdbc 7ef7 75bc
000001b0: e497 ca3c 9a41 f13c 8eeb c7bc 98df f7bc
000001c0: 8ff0 283d 9a00 75bd 68cc 873d 6458 f1bd
000001d0: 9143 5abd 5164 453e 4388 823b 23ad 12be
000001e0: e7eb 40bd 0503 0a3d f872 aa3d 0a11 903d
000001f0: 0acc a83d b79e 103d 0db3 fcbc 05e1 0f3e
00000200: fe3b 9abd 99db b6bc b525 e7bc 6370 813d
00000210: c754 963c de0a 49bc 28e4 493d 79e9 1ebe
00000220: d890 e63a 525e a7bc f9dc 673d 8524 8e3d
00000230: 9838 afbd 4998 c23d 3c95 14bd dad6 613d
00000240: 3760 873d f240 b33d 7004 eebb 35d5 16bd
00000250: e090 203d f9a3 c13a f91c a43c ca9b 80bc
00000260: c13b d2bc 4ae4 efbc 71fa fbbc 95c9 ae3d
00000270: 2091 d73c b143 8abc 9826 033d 3b7b c8bd
00000280: 3b14 c5bd b94a b9bd 1b27 993d 600a d63c
00000290: f88b 37bd de07 71bd e48c c6bd b182 8d3b
000002a0: b38a 05bd 58a0 7a3d 68ad 1cbe 3b1c 91bd
000002b0: ca15 3d3e 5eef 273d 5fec 9e3d 400b 3bbd
000002c0: 02e5 31bc 8b12 f7bd 04b4 51bd 33e1 88bd
000002d0: 1d3b c3bc 8ebe 533d f6e2 333d 1bbf 9b3a
000002e0: 3c7d 8fbc fe91 83bb b75a 653d df87 403d
000002f0: 4ce9 003e 2bf7 8e3d b663 503b a7e6 43bd
00000300: d377 8ebd 184c bb3d e8f1 d83d d3e4 5bbc
00000310: 3331 943d 9bc9 06bd 2f04 e43d 3704 663d
00000320: 1512 9a3d a2b7 c33d 5c9f da3d 0f4c 283d
00000330: a8c3 ff3d 8083 4c3b 5572 fe3d 4e94 c13c
00000340: 0e22 86bb ea2e 583d e1d2 99bc c8a8 583c
00000350: 9388 343d 3c66 253e e143 953d 7079 0dbc
00000360: 0ed9 b5ba 337c b4bd dedc d33c ad6d 303e
00000370: cbda 793e 1ab9 8d3d e626 74bd 477b 173e
00000380: 0f2e f6bc cf93 a33e b0c8 693d 3b24 debd
00000390: feb7 05bd 9e72 b63d 5a78 23be 14de acbd
000003a0: 136b 963b c970 d1bc 849c 153d 67af 843d
000003b0: e6f3 f6bd a022 8cbc 9b71 c2bc 1a58 803d
000003c0: 63c0 593d 84c4 a3bd ed29 a63d baab 93bd
000003d0: 1a34 30bd 0b59 a0bd feaa 17be 27f8 853c
000003e0: 7a4c 193e d389 0abe ca50 febd 8e87 133e
000003f0: c221 653c 46f7 a53c ec67 033e 2a39 ed3c

action_model._discrete_distribution.branches.2.bias f4 [3]
-0.008203814 0.012040066 0.0022771547
00000000: 4a69 06bc b243 453c 513c 153b

action_model._discrete_distribution.branches.2.weight f4 [3, 216]
0.01366108 -0.021121858 -0.10623674 0.08904785 -0.017604776 0.040971406 -0.019982543 0.04214878
0.047771588 0.021178473 -0.029266475 -0.011407536 -0.14409758 0.022070615 -0.087169684 -0.037594754
-0.037757725 -0.0865621 0.05589912 -0.16555059 -0.01632971 -0.12039898 -0.16003817 -0.069374904
0.06864969 -0.07506664 0.16153936 -0.05441515 0.2181443 0.0014673134 -0.053980775 0.024531484
0.028135931 -0.03345712 0.11089284 0.071980074 0.016686276 0.042428307 0.043466322 -0.057255328
-0.031351954 -0.03315408 -0.060138736 -0.032878347 -0.019340772 -0.0816423 -0.10985677 0.08075115
-0.0773281 0.10090134 0.12999387 0.15092151 0.008987196 0.11185753 0.055389475 -0.0019556298
0.005659928 0.030101536 -0.014176939 0.061611943 -0.19075729 0.05772376 0.019211892 0.028217925
0.097237274 -0.06853872 -0.03035953 0.074347585 -0.13127391 -0.067480676 0.14561638 -0.13401037
0.11580612 0.03014446 0.20020767 0.025532147 -0.11972074 0.05885925 0.047469713 -0.08378721
-0.07308893 -0.09409408 -0.1229152 -0.08483939 -0.12464477 -0.0869022 0.10386264 0.00020228486
0.06436733 -0.07198671 0.0053469636 -0.053987764 0.08163597 0.020517934 0.13919516 0.07267805
0.008428529 -0.014149753 -0.0105572045 -0.012033275 -0.0045006955 0.016423643 0.021580398 -0.011343333
0.047215324 0.027243452 -0.0947852 0.019439489 0.015509582 -0.028977118 0.02925691 0.14806992
-0.04375156 0.07670811 -0.09625941 1.1666769e-05 -0.08650327 0.05462307 -0.20631489 -0.034394316
0.045010906 -0.08758882 -0.15089864 -0.032356795 0.12307712 -0.06067032 0.11473088 -0.1017523
-0.030360961 0.07922935 0.024763135 0.06831456 0.055077583 -0.08082912 0.06433155 -0.044330098
0.06611402 0.038491596 0.109006375 0.1181631 -0.065432414 -0.041279685 0.130008 0.078322954
0.10209067 0.01518193 0.046562232 0.0010569904 -0.028439932 0.03561141 -0.041842546 0.08004045
0.14038138 -0.008544918 0.11643814 0.06425448 -0.04400354 -0.009134249 -0.056360163 0.03665642
0.14755031 -0.036067907 0.04562176 -0.05941231 -0.10449251 0.0669981 0.03653171 0.1147209
0.031969987 -0.08513957 0.06389684 0.04194247 -0.007875546 0.10460123 -0.174896 -0.14479086
0.022090904 0.05002029 -0.15465477 0.051962223 -0.057063047 -0.041334577 0.049231242 0.115680814
-0.05412338 0.0538811 -0.0541573 -0.14446326 0.025639405 0.07790421 0.18655714 -0.018491605
-0.08560971 0.02130813 0.084209986 -0.04036763 0.019740136 -0.14075392 0.17166863 0.03965946
0.06498336 0.19019535 0.05397797 -0.18818545 -0.026412267 -0.21403706 -0.023855431 -0.0091316765
-0.06497268 0.05965094 0.06112503 -0.11236178 -0.05697219 0.0981953 -0.10888543 0.03314441
0.061159797 0.0032813263 0.0011516222 0.029972019 0.0070593073 0.0420342 -0.00113179 -0.07458092
-0.06516133 0.07603116 -0.03822898 -0.03069555 0.020901106 0.03769273 -0.0032883363 0.06821604
-0.06990039 0.020592775 0.015317445 -0.037295796 0.008944322 -0.02157152 0.02420922 0.08366927
-0.08659965 0.09594703 -0.12360781 0.048523054 -0.18111749 0.0037605918 0.004272133 -0.07201278
-0.036676228 -0.070120856 0.011452653 -0.01288129 -0.06749786 -0.043022607 -0.030949477 0.016316615
00000000: b9d2 5f3c bf07 adbc a692 d9bd b85e b63d
00000010: e437 90bc a2d1 273d 6eb2 a3bc 33a4 2c3d
00000020: 24ac 433d 7a7e ad3c 3fc0 efbc ade6 3abc
00000030: 518e 13be 6fcd b43c 0586 b2bd f5fc 19bd
00000040: d8a7 1abd 7847 b1bd 7af6 643d 1886 29be
00000050: e2c5 85bc be93 f6bd 0ce1 23be 6e14 8ebd
00000060: 3598 8c3d 8abc 99bd 936a 253e 6ce2 5ebd
00000070: 3861 5f3e de52 c03a f21a 5dbd 40f6 c83c
00000080: 537d e63c 550a 09bd c91b e33d 4a6a 933d
00000090: a8b1 883c 4ec9 2d3d be09 323d 9084 6abd
000000a0: e86a 00bd 93cc 07bd 0954 76bd 72ab 06bd
000000b0: 8a70 9ebc 1434 a7bd 96fc e0bd dc60 a53d
000000c0: 325e 9ebd 5da5 ce3d 1d1d 053e 2b8b 1a3e
000000d0: 083f 133c 9015 e53d 13e0 623d 062a 00bb
000000e0: eb76 b93b 7f97 f63c 6446 68bc ce5c 7c3d
000000f0: e155 43be c06f 6c3d 4262 9d3c 4729 e73c
00000100: 5624 c73d 075e 8cbd 8db4 f8bc 8c43 983d
00000110: ab6c 06be 4f33 8abd 761c 153e 043a 09be
00000120: c22b ed3d 84f1 f63c 3d03 4d3e cb28 d13c
00000130: 2630 f5bd 6616 713d 9a6f 423d a198 abbd
00000140: a6af 95bd 66b4 c0bd f7ba fbbd 46c0 adbd
00000150: c245 ffbd c8f9 b1bd f0b5 d43d 6e1c 5439
00000160: 05d3 833d c56d 93bd 9535 af3b 4622 5dbd
00000170: c230 a73d 3a15 a83c 2d89 0e3e 3bd8 943d
00000180: d017 0a3c 5ed4 67bc 20f8 2cbc 3727 45bc
00000190: 927a 93bb e08a 863c 60c9 b03c 63d9 39bc
000001a0: db64 413d a92d df3c be1e c2bd 903f 9f3c
000001b0: e71b 7e3c 6c61 edbc 30ac ef3c a49f 173e
000001c0: d634 33bd 2419 9d3d a723 c5bd 64bc 4337
000001d0: a028 b1bd 71bc 5f3d 3644 53be 0ee1 0cbd
000001e0: 5b5d 383d c461 b3bd 2c85 1abe 8f88 04bd
000001f0: db0f fc3d 7181 78bd 06f8 ea3d 8363 d0bd
00000200: 8db7 f8bc ff42 a23d 0fdc ca3c 81e8 8b3d
00000210: 0899 613d bd89 a5bd 42c0 833d 7a93 35bd
00000220: ca66 873d 5da9 1d3d bc3e df3d 7fff f13d
00000230: 6e01 86bd e314 29bd d120 053e c967 a03d
00000240: ea14 d13d a1bd 783c 0ab8 3e3d b68a 8a3a
00000250: dcfa e8bc 45dd 113d 1763 2bbd 3fec a33d
00000260: 23c0 0f3e fcff 0bbc 1f77 ee3d da97 833d
00000270: 0e3d 34bd d1a7 15bc ead9 66bd 0b25 163d
00000280: 6e17 173e f1bb 13bd e2dd 3a3d 535a 73bd
00000290: 2b00 d6bd 4d36 893d 46a2 153d cbf2 ea3d
000002a0: f6f2 023d a85d aebd 59dc 823d decb 2b3d
000002b0: 6f08 01bc 2b39 d63d f017 33be 0e44 14be
000002c0: fcf7 b43c 13e2 4c3d d25d 1ebe 57d6 543d
000002d0: f1ba 69bd 724e 29bd b3a6 493d 10ea ec3d
000002e0: 7ab0 5dbd 6eb2 5c3d 0cd4 5dbd 2dee 13be
000002f0: bb09 d23c 3e8c 9f3d d608 3f3e b57b 97bc
00000300: 2554 afbd 638e ae3c 4976 ac3d 8758 25bd
00000310: 11b6 a13c cc21 10be e7c9 2f3e f571 223d
00000320: ff15 853d 92c2 423e 0118 5d3d b0b3 40be
00000330: 8a5e d8bc 882c 5bbe 776c c3bc 079d 15bc
00000340: 6510 85bd 8b54 743d 3d5e 7a3d ef1d e6bd
00000350: ac5b 69bd 9e1a c93d 53ff debd 6fc2 073d
00000360: b282 7a3d 850b 573b 07f2 963a e187 f53c
00000370: c351 e73b 0e2c 2c3d 9258 94ba e2bd 98bd
00000380: 4e73 85bd 3ab6 9b3d fe95 1cbd 3c75 fbbc
00000390: cc38 ab3c b163 1a3d 2181 57bb dab4 8b3d
000003a0: f027 8fbd 2eb2 a83c 05f6 7a3c 7ac3 18bd
000003b0: 358b 123c c2b6 b0bc 6a52 c63c cb5a ab3d
000003c0: 285b b1bd e07f c43d 1726 fdbd 1cc0 463d
000003d0: dd76 39be 4374 763b 40fd 8b3b 707b 93bd
000003e0: d039 16bd 869b 8fbd e9a3 3b3c 0c0c 53bc
000003f0: 513c 8abd 7938 30bd c289 fdbc 6caa 853c

network_body.linear_encoder.seq_layers.0.bias f4 [216]
-0.027154751 -0.0007604988 0.004676763 0.038610958 0.05942336 -0.042001735 -0.01801803 -0.054098703
-0.02957381 0.007035584 -0.017521968 -0.04684711 0.011569815 -0.02557641 -0.02528755 0.0030923062
-0.028898349 0.017580684 -0.01803265 0.04665436 -0.027292153 -0.035064656 0.034063052 -0.042990196
-0.046458412 -0.018029954 -0.091512285 0.048633873 -0.04468059 0.017126177 0.042334855 -0.03854021
-0.061177008 -0.05629462 0.062173657 -0.017256288 -0.037436537 -0.0921253 -0.05800241 -0.01936656
0.02745414 0.03998393 -0.019611869 -0.016407225 -0.00046054757 -0.046317965 -0.075845994 0.019564396
-0.032811295 -0.025722502 -0.0052316003 0.11096313 0.024423959 0.009213211 -0.009121182 -0.015049278
-0.06277434 -0.067277096 -0.017105749 -0.043330032 -0.0019467815 0.0041524842 -0.048538044 -0.045022834
-0.043656535 -0.04485449 -0.01297206 -0.008563085 -0.032836784 -0.03246101 -0.047818836 -0.020602651
-0.027972799 -0.025487944 -0.03634231 -0.02531102 0.03872256 -0.018177383 0.0024218753 -0.02634964
-0.02391985 0.052076254 0.01052191 0.015975762 0.034401454 0.03169376 -0.012710449 -0.066181414
0.034058146 -0.029852174 0.018763347 0.0457216 -0.02317792 -0.046936568 -0.019660454 -0.03052922
0.027606916 0.080441326 -0.023790438 0.051415406 -0.012757306 0.031495348 -0.08319456 0.0029977476
-0.010759873 -0.024455708 -0.09108249 -0.022593595 0.027802652 0.048619986 -0.03203904 0.029396433
-0.06467757 0.0020047238 0.007878861 -0.039598115 -0.005537901 0.045311056 0.010990788 -0.028777963
0.02912127 -0.02931872 -0.011601027 -0.042407837 0.019150965 -0.047978263 -0.018473363 -0.033846222
0.002538304 -0.025382647 -0.021532558 -0.021060174 0.021731928 0.036873367 -0.03465515 -0.08593905
-0.061367996 -0.0051923557 -0.04346316 -0.0050836815 -0.026256477 0.07527767 0.0041108946 -0.052137464
-0.014956997 -0.06501133 -0.06072654 -0.06612377 0.026000902 -0.06265092 -0.053620335 0.036716405
-0.055097405 -0.034495506 -0.028363042 -0.089425825 0.03575244 0.08213368 -0.011120912 -0.0055961
-0.028957548 0.005737237 0.025269588 -0.02535397 0.0044358233 0.023381434 -0.025109418 -0.042683303
-0.009258989 -0.01709137 0.02067682 0.09208739 -0.07016345 -0.0015587428 -0.06670168 0.03134479
-0.09009464 -0.02392855 0.05331326 0.012647697 0.052656274 -0.080076866 -0.024402611 -0.01123542
-0.008860557 -0.042959783 -0.06283451 -0.066132024 -0.043989696 -0.010996342 -0.072583936 -0.023773355
-0.06798977 -0.0132278185 -0.0010215784 -0.022109495 -0.030044788 0.03495999 -0.03290136 0.01839238
0.0544866 0.04951692 0.032595426 -0.0018359151 -0.09534711 -0.026876789 -0.028169766 0.03850378
-0.00044187644 -0.070463546 0.018263502 0.028248318 -0.040446192 -0.04297504 -0.022685744 -0.03623249
00000000: a473 debc 365c 47ba 883f 993b 8626 1e3d
00000010: e965 733d 030a 2cbd 8c9a 93bc 9a96 5dbd
00000020: c644 f2bc c28a e63b 3b8a 8fbc c1e2 3fbd
00000030: 528f 3d3c 9f85 d1bc d627 cfbc 4aa8 4a3b
00000040: 3bbc ecbc 5e05 903c 35b9 93bc a418 3f3d
00000050: cb93 dfbc f59f 0fbd b385 0b3d 7d16 30bd
00000060: 2d4b 3ebd 8eb3 93bc cb6a bbbd 5034 473d
00000070: ff02 37bd 324c 8c3c 5067 2d3d 57dc 1dbd
00000080: be94 7abd 3095 66bd cea9 7e3d 0f5d 8dbc
00000090: 0e57 19bd 30ac bcbd ef93 6dbd 9fa6 9ebc
000000a0: 81e7 e03c 30c6 233d 12a9 a0bc 7268 86bc
000000b0: a675 f1b9 e8b7 3dbd 2555 9bbd 8345 a03c
000000c0: 2365 06bd ffb7 d2bc d86d abbb a340 e33d
000000d0: c114 c83c 02f3 163c 0371 15bc 3f91 76bc
000000e0: d58f 80bd 93c8 89bd 5b21 8cbc d57a 31bd
000000f0: 262b ffba 9011 883b d4cf 46bd dd69 38bd
00000100: 32d1 32bd 57b9 37bd c388 54bc 2f4c 0cbc
00000110: dd7f 06bd d6f5 04bd afdd 43bd e4c6 a8bc
00000120: 3627 e5bc 18cc d0bc addb 14bd 0e59 cfbc
00000130: 8c9b 1e3d bce8 94bc 53b8 1e3b 33db d7bc
00000140: 90f3 c3bc e94d 553d 1764 2c3c 9adf 823c
00000150: 8ae8 0c3d 51d1 013d 7d3f 50bc 1f8a 87bd
00000160: 8e80 0b3d 8c8c f4bc 97b5 993c 9346 3b3d
00000170: 9fdf bdbc 8f40 40bd f60e a1bc 6a18 fabc
00000180: e627 e23c 6cbe a43d 2ae4 c2bc f698 523d
00000190: 0504 51bc 4401 013d e961 aabd dc75 443b
000001a0: 2e4a 30bc 5657 c8bc 7589 babd 3416 b9bc
000001b0: 63c2 e33c c025 473d 5e3b 03bd cad0 f03c
000001c0: ac75 84bd af61 033b 5716 013c a231 22bd
000001d0: 4877 b5bb 1698 393d b512 343c c3bf ebbc
000001e0: bb8f ee3c d02d f0bc 3c12 3ebc d7b3 2dbd
000001f0: 7ce2 9c3c db84 44bd 7355 97bc 56a2 0abd
00000200: ad59 263b 45ef cfbc 0c65 b0bc 6386 acbc
00000210: 2807 b23c 8708 173d 8ff2 0dbd d000 b0bd
00000220: 025d 7bbd a324 aabb 6d06 32bd 0395 a6bb
00000230: d317 d7bc 2e2b 9a3d afb4 863b 188e 55bd
00000240: 310e 75bc a924 85bd 64bc 78bd e66b 87bd
00000250: d8ff d43c 204f 80bd ffa0 5bbd f163 163d
00000260: d1ad 61bd 294b 0dbd 9c59 e8bc e324 b7bd
00000270: 2771 123d b435 a83d 7c34 36bc 7d5f b7bb
00000280: 6138 edbc 6fff bb3b 2b02 cf3c 21b3 cfbc
00000290: 625a 913b 6c8a bf3c 44b2 cdbc b0d4 2ebd
000002a0: 04b3 17bc 3303 8cbc 6f62 a93c 5098 bc3d
000002b0: dbb1 8fbd bb4e ccba e49a 88bd 6563 003d
000002c0: 8a83 b8bd ce05 c4bc 015f 5a3d 4938 4f3c
000002d0: 1bae 573d 57ff a3bd fce7 c7bc c414 38bc
000002e0: df2b 11bc 99f6 2fbd 61af 80bd 3a70 87bd
000002f0: 8a2e 34bd 002a 34bc e3a6 94bd 57c0 c2bc
00000300: 383e 8bbd 7eb9 58bc 7ce6 85ba f91e b5bc
00000310: 7d20 f6bc 3532 0f3d 94c3 06bd 9eab 963c
00000320: 572d 5f3d 41d2 4a3d c882 053d 17a3 f0ba
00000330: 5845 c3bd b62c dcbc 48c4 e6bc 24b6 1d3d
00000340: a7ab e7b9 314f 90bd 579d 953c 0469 e73c
00000350: e8aa 25bd 9806 30bd 74d7 b9bc 8568 14bd

network_body.linear_encoder.seq_layers.0.weight f4 [216, 121]
0.045069896 -0.0121447705 0.11397749 0.008091328 0.18053137 -0.112251386 -0.028326826 -0.007582105
0.22660077 0.2719444 0.0040746666 -0.12633485 0.115430936 0.025358282 0.016523656 -0.25837612
-0.08574936 0.01488275 0.07769055 -0.118488945 0.23855007 -0.20390862 -0.036492165 0.06235665
-0.095045 -0.33017257 -0.17649987 -0.1550907 0.084335215 0.38805056 0.003999591 -0.26431155
-0.1302278 -0.13416296 -0.15095739 0.06110701 -0.18114264 0.026988111 0.010142804 0.04029558
-0.040247843 -0.041604564 -0.025203848 -0.18526408 -0.058239125 0.28733718 -0.0029325422 -0.14395493
-0.12754558 -0.010125806 -0.025339 0.094406545 -0.25254065 -0.037069183 0.060298122 -0.08909317
-0.011675821 -0.30350196 -0.16109177 -0.1353386 -0.031177044 0.10864964 -0.052966103 0.16697796
-0.22004104 -0.16707377 -0.25796172 -0.10573064 -0.04397528 -0.045447525 0.147851 -0.030421024
0.22947258 -0.05498675 -0.07993861 -0.2241523 0.1890967 -0.005494197 -0.23779944 -0.17621927
0.11874964 -0.15360665 0.22125557 -0.017504042 0.0043295105 -0.04473641 0.13724954 0.1211306
-0.19965269 0.10243661 0.052650236 0.048575852 -0.15281226 0.112439275 -0.005446872 -0.12798361
-0.015308837 0.007093429 -0.18275613 0.065015316 0.1132901 0.106202886 0.07436785 -0.15971418
0.0813096 0.0073978314 0.14127879 0.07879918 0.1636184 9.6116266e-05 -0.09939352 0.1628105
0.09059652 -0.013234195 -0.15523024 0.08071408 0.023908606 0.13709661 0.1704843 -0.123562954
0.05818501 -0.16013429 -0.08572384 -0.13795167 -0.054443788 -0.15462795 0.12698811 0.12128081
-0.09801772 0.0012355166 -0.019115258 -0.06773089 -0.08577697 -0.2728682 0.03795902 0.014069987
-0.053341243 -0.18161434 -0.019109435 -0.31853968 0.15187696 0.107360005 -0.037388124 -0.09376175
0.10101171 0.08788128 -0.13684092 -0.117508724 -0.007868544 0.279511 0.17811635 -0.07532385
-0.08305622 0.1784192 0.01494837 -0.08388131 -0.056775913 0.19376978 -0.13887468 0.26972762
-0.11158053 -0.07280652 0.1342811 -0.17462789 -0.009092147 0.0062507405 0.021509536 0.12975098
-0.06947054 -0.10173804 -0.008556313 -0.16992985 0.031438358 -0.04660757 0.29230163 0.15038654
0.016834933 -0.13273615 -0.19298774 -0.19661357 0.06551486 -0.20186275 0.05779682 0.17919298
0.071458355 -0.041853167 -0.19988957 -0.18118444 -0.20762563 -0.25749418 -0.24686459 0.24713698
-0.028523866 -0.14402348 0.038372766 0.0214623 -0.04252645 -0.3530802 -0.043150432 -0.18229756
-0.049826063 -0.26651898 0.071458414 0.16593708 -0.01074874 -0.041405343 0.10016756 -0.04848037
0.07572618 -0.014348989 0.22195835 -0.0956983 0.019547539 0.26054272 -0.21264552 -0.046862327
-0.005030607 -0.25354803 -0.050157882 0.07190019 -0.1409072 -0.2175596 -0.096268415 -0.061474398
0.016251098 0.06962147 0.1357424 -0.036674142 -0.02371466 -0.044115383 -0.015300253 -0.023672866
0.08915 -0.0003189421 0.16317518 -0.21612431 0.0768291 0.05006866 -0.34260693 -0.14167373
-0.016036076 -0.02582371 0.030381385 -0.09196918 -0.11186582 -0.048701826 0.063275926 0.13759442
0.12392603 0.1648431 -0.008446673 0.251568 0.112985484 0.02378317 -0.058931354 -0.016453762
00000000: 369b 383d dcfa 46bc 086d e93d 7d91 043c
00000010: 37dd 383e 0ee4 e5bd a90d e8bc 4f73 f8bb
00000020: 080a 683e 4c3c 8b3e c884 853b ec5d 01be
00000030: 0e67 ec3d 2cbc cf3c 9e5c 873c e049 84be
00000040: 5c9d afbd c7d6 733c 391c 9f3d 55aa f2bd
00000050: 7846 743e 6ccd 50be cf78 15bd b069 7f3d
00000060: f4a6 c2bd 610c a9be 62bc 34be 19d0 1ebe
00000070: f1b7 ac3d 90ae c63e 000f 833b d853 87be
00000080: 705a 05be 0462 09be 9394 1abe 584b 7a3d
00000090: 757d 39be 2c16 dd3c 012e 263c fa0c 253d
000000a0: ecda 24bd 8c69 2abd 4d78 cebc deb5 3dbe
000000b0: 268c 6ebd dc1d 933e e52f 40bb ec68 13be
000000c0: 4f9b 02be b5e6 25bc bc93 cfbc 3858 c13d
000000d0: 024d 81be dbd5 17bd 2afb 763d 7b76 b6bd
000000e0: f14b 3fbc 9c64 9bbe 3ef5 24be 3496 0abe
000000f0: 0067 ffbc b483 de3d fcf2 58bd 45fc 2a3e
00000100: 7052 61be 6315 2bbe 8f13 84be 4e89 d8bd
00000110: 6c1f 34bd 2f27 3abd 4166 173e 8335 f9bc
00000120: dcfa 6a3e c939 61bd dbb6 a3bd 2e88 65be
00000130: 91a2 413e aa08 b4bb b281 73be d372 34be
00000140: 0333 f33d 104b 1dbe d290 623e a364 8fbc
00000150: 91de 8d3b 873d 37bd 258b 0c3e 5213 f83d
00000160: c171 4cbe 49ca d13d c6a7 573d 79f7 463d
00000170: d17a 1cbe 9046 e63d ad7b b2bb 230e 03be
00000180: ebd1 7abc ff6f e83b 6c24 3bbe c026 853d
00000190: a404 e83d e680 d93d 2c4e 983d 1d8c 23be
000001a0: a685 a63d 8269 f23b 63ab 103e 7761 a13d
000001b0: 958b 273e 0792 c938 d48e cbbd ccb7 263e
000001c0: ab8a b93d 3dd4 58bc adf4 1ebe 6c4d a53d
000001d0: fbdb c33c 0e63 0c3e 7093 2e3e 930e fdbd
000001e0: 6853 6e3d 3efa 23be fb8f afbd 3443 0dbe
000001f0: 7300 5fbd ca56 1ebe 2c09 023e 1362 f83d
00000200: 84bd c8bd 0ff1 a13a 9a97 9cbc 7eb6 8abd
00000210: d6ab afbd 61b5 8bbe eb7a 1b3d ce85 663c
00000220: 597c 5abd 1cf9 39be 648b 9cbc a217 a3be
00000230: a285 1b3e 90df db3d 4a24 19bd 2906 c0bd
00000240: 3adf ce3d 1afb b33d 0720 0cbe 6aa8 f0bd
00000250: 11eb 00bc 111c 8f3e 2264 363e 6443 9abd
00000260: 6119 aabd 86b3 363e 02ea 743c f7c9 abbd
00000270: dc8d 68bd 966b 463e 2a35 0ebe bd19 8a3e
00000280: 5584 e4bd 961b 95bd fc80 093e a7d1 32be
00000290: 3bf7 14bc 03d3 cc3b c434 b03c 71dd 043e
000002a0: 9246 8ebd 095c d0bd c72f 0cbc 1702 2ebe
000002b0: 82c5 003d 94e7 3ebd 8fa8 953e eefe 193e
000002c0: 6ae9 893c fceb 07be 949e 45be 1155 49be
000002d0: a82c 863d 1cb5 4ebe 5cbc 6c3d 5d7e 373e
000002e0: c258 923d 3a6e 2bbd daaf 4cbe 6a88 39be
000002f0: d09b 54be 47d6 83be 12ca 7cbe 7a11 7d3e
00000300: e2aa e9bc e47a 13be c32c 1d3d b5d1 af3c
00000310: 3730 2ebd eec6 b4be 82be 30bd 36ac 3abe
00000320: 6a16 4cbd 2d75 88be ca58 923d 69eb 293e
00000330: 7c1b 30bc a698 29bd a624 cd3d 5a93 46bd
00000340: 5416 9b3d 0618 6bbc 0d49 633e 78fd c3bd
00000350: 2922 a03c db65 853e bfbf 59be b6f2 3fbd
00000360: cad7 a4bb 0cd1 81be 5a72 4dbd 6840 933d
00000370: fa49 10be f2c7 5ebe 6028 c5bd 94cc 7bbd
00000380: 0621 853c b495 8e3d 0e00 0b3e a037 16bd
00000390: 3f45 c2bc 55b2 34bd eaad 7abc 99ed c1bc
000003a0: 4694 b63d af37 a7b9 6517 273e b14f 5dbe
000003b0: 9358 9d3d cc14 4d3d 2d6a afbe eb12 11be
000003c0: 175e 83bc 3f8c d3bc 62e2 f83c 565a bcbd
000003d0: e819 e5bd 917b 47bd cf96 813d 8de5 0c3e
000003e0: eecc fd3d a1cc 283e ea63 0abc 85cd 803e
000003f0: ef64 e73d ecd4 c23c 0162 71bd 0aca 86bc

network_body.linear_encoder.seq_layers.2.bias f4 [216]
-0.095163755 -0.13568011 0.036809087 -0.030461827 -0.115534924 0.032038957 -0.03836482 -0.037888866
-0.03396171 -0.10370421 0.019349799 -0.040901363 -0.052735224 -0.060409077 -0.059825536 -0.0330084
0.046564285 -0.0612079 -0.042016227 0.0500866 0.026336906 -0.013987893 -0.049335457 -0.038000584
-0.044223316 -0.008844786 0.029557802 -0.10412954 -0.046725273 0.027067084 -0.010713298 0.035526
-0.082373284 -0.011468915 -0.1121526 -0.068540186 -0.000767739 -0.012388937 -0.033528157 -0.0082316175
0.019993896 0.0041081 -0.031000108 0.030359065 -0.09076421 0.051425222 -0.016167829 -0.023851536
-0.04647608 0.008107825 -0.014398856 0.023696331 -0.05726704 -0.024347836 -0.05313011 -0.03777173
0.006995993 -0.01796169 -0.070841484 0.0541335 -0.033645365 0.055169377 0.0796869 0.014530292
0.06862171 -0.10940754 -0.058936797 0.032010756 -0.117403775 -0.028513748 -0.044052526 -0.09790686
-0.0314677 -0.09565307 -0.0014761481 -0.02132272 -0.0358943 -0.045740277 -0.044101797 -0.09844516
-0.055891104 0.011319881 -0.05940654 -0.009843163 -0.06745916 -0.054617118 -0.028871654 0.0025620903
-0.071828716 -0.0054249773 -0.023159329 0.017607486 -0.040021364 -0.034323435 0.06323145 0.039992124
-0.026045775 -0.07978011 -0.050905216 -0.036625087 0.01595873 -0.082232445 0.001387339 0.008421428
-0.073205575 -0.038762916 -0.008840777 -0.054376263 -0.076956145 -0.055427257 -0.1160479 0.03259178
-0.027475685 0.0069257542 -0.06863061 -0.040145464 0.060429167 -0.07658595 0.0043750433 -0.05556212
-0.10090392 -0.030179992 -0.10231594 0.0029051176 -0.03821073 -0.03039011 0.040389154 -0.010579537
-0.0022826984 -0.04473536 -0.03887152 0.04051213 0.027334832 0.0085369935 0.011675062 0.032094423
-0.015206868 -0.051556043 0.03948545 0.076500095 -0.047661655 -0.10830995 -0.05159699 -0.053527173
-0.096916266 0.053021926 -0.104045205 -0.04571737 -0.06594177 -0.024395794 -0.0613871 0.046374083
-0.046696194 -0.006548971 -0.071022496 -0.015531089 -0.08576469 0.033720728 -0.09743507 -0.055682786
0.011193014 0.051472448 -0.016411265 -0.015943578 0.0038808954 -0.015120581 -0.024683652 -0.011241355
-0.08212159 0.069421455 -0.00827648 -0.014998137 -0.05816896 0.036253083 0.023548508 -0.03074537
-0.13338633 -0.10198593 0.006034028 -0.04919326 -0.038664658 -0.04319093 -0.040198747 -0.047011074
-0.05058503 -0.07538138 0.047238324 -0.012967924 -0.08689198 -0.022501772 0.0018908619 -0.094838575
0.011688619 0.008228766 0.010906764 -0.062502995 -0.0068643494 -0.02727194 -0.16572319 0.042271517
-0.08327949 -0.10641882 -0.088887155 0.044112757 0.02169605 -0.013841428 -0.06463947 0.018345622
-0.002775341 -0.02430089 -0.045456123 -0.05193828 0.014190484 -0.001719236 0.012472218 0.009454175
00000000: 37e5 c2bd baef 0abe 20c5 163d 158b f9bc
00000010: 939d ecbd 483b 033d 6e24 1dbd 5b31 1bbd
00000020: 6f1b 0bbd df62 d4bd 7883 9e3c 3088 27bd
00000030: e400 58bd 826f 77bd 9f0b 75bd d133 07bd
00000040: 31ba 3e3d 23b5 7abd 3519 2cbd 9b27 4d3d
00000050: 7fc0 d73c 7a2d 65bc fa13 4abd 80a6 1bbd
00000060: 8223 35bd b9e9 10bc 3423 f23c de41 d5bd
00000070: 0063 3fbd cabb dd3c d486 2fbc b683 113d
00000080: 53b3 a8bd 1ee8 3bbc 43b0 e5bd cc5e 8cbd
00000090: 1842 49ba f8fa 4abc d254 09bd e8dd 06bc
000000a0: 3dca a33c 3e9d 863b f0f3 fdbc 93b3 f83c
000000b0: 96e2 b9bd 41a3 523d 6572 84bc 4c64 c3bc
000000c0: b45d 3ebd afd6 043c 2ee9 6bbc cf1e c23c
000000d0: d890 6abd 1d75 c7bc f59e 59bd 88b6 1abd
000000e0: a53e e53b 6524 93bc 5715 91bd 17bb 5d3d
000000f0: b9cf 09bd 49f9 613d e332 a33d 7610 6e3c
00000100: 8a89 8c3d 0f11 e0bd b667 71bd b61d 033d
00000110: 6471 f0bd aa95 e9bc 6c70 34bd 6483 c8bd
00000120: 46e4 00bd c2e5 c3bd 507b c1ba fcac aebc
00000130: e705 13bd 285a 3bbd 16a4 34bd 9e9d c9bd
00000140: 12ee 64bd 0677 393c 4654 73bd 3845 21bc
00000150: 0728 8abd 33b6 5fbd 3f84 ecbc bee8 273b
00000160: ef1a 93bd 02c4 b1bb a2b8 bdbc 933d 903c
00000170: 71ed 23bd bb96 0cbd 7e7f 813d c8ce 233d
00000180: f35d d5bc c163 a3bd fd81 50bd 3004 16bd
00000190: e2bb 823c 7c69 a8bd 5fd7 b53a 07fa 093c
000001a0: ceec 95bd ddc5 1ebd e8d8 10bc a5b9 5ebd
000001b0: 2f9b 9dbd b107 63bd 85aa edbd f57e 053d
000001c0: b014 e1bc 70f1 e23b 358e 8cbd 926f 24bd
000001d0: 9384 773d 18d9 9cbd 865c 8f3b 1b95 63bd
000001e0: b7a6 cebd 083c f7bc 058b d1bd c963 3e3b
000001f0: db82 1cbd aef4 f8bc 196f 253d cb55 2dbc
00000200: 5399 15bb 6d3c 37bd be37 1fbd 0cf0 253d
00000210: 4ced df3c bfde 0b3c c248 3f3c 7175 033d
00000220: 3a26 79bc 6e2c 53bd 7fbb 213d 15ac 9c3d
00000230: de38 43bd 9bd1 ddbd 5e57 53bd 4f3f 5bbd
00000240: 097c c6bd 852d 593d a715 d5bd 2342 3bbd
00000250: 7b0c 87bd b0d9 c7bc 0a71 7bbd c0f2 3d3d
00000260: 8244 3fbd c098 d6bb 3e74 91bd 1c76 7ebc
00000270: 66a5 afbd bf1e 0a3d 0a8c c7bd a213 64bd
00000280: e762 373c c6d4 523d eb70 86bc 1b9c 82bc
00000290: 9f56 7e3b 50bc 77bc 5f35 cabc a92d 38bc
000002a0: 5d2f a8bd d62c 8e3d 139a 07bc bfba 75bc
000002b0: 9342 6ebd 1d7e 143d cde8 c03c b7dd fbbc
000002c0: 6d96 08be 00de d0bd 18b9 c53b df7e 49bd
000002d0: d55e 1ebd f9e8 30bd 71a7 24bd af8e 40bd
000002e0: 4032 4fbd 8e61 9abd f97c 413d 6a77 54bc
000002f0: 6cf4 b1bd a355 b8bc ccd6 f73a ba3a c2bd
00000300: 9f81 3f3c f2d1 063c 49b2 323c 9201 80bd
00000310: 56ee e0bb 6769 dfbc 57b3 29be e624 2d3d
00000320: 708e aabd 1cf2 d9bd 780a b6bd 94af 343d
00000330: eabb b13c 28c7 62bc b361 84bd 8f49 963c
00000340: 7fe2 35bb a912 c7bc 3330 3abd 3cbd 54bd
00000350: 347f 683c fd57 e1ba 4658 4c3c afe5 1a3c

network_body.linear_encoder.seq_layers.2.weight f4 [216, 216]
-0.060629033 0.085530356 0.13123097 -0.02197844 0.054321162 0.05230478 0.2123358 -0.036479853
-0.1688666 -0.07003507 -0.11074561 -0.14643104 -0.0504491 0.043238264 0.073722504 0.025580255
-0.0029924742 0.0967873 0.111388 -0.034176096 0.12127873 0.2229275 -0.011249468 -0.14734033
-0.058093682 -0.023480052 -0.1466952 -0.085437715 0.03857288 -0.006225577 -0.03432289 -0.031519663
0.117365204 -0.037074383 0.029414998 0.036856987 0.043974828 -0.022924168 0.0005232504 0.073120974
0.13216344 -0.088777035 -0.04528397 0.07280914 -0.08232341 -0.06726176 0.0055330857 -0.06012571
0.042098325 -0.11749792 0.30600378 0.16080438 0.015836824 0.088211946 -0.023582708 -0.13994311
-0.048342798 -0.11697361 -0.1040186 -0.11872979 -0.06200864 0.081130415 -0.111014016 -0.006333933
0.018537138 -0.015700385 0.026291955 0.011461653 0.21731642 -0.07218936 -0.12061858 0.004223936
0.13348572 -0.111512534 -0.20183206 0.11785081 0.07136662 -0.030924963 -0.090516716 -0.085381016
0.08045954 -0.1695054 0.014813402 0.10642717 0.11840489 -0.48136643 -0.083055355 -0.103204526
-0.10078268 0.012528075 0.10112625 0.059938878 0.09476572 -0.025472015 -0.052681275 0.0166678
0.02774539 -0.049695652 -0.06958653 -0.12633945 -0.26801232 -0.009790954 -0.104062065 -0.1561087
-0.06688995 -0.14076917 0.030643348 0.15801394 -0.054885577 -0.110624604 0.026206944 -0.013075363
0.066748716 -0.13107347 -0.13250187 0.08301853 -0.053389624 -0.35935545 -0.046882216 -0.23314533
0.19915493 0.11196677 0.07885684 -0.04170664 0.0015546711 -0.02944756 -0.026973616 0.057809487
0.08346887 -0.08391223 0.14369957 0.09420673 -0.12953864 0.1235146 -0.065064795 0.0026668739
-0.11364224 0.048381396 -0.22977689 0.046629265 0.15201895 -0.050222248 0.004888965 -0.05321001
0.025277605 0.011389752 0.0905781 0.04361191 0.021083035 0.025752207 0.08422179 -0.091781914
-0.12817153 0.20206179 0.028372956 0.036475126 -0.24677832 -0.14795926 0.09275215 -0.117177084
0.1271762 -0.14116672 0.10548438 0.041326053 0.078209296 0.016858542 0.013473886 -0.10121092
-0.045163922 -0.036263283 -0.09045095 0.13429303 -0.025997948 -0.05183533 -0.03568524 -0.09239816
-0.02565013 0.11724489 -0.09009661 0.1373059 0.0598544 0.07406289 0.21844311 0.05765738
-0.08684483 -0.0056056767 -0.041901816 -0.07367538 -0.006389889 -0.07053287 -0.061936427 -0.27815235
0.010712026 0.05762705 -0.045754656 0.13771082 0.0075407457 0.03853586 0.02373951 -0.18229836
0.07164763 0.03787767 0.12843615 0.10573777 -0.08452807 0.025493314 0.001380096 -0.003878856
-0.1044486 0.07275911 0.09755985 -0.27327085 -0.15593849 0.059502587 -0.022036957 -0.029677732
-0.14706673 -0.07994912 0.11030562 0.19750851 0.009724784 -0.17368735 -0.14739747 0.06428027
-0.068317786 0.16785395 -0.0014376342 -0.11560967 0.21499479 -0.123436004 -0.24296317 0.17836165
0.08276511 -0.17790303 -0.28616533 0.19560573 0.038688783 0.23430611 0.049797244 0.1146611
0.010282948 0.07162581 0.1504997 0.25176388 -0.09275971 0.06413836 0.03268538 0.101051606
0.12777078 -0.16387545 -0.052301638 -0.15955018 -0.027734932 0.10618297 0.14268479 0.067119576
00000000: 2656 78bd 8a2a af3d 6961 063e 210c b4bc
00000010: de7f 5e3d 893d 563d 8e6e 593e e66b 15bd
00000020: 5eeb 2cbe 8c6e 8fbd 98ce e2bd 05f2 15be
00000030: b7a3 4ebd 9b1a 313d d3fb 963d af8d d13c
00000040: 631d 44bb 6c38 c63d 641f e43d 3cfc 0bbd
00000050: fc60 f83d 1b47 643e b04f 38bc 62e0 16be
00000060: a4f3 6dbd 3d59 c0bc 4437 16be f8f9 aebd
00000070: 99fe 1d3d edff cbbb 2996 0cbd c31a 01bd
00000080: 2b5d f03d 4fdb 17bd b9f7 f03c 5af7 163d
00000090: f31e 343d 77cb bbbc bd2a 093a 73c0 953d
000000a0: da55 073e bcd0 b5bd af7b 39bd f51c 953d
000000b0: 2d99 a8bd 89c0 89bd e34e b53b 6046 76bd
000000c0: 4b6f 2c3d c0a2 f0bd 87ac 9c3e e7a9 243e
000000d0: 3abc 813c 77a8 b43d 8630 c1bc 3f4d 0fbe
000000e0: 1903 46bd dc8f efbd b407 d5bd 9b28 f3bd
000000f0: c6fc 7dbd b427 a63d 515b e3bd e28c cfbb
00000100: 32db 973c 189e 80bc 3a62 d73c a8c9 3b3c
00000110: 3288 5e3e 04d8 93bd e006 f7bd f168 8a3b
00000120: 7bb0 083e af60 e4bd 10ad 4ebe c45b f13d
00000130: aa28 923d 5956 fdbc d460 b9bd 3edc aebd
00000140: f9c7 a43d d392 2dbe e9b3 723c 7df6 d93d
00000150: 437e f23d a975 f6be ed18 aabd e55c d3bd
00000160: 2667 cebd 8e42 4d3c 481b cf3d 7882 753d
00000170: 8814 c23d b0aa d0bc 52c8 57bd e98a 883c
00000180: 4d4a e33c ab8d 4bbd 6283 8ebd 215f 01be
00000190: e938 89be 3d6a 20bc 7e1e d5bd f6da 1fbe
000001a0: 99fd 88bd cb25 10be c207 fb3c 68ce 213e
000001b0: b3cf 60bd 278f e2bd f2af d63c 0c3a 56bc
000001c0: 8db3 883d 2038 06be 92ae 07be 9e05 aa3d
000001d0: 14af 5abd 70fd b7be 9107 40bd a6bd 6ebe
000001e0: 45ef 4b3e d54e e53d b27f a13d 95d4 2abd
000001f0: 1bc6 cb3a 023c f1bc c6f7 dcbc a4c9 6c3d
00000200: baf1 aa3d 2dda abbd fb25 133e 75ef c03d
00000210: c7a5 04be 39f5 fc3d b140 85bd b8c6 2e3b
00000220: 43bd e8bd 922b 463d a24a 6bbe 54fe 3e3d
00000230: dbaa 1b3e d8b5 4dbd 9c33 a03b bdf2 59bd
00000240: fb12 cf3c 159c 3a3c 0381 b93d 67a2 323d
00000250: 54b6 ac3c 4bf6 d23c 797c ac3d 28f8 bbbd
00000260: 663f 03be 49e9 4e3e 676e e83c f166 153d
00000270: 75b3 7cbe a282 17be d7f4 bd3d 8afa efbd
00000280: 7a3a 023e 028e 10be 3208 d83d 8245 293d
00000290: 322c a03d ed1a 8a3c 93c1 5c3c ac47 cfbd
000002a0: cefd 38bd cf88 14bd 593e b9bd 1d84 093e
000002b0: a6f9 d4bc 4851 54bd b02a 12bd 3f3b bdbd
000002c0: 3920 d2bc 171e f03d 9284 b8bd eb99 0c3e
000002d0: e329 753d 49ae 973d 8daf 5f3e 252a 6c3d
000002e0: b4db b1bd d3af b7bb 3da1 2bbd 1ee3 96bd
000002f0: 4662 d1bb 8a73 90bd 0db1 7dbd fc69 8ebe
00000300: 7e81 2f3c 570a 6c3d 3c69 3bbd 1104 0d3e
00000310: 5c18 f73b c7d7 1d3d 5c79 c23c 6cac 3abe
00000320: febb 923d 9e25 1b3d c484 033e 0b8d d83d
00000330: 0e1d adbd 5bd7 d03c 56e4 b43a 6834 7ebb
00000340: 26e9 d5bd ba02 953d 75cd c73d 28ea 8bbe
00000350: 57ae 1fbe fcb8 733d d986 b4bc b71e f3bc
00000360: a998 16be 5dbc a3bd eae7 e13d ac3f 4a3e
00000370: b354 1f3c 19db 31be 5def 16be 60a5 833d
00000380: 32ea 8bbd e8e1 2b3e 006f bcba c3c4 ecbd
00000390: 9827 5c3e 04cc fcbd 56cb 78be 70a4 363e
000003a0: c180 a93d 362c 36be 4384 92be de4c 483e
000003b0: 2178 1e3d f1ed 6f3e 32f8 4b3d 70d3 ea3d
000003c0: cf79 283c 8db0 923d 981c 1a3e 32e7 803e
000003d0: cef8 bdbd f95a 833d 1be1 053d 25f4 ce3d
000003e0: 58d6 023e f7ce 27be 3e3a 56bd 1f61 23be
000003f0: 5e34 e3bc 7576 d93d f61b 123e fd75 893d
