Project/results/VPlayer-FirstButCorrected/VPlayer/VPlayer-6999995.onnx (onnx, 681794 bytes, 15 tensors)

action_model._continuous_distribution.mu.weight f4 [1, 216]
000000 d7 6c b2 bc ef 83 f1 3b 70 61 1b 3d 6a 1c 6f bc
       -0.021780415 0.007370464 0.03793472 -0.014594177
000010 4e df 86 3d 5b 49 68 3d 4e 3f ec bb bb 1b d4 3d
       0.06585561 0.056710582 -0.007209695 0.10356852
000020 84 c8 01 3d 35 5a 29 3c 4d b5 2b be 4c fc 66 3d
       0.031685367 0.010336448 -0.1676838 0.056392953
000030 cd ee 3a bd 02 c6 01 3c 43 27 d5 3d cf 33 03 bc
       -0.045637894 0.007920744 0.10407879 -0.008007958
000040 10 21 83 3d 74 94 33 bd d2 43 f2 3d cf 3e 9d bd
       0.064027905 -0.043842748 0.11829342 -0.076779954
000050 6d 54 8d 3b f2 0b c7 3b c1 c0 06 bd c1 9e 9f 3c
       0.004313043 0.006074422 -0.03289867 0.01948488
000060 67 2e c8 3d 13 39 0f bd 6a 71 b3 bc d5 7d b6 3d
       0.097744755 -0.03496654 -0.021904666 0.08910719
000070 d6 6d 5d bd 90 c0 d6 bc 85 d0 89 bc 3d 77 48 bd
       -0.054059826 -0.026214868 -0.016823063 -0.04894184
000080 5b bf c4 3c 14 49 1d bc 2b fd 24 bc fe 76 da 3c
       0.024017027 -0.009599943 -0.010070126 0.026668068
000090 3f 6f 57 bd 67 e6 13 3c 73 25 1f bd a0 82 4f bd
       -0.052596327 0.0090271 -0.038854074 -0.050661683
0000a0 85 19 07 3d 85 68 99 bd da 99 85 bc 76 67 f9 bc
       0.03298332 -0.07490639 -0.016308714 -0.030444842
0000b0 42 e2 1f bd 71 4e 52 bc 51 d3 86 bd 60 92 71 3d
       -0.039034136 -0.012836085 -0.06583274 0.058977485
0000c0 96 d4 60 bd 0c 07 9d bc dd 9f 24 3d dd fd 43 bc
       -0.054890238 -0.0191684 0.04019152 -0.011962381
0000d0 02 d8 0c bc 6b 52 6e bd fe 35 85 bd 65 de 30 bd
       -0.008596422 -0.05818407 -0.06504439 -0.043180842
0000e0 91 c6 2f bb a2 c8 ce bc a1 6a 47 bd bb 73 60 3c
       -0.0026821236 -0.025242154 -0.048685674 0.013699467
0000f0 ea e5 bd bc 03 e6 f9 3c 50 fa 46 3d 3b 6d 2b 3d
       -0.02318092 0.030505186 0.04857856 0.041852217
000100 70 33 72 bd c7 e3 f2 3c 5f 69 ee 3c ab e9 82 3d
       -0.059131086 0.029649628 0.02910298 0.06392225
000110 11 f9 c8 bc ce d8 cb bd 30 ae 33 3d cd ed 7f bd
       -0.024532827 -0.099534616 0.04386729 -0.062482644
000120 55 2c 34 3d d2 aa 92 3c 7d f7 98 3c 54 d8 d0 3d
       0.04398759 0.01790372 0.0186727 0.10197511
000130 e4 99 3c bc fa 76 ce bd 78 7d 88 bd c5 fc b6 3d
       -0.0115113 -0.10081287 -0.06664556 0.08934931
000140 20 ac c7 bd 31 da c0 bd a9 18 57 bd c1 2f ef 3c
       -0.09749627 -0.09416617 -0.052513752 0.029197576
000150 9d 49 d0 3d c2 ff e9 bc db 53 35 3d 7f fb 8a bd
       0.101702906 -0.028564338 0.044269424 -0.0678625
000160 d0 87 de bc 09 b1 2e 3d 33 51 73 3d 09 69 85 bd
       -0.02716437 0.042649303 0.05940361 -0.065141745
000170 cf b0 a9 bb 7d 68 e9 ba 5e a1 48 3c 28 17 04 bd
       -0.005178548 -0.0017807629 0.012245504 -0.032248646
000180 8e 52 db bb b1 83 ba 3d 04 02 d5 bd 0d 02 a7 3d
       -0.006693191 0.091071494 -0.10400775 0.08154688
000190 f1 22 d1 3d fa ef a2 3d d0 dd 2a bd c7 72 80 bd
       0.10211743 0.07955928 -0.041715443 -0.06271892
0001a0 70 6f b4 bd 22 ee 44 bc 51 2c 15 bd 7e de 24 3d
       -0.088103175 -0.012019666 -0.036419217 0.040251248
0001b0 53 57 04 3d 4a a1 cc bc 2c 70 8c bd 1a 0a 15 3d
       0.03230984 -0.024979252 -0.068573326 0.036386587
0001c0 1d d9 47 3d b2 da c8 3d b1 32 36 3d 35 b3 e6 bd
       0.04879104 0.09807338 0.044481937 -0.1126465
0001d0 46 9e e2 3c 11 ff c4 3b f5 15 10 3d ea d2 0f bd
       0.027663361 0.0060118516 0.03517719 -0.035113253
0001e0 58 c6 f1 bc a5 09 d3 3c 9c ef 00 3b a1 2a 25 be
       -0.029513523 0.025761435 0.0019674068 -0.16129543
0001f0 c9 09 a0 3c e8 b9 0e bd a3 b3 d6 bd e7 ae 54 bc
       0.019535916 -0.034845263 -0.10483482 -0.012981153
000200 c4 ae 8f bd 8d 54 b0 3d cb 17 fd 3d a2 ee 96 bd
       -0.07015756 0.08609877 0.12358054 -0.07369734
000210 8e 4b a8 bd 2f 05 2a bc 62 47 89 bc c8 c4 09 3d
       -0.08217536 -0.010377212 -0.01675767 0.03363493
000220 3b bb cd 3c 92 4d 5e bd 8d 1e 51 3d 82 28 58 bd
       0.025113693 -0.054273196 0.051054526 -0.052773006
000230 0c 77 3d 3d 9b 01 b0 3d 52 27 61 3d 07 96 b8 3c
       0.04625611 0.08594056 0.05496914 0.022532476
000240 2e 74 b5 3b 6f f4 c5 3d 11 7f bd bd be e9 75 3d
       0.0055375313 0.09665763 -0.092527516 0.060037367
000250 98 fe e5 bc 94 7a 43 bd 92 78 08 3d cd 02 92 3d
       -0.028075501 -0.04772432 0.03331811 0.071294405
000260 cc aa 17 3d db 0f 75 3d 32 6a f4 bc 6c bb aa 3d
       0.03702812 0.059829574 -0.029835794 0.08336529
000270 2c 15 f1 bc 19 0e 12 bd 21 31 99 bc 37 14 9b bc
       -0.02942904 -0.035657976 -0.018700184 -0.018930538
000280 7e 57 5a bd dd 86 9e bd 08 d1 7e 3d 39 a8 45 bd
       -0.053306095 -0.07740567 0.062211066 -0.048256133
000290 3b 0d 60 3b 27 f3 9e bc c5 80 bf 3d 5d ed e3 bc
       0.0034187573 -0.019403053 0.09350733 -0.027823145
0002a0 a5 0f 97 3c 9f f8 75 bd b4 98 e7 bc e4 d2 94 3d
       0.018440077 -0.060051557 -0.028271057 0.07266787
0002b0 54 17 16 bd 85 37 b8 bc 05 78 d7 3c 2c 70 dd 3c
       -0.03664334 -0.022487411 0.026302347 0.027031027
0002c0 45 4a 97 bd df f5 5c bd ad b5 62 3d 71 1f 45 3c
       -0.07387213 -0.05394542 0.05534904 0.012031422
0002d0 2e bd d1 bd 07 75 82 3c 6b 00 51 3d 6e 6e 8d bd
       -0.10241161 0.015924944 0.05102579 -0.069058284
0002e0 3e b0 bf 3d 4c 29 3b bc 05 f7 0e be 6e c5 77 3c
       0.093597874 -0.01142342 -0.13961418 0.0151227545
0002f0 1f 8b d3 3d 5b 68 09 bd e9 d6 12 bc ae d8 4d bb
       0.103292696 -0.033546787 -0.008962371 -0.0031409669
000300 f0 b9 32 3d f6 d3 78 3d 45 00 3e 3d b0 80 b7 bd
       0.043634355 0.060749017 0.046386976 -0.08960092
000310 57 71 de bd ed aa a7 bd f0 5d 06 3c c2 88 9f bb
       -0.108614616 -0.081868984 0.008201107 -0.0048685977
000320 b0 dd ee 3c 18 8f 5c bd 6d 04 06 3d fc df a1 bc
       0.029158443 -0.053847402 0.032719065 -0.019760124
000330 eb 2c 79 3d 54 d5 f8 bc e4 99 0f 3d 15 5f 6f bd
       0.060833853 -0.03037516 0.03505887 -0.058440287
000340 96 94 12 bc e0 df e6 3c 0d 21 c1 bc c9 f3 6c bd
       -0.008946558 0.028182924 -0.02357533 -0.05784968
000350 07 83 36 3b e4 05 50 3d 06 81 7a 3d 80 ae 09 bd
       0.0027849094 0.050786868 0.061158203 -0.03361368

action_model._discrete_distribution.branches.0.bias f4 [3]
000000 88 38 cc 3d 75 c9 5c be b2 c3 c1 3d
       0.0997172 -0.21561225 0.09461154

action_model._discrete_distribution.branches.0.weight f4 [3, 216]
000000 02 1b 98 bb b6 02 bd bd c8 5b 8e bd c9 b1 54 bd
       -0.0046418915 -0.09229033 -0.069511 -0.05192736
000010 f2 c8 da 3d dd 3e 58 bd 8d c7 82 bc e4 2b ab 3d
       0.106828585 -0.052794326 -0.015964294 0.08357981
000020 57 73 bd 3c e9 46 1d 3d c0 9a cf 3d 32 77 56 3d
       0.023126287 0.038397703 0.10136938 0.052359767
000030 af b7 3e 3d 70 21 98 3d 7c 75 03 3d 3f 4d 21 be
       0.046561893 0.07428253 0.032094464 -0.15752123
000040 cb 07 91 3d ae f9 80 be 2b 86 17 3d 07 0f 5a bc
       0.070815645 -0.2519049 0.036993187 -0.013309247
000050 56 fa 21 be 55 d4 dc 3c 05 c3 b9 bd 86 7b ad bd
       -0.15818152 0.026956717 -0.090704 -0.08470826
000060 0f 0e 48 3d be b3 6c be 3c 59 f6 bc 1f 5c 19 be
       0.048841532 -0.23115441 -0.030071847 -0.14976548
000070 df ad 36 3e bc 9e ec bd 04 e6 01 be a7 0c 79 bd
       0.17839764 -0.11553714 -0.126854 -0.06080308
000080 72 de f5 bb c9 46 cc 3c 04 7a bf 3d de 89 3c 3d
       -0.007503324 0.024936097 0.093494445 0.046029918
000090 f6 d3 33 3d f3 74 31 3b 64 45 e7 bd e2 bb de 3d
       0.043903314 0.0027077764 -0.11292532 0.108756796
0000a0 75 e0 b6 3d 52 36 6a 3d a5 34 d0 bd da 83 3b 3e
       0.089295305 0.05718071 -0.10166291 0.18312016
0000b0 b3 01 3b be 37 44 a8 3d 48 ae d1 bd c1 76 a9 bd
       -0.18262367 0.08216136 -0.1023832 -0.08274604
0000c0 bd 1a 1f 3e 87 79 12 be a8 0b 1c be ce 1a c0 3c
       0.15537544 -0.14304172 -0.15238822 0.023450281
0000d0 5d d8 78 be 5f e5 3a 3d 72 59 a3 bd 50 dd 9e 3a
       -0.24301286 0.0456289 -0.07976045 0.00121204
0000e0 e2 8a 35 be e8 19 10 3d 9a d3 22 bc 5e 21 84 3d
       -0.17728761 0.035180956 -0.009938145 0.06451677
0000f0 a1 c9 dd 3c a5 c6 a1 3b a7 ae 02 3d cc 98 d5 bb
       0.027073683 0.0049370104 0.031904843 -0.006518459
000100 cf ec 5f 3e 8c 8e 25 bd 3b f5 c3 3d 5d 0c 90 bc
       0.21867679 -0.040419146 0.095682584 -0.01758402
000110 51 a3 0d be 51 c2 3a 3c 9c 0a 13 3d ed 3b f5 bd
       -0.13831832 0.011398868 0.03589879 -0.119743206
000120 87 ea a2 3c 6a 96 51 bd ff ba 72 3d 1a 48 2a 3d
       0.019887222 -0.051168837 0.059260365 0.041572668
000130 43 47 c5 3d 7e 4b 9e bc 44 e1 0a be 00 5c a1 bd
       0.09632733 -0.019323107 -0.13562495 -0.07878876
000140 e2 26 83 3b 1a be f6 3d 8a 26 01 3c 13 b8 56 3d
       0.004002438 0.12047978 0.007882724 0.05242164
000150 4e 47 f6 bc 86 95 bb 3d fd de 9a 3d 31 22 e9 bc
       -0.030063298 0.09159379 0.07562063 -0.028458687
000160 cb db cb bd 2e 5f fa bc 41 4e 3c bd f3 a4 18 be
       -0.099540316 -0.030562963 -0.045973066 -0.14906673
000170 83 47 b8 3d 36 50 03 3c 9a dd f5 bd c3 0e 40 bd
       0.08998015 0.008014729 -0.12005158 -0.046889078
000180 c6 ad 8b 3c 69 c0 9f bd 28 6a a6 bd ac 74 02 bd
       0.017050635 -0.07800371 -0.081257164 -0.03184955
000190 ca 26 c7 bd eb c0 de b8 a3 01 73 3d 69 9c fc bc
       -0.09724195 -0.00010621719 0.059327733 -0.0308363
0001a0 26 3c 34 be 63 80 03 be 5f 04 32 be e7 1b d3 3d
       -0.1760107 -0.12841944 -0.1738448 0.10308056
0001b0 11 2b 50 3d 2b 76 a5 3d f6 32 d4 bd 03 f0 62 bd
       0.05082232 0.080791794 -0.103612825 -0.055404674
0001c0 fc 75 44 bc 40 9d 08 bd 6f 10 ba 3d be 65 ce 3d
       -0.01199102 -0.03335309 0.09085166 0.100779995
0001d0 b3 97 d4 bd 12 f0 23 be 85 f1 9d bc 6b 0f 74 3b
       -0.10380497 -0.16009548 -0.019280205 0.0037240635
0001e0 8d fa 40 bb 79 08 a5 ba cc b1 e1 bd ae 9a b8 bd
       -0.0029446215 -0.0012591026 -0.1102024 -0.09013878
0001f0 2a 62 ab 3d cb b7 5a be b9 13 e2 bd e1 e3 45 bd
       0.08368333 -0.21359174 -0.11038918 -0.048313025
000200 99 d2 18 3c f3 5c 31 be 4f f5 32 3b 44 81 e8 bd
       0.009327554 -0.17320614 0.002730686 -0.113527805
000210 79 46 96 3c fc 65 2d 3c 4d 1f b8 bd b2 c6 e8 bd
       0.01834415 0.010583397 -0.08990345 -0.11366023
000220 62 9b 39 be 9a bd 17 be 9d 70 28 be 48 30 6f be
       -0.1812568 -0.14818421 -0.16449209 -0.23358262
000230 12 6a 81 3d 3e 70 a9 bd 86 a2 a1 bc de 44 67 bd
       0.063190594 -0.082733616 -0.019730818 -0.05646216
000240 f7 cf 42 bd e3 73 94 3d e9 c2 00 3d cc 0f c8 3d
       -0.047561612 0.07248666 0.03143588 0.09768638
000250 3f 87 74 bd 63 34 8f bc 9c df 9a 3e 4b 04 3c bd
       -0.059699293 -0.017481035 0.30248725 -0.04590253
000260 57 37 5d bc e2 d6 18 be 99 c1 0c 3c 84 bf 76 3d
       -0.013501964 -0.14925721 0.008591079 0.060241237
000270 72 b3 08 be a4 a1 34 be 70 23 3a be d1 95 08 be
       -0.13349703 -0.17639786 -0.18177581 -0.133384
000280 97 68 84 3d ad 64 5b 3b 91 ed aa 3c 42 1c 02 be
       0.064652614 0.0033476755 0.020865234 -0.12706092
000290 a2 fb f9 bd 29 3f 8c bd ab 11 dc bb a2 3a 5e 3d
       -0.12206198 -0.06847984 -0.0067159734 0.054255135
0002a0 dc e5 01 be 07 07 d4 3d ab 5c f7 3d 0b 67 33 bd
       -0.1268534 0.10352903 0.12078222 -0.04379944
0002b0 ba 4f e2 bd 40 20 b6 3b 52 5e b0 bd b7 25 8b bd
       -0.11050363 0.0055580437 -0.0861174 -0.06794303
0002c0 b6 2a 1c bd c4 c9 ab 3d fa e8 2c 3c ef 85 71 bc
       -0.03812667 0.08388093 0.010553593 -0.014741405
0002d0 39 7b 37 be c1 68 80 3d 91 fe 96 bd fb 77 1f be
       -0.179181 0.0626998 -0.073727734 -0.15573113
0002e0 3e 3d fd 3a 7e 9c 15 be ba bf 85 ba c4 db 96 bc
       0.001932062 -0.14610478 -0.0010204234 -0.01841534
0002f0 dc 90 25 3c e5 8d a9 bc 2d 47 bb bc 23 ea 87 3d
       0.010105338 -0.020697543 -0.022861088 0.06636455
000300 4d e9 04 be e7 1a c7 3c af 25 13 be c2 79 e7 bd
       -0.12979622 0.02430482 -0.14369844 -0.1130252
000310 2b db 05 3d d3 19 8b bc dd 9c 12 bd f3 54 0b 3e
       0.032679718 -0.016980087 -0.035794128 0.13606624
000320 fc 81 55 3e 50 8a 02 3e 94 9c 82 bc 07 63 1a bd
       0.20850366 0.12748075 -0.015943803 -0.037692096
000330 f2 5a ae bc c8 e9 e5 bc 68 2f 2b 3e 93 23 01 3d
       -0.0212836 -0.028065577 0.16717303 0.031528067
000340 c8 f2 8f be 46 c9 7c be db 8a e9 3d 89 02 fc 3d
       -0.28114915 -0.24686155 0.11403438 0.12305171
000350 1e 08 ec bd 2a fe 6d be 3d c6 ac bd 60 ac de bc
       -0.11524986 -0.23241487 -0.084362485 -0.027181804
000360 e4 a9 9c 3d 61 b3 01 3e 2b 49 12 3d 69 8d 34 bc
       0.076495916 0.12666084 0.03571431 -0.011020043
000370 ac 62 e7 3b 58 a0 22 3d b1 c3 bb 3d 28 2a 7c 3d
       0.007061323 0.039703697 0.091681845 0.06156364
000380 c8 2a f7 3d 43 96 e7 bc 85 5c 74 ba 8b 5e a8 3d
       0.12068707 -0.028269893 -0.0009321648 0.08221158
000390 9c e0 47 3d ee e2 31 bc 3b 99 55 3e 85 f7 86 3e
       0.04879819 -0.010857327 0.20859234 0.26360717
0003a0 fa d1 31 bc 8e 86 87 3c f1 ae 3a 3d cd d1 fa bd
       -0.010853285 0.016543653 0.045576993 -0.122470476
0003b0 71 8a 9c 3d 39 17 9f 3d aa 3f db 3c 3a 98 28 be
       0.07643593 0.07768101 0.026763756 -0.1646432
0003c0 28 0c 4c bc 3a 8f b7 3d 23 29 53 3d 94 e0 98 bc
       -0.01245407 0.08962865 0.051552903 -0.018661775
0003d0 8e 66 fe b9 3a 78 39 bd ae c2 92 3b c3 38 be bd
       -0.00048523064 -0.045280673 0.004478774 -0.0928817
0003e0 f9 fa 99 3d b9 d0 3d 3c d2 32 a9 bd f9 12 a6 bd
       0.07518572 0.011585408 -0.08261646 -0.081090875
0003f0 9f d4 9b bd 00 9f 87 3d 73 4e 24 3d fd ae ab 39
       -0.07608914 0.06622124 0.040113878 0.00032746038

action_model._discrete_distribution.branches.1.bias f4 [3]
000000 98 38 59 bc 78 5c e0 3d 79 ba cf bd
       -0.013258122 0.10955137 -0.10142989

action_model._discrete_distribution.branches.1.weight f4 [3, 216]
000000 ea 92 57 bc 11 9d 0e 3e ff 11 08 be cf 87 5e be
       -0.013157586 0.13927104 -0.13288115 -0.21731494
000010 a2 3e 11 be 9f d4 3b bd d5 6c 30 be e1 26 5d 3d
       -0.14184049 -0.04585707 -0.17229016 0.053992156
000020 fe c4 8d 3d 1e 40 87 be e3 a9 e2 bd f9 95 95 3d
       0.06922339 -0.26416105 -0.110675596 0.07303996
000030 32 dd a3 3d f3 31 f8 bd c7 34 16 3e 20 18 78 bd
       0.08001174 -0.12118902 0.1466857 -0.060569882
000040 7a c9 ad bd 8c 9b 8c 3b 18 1a 7d bc be 28 ee bd
       -0.08485694 0.0042910036 -0.015448116 -0.11628865
000050 dc 03 5e 3d d5 e4 0d 3e ef 31 eb 3d e2 71 d5 bc
       0.0542029 0.13856824 0.114841335 -0.02605528
000060 79 ec 33 3d 01 b1 b3 3d be 97 02 be c6 dc e7 3c
       0.04392669 0.08773995 -0.12753198 0.028303515
000070 ec 0c 85 bd be 5e 95 3d fa b2 da 3d 1f ef 96 ba
       -0.06496605 0.07293461 0.10678668 -0.0011515355
000080 4c 13 27 be 84 29 ed 3d 92 43 de bd 9d 61 88 3d
       -0.16315955 0.11580184 -0.10852732 0.06659243
000090 3e 3c 00 be 20 16 47 bd 12 48 c8 bd 84 f5 3a be
       -0.1252298 -0.048605084 -0.09779371 -0.1825772
0000a0 24 01 51 3e 83 18 6f bd c9 0e a7 3c 96 86 11 3e
       0.20410591 -0.058372986 0.020392792 0.14211497
0000b0 7f d0 c3 3d 68 47 78 3b 14 b5 70 bd d6 66 9e bd
       0.09561252 0.0037884358 -0.05876644 -0.07734458
0000c0 22 bb 00 3e e6 5a f4 3c 8e f0 62 be 97 9a 49 3e
       0.12571386 0.0298285 -0.22162077 0.19687878
0000d0 7a 37 5c 3d d5 06 41 3c 80 6a 75 3c 48 03 33 3e
       0.053763844 0.011781414 0.014979005 0.1748172
0000e0 09 ab e2 bd fa 24 21 be 04 7d 23 be 1e e7 6b be
       -0.110677786 -0.15736762 -0.15965658 -0.23037383
0000f0 c0 a3 9f 3c 79 81 88 bd ad 25 58 be 1d c4 0a 3d
       0.019487262 -0.0666532 -0.21108122 0.033878434
000100 9c 9b 5d 3d 75 ce b1 3b e6 16 4b be 23 9b ef 3b
       0.05410348 0.005426223 -0.19832954 0.007312195
000110 38 1b b6 bc 08 63 2b be 0f cf 33 3c bc 93 1f be
       -0.022229776 -0.16736996 0.01097466 -0.155837
000120 50 8e 1a 3e 55 8a 58 3d 58 e2 68 3e 08 e5 a5 3d
       0.1509335 0.0528663 0.22742593 0.08100325
000130 5d 38 83 be d1 16 05 be d8 97 21 bd 68 ca 36 3d
       -0.2562894 -0.12996985 -0.03945145 0.044626623
000140 1f b5 de bd b5 6a a6 3d d1 1d c4 bc ee 6d d2 3c
       -0.1087439 0.081258215 -0.023939999 0.025687184
000150 e6 1e dd bd c8 1e 08 3e de 98 01 be de 2b 98 3b
       -0.10796909 0.13292992 -0.1265597 0.0046439013
000160 e5 f4 8a 3e 4d 8c bb bd d9 4d 17 3c ae 8a 01 3e
       0.27139965 -0.091576196 0.009234869 0.12650558
000170 1c f4 e3 bd 63 20 a4 3d fe 06 5b 3d af fd 2f 3d
       -0.111305445 0.0801399 0.053473465 0.04296654
000180 15 c5 5c 3e d4 31 2f bc 71 b3 7d bc b6 42 81 3e
       0.21559556 -0.010693032 -0.015484677 0.2524621
000190 32 f8 9f ba d4 fe c8 bd 63 6f 9a bc 96 10 5c bd
       -0.0012204705 -0.098142296 -0.018851941 -0.053726755
0001a0 af cd 8f 3d 2c fa fe 3d d5 ac 61 3c 3a 5d 23 3d
       0.07021653 0.1245006 0.0137741165 0.03988383
0001b0 3b 76 7c 3c d4 19 bc 3d bb 29 33 3b 3c ac ba bc
       0.015409048 0.09184614 0.0027338106 -0.022787206
0001c0 34 39 23 3d 18 b4 79 bd a4 4e c8 3d 85 14 5a be
       0.039849475 -0.060962766 0.097806245 -0.2129689
0001d0 3c d1 dc bd 3d fe 80 3d 1d 26 8d 3c 24 90 3b be
       -0.10782096 0.06298492 0.017230088 -0.18316704
0001e0 c1 10 e3 bb 0e a2 4f 3d 91 84 48 3e 70 aa a3 3d
       -0.0069294875 0.050691657 0.1958182 0.07991493
0001f0 e0 8d 04 3e d1 3a d6 3d 99 f2 6a bd 1f f9 52 3e
       0.12944746 0.10460437 -0.057360265 0.20602845
000200 ee 0c 5a 3b 05 2a 01 3b 6c 6f 31 bd b1 45 9d 3c
       0.0033271867 0.0019708883 -0.04331915 0.01919827
000210 e6 02 05 bd 14 8c 65 bd 02 e6 2a bd f8 02 37 be
       -0.032473467 -0.056041792 -0.04172326 -0.17872226
000220 dd 4e a7 3d 7b 9a aa 3a 30 24 e0 3d 0c ef a5 3c
       0.08169339 0.001301601 0.10944402 0.020255588
000230 c6 8a 38 be b0 cb c1 3d 6c 9b 84 bd 6b cb da 3d
       -0.18021688 0.094626784 -0.06474957 0.1068333
000240 f7 6a ac 3d de d1 92 3d 18 b3 69 bc dd dc b5 bd
       0.084188394 0.07168935 -0.014263891 -0.08880017
000250 90 96 47 3d 48 08 41 bc cd 56 30 3d f4 27 48 bd
       0.048727572 -0.01178176 0.04305153 -0.048866227
000260 97 d7 b8 bc b2 a2 c5 bc db f1 50 3c de 18 85 3d
       -0.022563739 -0.02412543 0.012752975 0.06498884
000270 64 20 0b 3c 19 b1 99 bc a7 68 ad 3c f3 c0 3f be
       0.008491609 -0.018761205 0.021168066 -0.18725948
000280 0b 16 8c bd 40 75 03 be 25 37 61 3d dd 32 44 3c
       -0.06840142 -0.12837696 0.05498423 0.011975017
000290 60 f3 0e bd cf 2d 7a bd 49 d8 04 be af 56 08 bc
       -0.03490007 -0.061078843 -0.12973131 -0.008321448
0002a0 d0 85 39 be 34 34 91 3d 7f 34 43 be dd a1 9e bd
       -0.18117452 0.07090035 -0.19062994 -0.07745717
0002b0 ad 43 73 3d 83 ab 9d 3d 7a 1c 1b 3e 83 ca 2a be
       0.059390713 0.07698729 0.15147582 -0.16678815
0002c0 77 7d dc bc b5 48 05 be a1 02 0d be 3d 30 de bd
       -0.026915295 -0.13016017 -0.13770534 -0.108490445
0002d0 1a 77 f0 3d 17 9b c0 3d d6 2b 98 3d 01 da e9 bc
       0.11741467 0.09404581 0.07430236 -0.028546335
0002e0 e4 8f c4 3c 09 63 4f bd 48 7c d1 bc 16 99 27 3d
       0.023994394 -0.050631557 -0.025571957 0.04091748
0002f0 3e 86 a3 3d 8e d9 d5 bc bb 6d 39 3d 2a 95 53 bd
       0.07984589 -0.026104715 0.045270663 -0.051655926
000300 92 1b 87 bc 12 01 da 3d 52 0d 63 3d 72 c5 2f 3d
       -0.016492639 0.106447354 0.055432625 0.042912908
000310 1a 69 5a 3d 06 9a a4 3d 0a 23 17 3e 15 b9 ed 3d
       0.05332289 0.0803719 0.1475946 0.11607567
000320 37 ea 43 3e dd 7c aa 3d 87 79 0a 3e ba bd 9c 3c
       0.19132315 0.08324597 0.13522922 0.019133437
000330 12 ca af 3d ea 5c 78 3d 4d a9 11 3e 9a 09 71 bd
       0.08583464 0.060635485 0.1422474 -0.058847047
000340 60 11 ba bd bd 7f 9f 3d cc ea 41 bd 24 f5 e9 3d
       -0.09085345 0.07788036 -0.04734306 0.1142371
000350 68 1c 4a 3d 23 32 00 3e ff a9 0a 3e 1f fa 8f bb
       0.049343497 0.12519126 0.13541411 -0.0043938304
000360 ab 4c 6e bd 87 f4 1b be 31 94 9c 3c 9c 60 0e 3e
       -0.058178585 -0.15229999 0.019113632 0.13904041
000370 8f bb 54 3e 44 54 b3 3d 85 51 af 3d 29 90 1f 3e
       0.20774673 0.08756307 0.085604705 0.15582336
000380 f0 bb 54 3b 0d e9 d3 3e 6a 00 b8 3d 9d 17 98 bd
       0.0032460652 0.4138874 0.08984454 -0.07426379
000390 46 26 fb bc 92 ab 53 3e 6d e1 64 be d7 64 f4 bc
       -0.030657899 0.20670918 -0.22351618 -0.02983324
0003a0 35 31 1e 3d 37 e2 43 bd 3a d8 7e 3d ba 6a b9 3d
       0.038621146 -0.047823157 0.06221793 0.090535596
0003b0 ec 0e 27 be 57 fc c8 bd fc f3 28 bd 58 89 d5 3d
       -0.16314286 -0.09813755 -0.041248307 0.10426587
0003c0 84 1b f2 3b 82 5b 9b bd 54 33 ac 3d b7 8c 77 bd
       0.007388534 -0.07585813 0.084082276 -0.06043693
0003d0 2f aa a6 3c 07 40 09 be 03 63 2d be 6d fb 34 3d
       0.020344822 -0.1340333 -0.16932301 0.04418509
0003e0 25 4c 4d 3e 7c 7f a3 bd 1f 13 3c be e3 34 bf 3d
       0.20048578 -0.079833 -0.18366669 0.09336259
0003f0 31 af 1c 3d eb ec c3 3c bd 65 1e 3e 47 81 4a 3c
       0.038253013 0.023916682 0.15468498 0.012359924

action_model._discrete_distribution.branches.2.bias f4 [3]
000000 8b 10 d4 3b 58 74 66 bd d5 90 61 3d
       0.0064716986 -0.056263298 0.055069763

action_model._discrete_distribution.branches.2.weight f4 [3, 216]
000000 62 b2 25 bc 52 b8 36 bc f8 0b 47 bc 0e 78 d0 3d
       -0.010113331 -0.011152344 -0.01214885 0.101791486
000010 ef be 0b bd 72 11 a0 3d 28 f3 f3 3b cd 27 74 3d
       -0.034117635 0.078158274 0.007444758 0.05960827
000020 0d b2 28 3d b6 36 9c bb 32 d0 63 bd 74 dd f4 bb
       0.041185427 -0.0047672642 -0.055618472 -0.0074726883
000030 46 e7 28 be 90 63 90 3d 0b 63 22 be 04 d3 5a 3c
       -0.16494474 0.0705024 -0.15858094 0.013355974
000040 05 b8 b0 bb af 0a 3f bc b4 49 20 3d 1a 6a e5 bd
       -0.0053930306 -0.011660262 0.03913279 -0.11201878
000050 54 86 0e 3e 20 d7 4c be df 91 38 be 70 9d 44 bd
       0.1391843 -0.20003939 -0.18024395 -0.048001707
000060 21 75 9a 3d b0 4c 14 be 8f 78 e6 3d cd e0 b8 3c
       0.07541872 -0.14482379 0.112534635 0.02256813
000070 93 78 6c 3e 59 18 0a 3d a7 a7 99 bd 98 f0 69 3d
       0.2309287 0.033714626 -0.0750268 0.057114214
000080 df 65 fc 3c 61 28 68 bd c4 1f a3 3d 75 7c b4 3d
       0.030810295 -0.056679133 0.07965043 0.08812801
000090 f6 ef 3d bb a4 49 cb 3b 74 53 f2 3c 54 be 5d bd
       -0.002898214 0.006203847 0.02958081 -0.05413659
0000a0 80 3d 9a 3b a3 79 f0 3c ac fe 5a bd 12 c8 ea bc
       0.0047070384 0.029354876 -0.05346553 -0.028659854
0000b0 cd 6e 06 ba e4 29 db bd f4 01 97 bc bc b9 fb 3d
       -0.0005128205 -0.107013494 -0.018433549 0.122912854
0000c0 4a bd 80 3c 5a 57 ac 3d 1b af 78 3d a2 a1 93 3e
       0.01571526 0.084150985 0.06071387 0.28834254
0000d0 14 1c 05 3d ee a4 04 3e 70 9f 9c 3d ce 5a 05 bd
       0.03249748 0.1295354 0.07647598 -0.0325573
0000e0 90 62 ce bc 94 9a ac 3b 7f fa 8f bc 4a 3c e9 3d
       -0.025193483 0.0052674506 -0.0175755 0.11388452
0000f0 2e 29 51 bd 16 70 9b 3c 78 f1 5e 3d 36 d7 1e 3d
       -0.051064663 0.018974345 0.0544295 0.03877946
000100 3d 5c 07 3e a3 56 4a bd 8d 46 83 bd a3 3b c5 3d
       0.1321878 -0.04939903 -0.06409941 0.096305154
000110 0c ba fb bd 72 39 d3 bc 6a 14 42 3e d8 85 02 be
       -0.12291345 -0.025784228 0.189531 -0.1274637
000120 c4 fa 90 3d 4d 4f 12 3b 93 a0 5f 3e 31 be f9 bc
       0.0707908 0.00223251 0.21838598 -0.030486198
000130 9f c3 3b be 8c a7 fe 3d 32 41 8d 3d 0e c0 90 bd
       -0.18336342 0.12434301 0.06897201 -0.070678815
000140 41 17 b3 bd d2 68 9d bd 94 f7 84 be 6a 62 80 bd
       -0.0874467 -0.076860085 -0.25970137 -0.06268771
000150 33 c0 dd bd 0d 1c a4 bd bf 3d 98 3d 17 6e 83 3d
       -0.10827675 -0.08013163 0.07433652 0.06417482
000160 08 cd 48 3d 8a cf 46 3c ca 77 b4 3c c5 39 2e bd
       0.049023658 0.012134442 0.022029776 -0.042535562
000170 93 03 94 3d 67 3b 3d 3d a0 19 53 3e 1e 04 1f 3e
       0.07227244 0.04619923 0.20615244 0.15528914
000180 65 bc 11 3d 58 64 e2 ba c8 57 bd 3c c6 d6 9b bb
       0.035580058 -0.0017272336 0.023113146 -0.0047558276
000190 08 ba 94 3c c3 d5 2c 3d fd 0d 07 3d c3 05 b8 bb
       0.018155113 0.042196047 0.032972325 -0.005615921
0001a0 01 6e 35 3b c7 04 d6 3d 55 02 13 be ab e8 0c 3e
       0.0027683976 0.1045013 -0.14356358 0.13760631
0001b0 c0 d7 0b 3d 00 1c f2 3c d2 12 d6 3c 40 27 04 3e
       0.034141302 0.029554367 0.026132021 0.12905598
0001c0 c6 32 17 bc 75 43 92 3d 10 53 67 3c e5 6d ce bc
       -0.009228414 0.07141773 0.014118925 -0.025198886
0001d0 ac 39 a2 bd 14 26 86 bd ca 82 2d be 9d 79 cb bd
       -0.07921156 -0.065502316 -0.16944423 -0.09935305
0001e0 ba ab d6 3d 6a 61 b1 bd 86 d7 87 bd 0b fc ae bd
       0.10481973 -0.086611584 -0.06632905 -0.08544167
0001f0 57 e2 04 3e bb 07 81 3c 3d 26 fd 3d 2c 39 b5 bd
       0.12976967 0.015750756 0.12360809 -0.08848795
000200 fc 15 68 3c 1b d8 90 3d 5c 40 06 3d 07 9c a7 3d
       0.014165398 0.07072469 0.03277622 0.08184057
000210 49 1d 67 3d a0 02 40 bd be ef 46 3d 4d 9a b6 bc
       0.056424413 -0.046877503 0.04856848 -0.022290373
000220 c7 06 dd 3d 6e 07 37 3c 6b 30 c0 3d f5 5a 23 3e
       0.10792308 0.011171205 0.09384235 0.15952666
000230 c3 b9 09 bd d8 3b 3a bd be 75 28 3e bc d0 2e bd
       -0.03362442 -0.045467228 0.16451165 -0.042679533
000240 ca d5 09 3e 12 4d 8a 3c fb 86 94 3d b1 e0 04 3d
       0.1346046 0.016882453 0.07252308 0.032440845
000250 09 e8 28 bd ae 9a 50 bb 42 b9 a2 bc cb 16 9d 3d
       -0.04123691 -0.0031830478 -0.019863728 0.07670363
000260 60 06 df 3d 31 57 0d bc 9f 33 98 3d 6b 4f 5a 3d
       0.10889888 -0.008626745 0.07431721 0.053298395
000270 94 9a 93 bc 5a 51 e4 3c 50 ba 9e bd 4b d5 bf 3d
       -0.018018045 0.027870823 -0.0775038 0.09366854
000280 2e aa 37 3e 9b e6 e5 3b c9 70 1c 3d 06 43 a8 bd
       0.17936012 0.0070160157 0.038193498 -0.08215909
000290 95 c9 f6 bb 92 a5 e3 3c 0a 47 8b 3c ea 9b cc 3d
       -0.0075313547 0.027788911 0.017001648 0.09990676
0002a0 0c c9 69 bd d7 4b 18 bd 17 6f 76 bd d4 16 7e 3d
       -0.0570765 -0.0371817 -0.060164537 0.06203349
0002b0 fa 22 98 bc 7c 53 0a 3d ac 43 11 be 5e 27 74 be
       -0.018571366 0.033771023 -0.14185971 -0.23843142
0002c0 37 70 3b 3c 5d 35 8e 3d 58 05 06 be 8b 8b 91 3d
       0.011440328 0.06943772 -0.13087976 0.07106694
0002d0 74 d3 40 be 86 56 7d bd 45 45 d8 bd 86 27 05 3e
       -0.18830663 -0.061850093 -0.10560087 0.13003358
0002e0 26 78 13 be ba 57 10 3c a4 4d ff bc dc 2b fc bd
       -0.14401302 0.008809978 -0.031164952 -0.12313053
0002f0 75 9f 83 bb 38 94 96 3d 7a f6 50 3e ae 98 f9 bd
       -0.0040168115 0.07352489 0.20406523 -0.121873245
000300 df f1 32 be ff 91 2e 3d 26 0b 0a 3e a7 de f3 3d
       -0.17475079 0.0426197 0.13480815 0.11907702
000310 79 fa 09 bc dd e5 3f be ad 2b 5c 3e 9f f6 7e bd
       -0.008421534 -0.1874003 0.21501036 -0.062246915
000320 a6 50 0d 3c 2e 7c cd 3d 16 aa 9b 3d a1 19 56 be
       0.008625185 0.10033451 0.07600801 -0.20908214
000330 03 e4 0a bd 38 05 90 be 93 8c 32 3d a4 9f ae bd
       -0.033908855 -0.28128982 0.043591093 -0.08526543
000340 ed 0a 7d bc bf 9d 9f bc eb b9 9d 3d 2b 61 ae bd
       -0.015444499 -0.019484399 0.07701477 -0.08514627
000350 11 b8 26 bc 70 77 3c 3e 64 eb e1 bd df fd 4d bc
       -0.010175721 0.18404937 -0.11031225 -0.012572735
000360 46 ef 43 3d 71 24 ed bc 03 eb 71 3c 37 55 f1 bc
       0.04783561 -0.02894804 0.014765504 -0.029459579
000370 49 5f 4f bd 64 9d f8 3c 44 08 11 3c bd 31 7c bd
       -0.05062798 0.030348487 0.008852068 -0.06157087
000380 be 81 78 bd 8b 02 69 3d c7 73 76 3b fe be 96 bc
       -0.060670607 0.05688719 0.003760563 -0.018401619
000390 03 d4 38 3d 45 31 e4 3c 28 8a 15 3e 48 94 bb 3d
       0.045124065 0.027855525 0.14603484 0.09159142
0003a0 3f 6e b0 bd ef 63 46 bc fe 4a 93 3c f5 04 36 bd
       -0.08614778 -0.012108787 0.017980095 -0.04443832
0003b0 5f 51 56 3c 50 6d 80 3a d1 58 91 bd 5b 8a 57 3d
       0.013080924 0.0009798203 -0.070970185 0.05262218
0003c0 d4 74 b1 bd c3 f8 d0 3d 8f 67 a2 bd de ac 0a 3d
       -0.08664861 0.102036975 -0.079299085 0.033856265
0003d0 d4 83 24 be c1 69 51 3d 69 3c 18 3b 59 48 ce 3c
       -0.16065913 0.051126245 0.0023229367 0.025180982
0003e0 3d d1 34 bd db 5f d6 bd dc b9 d0 3d b4 e4 a9 3d
       -0.044144858 -0.10467502 0.101917 0.08295575
0003f0 05 b6 a7 3a 7f 5b d6 bd 22 28 a7 bc 81 f5 2a 3d
       0.0012795335 -0.1046667 -0.020404879 0.041738037

network_body.linear_encoder.seq_layers.0.bias f4 [216]
000000 e1 48 e3 bb 70 89 63 3c b7 01 12 3c 18 38 14 3d
       -0.006936178 0.013887748 0.008911542 0.036186308
000010 ee da 49 3d a4 4d 90 bd 77 e4 b1 3c 63 ad 80 3a
       0.049281053 -0.07046059 0.021715386 0.0009817298
000020 99 4c 3b bd 6d d8 ce b8 71 64 11 bd dc 28 2b bd
       -0.045727346 -9.863158e-05 -0.03549618 -0.041787013
000030 ed 1e ea ba 85 44 2d bd 5f f6 30 bd 86 9b 97 ba
       -0.0017862 -0.042301673 -0.043203708 -0.0011566735
000040 b3 80 3a bc 18 61 c0 bc 8d 97 18 bd 34 ac a5 3d
       -0.011383223 -0.023483798 -0.037253905 0.08089486
000050 3d fa 1f bc a2 5a 9a 3c 8a aa 49 3d 3d 2f 1c bd
       -0.009764251 0.018842045 0.049234904 -0.038130987
000060 c2 34 55 bd 71 07 0c bd e4 77 be bd ea 1c 18 3d
       -0.052052267 -0.034186784 -0.09300211 0.03713695
000070 21 cf ea bc 43 0c a5 3c 25 79 f5 3d c2 7a 80 3b
       -0.02866322 0.020147448 0.11985997 0.003920884
000080 1e b9 30 bd d5 67 2d bd b6 de 54 3d 4b 9b d6 3a
       -0.04314529 -0.04233535 0.051970206 0.0016373185
000090 7b 51 82 bb fd ff c2 bd 63 12 88 bd 20 e8 61 bd
       -0.0039769984 -0.09521482 -0.06644132 -0.055153012
0000a0 02 ca 0f 3d ed 81 d7 3c 35 67 a5 bc 02 14 b5 bc
       0.03510476 0.02630707 -0.020190815 -0.022104267
0000b0 0e d6 21 bc ac df 1a bd 66 bf cd bd b4 21 5e 3c
       -0.009877695 -0.037810966 -0.10046272 0.01355784
0000c0 d3 1c 03 bd 09 be d0 bc a9 3b 26 3b e1 d5 e3 3d
       -0.03200991 -0.02548124 0.002536515 0.111247785
0000d0 58 cc 83 3d 4e cd 8b bc fc 8b a7 bc 76 da 10 3d
       0.0643546 -0.01706567 -0.020452492 0.03536459
0000e0 60 37 7d bd 3d 64 a2 bd a0 60 43 3c f2 b4 8b bc
       -0.061820388 -0.07929275 0.011924893 -0.017054055
0000f0 4d 1a 22 bc ce f5 24 bb 7a 15 4e bd a0 79 23 b6
       -0.009893966 -0.0025170925 -0.05031345 -2.4359688e-06
000100 71 e3 3b bd 67 8e f2 3b a4 90 6c bc db 84 0c bc
       -0.045871202 0.0074022296 -0.014438782 -0.008576597
000110 7c 9d d3 bc 94 f4 b8 3b aa 10 06 bd eb ca bf 3b
       -0.02583193 0.0056443904 -0.032730736 0.005853047
000120 3e c6 2f bd 79 7b 2a bd ee 28 1e bd 94 9a 27 3a
       -0.042913668 -0.04162166 -0.038613252 0.00063935784
000130 af 90 10 3d b8 ac af 3c 9c 4e 29 3d 10 5b a8 bc
       0.03529423 0.021444663 0.041334733 -0.020551234
000140 ad 2b 5d 3c 0e 8e 4a 3d 95 21 ad 3a b4 5f 42 bb
       0.013499183 0.04945188 0.0013208861 -0.0029659094
000150 37 24 e8 3c 65 ec 2e 3c 38 60 5f 3b 8d 73 0e bc
       0.028337581 0.010676478 0.003408445 -0.008694542
000160 41 c9 66 3d 93 fb 84 bc 27 f1 45 3c fb 94 63 3d
       0.056344274 -0.016233241 0.012081421 0.055562
000170 75 17 a9 3c 43 2c 8c bd db 50 b5 bb eb db 9d bc
       0.020641068 -0.0684438 -0.0055333204 -0.019269904
000180 7f e2 3c bc 8f 54 a3 3d 57 80 8c 3c 12 1d 73 3d
       -0.01152861 0.07975113 0.017151041 0.059353895
000190 18 26 72 bc f8 bc 54 3c 0d a9 03 bd 0a e8 80 3b
       -0.01477959 0.012984507 -0.03214364 0.003933911
0001a0 be 68 d3 bc bf 05 5c 3b 97 8e 8f bd 6e 80 10 bd
       -0.02580678 0.003357276 -0.07009619 -0.03527873
0001b0 a9 87 c7 3c 55 bd 9f 3d 2e b8 99 3a 64 7b 7d 3c
       0.02435668 0.07799784 0.0011727863 0.015471313
0001c0 25 9c 63 bd 7d 87 89 3b 7c 5a 00 bb db 56 ed bc
       -0.055568833 0.0041970597 -0.0019585183 -0.02897208
0001d0 01 48 67 3b f6 5d a4 3c 4d 08 ac bc e4 cd cf bc
       0.003529072 0.020064335 -0.021000052 -0.025366731
0001e0 1c f0 85 3d b0 17 28 bc fb 7a 25 bd 3a 25 a3 bc
       0.06539938 -0.010259554 -0.040400486 -0.019915212
0001f0 60 a5 80 3c 91 cf 3e bd bc b5 3d 3c df a3 40 bc
       0.015703857 -0.04658467 0.011578973 -0.01175782
000200 f8 8f 19 bd fc 92 1e bd 25 31 26 bc 0b 88 88 bc
       -0.037490815 -0.038714394 -0.010143553 -0.016666433
000210 ed 1d 9f bb 73 04 8d 3c 35 96 89 bd 0f 48 9e bd
       -0.0048558624 0.017214036 -0.06718103 -0.07728588
000220 25 79 98 bd 93 fc 98 3c 49 82 3b bd 1c 52 8e bc
       -0.074449815 0.018675124 -0.045778546 -0.017373137
000230 04 a7 bb bc fc 1d 86 3d e0 a0 9c bc a5 16 74 bd
       -0.022906788 0.06548688 -0.01911968 -0.059591908
000240 c0 95 cf bc 39 b7 92 bd 94 a7 76 bd 32 c4 61 bd
       -0.025339961 -0.07163853 -0.06021841 -0.055118747
000250 14 20 c1 3c b3 89 5f bd 1a 7f 61 bd 97 99 d3 3c
       0.023574866 -0.05457468 -0.055052854 0.025830073
000260 93 d6 47 bd 5a a9 3a bd c9 12 34 bd 77 78 d4 bd
       -0.04878862 -0.045571662 -0.043963227 -0.10374539
000270 8c 89 d8 3c 2e f5 a4 3d 6c 0c 72 bb b0 33 22 bb
       0.026432775 0.08054577 -0.0036933674 -0.0024750046
000280 05 c1 60 bd 01 bb a5 3c 33 c3 70 3d 9e 72 63 3c
       -0.054871578 0.020230772 0.058779906 0.013882307
000290 78 cb 1e 3d cc 0a a4 3b 89 1e cf bc 5e 45 1b bd
       0.03876826 0.00500617 -0.025283115 -0.03790795
0002a0 22 ea 72 bc f7 84 e6 bc 80 12 66 3c 68 5c a1 3d
       -0.014826329 -0.028139574 0.014042497 0.07878953
0002b0 3f b2 55 bd 2b 20 5c 3d 88 79 7a bd 50 c1 12 3d
       -0.05217194 0.053741615 -0.061151057 0.03582889
0002c0 55 b3 af bd 53 22 b4 bb 9e 16 8f 3d be 85 85 bb
       -0.08579127 -0.005497256 0.06986736 -0.004074781
0002d0 dc 79 92 3c 07 47 7e bd cb 7f 45 bc 5b 57 4d 3d
       0.017880373 -0.062079456 -0.012054394 0.050132137
0002e0 20 5c 8d 3d 6b 7b e5 bc c9 68 95 bd a9 65 74 bd
       0.06902337 -0.028012952 -0.07295377 -0.059667263
0002f0 55 5f fb bb 8f 28 b6 3a 37 af ce bd 18 96 09 bd
       -0.0076712766 0.0013897585 -0.10092013 -0.033590406
000300 30 b5 57 bd 9a f8 36 bc fb de 12 3c f9 51 3d bd
       -0.05266303 -0.01116767 0.0089642955 -0.046220753
000310 c2 2e 21 bd 79 99 8e 3d 3f 45 fc bc e3 e5 d9 3b
       -0.039351232 0.06962866 -0.030794738 0.006649719
000320 f1 99 45 3d b1 8b 21 3d 8a 4d bd 3c f5 cc 5c 3c
       0.048242513 0.03943986 0.023108263 0.0134766
000330 d4 91 b8 bd 2a 53 3d bd 6b 93 7c bd 57 b5 6f 3d
       -0.090121895 -0.04622189 -0.061664026 0.05852255
000340 8e 77 03 3d 9c dc ba bd 91 96 2c bc 18 67 81 3c
       0.032096438 -0.09124109 -0.010533945 0.01579623
000350 cf 77 76 bd 3d e4 6d 3a 59 23 06 bd 93 34 e3 bc
       -0.060172852 0.00090748427 -0.032748554 -0.02773503

network_body.linear_encoder.seq_layers.0.weight f4 [216, 121]
000000 f9 07 1c 3d 42 ad 05 3b f6 e8 24 3e 26 06 f3 3c
       0.03809354 0.002039746 0.16104493 0.029666018
000010 c9 8d 07 3e 9a 45 f7 bd 50 37 c1 bd f5 6e 30 3c
       0.1323768 -0.12073822 -0.09434378 0.010768642
000020 b6 3a 4b 3e 8c 57 9f 3e ed b1 0c be 27 07 d0 bd
       0.19846615 0.3112148 -0.13739748 -0.10157614
000030 43 30 90 3d 76 e5 6b 3c d0 fa a9 3c 67 e6 81 be
       0.07040455 0.0143979695 0.02074948 -0.25371096
000040 11 ea 05 be 66 87 80 3b d2 c3 a7 3d 21 1c e9 bd
       -0.1307757 0.0039223908 0.08191647 -0.11382318
000050 ec 5e 8e 3e ac c9 86 be 75 58 9f bd 95 3d ad 3d
       0.27806795 -0.26325738 -0.07780544 0.084590115
000060 9f de ea bd d0 16 bc be 58 f4 7f bd ea 2b 10 be
       -0.11468243 -0.36736155 -0.062488884 -0.14079252
000070 d0 c8 dc 3d 9c e9 e3 3e c7 c9 8b bd 2d ea 72 be
       0.107804894 0.44514167 -0.06825595 -0.23722143
000080 e7 8c 1f be 65 56 1e be a8 e5 47 be ad e5 5d 3d
       -0.15581094 -0.15462644 -0.195212 0.054174114
000090 73 ea 22 be 9e 50 51 bc 8d 81 a9 3c f6 d5 79 3d
       -0.15909748 -0.012775568 0.020691657 0.060995065
0000a0 e5 9f 1c bc 00 08 4a bd ab 72 d8 bc ad 4a 4a be
       -0.009559606 -0.049324036 -0.026421865 -0.19755049
0000b0 cf 2c 37 3d dd b1 66 3e 4b c1 2e 3d ef ad ef bd
       0.044720467 0.22528787 0.042664807 -0.11703097
0000c0 d3 2f 29 ba 88 a3 f2 bd 83 f1 c8 3d 7c 6a c2 3d
       -0.0006453965 -0.11847597 0.0981169 0.094929665
0000d0 67 cb 46 be 9d 04 25 be b2 35 ba 3d 26 49 50 bd
       -0.1941353 -0.16115041 0.09092273 -0.05085101
0000e0 38 ab 5d 3d 8e 43 9a be 12 71 cb bd 49 65 02 be
       0.054118365 -0.30129665 -0.09933676 -0.1273395
0000f0 29 5d f3 ba 14 a3 22 3d df 63 e6 bb 1c 9d 54 3e
       -0.0018567193 0.039706305 -0.0070309485 0.20763057
000100 94 a6 4a be f8 29 2f be ee f6 77 be a0 a5 a4 bd
       -0.19790107 -0.17105854 -0.2421529 -0.08039403
000110 6b 22 d1 bd 23 79 10 3b 81 4a 42 3e 50 b6 f6 3b
       -0.10211643 0.002204486 0.18973733 0.0075290576
000120 f5 16 97 3e d6 be 9d bd f4 7c 98 bd b8 31 4f be
       0.29509702 -0.07702415 -0.07445708 -0.2023381
000130 5d f6 23 3e 52 36 f2 3c 63 f2 43 be 8c 4f 13 be
       0.16011949 0.029566918 -0.19135432 -0.14385813
000140 c2 3f 4f 3e 2d 27 08 be 26 45 71 3e 46 8a 00 3b
       0.20239165 -0.13296194 0.23561534 0.0019613667
000150 81 2a b4 3d ae 5b c5 bc 78 3f 1b 3e 74 f8 0f 3e
       0.087971695 -0.024091568 0.1516093 0.14059621
000160 a3 38 69 be c8 1b 06 3e 0e d1 9a 3d 3c ba 93 3d
       -0.22775511 0.13096535 0.07559405 0.07213256
000170 9c 0c 0e be c2 37 bb 3d c1 eb 00 3c bd e3 f0 bd
       -0.13871998 0.09141494 0.007868708 -0.11762188
000180 bc 21 9f 3c 10 bc ca 3c e9 03 1b be ab 0a ba 3d
       0.019425265 0.024747878 -0.1513821 0.09084066
000190 a8 85 ee 3d 4c 80 dd 3d 6b 25 8d 3d 8f 08 0d be
       0.11646587 0.10815486 0.068919025 -0.13772796
0001a0 0f 5d e2 3d de 47 49 3d 94 64 2c 3e b8 e7 e5 3d
       0.11052906 0.049140804 0.16835243 0.112258375
0001b0 f0 07 3b 3e 05 a8 9e 3c 88 22 01 be 4b 25 0e 3e
       0.18264747 0.019367227 -0.12610829 0.13881414
0001c0 76 5e 01 3e 91 a2 01 bd 73 16 06 be 55 37 cf 3d
       0.1263369 -0.031649176 -0.13094501 0.101179756
0001d0 2a 42 dd ba c0 98 e2 3d 14 9d 5a 3e 50 92 16 be
       -0.001688068 0.11064291 0.21348983 -0.14704251
0001e0 9a 59 aa 3d 69 f2 00 be ae 73 b3 bd f0 76 9f bd
       0.083178714 -0.12592472 -0.087622985 -0.077863574
0001f0 a7 e6 18 bd f0 aa 57 be 12 06 03 3e 01 09 d7 3d
       -0.037329342 -0.21061301 0.12795284 0.10499764
000200 67 ea b8 bd ad f5 33 bd a0 ba 2b 3d 44 d0 08 be
       -0.09029084 -0.043935467 0.041926026 -0.13360697
000210 55 88 8a bd 2c 6c af be 7c 20 01 3d 0b 93 89 3c
       -0.067642845 -0.34262216 0.03152512 0.016793748
000220 42 74 78 bd 57 b3 80 be 83 40 d1 bc a4 b2 a1 be
       -0.060657747 -0.25136825 -0.025543457 -0.31581604
000230 ad 07 14 3e f0 70 05 3e c6 57 1b bc ce 53 54 bc
       0.14456053 0.13031363 -0.009481376 -0.012959434
000240 d3 0a 0a 3e da 3d bd 3d 5b f5 2b be a3 48 14 bd
       0.13480692 0.09240313 -0.16792814 -0.036202084
000250 26 93 4b 3c 2e 6b bb 3e d9 45 3b 3e 35 bf 8c bd
       0.01242522 0.3660521 0.18288364 -0.06872407
000260 50 90 5b bd 97 ed 29 3e 70 b7 50 bc 57 c8 5a bb
       -0.053604424 0.1659454 -0.012739047 -0.0033383572
000270 31 7b 21 bd 13 a3 69 3e cb 35 17 be d3 8f 8b 3e
       -0.039424125 0.22816114 -0.14766614 0.27258167
000280 10 07 a7 bd ec eb a1 bd 75 2e 1c 3e 14 09 80 bd
       -0.08155644 -0.07906327 0.15252097 -0.062517315
000290 0d 98 fe ba 31 15 df 3c 57 86 1f bc 5f 6d 16 3e
       -0.0019423977 0.027231785 -0.009736619 0.1469016
0002a0 0d a4 e1 bc 38 a3 b6 bc c8 59 0f bb a8 0e 98 bd
       -0.027544046 -0.022294626 -0.0021873582 -0.074246705
0002b0 7c 26 f1 3c da 75 e4 bd 96 3d 6f 3e 29 5d 0e 3e
       0.029437296 -0.11155291 0.23363337 0.13902725
0002c0 50 ba 6d 3d 6a e5 42 bd 6b c5 1e be 5f bd 01 be
       0.05803901 -0.047582068 -0.15504996 -0.12669896
0002d0 42 a4 a1 3d da 3f 15 be 1e e3 1c 3d 0d f9 65 3e
       0.07892658 -0.14575139 0.038302533 0.22458287
0002e0 a7 9b e6 3d 85 a0 3a bd 33 9e f7 bd e1 97 0d be
       0.11260157 -0.04556324 -0.12090721 -0.13827468
0002f0 69 82 2e be b7 6e 8e be bc 16 4b be f4 da 93 3e
       -0.17041935 -0.27818844 -0.19832891 0.28877985
000300 94 0d 17 3c 78 40 27 be b3 f5 c4 3d c1 cf 6a 3d
       0.009219546 -0.16333187 0.09617176 0.057327036
000310 5b 4f b5 bb 4c 02 c1 be b6 9e 07 bd 54 87 09 be
       -0.0055331415 -0.37697065 -0.033110343 -0.1343053
000320 e9 a8 42 bc 28 a6 c1 be c4 51 25 3e ee 21 4c 3e
       -0.011881092 -0.3782208 0.16144472 0.19934818
000330 96 38 ba 3c 23 c8 1c be b3 b7 42 3e 82 e5 76 bc
       0.02273206 -0.15310721 0.19015388 -0.015069367
000340 cf a7 df 3d eb 19 25 bd c4 37 9e 3e 99 76 b3 bd
       0.10920679 -0.04030792 0.3090192 -0.08762855
000350 99 87 64 3d e2 99 8e 3e c5 1a 75 be 8d 47 e8 bc
       0.05579338 0.27851778 -0.23935993 -0.02835443
000360 24 b8 02 3c 76 5e 47 be 2b ca 15 bd 95 45 ad 3d
       0.007978473 -0.19469628 -0.036569756 0.08460537
000370 0d c5 c0 bd b1 65 81 be c8 f5 22 be fe 2e 06 be
       -0.094125845 -0.25272897 -0.1591407 -0.13103864
000380 21 53 25 3d 04 6a bf 3d bb 57 14 3e d1 6a f4 bc
       0.04036248 0.09346393 0.14486592 -0.02983609
000390 76 5b d8 bc 86 d3 02 bd 58 ee ec ba 83 f2 85 bd
       -0.0264108 -0.031940006 -0.0018076403 -0.06540396
0003a0 3f 1f b0 3d 62 67 12 3d c3 c3 e1 3d 5d fb 37 be
       0.0859971 0.035743125 0.11023667 -0.17966981
0003b0 ec ba ba 3d bb 64 3b 3c 51 fe b7 be 41 e2 cd bd
       0.09117684 0.01143759 -0.35936216 -0.1005292
0003c0 c5 c7 67 bd 98 ea 8c bb 77 93 54 3d 4d 54 b8 bd
       -0.056587 -0.0043004267 0.051898446 -0.09000454
0003d0 07 78 6a be 2f ac 28 bd 0a de 53 3c 18 c2 22 3e
       -0.2289735 -0.041179832 0.012931356 0.15894353
0003e0 d1 e3 b2 3d d8 69 2b 3e 5f d9 01 bd 57 55 9d 3e
       0.08734859 0.16739595 -0.03170144 0.30729172
0003f0 87 c0 f9 3d 4e 02 ef 3c af ab de bd 93 e1 17 3c
       0.12194925 0.029175904 -0.1087259 0.00927009

network_body.linear_encoder.seq_layers.2.bias f4 [216]
000000 62 f1 be bd ee db de bd 26 90 80 bb 4d 8d 18 bd
       -0.09323384 -0.10881792 -0.003923434 -0.03724413
000010 9c f3 04 be 3a f1 20 3d 55 8d 8b bd 9c 70 6c bc
       -0.12983555 0.03929255 -0.06814066 -0.014431145
000020 e2 ac 85 bd 77 dd b4 bd a0 d8 35 3c aa 56 6f bc
       -0.065271154 -0.088313036 0.011099011 -0.014608065
000030 c8 6e 98 bd 16 03 63 bd 7a dc 5c bd 16 92 38 bc
       -0.07443005 -0.055422865 -0.0539212 -0.011265298
000040 ad f0 49 3d 34 46 0b bd 1c 92 7e bd 9f f6 23 3d
       0.049301792 -0.034002498 -0.06215106 0.040030118
000050 f5 b6 e0 3d 50 b1 0e 3d 87 78 9f bd b2 03 c9 3c
       0.10972396 0.034837067 -0.07786661 0.024537895
000060 21 e7 86 bc 55 d7 0f bd cc 82 0a bb f8 72 c0 bc
       -0.016467633 -0.035117466 -0.002113509 -0.023492321
000070 56 85 74 bd f0 a3 61 3d 84 da b2 bc 7d 38 be 3d
       -0.05969747 0.055087984 -0.021832712 0.09288118
000080 4b db 64 bd 2a c4 0b bd db 36 e7 bd 24 c8 9f bd
       -0.055873197 -0.034122624 -0.1128976 -0.07801846
000090 dd 66 07 bd 9b b3 dc bb 95 0d f7 bc dd 91 b5 bc
       -0.033057082 -0.006735278 -0.030157844 -0.02216428
0000a0 c5 4a 73 bc b8 7f a4 bb a2 6e 4a bd 16 0e ae 3c
       -0.014849369 -0.005020108 -0.049421914 0.021246951
0000b0 3b 45 bc bd 5e 9a 2e 3d e0 26 3d bd ee 93 16 bd
       -0.09192892 0.042627685 -0.046179652 -0.03676217
0000c0 cc 67 a4 bd 90 02 52 3c 1d 66 2f bd 47 db 5d 3d
       -0.0802761 0.012817994 -0.042821992 0.054164197
0000d0 0a a0 8c bb 84 ae 16 bd 28 45 b8 bd 95 d9 08 bd
       -0.004291539 -0.036787525 -0.089975655 -0.033410627
0000e0 e7 ff 3b 3d fc 99 7d 3d e6 b9 c8 bd ae 71 37 3d
       0.045898344 0.06191443 -0.09801082 0.044786148
0000f0 80 c4 58 bd ca 2c 41 3d 20 9a 73 3d 7d 32 c1 3b
       -0.052921772 0.047161855 0.059473157 0.0058959113
000100 0f 83 63 3d 3c f0 a4 bd be a2 c1 bd 5c a0 ee 3c
       0.05554491 -0.080536336 -0.09454869 0.0291292
000110 f1 c0 08 be 80 25 b2 bc b5 a0 3d bd 9a 8b dc bd
       -0.13354851 -0.021746397 -0.04629584 -0.107688144
000120 22 2f 41 bd 24 08 82 bd d1 8e c1 bc db 18 8e 3c
       -0.04716409 -0.06349209 -0.02362767 0.017345836
000130 ab 6b 11 bc fd a8 3e bd 1a c1 fb bc 22 c6 db bd
       -0.008875768 -0.04654788 -0.030731726 -0.1073115
000140 17 55 62 bd fd d5 61 3d 3c 5b af bd aa 9f 4f bc
       -0.05525693 0.055135716 -0.085623235 -0.012672344
000150 58 66 bf bd 10 e4 b2 bd 6f 65 15 bd 95 1f 3c 3c
       -0.093456924 -0.08734906 -0.036473688 0.011482139
000160 c6 7b 5a bd 97 e3 ce bc dc 92 9c bd a3 8c a9 3c
       -0.053340696 -0.025255008 -0.07645199 0.020696944
000170 2d f5 28 bd fb 6f 0a bc 94 d5 a4 3d f9 98 dc 3d
       -0.041249443 -0.00844955 0.08048549 0.10771365
000180 67 f0 a3 3c 02 d4 5a bd 0c 50 58 bd 53 78 80 bd
       0.020012094 -0.053424843 -0.052810714 -0.0627295
000190 b4 2c 6e 3d 98 f5 06 be d3 71 59 b8 90 9c c9 3c
       0.0581481 -0.13179624 -5.184284e-05 0.024610788
0001a0 ff 9f da bd a9 80 ff bc 97 7b 12 bc 5e 1e 88 bd
       -0.10675048 -0.03118928 -0.008940599 -0.06646417
0001b0 81 27 9a bd ea ac 90 bd 82 10 d9 bd f7 93 04 3d
       -0.07527066 -0.07064231 -0.10598852 0.032367673
0001c0 fd 40 05 bd 74 18 d1 3c 78 85 2a bd 41 a5 af bd
       -0.03253268 0.025524355 -0.041631192 -0.085764416
0001d0 48 a4 12 3d a3 e1 93 bd a0 6d de bc 0e c6 c5 bd
       0.035801202 -0.07220771 -0.027151883 -0.096569166
0001e0 58 c2 be bd 44 1f df bc 4f db cb bd ae 25 a6 bc
       -0.09314412 -0.027236588 -0.09953939 -0.020281639
0001f0 8a ee ef 3c 8f cf 45 bd d3 33 18 3d e4 2c 99 3b
       0.029288549 -0.048293646 0.0371588 0.004674541
000200 9f e3 e7 bc fa 92 e5 bb 6b e1 54 bd 12 0c 2f 3d
       -0.02830678 -0.0070060464 -0.051972788 0.04273612
000210 91 33 bc 3c bb 98 8b b9 57 46 e4 3b a6 b1 b3 3c
       0.022973808 -0.0002662594 0.006966393 0.021935295
000220 ea d5 a7 bc 68 cc 31 bd 3c 93 55 3d ca 4b 94 3d
       -0.020487744 -0.043407828 0.052142367 0.07241018
000230 da 94 4e bd 1f 6b 0b be eb 6b 88 bd c3 9d 4b bd
       -0.050434925 -0.13615082 -0.06661209 -0.049711
000240 1e 62 c8 bd 45 e8 d8 3d e1 f8 7c bd 90 96 70 bd
       -0.09784339 0.10591177 -0.061760787 -0.058737338
000250 3e d5 c9 bd 5e 49 00 bd 4f 01 ab bd ed 89 4f 3d
       -0.09855126 -0.03131997 -0.08349859 0.050668646
000260 f6 f6 25 bd 73 7e fd bc 7d 92 71 bd 9e 00 f8 3c
       -0.040518723 -0.030944085 -0.058977593 0.030273732
000270 ac 1d b5 bd 63 4f ee 3c 5f 92 c9 bd f1 ef 3e bd
       -0.0884355 0.029090589 -0.09842371 -0.046615545
000280 a6 95 e4 bc 85 de 3c 3d dd e6 a3 3c 1c c5 06 bd
       -0.02790339 0.04611065 0.020007545 -0.032902822
000290 7b b0 74 3c 5d de ce 39 9d 8d 08 bc 07 13 2f 3d
       0.014934654 0.00039457055 -0.0083345445 0.042742755
0002a0 91 58 6c bd 42 5c 84 3d 17 45 44 bc 67 d5 d0 bc
       -0.05770165 0.06462909 -0.011979363 -0.025492383
0002b0 4f c4 5c bd fc 76 50 3c df 17 6e 3d 96 4f 67 bd
       -0.053898152 0.012723681 0.058128234 -0.056472383
0002c0 52 a7 f6 bd 52 4d b8 bd ea 27 ab 3c 47 61 9f bd
       -0.120436326 -0.08999123 0.020893056 -0.07782226
0002d0 fc 45 01 bd 17 1c 36 bd 24 e8 a0 bd d3 d2 e0 bc
       -0.031560883 -0.044460382 -0.07856777 -0.027444279
0002e0 13 00 10 bd 76 14 67 bd ef b9 0c 3d 35 20 fc bc
       -0.03515632 -0.056415997 0.034357008 -0.030777076
0002f0 84 13 b8 bd e1 a5 c3 bb 4f c2 c5 3c 91 a9 df bd
       -0.08988097 -0.005970702 0.024140505 -0.10921014
000300 91 46 ff 3c 43 95 77 3d 1d 7d 37 3c e9 5a 9a bd
       0.031161578 0.06044508 0.011199263 -0.07536871
000310 df 63 03 3d b4 54 c8 bc 67 ec 02 be d1 05 0c 3d
       0.032077666 -0.024454452 -0.12785493 0.034185234
000320 8c 42 1c bd 0e 72 fa bd 4d c3 00 be e1 27 55 3d
       -0.0381494 -0.122287855 -0.12574501 0.052039985
000330 8a 10 8e 3d 63 07 b8 bc ce 5e ce bd 80 55 8c 3c
       0.06936748 -0.02246446 -0.10076676 0.017130613
000340 3f 1c 9f 3c 6e 19 29 bc a0 39 5d bd b9 51 d2 bc
       0.019422648 -0.010321004 -0.054010034 -0.025673734
000350 3d a8 72 3d f4 d8 6e 3c 2e 21 69 3b f3 36 30 3c
       0.059242476 0.014578093 0.0035572755 0.010755288
