Project/results/VPlayer-FirstButCorrected/VPlayer/VPlayer-6499999.onnx (onnx, 681794 bytes, 15 tensors)

action_model._continuous_distribution.mu.weight f4 [1, 216]
00000000: 5bb2 87bc c670 8a3c 34c5 153d 2efb f1bb
00000010: 6eda ec3c e235 693d b15b 4ebc dcb4 d63d
00000020: 442d 023d 378e 95bc e273 2fbe 3bf0 663d
00000030: eb44 68bc f449 353c ee67 df3d 1932 1d3c
00000040: 5eb7 833d ce7b fabc ab0b f33d a13f 69bd
00000050: 214a 983c bf42 923c 19af 9dbc 048a fa3b
00000060: fd21 c93d c8f8 68bd 91ce a9bc af7c 8f3d
00000070: c611 6bbd eb2f 0abd 9a0c e0bc 5d8b 66bd
00000080: 42a9 c83c 8e4e 0ebc 88ca b03b 618a cd3c
00000090: 2acf 1dbd eb16 da3b 63ab 51bd b8ad 41bd
000000a0: 2729 0d3d 6071 6abd 9e35 e0bc 1a82 a3bc
000000b0: 7577 a6bc 5a3d 99bc 876a 93bd 9b7d 6e3d
000000c0: 7247 4fbd 8521 ccbc 5099 b93c e2a4 22bc
000000d0: cfa1 103b 55f4 40bd 2943 6ebd 9f0d 68bd
000000e0: e151 5dbd b067 bebc 9aec 4bbd 4eea 30bc
000000f0: a393 ea3b 57eb f53c 88eb 1c3d 018a 2b3d
00000100: 57b9 4bbd ca6e f33c 496a 8c3c 0199 853d
00000110: e263 c7bc 7e43 bfbd 2ac8 ca3c 8d7f 81bd
00000120: c60f 493d 0644 acbc 416e 383c ddce d83d
00000130: 1a1a 0abc b07e cebd b97d 80bd 27d0 b73d
00000140: be5a d7bd 8436 d0bd f96f 5dbd 1a03 f33c
00000150: 4489 d03d 7fc3 52bc a07d da3c 1e4a 57bd
00000160: 99fe 8cbc 5ebd 303d 3905 743d ef69 8fbd
00000170: 11ce 1fbb a648 50ba 7447 ae3c 1f48 253b
00000180: 00fa f33b 1fa3 bb3d e339 d9bd 7c33 b13d
00000190: 02c5 ce3d bff2 a23d d6b0 06bd c706 61bd
000001a0: bbb8 aabd 4591 52bc ca2f dcbc 900d 2f3d
000001b0: ad3f 0a3d 2d1a 6cbd 2511 85bd c532 163d
000001c0: cea9 483d 79eb c93d 1068 533d b4d6 b9bd
000001d0: 821c 0a3c ffde 6f3c 2735 0c3d c7b3 a7bc
000001e0: 56c4 fabc d100 d83c 349f 9dbc 0679 1cbe
000001f0: efc4 6d3c 0c4a c4bc c4d5 d1bd 9308 353c
00000200: 21fa 92bd 55ff b03d 2ce1 fd3d 26fb 2bbd
00000210: 8877 98bd 65f4 20bc b11a 0ebc 91c0 0c3d
00000220: 7ac6 293d 0ce2 8fbc 0b72 533d 1a4c 69bd
00000230: 90f6 403d 4ab8 b03d 64f4 633d c8b9 0a3d
00000240: f617 683b e50c c73d a419 b9bd 99eb 763d
00000250: c057 9fbc 03f3 49bd e6f0 f83c 018f 913d
00000260: f1b3 113d ea0b 783d 2a6e b1bc 1ec1 aa3d
00000270: 8feb 19bd 533e 39bd fe0c 3f3b 358e afbc
00000280: 3ec9 a1bc f865 6fbd 4753 7f3d b1c6 16bd
00000290: 215e c5bb 0ac5 24bd a441 c03d 5524 50bd
000002a0: 5564 ca3c 9eea 95bd fa26 cbbc e423 963d
000002b0: e97a b2bc 6246 a3bc b5ab cf3c c4b9 853c
000002c0: d111 9dbd be89 36bd 4c87 603d f5a0 913c
000002d0: 8093 d2bd d26b 243c fd99 183d bac3 8dbd
000002e0: 34ed 933d ca7b ecbb 00d5 04be a19d 6b3c
000002f0: 9f18 d43d c840 05bd efbe 2bbc 9ce6 63bc
00000300: d4bb 2f3d 5deb 7b3d d151 413d 0cf7 b8bd
00000310: df53 cebd 3b18 92bd 507c 863b 5c40 f8bc
00000320: e2e2 7a3c 532f 43bd 1514 0d3d 8ffc 8bbc
00000330: c433 7c3d a3cf d2bc acc9 e43c fd8c 58bd
00000340: 1fcf 87bc d849 a63c fdfe b4bc 7447 48bd
00000350: 6cf0 80bb 67b0 623d 1734 a03d 675a 18bd
-0.016564539 0.016899478 0.03656502 -0.0073846793 0.02891275 0.056936152 -0.012595103 0.10483715
0.03178145 -0.01825629 -0.1713405 0.056381445 -0.014176588 0.011064995 0.10908495 0.009594464
0.06431459 -0.030576613 0.1186746 -0.056945447 0.018590035 0.017854093 -0.019248532 0.0076458473
0.09820936 -0.05687788 -0.020728381 0.070062034 -0.057389997 -0.033737104 -0.027349759 -0.05628525
0.02449477 -0.008685721 0.0053952374 0.025090398 -0.038527645 0.006655564 -0.051188838 -0.04728481
0.034463074 -0.05723703 -0.027369317 -0.019959498 -0.020320633 -0.018706013 -0.07198053 0.058225255
-0.050605245 -0.024918327 0.022656113 -0.009927006 0.0022069102 -0.047108013 -0.058169518 -0.056653615
-0.054033164 -0.023242801 -0.049786188 -0.01079805 0.007158713 0.030019445 0.038310558 0.041879658
-0.0497373 0.029715914 0.017140524 0.06523324 -0.02433962 -0.09339045 0.024753649 -0.063231565
0.04908731 -0.02102853 0.011256755 0.10586331 -0.008429075 -0.100827575 -0.0627398 0.08975249
-0.105153546 -0.10166648 -0.054061864 0.029664565 0.10182431 -0.012863993 0.02667123 -0.052560918
-0.017211245 0.043149345 0.059575293 -0.07002627 -0.00243843 -0.0007945396 0.021274306 0.002521999
0.007445574 0.09161972 -0.10606744 0.08652398 0.1009617 0.079564564 -0.032883488 -0.054938104
-0.08336016 -0.012852018 -0.026878256 0.042737544 0.033752132 -0.05764215 -0.06497411 0.03666951
0.048990063 0.09859366 0.051612914 -0.090741545 0.008429648 0.014640569 0.034230378 -0.020471467
-0.030611198 0.026367577 -0.019240953 -0.15280542 0.014512285 -0.02396109 -0.10245851 0.0110494075
-0.071766146 0.08642451 0.12396464 -0.04198756 -0.07444674 -0.009823893 -0.008673356 0.034363333
0.041449048 -0.017563842 0.05162243 -0.05695734 0.04711014 0.086289 0.05565299 0.03386858
0.0035414672 0.09719256 -0.09038094 0.060283277 -0.019451022 -0.04930402 0.030388307 0.07107354
0.035571996 0.060558237 -0.021658976 0.083376154 -0.03757816 -0.045225453 0.002915203 -0.021430114
-0.01974928 -0.058446854 0.06233528 -0.03681058 -0.006023184 -0.040226974 0.0938752 -0.0508159
0.024706045 -0.0732014 -0.024798859 0.07331064 -0.021787124 -0.019931022 0.025350431 0.016323932
-0.07669414 -0.044564955 0.05481653 0.017776946 -0.1028204 0.010035472 0.03725623 -0.069220975
0.07222977 -0.0072169052 -0.12971878 0.014380843 0.103562586 -0.032532483 -0.010482534 -0.013909962
0.042903736 0.061503757 0.047197167 -0.090314955 -0.10074591 -0.07133528 0.0041041747 -0.030304126
0.015312882 -0.047652554 0.03444298 -0.017088203 0.061572805 -0.025733775 0.027928196 -0.052868832
-0.016578255 0.020298883 -0.022094244 -0.048896268 -0.0039349105 0.05534401 0.07822435 -0.03719559

action_model._discrete_distribution.branches.0.bias f4 [3]
00000000: 113b d13d 535c 55be 5687 af3d
0.10216344 -0.20836 0.08570735

action_model._discrete_distribution.branches.0.weight f4 [3, 216]
00000000: c683 913b 317e bfbd faca 8cbd 7644 14bd
00000010: 23c4 dd3d 0680 57bd e6e0 0ebd 1dcb ae3d
00000020: d9fe bf3c cc7a 5c3d 7ecc 883d 0a74 553d
00000030: 6435 0f3d 9bbe a93d a2e7 d0ba 50bb 23be
00000040: eb56 923d f40b 6cbe 0a1b 0c3d b49c 28bc
00000050: c4e7 19be f997 943c 19b8 b8bd 3527 87bd
00000060: 73cb 403d c300 5ebe c262 00bd bdb3 17be
00000070: fdf9 343e c398 20be a36c 00be 13c3 49bd
00000080: 3504 11bc b738 46bb ab63 a53d 4ce4 2a3d
00000090: 3355 113d 51da 5f3b 9900 bebd a738 943d
000000a0: f9bf c23d 311c e43c cdf0 62bd b820 1a3e
000000b0: aaa9 48be 2d21 a83d aab2 b2bd f642 b2bd
000000c0: cbc3 043e 1dd3 21be 82ac 2bbe a0ef 713d
000000d0: 8c4d 81be 333d 733d ff9f bebd c493 27bb
000000e0: 78a4 26be 0881 f43c ed12 bcbc 9a76 693d
000000f0: 5f0a ec3c 632e 903b ad1e 4e3d 9a30 cfbb
00000100: ecb4 433e 38bd 25bd 4bb8 a33d 66cd a9bc
00000110: 4b26 14be e0d0 013d 24c2 193d a2f1 ffbd
00000120: d8ce 2d3d 0687 eaba 8af0 503d 064d 043d
00000130: cbe6 743d cf90 96bc 450d 10be 6abb 9fbd
00000140: 6802 14bc 72f4 0b3e 2348 b0b9 ee5c 553d
00000150: 096d f6bc d7bf 9e3d f1af af3d 21a8 f0bc
00000160: ac65 98bd 66da ffbc 5d51 3bbd 169c f7bd
00000170: 4734 b93d ac4e 9539 738c 05be f1d3 0fbd
00000180: 9789 ad3b 43a0 a1bd 96a0 a8bd 114d 8bbc
00000190: 548d b1bd 9537 b5b8 f59e 653d 4ad5 60bc
000001a0: 9f21 35be 18a0 18be d8b4 32be 46b4 bc3d
000001b0: cca1 4d3d c23c bc3d a728 86bd 981c 61bd
000001c0: cfaf 44bc 82c8 0abd fce4 903d 9808 633d
000001d0: cc58 91bd 8b68 15be c6d3 8cbc 7cde 223c
000001e0: c409 a03c 2681 5d3a 9991 00be 68ec dfbd
000001f0: a288 ea3d 78c1 52be cab9 eabd e7be a3bd
00000200: 6a71 b8bb c704 38be 04e0 eb3a 5b3e 22be
00000210: 7e89 1a3c 8f25 7e3c 130c b1bd b35e eebd
00000220: accc 2ebe 8cc6 27be 79be 2bbe 855d 43be
00000230: b8cb 533d 57c0 b0bd 72d4 a3bc 9904 85bd
00000240: a322 4fbd 196a 933d 7f16 0f3d 4b84 c03d
00000250: b91d 9dbd 2543 e9bc 7b0b 9c3e eff1 3ebd
00000260: d2a1 49bc d53e 1abe 7df5 873b 592a 783d
00000270: 94e0 9cbd 2b67 25be 0b9a 47be c0c3 0abe
00000280: a993 943d 3369 173b b5d4 ad3c 313d 03be
00000290: e099 08be 79ab 3fbd 5291 debb 7ff4 103d
000002a0: b292 13be b097 043e ad90 d23d eaa2 39bd
000002b0: 0c70 e7bd ac42 a43c f1d9 64bd dde0 e0bd
000002c0: ad73 94bd 29ba 9a3d 7a29 2f3c 4f39 56bc
000002d0: ff4c 4abe 7f69 3c3d f92c dbbd 8957 27be
000002e0: b618 ab3c f405 30be 2e0f 0b3a 6ddc 45bb
000002f0: e6a4 133c af8c d5bc 3def fdbc 6662 b73d
00000300: e38c 1dbe ec7a c93c c001 10be 5439 f2bd
00000310: f699 163d a63c 25bd eace fbbc d974 2e3e
00000320: 0d22 513e c2c6 ef3d fdd2 7cbc f7d6 bfbc
00000330: 587f aebc 9304 32bd 014c 333e c62e 843c
00000340: 11b3 8bbe 8a93 6fbe 9afb cd3d 14da e43d
00000350: 6e06 e9bd 1470 6bbe 2d18 e2bd df12 b1bc
00000360: 1dda 643d 4e25 da3d ec3a 0a3d 9c52 233c
00000370: 19a3 013c 0914 213d d7ac b93d d2e6 6d3d
00000380: fbf9 f63d 9d35 29bc 336d dd3c 7afc a93d
00000390: 5944 f93c 3701 30bb 2aa8 5d3e 0b4a 853e
000003a0: 9ffb 10bc 7483 0f3d 4c5b 433d d2f4 b2bd
000003b0: d4e8 f23d 575a b33d 57b9 6b3d b1a9 1abe
000003c0: b43b 06bc bf01 f53c 6949 6a3d 0fcb b5bc
000003d0: c781 343b d000 27bd a154 59bc 0f11 c3bd
000003e0: 7ca9 a23d e0a9 68bd def4 abbd 1659 6cbd
000003f0: 33e5 b2bd c39f 7a3d 802e f43c d975 073c
0.0044407574 -0.09350241 -0.06874652 -0.036198102 0.10828426 -0.052612327 -0.03488245 0.085348345
0.02343695 0.053828046 0.06679629 0.052112617 0.034963027 0.08288308 -0.0015938173 -0.15989423
0.071454845 -0.23051435 0.034205474 -0.010291267 -0.15029818 0.018138872 -0.09019489 -0.06599275
0.047069024 -0.21679978 -0.031344183 -0.14814658 0.17673488 -0.15683274 -0.12541442 -0.049258303
-0.008851101 -0.0030246207 0.08075651 0.041721627 0.035481643 0.0034157226 -0.09277458 0.07237368
0.09509272 0.027845474 -0.055405427 0.15051544 -0.19595972 0.08209453 -0.08725484 -0.08704178
0.12965314 -0.1580319 -0.16765025 0.059066415 -0.25254476 0.059384536 -0.093078606 -0.0025570253
-0.16273677 0.029846683 -0.022958243 0.056997873 0.02881354 0.004400061 0.050322223 -0.0063229324
0.19111985 -0.040463656 0.079941355 -0.020727824 -0.14467733 0.03169334 0.037538663 -0.1249726
0.04243359 -0.0017893023 0.051010646 0.032300018 0.059790414 -0.018379597 -0.14067562 -0.07799418
-0.009033777 0.13667467 -0.00033623082 0.052090578 -0.030081289 0.07751434 0.0857848 -0.029377045
-0.07441267 -0.03123207 -0.04573189 -0.12090318 0.09043174 0.0002847811 -0.13041858 -0.035114232
0.005295943 -0.078918956 -0.08233754 -0.017004522 -0.08669534 -8.6411055e-05 0.056059796 -0.013722727
-0.17688607 -0.14904821 -0.17451799 0.09214072 0.05020313 0.09191276 -0.065507226 -0.05495891
-0.012004807 -0.033882625 0.07074925 0.055428118 -0.07097015 -0.14590661 -0.017190825 0.00994074
0.019535907 0.00084497256 -0.12555541 -0.10933763 0.11451842 -0.20581615 -0.11461218 -0.07995396
-0.0056287544 -0.17970572 0.0017995839 -0.15844099 0.009432195 0.015511884 -0.08644881 -0.11639156
-0.17070264 -0.16384333 -0.16771878 -0.19078644 0.051707953 -0.08630436 -0.019998763 -0.064950176
-0.05057014 0.07197971 0.034933563 0.09400233 -0.07671685 -0.0284744 0.3047751 -0.046617445
-0.012306647 -0.15063031 0.0041491375 0.06058726 -0.076600224 -0.16152637 -0.19492356 -0.13551235
0.072547264 0.0023103475 0.02121959 -0.12816311 -0.13339949 -0.04679439 -0.006792226 0.03538942
-0.14411429 0.12948489 0.10281501 -0.045321383 -0.11300668 0.020051323 -0.055871908 -0.10980389
-0.07248626 0.075550385 0.010691041 -0.013075187 -0.19755934 0.045999046 -0.10701937 -0.16341986
0.020885807 -0.17189771 0.0005304691 -0.0030191198 0.009011483 -0.02606806 -0.030997867 0.08954315
-0.15385775 0.024594747 -0.14063168 -0.11827341 0.036767922 -0.040341042 -0.030738313 0.17036761
0.20423146 0.11707832 -0.015431163 -0.023417933 -0.021300957 -0.043461394 0.17509462 0.016135585
-0.27285054 -0.23396125 0.10057755 0.111744076 -0.113781795 -0.22991973 -0.110397674 -0.021615444
0.05587207 0.106516466 0.0337476 0.009968426 0.007912421 0.039325748 0.0906617 0.058081456
0.12059399 -0.010327724 0.02702961 0.08300109 0.030428099 -0.0026856193 0.21646181 0.26033053
-0.008849054 0.035037473 0.04769449 -0.08738102 0.11860815 0.08757465 0.0575498 -0.15103795
-0.008192945 0.02990806 0.057198916 -0.022191552 0.0027543174 -0.04077226 -0.013264806 -0.09524738
0.07942483 -0.05680263 -0.08396314 -0.057702146 -0.087351225 0.061187517 0.02980733 0.008267843

action_model._discrete_distribution.branches.1.bias f4 [3]
00000000: e32f 0dbd e66b 043e f9a3 c4bd
-0.034469496 0.12931785 -0.09601588

action_model._discrete_distribution.branches.1.weight f4 [3, 216]
00000000: a1f3 9e3b 9490 003e 2936 ccbd 5ecb 58be
00000010: 568e 1cbe 0161 2dbd cfe1 dcbd a286 883d
00000020: 992c 9e3d 83bb 73be 12ed d5bd 9370 af3d
00000030: 0542 bc3d 0e2a edbd 33f7 103e 6520 36bd
00000040: b080 aebd 5f34 0fbd bd28 113c a20e fcbd
00000050: c8b5 673d 57c3 123e dd96 ad3d b9db ebbb
00000060: 90ea 3f3d 3637 a33d 0b43 15be 54f8 583d
00000070: ecd4 62bd 9f05 6b3d 7c5d 973d cb5d 943c
00000080: e13d 0fbe 71de 143e e49d afbd b495 443d
00000090: d6d4 f5bd 8ded 38bd 3339 c1bd fe19 e8bd
000000a0: 2408 813e 216e cabd e32e 18bb fc0d 213e
000000b0: b329 e73d 301d c33c 3200 bebc 41a0 9dbd
000000c0: a088 bf3d d6de 5e3d 29af 24be 5db4 423e
000000d0: 59ab b73d fbd4 7f3c 44d1 8a3c ab27 323e
000000e0: c768 d4bd 36d0 05be c5c4 00be ff7c 73be
000000f0: 11a7 213c c46e 3cbd c71c 4fbe c948 163d
00000100: 2a9d e93d c89e 903c 63f1 3abe 6ec4 513c
00000110: 215a 933c 0fb1 f9bd 6f28 dfbc 8ec5 02be
00000120: c4cd 2b3e 10c5 473d c330 683e 1b20 993d
00000130: 783d 49be 491f eebd 20d3 17bd 14bf 193d
00000140: d964 e4bd 70ef b43d 4b70 c73c cf1e 273d
00000150: 228f d4bd 7be5 dd3d 27e6 a4bd 2edb 043d
00000160: 1af0 8b3e c084 b7bd e6e2 763c 0967 563d
00000170: 7f6b 92bd 05ff 623d 1b61 793d 56a0 363d
00000180: f5f7 503e d709 50bb ba70 023b f1f3 7a3e
00000190: 39a9 5e3b 431a bbbd 97a0 2d3c 19e7 e8bb
000001a0: 4b65 793d d268 ab3d 404b 503d 77bf 403d
000001b0: 323f f53c 8a18 843d 4e45 2b3b 90f3 b6bc
000001c0: 7e9e 2d3d 8250 43bd 71b9 d03d b450 32be
000001d0: 03c3 93bd 8894 883d 1b88 803b 1ccd 2ebe
000001e0: 05ec 4b3a 60a1 273d 7f75 073e 84f8 a43d
000001f0: 8fc0 d73d 3994 873d ecaa 13bd 1266 4b3e
00000200: 634d 0fbb 9bc8 e63c 98a7 00bd da10 1e3d
00000210: 1ff5 c5bc 866a 7bbc 60c2 b7bc 0a28 1dbe
00000220: c701 ae3d f800 9ebc a665 fa3d eb25 553d
00000230: c29c 2abe d1da e63d f63f 5dbd c376 163e
00000240: 133b f53d 1657 b53d 69ac d2bc 0d82 7cbd
00000250: 90fb b03d 0215 71bc 2cf4 303d ee8e 25bd
00000260: 4eea 74bc e1bd 3dbc 7325 a13b 6bbd 983d
00000270: 8e3c 043d cd2c 20bc a540 293d d6cc 13be
00000280: bfb9 9abd 5929 e7bd 8678 683d be9e 17bb
00000290: e02f 93bc c882 13bd 372f eebd 3de7 3d3d
000002a0: 0519 19be 4fa4 923d 7c51 17be b299 7ebd
000002b0: 93f0 913d 9ab3 733d 9f52 063e 7475 22be
000002c0: ada1 b8bb 14f6 e1bd 82f6 e4bd 4ad3 dcbd
000002d0: 1e48 df3d c219 f13d 14d0 713d fa50 2fba
000002e0: 1d7e a23c 1794 edbc f8f8 f0bc a945 823d
000002f0: f8bc 053e 1ee7 6ebc ee3b c53c 5d8c 44bd
00000300: f050 1f3c f8fe d13d 7099 cd3d a839 a23c
00000310: 4c07 753d 68c4 b13d f1c1 1d3e f451 ee3d
00000320: 5a1e 3a3e 8785 a93d 039b 0d3e 05b4 a03c
00000330: c349 e03d 029d 343d 2610 253e 6331 12bd
00000340: 917c afbd 02e9 e53d 0e68 14bd fa0b d53d
00000350: 4ee5 fa3c 6167 013e f985 e93d 154e 9bbb
00000360: 63b8 3cbd 6e90 1dbe 2f30 a43c 554e 283e
00000370: a9c1 5a3e 0820 ac3d 3de0 5f3d b970 073e
00000380: 32cb 4eba c03c b63e 588c b13d 86d7 abbd
00000390: 68c7 a6bd 43a8 5f3e a4a4 77be 90e1 46bd
000003a0: 9df7 013d 52dd 0dbd 4319 2b3d bd89 be3d
000003b0: 809b 2ebe 796b 2cbe 6d0e 1dbc 0440 d13d
000003c0: e6c2 55bb 1b05 b8bd 1bad d13d 3477 a7bd
000003d0: 5eb8 623c 827b 03be 4721 19be c991 d03c
000003e0: 4f7d 3c3e 4446 16be 7f9b 30be e499 d23d
000003f0: 04f2 423d 5ca6 cf3c 193e 203e b6b6 c8bc
0.00485082 0.12555152 -0.09971268 -0.21171328 -0.15288672 -0.04232884 -0.10785257 0.06666304
0.0772335 -0.23801999 -0.10445608 0.08566394 0.0919228 -0.11580287 0.14156799 -0.044464488
-0.08520639 -0.034962054 0.00885981 -0.123074785 0.056569844 0.14332329 0.084760405 -0.007197824
0.046854556 0.07969515 -0.14576356 0.0529712 -0.05537884 0.057378408 0.073908776 0.01811113
-0.13988449 0.1453798 -0.08575037 0.04799433 -0.12003486 -0.04514842 -0.09434738 -0.113330826
0.25201523 -0.09884287 -0.0023221306 0.15727991 0.1128725 0.023817629 -0.023193453 -0.07696582
0.09352231 0.05441173 -0.16082443 0.19014116 0.08968229 0.015614743 0.016945489 0.17397945
-0.10371547 -0.13067707 -0.12575062 -0.23778151 0.009866492 -0.04600407 -0.20225821 0.036690507
0.1140693 0.017653838 -0.18256144 0.01280318 0.017987313 -0.12191974 -0.02724096 -0.12770674
0.16777712 0.048771918 0.22674851 0.07476827 -0.19652355 -0.11627061 -0.03706658 0.037535742
-0.11152048 0.088347316 0.024345538 0.040800866 -0.10378863 0.108347856 -0.080517106 0.03243559
0.2733162 -0.08960867 0.015068745 0.052344356 -0.071494095 0.055418987 0.060883623 0.044586502
0.20407088 -0.0031744146 0.0019903616 0.24507119 0.0033975376 -0.091358684 0.01059737 -0.007107627
0.060887616 0.08369602 0.050853014 0.047057595 0.02993736 0.06449993 0.0026133838 -0.022332937
0.042387478 -0.0476842 0.1019162 -0.17413598 -0.0721493 0.06668955 0.003922475 -0.1707043
0.0007779005 0.040925384 0.13228415 0.08055213 0.105347745 0.06620068 -0.036051676 0.19863155
-0.0021866194 0.028171828 -0.03140983 0.03859029 -0.024164734 -0.015345221 -0.022431552 -0.15347305
0.08496433 -0.019287571 0.12226419 0.052038115 -0.16661361 0.11272205 -0.054016076 0.14693742
0.11974158 0.08854501 -0.025716977 -0.061647464 0.08641732 -0.014714481 0.04320161 -0.04041951
-0.014948441 -0.011580915 0.0049177944 0.074580036 0.032284312 -0.009776306 0.041321415 -0.14433607
-0.075549595 -0.11287183 0.056755565 -0.002313539 -0.017967165 -0.036013395 -0.11630099 0.046363104
-0.1495095 0.071602456 -0.14777178 -0.062158294 0.07125964 0.059497453 0.13117455 -0.15865117
-0.0056345076 -0.11033264 -0.1117983 -0.10782488 0.10902427 0.11772491 0.05903633 -0.00066877867
0.019835526 -0.029001279 -0.029415593 0.06360943 0.13060367 -0.01458147 0.024076428 -0.047985423
0.009723887 0.102537096 0.100390315 0.019802883 0.059821412 0.0868004 0.15406014 0.11636725
0.1817564 0.082774214 0.13828664 0.01961709 0.10951569 0.044095047 0.16119441 -0.03569163
-0.08568681 0.11226083 -0.036232047 0.10402675 0.03062692 0.12637092 0.114025064 -0.0047395327
-0.046074282 -0.15387127 0.020042507 0.16436131 0.21362938 0.08404547 0.05465721 0.13226594
-0.0007888555 0.35593224 0.086693466 -0.08390717 -0.081435025 0.2184153 -0.24183899 -0.048554957
0.031730283 -0.034634896 0.04177214 0.09303615 -0.17051506 -0.16837873 -0.009585959 0.10217288
-0.003261739 -0.08985349 0.102380954 -0.08177033 0.013837902 -0.12840083 -0.149541 0.02546014
0.18407176 -0.14675242 -0.17246817 0.102832586 0.047594085 0.025347881 0.15648688 -0.024501186

action_model._discrete_distribution.branches.2.bias f4 [3]
00000000: a2b4 10bc 9d29 49bd f92b 853d
-0.008832129 -0.04911195 0.06502528

action_model._discrete_distribution.branches.2.weight f4 [3, 216]
00000000: 973f ce3c e7a3 b3bc e746 2cbd a198 d23d
00000010: b90b 4cbc 2f45 a13d 8e4e e3bb 52ea 7d3d
00000020: 29ce 3f3d dfbc 323c 21b9 8bbd aa85 3bbc
00000030: b4ae 23be 9dfd ae3d 19c3 2ebe 8d9c f73c
00000040: a8ae debc 6098 bbbc ef49 1b3d 2ba8 fcbd
00000050: 10e3 ed3d fbad 28be 855c 56be 4d77 57bd
00000060: 75e6 c23d f144 0abe 738d c03d 7b4f e3bb
00000070: ff39 713e 9bb9 2abc 12ba 8fbd 9564 0b3d
00000080: 6999 573d 7c89 4cbd 4af5 ec3d a240 dc3d
00000090: f1b3 eebb e757 283c cc3d d0ba 6586 50bd
000000a0: 29ab 7fbb 3903 d93c 4b0d 94bd 64cf 65bc
000000b0: 7b08 033c 8fbe f2bd 918e 25bd eb6f 013e
000000c0: 5a85 383c 2520 b43d 632f e03d fd77 903e
000000d0: edcf 1b3d 2460 0a3e 626d dd3d 98da 57bd
000000e0: e098 8bbc e5f4 513c 775b 67bb 6b0e eb3d
000000f0: 7f92 1abd b631 633b d27a 033d 5b0d 3a3d
00000100: 2992 e63d 0aab 28bd 2243 9dbd 1cdf b63d
00000110: 45a5 cabd c369 83bd 0d77 423e 99c5 1dbe
00000120: 06cf 643d 1b42 053a 014c 523e 8299 84bb
00000130: 1ab3 2abe 4b94 043e 87eb 9e3d e4f7 96bd
00000140: b1a2 bfbd 6e60 b7bd e359 59be f26c 78bd
00000150: 65e3 ddbd 1f9b 6abd 8608 bb3d 321b 523d
00000160: fe8b 3f3d d495 7d3c 0f91 e33c 6bb0 a2bd
00000170: f355 d53d 8414 073d f1d0 373e 841f 083e
00000180: 40be 853c 44c2 bebb 9652 dd3c 093f 833b
00000190: f68e 133d 4bdf 313d c55c c13c 13e6 9dbc
000001a0: f1dd 973b 6ac8 b33d e290 08be d166 013e
000001b0: 93ef 363d 68d2 a5bc 7e1a 8a3d e288 073e
000001c0: 62e6 15bc e34a 923d a48c c63b 0630 24bc
000001d0: 6be0 d5bd cf67 03bd bb4a 33be c109 e6bd
000001e0: 2b0e e23d d39c 8ebd bb66 73bd a6c1 e8bd
000001f0: a155 db3d 3ad3 9cbc defd 083e 1be0 b4bd
00000200: 7c09 e13b 2e1d 993d aeec f23c 60d1 a83d
00000210: b2d2 4d3d 9831 24bd 7177 383d 5a4c 42bd
00000220: 3e6d bf3d 634d 623c a7ce af3d e690 f23d
00000230: 214a e8bb 12dd 0cbd ef4f 193e 76e9 25bd
00000240: 04a0 033e f119 ac3c 27fb 393d f9cb f53c
00000250: 3541 2ebd 6b9e 713d 272a b3bc b80a 9e3d
00000260: 1e44 e23d acc4 9dbb ce0d c13d 3dbc 583d
00000270: cce0 97bc 5e8a 203d fe90 95bd 0bf6 973d
00000280: fa55 423e 5bfb 1f3d e1a7 293d 655e 9bbd
00000290: ef8b 8539 d95b 443d c78f 683c f97a 873d
000002a0: 5f73 9cbd e98d 2cbd 5170 46bd 39ee 843d
000002b0: 13a6 b9bc b963 f03b ea30 13be 5a22 5bbe
000002c0: f28e 06bc 8d0d 6c3d 2ee7 13be 6cea 913d
000002d0: d556 3cbe 2184 90bd eb1b a7bd 2002 0c3e
000002e0: ece4 11be 9f68 0f3d aa8c 14bd 8e72 dfbd
000002f0: 97ea 0d3a e86a b03d 801a 5a3e dc14 ebbd
00000300: f5ed 0ebe 61ab 313d 02d8 ff3d 3f3a f23c
00000310: 7825 3cbc 7793 30be f086 243e bd23 9fbd
00000320: 67a9 373c 6295 dc3d 4cd7 bf3d e1ce 38be
00000330: fc49 1cbd 34a4 8ebe 9c99 ba3c 6028 32bd
00000340: c1b4 47bb 179e 2ebc e887 9f3d 549c 66bd
00000350: a3df 27bc f5d2 3a3e ca0a 03be bcd8 9fbc
00000360: 0fd0 043d 2687 a0bb 9a40 313d f9b0 e33a
00000370: 5ec9 10bd 4cc9 163d 3bbb 44bd 0b65 93bd
00000380: 76b6 6ebd 6937 253d 7c00 2f3c b212 d2bb
00000390: e9d5 833d 670a 36bc 2034 e23d 9438 e83d
000003a0: 43c7 80bd 0a39 4abd 6c88 1d3d d152 5dbc
000003b0: 1d66 173d 3881 07bd 58ae 8ebc 563d 633d
000003c0: fa9d fdbd 275a ce3d 0840 69bd 3f6e 203d
000003d0: 4e1b 28be d822 783c ba41 db3c c3da 0b3d
000003e0: 918d 35bd 7719 96bd 90d9 923d ace5 7b3d
000003f0: 0c71 ebbb 5822 d1bd b96e 9bbc 6e54 7a3d
0.025176806 -0.02192874 -0.042059805 0.10283018 -0.012453967 0.07874524 -0.0069368547 0.061991043
0.04682747 0.010909288 -0.0682242 -0.011445442 -0.15984613 0.08544467 -0.17066611 0.030226016
-0.027182892 -0.022899806 0.037912305 -0.12336763 0.11615574 -0.16472618 -0.20933731 -0.05260401
0.095166124 -0.13502862 0.09401979 -0.006936965 0.2355728 -0.010420228 -0.07017912 0.03403147
0.052636538 -0.049935803 0.11570223 0.10754515 -0.0072846343 0.010274864 -0.0015887558 -0.05090942
-0.0039011932 0.026490794 -0.07229098 -0.014026497 0.007997627 -0.118527524 -0.040419165 0.1264035
0.011262262 0.087951936 0.10946538 0.28216544 0.03804009 0.13513237 0.10811879 -0.0526987
-0.01704067 0.012814735 -0.003530232 0.114773594 -0.037737366 0.0034667081 0.032099552 0.045422893
0.112583466 -0.04117874 -0.0767882 0.089292735 -0.09894804 -0.06416657 0.18990727 -0.15407409
0.055861495 0.0005083398 0.20536806 -0.00404662 -0.16669884 0.12947194 0.07759767 -0.073715
-0.09357203 -0.089539394 -0.21225695 -0.060650773 -0.10834388 -0.05727684 0.09132485 0.051295467
0.046764366 0.015477616 0.02777913 -0.07943805 0.10416784 0.03297855 0.17950799 0.13293272
0.01632607 -0.005821498 0.02701692 0.004005317 0.03602501 0.04342584 0.023603806 -0.019274747
0.004634612 0.0877846 -0.13336518 0.12636878 0.04466207 -0.020241931 0.06743334 0.1323581
-0.009149166 0.0714319 0.006059246 -0.010021215 -0.10443195 -0.03208142 -0.17508976 -0.11232329
0.110378586 -0.069635056 -0.059424143 -0.113650605 0.10709692 -0.01914369 0.13378093 -0.08831807
0.0068675857 0.07476269 0.029653873 0.0824306 0.050249763 -0.04008636 0.045035783 -0.047436096
0.09347008 0.013812396 0.08584338 0.118440434 -0.007088915 -0.034390517 0.14971898 -0.04050585
0.1285401 0.021008464 0.045405533 0.030004488 -0.042542655 0.05898897 -0.021870686 0.07716888
0.110481486 -0.004814705 0.09426461 0.052913893 -0.018539809 0.039194457 -0.07303046 0.07419976
0.1897811 0.03905807 0.041419867 -0.07586364 0.00025471995 0.047939155 0.014194435 0.06615252
-0.07639193 -0.042127524 -0.048446957 0.0649075 -0.022662198 0.0073361066 -0.14374128 -0.21399823
-0.008212792 0.05763011 -0.14443657 0.071247905 -0.18392499 -0.070564516 -0.08159622 0.13672686
-0.14247483 0.035011884 -0.03626696 -0.109105214 0.000541368 0.08614141 0.21299171 -0.11478588
-0.13957961 0.04337633 0.12492372 0.02956879 -0.011483543 -0.17243753 0.160671 -0.077704884
0.011209822 0.1077068 0.093672365 -0.18047668 -0.038156494 -0.27859652 0.022778325 -0.043495536
-0.0030472728 -0.010657809 0.07789594 -0.05630143 -0.01024619 0.18244536 -0.12797084 -0.019512527
0.032424983 -0.0048989234 0.0432745 0.0017371468 -0.03534829 0.036813065 -0.04803012 -0.07197007
-0.058279477 0.040336046 0.010681268 -0.00641092 0.064372845 -0.011110879 0.11045098 0.113389164
-0.06288006 -0.049370803 0.03846018 -0.0135085145 0.036962617 -0.033082217 -0.017417118 0.055478416
-0.12383647 0.10075789 -0.05694583 0.03916764 -0.16416666 0.015145026 0.02676474 0.034144174
-0.04432446 -0.07329076 0.07170403 0.06149833 -0.007185107 -0.10211629 -0.018973695 0.061115675

network_body.linear_encoder.seq_layers.0.bias f4 [216]
00000000: f52a e3bb 6850 113c d2f0 df3b fee2 263d
00000010: 14df 4f3d ec03 95bd 4dd6 b63c b12f a2bb
00000020: 53ec 4cbd e5ce d8ba bc2e 04bd 6a53 2dbd
00000030: a7e9 faba 65de 2dbd 0092 4bbd 8d3b 77ba
00000040: 91d2 13bc d9c5 b8bc 1f0a 12bd c2c9 a83d
00000050: c39b 4fbc 91f0 963c 4ba5 473d 0985 15bd
00000060: 19aa 65bd b059 09bd 06b1 c2bd 3690 1d3d
00000070: d464 fabc 6f04 963c 879d ef3d e5b2 093b
00000080: 0be8 44bd 4aa4 29bd f183 553d 417c 0d3b
00000090: 7278 81bb 9e7f c2bd f56c 8dbd 2a7e 5bbd
000000a0: 231f 173d 9d66 e63c 0c62 efbc ce2e b8bc
000000b0: f23c 2dbc ced2 29bd c7fd cdbd 449b 6c3c
000000c0: ae95 03bd 195b c8bc 5a60 db3a 67bb e63d
000000d0: 3a88 803d a633 a5bc 7282 acbc 61ee ea3c
000000e0: 0ace 7fbd b42c aabd 8269 893b 9b90 93bc
000000f0: 8a05 f7bb b6e0 98bb e2a2 4dbd 8ab2 26bc
00000100: 8849 48bd 0a6d 123c d326 7bbc 14a2 07bc
00000110: 1adb bfbc 90ed 953b c8e3 06bd 926d c43b
00000120: df63 30bd eb7a 32bd 353e 1cbd 650d 693b
00000130: a82a 0d3d f7cd c83c 4abf 313d 94b7 c2bc
00000140: d3a6 3f3c 0d92 4d3d 6523 b739 5311 5bbb
00000150: 846e e43c 2d03 2d3c 6f97 a33a 48e0 11bc
00000160: 5ae9 703d d05c 70bc bb0a 353c 9c6c 6c3d
00000170: 14cd 883c b1f4 91bd a12b 9ebb 1c4e 9ebc
00000180: 9e4e 52bc 87d4 a43d 5bc7 8b3c ea09 7b3d
00000190: 0ec6 5cbc 50a1 623c 5113 0fbd 9633 bd3b
000001a0: a710 dbbc ead6 a3bb bce6 a0bd 983e 0dbd
000001b0: f7f3 dc3c e580 bd3d a43d caba 60b0 683c
000001c0: ccc0 66bd b734 7a3b ac3d 0e39 b77b f4bc
000001d0: 46b1 e03b 9cd3 aa3c ee69 b9bc cc10 ccbc
000001e0: 5b8c 673d 3324 46bc 1233 2ebd b444 aebc
000001f0: d3ac 8e3c ffbc 3abd 3555 6e3c 0508 bcbc
00000200: a5ae 1abd 41cf 24bd c1ef 2abc 410f a3bc
00000210: 11a0 9ebb 182e 913c b7f9 8fbd eab2 a1bd
00000220: 92f5 95bd 0035 8e3c b6f2 3ebd ef28 92bc
00000230: 3067 f6bc 82c7 833d 11f9 a3bc 81b3 7fbd
00000240: 90a0 d4bc 5a0f 90bd a9aa 7ebd 6858 81bd
00000250: 49d9 043d eb7e 60bd f242 6abd eab2 d03c
00000260: 0798 4cbd c053 40bd f3c2 3bbd 75c1 d5bd
00000270: ea19 dc3c 105c a53d 025d 9bbb 080c 55bb
00000280: b1e7 60bd 03ff a73c 95b8 733d 18a7 5e3c
00000290: bd97 213d 9dba ac3b d85a d0bc 70be 1abd
000002a0: dd8a 59bc ad86 d8bc d3da 903c 78ab a03d
000002b0: 09df 66bd 55d9 643d 9fc1 7dbd be72 143d
000002c0: c908 b9bd 6130 35bb c4cb 8c3d afc4 7bbb
000002d0: 98ca 9c3c 66d3 9cbd ff13 4cbc ef75 463d
000002e0: adcd 943d 7934 00bd 9d32 98bd 5efa 74bd
000002f0: 24cc d3bb ecdd 9bbb c29b d0bd 1f0d 0dbd
00000300: 9045 61bd 5cab 45bc 1514 133c 8009 3abd
00000310: 1b6c 2cbd b3dd 963d a31b 0fbd f928 063c
00000320: d345 453d ff1f 223d 9980 a63c 7c8d 3f3c
00000330: 0aff b5bd c398 3cbd d2cf 81bd f49e 843d
00000340: 9d28 153d 6d4f c3bd 5a36 67bc ee1b 7c3c
00000350: fbe0 7dbd b6fd 38bb 9182 ffbc e121 03bd
-0.006932611 0.008869268 0.006834128 0.04074382 0.050749853 -0.07276139 0.022318983 -0.004949533
-0.050030064 -0.0016541152 -0.032271132 -0.042315878 -0.001914312 -0.04244842 -0.049699783 -0.0009431176
-0.009022371 -0.022555279 -0.035654183 0.08241607 -0.012671414 0.018425258 0.04874162 -0.036503825
-0.05607042 -0.0335328 -0.09506421 0.03846761 -0.030565657 0.018312661 0.11699968 0.002101117
-0.048072856 -0.041416444 0.052127782 0.0021588954 -0.003951126 -0.09496997 -0.069055475 -0.053587116
0.03689493 0.028125102 -0.029221557 -0.022483256 -0.0105736125 -0.041460805 -0.1005817 0.014441315
-0.032125168 -0.024457501 0.0016737089 0.11266213 0.06275983 -0.02016623 -0.021058295 0.028678121
-0.062452354 -0.08309308 0.0041934857 -0.01801329 -0.007538502 -0.0046654595 -0.050204165 -0.010174403
-0.04889825 0.00893713 -0.015329081 -0.0082783885 -0.023419905 0.004575439 -0.032932073 0.005994507
-0.043063994 -0.043574255 -0.038145263 0.0035560962 0.03446451 0.024512274 0.043395318 -0.023769177
0.011697489 0.050188113 0.0003493085 -0.0033427074 0.02788473 0.010559839 0.0012481044 -0.0089035705
0.05881629 -0.014670566 0.011049922 0.057720765 0.016699351 -0.07126749 -0.0048269783 -0.019324355
-0.012836127 0.08048349 0.017062834 0.06128875 -0.013474954 0.013832405 -0.03493053 0.005773972
-0.026741339 -0.004999985 -0.07856509 -0.034483522 0.0269718 0.092531 -0.0015429747 0.014202207
-0.05633621 0.0038178393 0.0001356515 -0.029844148 0.00685707 0.020852856 -0.022633519 -0.024910353
0.056530338 -0.0120935915 -0.042529173 -0.021272995 0.017416393 -0.045590397 0.014546682 -0.022953043
-0.03776421 -0.040236715 -0.010433138 -0.019904735 -0.0048408587 0.017722175 -0.07030051 -0.07895453
-0.073222294 0.017359257 -0.046618186 -0.017841784 -0.0300785 0.064345375 -0.020016225 -0.062427048
-0.025955468 -0.07034178 -0.062174473 -0.0631569 0.03243378 -0.05480854 -0.05719275 0.025475938
-0.049949672 -0.04695487 -0.045840215 -0.104372896 0.026867826 0.080742 -0.004741312 -0.0032508392
-0.05490846 0.020507341 0.059502203 0.013589643 0.03945135 0.0052712695 -0.025433943 -0.03777927
-0.0132777365 -0.026431406 0.017682469 0.07845205 -0.056365047 0.055871326 -0.06195223 0.03624224
-0.09034879 -0.0027647244 0.06874803 -0.0038416793 0.019139573 -0.076575086 -0.012455939 0.048452314
0.07265792 -0.03130004 -0.07431529 -0.05980908 -0.0064635444 -0.0047566798 -0.101859584 -0.03443634
-0.05499798 -0.012064781 0.008976956 -0.045419216 -0.042095285 0.073665045 -0.034938466 0.00818848
0.048162293 0.039581295 0.020324992 0.011691447 -0.088865355 -0.046044122 -0.06338467 0.064756304
0.036415685 -0.09536634 -0.0141120795 0.015387518 -0.061982136 -0.0028227395 -0.031190189 -0.03201473

network_body.linear_encoder.seq_layers.0.weight f4 [216, 121]
00000000: 928e 0d3d 2965 383b 4d68 2a3e c938 f33c
00000010: bc71 033e 6e21 eabd 5ecc c5bc f1cb 3e3c
00000020: 2d7a 493e 4816 a03e 4012 03be 88a5 d1bd
00000030: 4cdb 853d b467 ae3c 4f05 963c bc26 81be
00000040: 8314 0bbe ad2d 313c 76c6 a23d 6f1d e6bd
00000050: 4bc2 8e3e 112e 89be 3784 98bd 0654 ac3d
00000060: 3264 eabd 507f bdbe 795e e3bd c97f 13be
00000070: d299 d93d ead2 e43e a9e3 a9bc 405e 73be
00000080: f2dd 1fbe 8ab2 15be 7300 2cbe 37b5 6a3d
00000090: 3620 f2bd 4d99 93bb d306 5e3c 419e 783d
000000a0: fdfd 03bd 889e 77bd 4e81 3bbc 61cb 43be
000000b0: 8862 753d ee74 853e 01a1 c13b 4cbc f1bd
000000c0: 0562 dabc 0c09 92bd 9e65 8c3d e79a bb3d
000000d0: d9cc 41be a453 0cbe 5623 ac3d 2fe1 4bbd
000000e0: 49fb 6a3d ec7d 9bbe 7cbd 0dbe fa1b 0abe
000000f0: 4823 873c bf38 573d be22 efbb d732 543e
00000100: c4a2 37be 05ec 23be 4bd9 77be a096 a4bd
00000110: ec98 d5bd 9beb f43a d022 423e 1021 f33b
00000120: cc4b 9b3e 7784 3abd 3e80 99bd 88b2 4fbe
00000130: 23ca 1e3e af93 213c 5991 44be 4b80 13be
00000140: dfa7 3c3e 02bf debd 0cf9 703e a06c ea3a
00000150: c2fa 8e3d 48c2 e138 5ef3 1a3e 23cb 0f3e
00000160: 100e 67be b698 f83d 45ed 9d3d 5cb3 963d
00000170: 2153 12be e226 b83d 5f12 053b 6d52 e9bd
00000180: f80d 883c 94a2 d13c f5f8 15be dbce be3d
00000190: 3b19 e73d 20c0 df3d b8b8 853d 1f98 0dbe
000001a0: ee8d ea3d c773 2f3d c6b2 2a3e d201 eb3d
000001b0: 0bbe 393e a599 9d3c 982d 02be f8c8 0f3e
000001c0: 9a35 013e d002 f4bc 634a 06be af14 cf3d
000001d0: 1696 07bb 6e76 e03d 0c8b 5a3e d25a 16be
000001e0: b4dc ad3d 7ac5 23be 1001 a5bd f4d1 9dbd
000001f0: 2c97 3abd 3423 5cbe 7968 013e 7f70 e43d
00000200: 5f57 c3bd 1584 3fbd f0c5 173d a3bb 04be
00000210: 0935 9abd d958 b1be 2cb7 013d 321b 4f3c
00000220: ef08 86bd 04a0 82be 1b13 d0bc fad2 a3be
00000230: 3a20 0f3e 5080 093e f1ca 20bc 1fb7 b1bc
00000240: 7d20 033e 7760 9c3d b33b 27be 348e b0bd
00000250: 09fc 45bb dd67 b83e 0dcb 373e 26ae 6dbd
00000260: 448b 74bd 08cf 223e d719 c3ba db8c e6bc
00000270: 178c 77bd 63e1 323e d2fb 1dbe f8a3 883e
00000280: e4aa b2bd a8bc b5bd 06bd 2f3e 0060 e5bd
00000290: 353b 93bc 8ca1 083d 2335 a83c 425e 163e
000002a0: 008a 1cbd 20c1 93bd 3624 1dbd 8a36 d9bd
000002b0: 4392 c63c 9dc4 99bd 4848 823e 6f9e 1f3e
000002c0: a800 5f3d fb68 d7bd 631f f7bd bb65 1cbe
000002d0: 4bae 8a3d 84a0 03be 47da 623c 7447 663e
000002e0: 82d9 e53d acc3 c8bd 9104 0cbe 9599 0ebe
000002f0: 136d 2fbe 6477 8dbe a4b5 57be 5adc 933e
00000300: 813a 0d3c 3e49 26be 9075 b53d 9f0b 5a3d
00000310: fbbc 26bc e81b bfbe 7e8d ebbc c075 09be
00000320: 1aff 4ebc 3f0e acbe a9cf 023e a345 4c3e
00000330: 61a9 b73c b030 e3bd 9835 203e a3aa 74bc
00000340: fe03 df3d d50e 17bd 112c 963e 6c6b a3bd
00000350: b9b3 783d b30d 883e 919d 76be f543 23bd
00000360: 69ca a73b 1359 59be 52b0 2fbd 388c c23d
00000370: e4e8 c9bd bd10 80be 337d 15be 2226 fbbd
00000380: 4f3d f63c 39cb cc3d 9b06 263e c45c 15bd
00000390: cbe3 bebc 8d97 fdbc 4467 dfbb dbf4 83bd
000003a0: 3450 853d f741 143d c106 e33d a60c 3cbe
000003b0: 8b28 b13d 4eba 553c 4a98 bcbe 1601 d0bd
000003c0: fbfe 46bd 74a0 99bb 8b2a 2a3d c459 b9bd
000003d0: a273 63be 6712 31bd 107c 563c 3812 173e
000003e0: f11c 5f3d 079b 293e eb3b 04bd 4beb 993e
000003f0: 220a dc3d fe05 dc3c 9822 dfbd 396b 81bb
0.034559794 0.0028136468 0.1664135 0.029690163 0.12836355 -0.114321575 -0.024145301 0.011645303
0.19675513 0.31267 -0.1279993 -0.10236651 0.06535968 0.021289684 0.018313078 -0.25224864
-0.13582043 0.010814113 0.0794801 -0.11236083 0.2788261 -0.26792958 -0.07447093 0.08414464
-0.11444892 -0.37011194 -0.111020036 -0.14404215 0.10625042 0.44692165 -0.02073844 -0.23766422
-0.15612009 -0.14618888 -0.16797046 0.057301726 -0.1182255 -0.004504359 0.013551432 0.060697798
-0.032224644 -0.06045392 -0.011444403 -0.19120552 0.05990842 0.26065773 0.0059090857 -0.11803493
-0.026658067 -0.07130632 0.068553194 0.09160405 -0.189258 -0.13703781 0.08405177 -0.0497753
0.05736855 -0.30369508 -0.13841814 -0.13487235 0.016496316 0.05254435 -0.0072978428 0.20722519
-0.17933184 -0.16008003 -0.24203984 -0.08036542 -0.10429558 0.0018685939 0.18958592 0.007419713
0.30331266 -0.045536485 -0.074951634 -0.20282948 0.15506797 0.009861871 -0.1919607 -0.14404409
0.18423413 -0.108762756 0.23532504 0.0017885156 0.06981422 0.00010765024 0.151319 0.14042334
-0.22563958 0.12138502 0.07711271 0.07358429 -0.14289524 0.08991791 0.002030514 -0.113926746
0.016608223 0.025590219 -0.14645751 0.09316798 0.11284109 0.10925317 0.06529373 -0.13827561
0.11452852 0.042835023 0.16669759 0.114749566 0.18138902 0.019238302 -0.12712705 0.14041507
0.12618104 -0.029786497 -0.13114314 0.10111367 -0.0020688823 0.10960089 0.21342105 -0.14683083
0.084893614 -0.159933 -0.08056843 -0.07706061 -0.045554325 -0.21497804 0.1263751 0.111542694
-0.09538149 -0.046756823 0.037054002 -0.12962203 -0.07529647 -0.34638098 0.031668827 0.012640761
-0.06544673 -0.25512707 -0.025399735 -0.319969 0.13977137 0.13427854 -0.00981401 -0.021693764
0.12805362 0.07635587 -0.16331367 -0.08620873 -0.003021004 0.3601674 0.17948551 -0.05802741
-0.059703127 0.15899289 -0.001488502 -0.028143337 -0.060436334 0.1746879 -0.15428093 0.26687598
-0.08724001 -0.08873874 0.1716195 -0.11199951 -0.017972568 0.033357188 0.02053315 0.14684394
-0.038217545 -0.0721457 -0.03836461 -0.106061056 0.024239665 -0.07508204 0.2544577 0.15587781
0.054443985 -0.1051807 -0.120665334 -0.15273182 0.06771525 -0.128542 0.013845987 0.22488195
0.11223127 -0.098029464 -0.13673617 -0.13925774 -0.17131452 -0.2763015 -0.21065384 0.28879052
0.008619905 -0.16238877 0.08860314 0.05323374 -0.010176892 -0.37325978 -0.028753992 -0.13423824
-0.012634063 -0.3360462 0.12774529 0.1994844 0.022419633 -0.11093271 0.15645444 -0.014933261
0.10889433 -0.03687938 0.29330495 -0.079794735 0.060718272 0.26572952 -0.24083544 -0.03985973
0.0051205647 -0.21225385 -0.04289276 0.09499401 -0.098588735 -0.2501277 -0.14598541 -0.12263133
0.030058531 0.09999699 0.16213457 -0.03646542 -0.02330198 -0.030956054 -0.00681773 -0.06443187
0.06509438 0.03619572 0.110852726 -0.183642 0.08650311 0.013044907 -0.36834937 -0.10156457
-0.048583012 -0.004688317 0.04154448 -0.090503246 -0.22212079 -0.04323044 0.013091102 0.14753044
0.05447096 0.16563044 -0.032283705 0.30062327 0.1074412 0.026858326 -0.1089527 -0.0039495495

network_body.linear_encoder.seq_layers.2.bias f4 [216]
00000000: 8421 c1bd df3a dcbd da99 1dbb d0ce 04bd
00000010: 3444 07be 650f 193d d3f2 8cbd 9d8b dfbb
00000020: be61 80bd d1e7 b8bd 8443 503c 408b 98bc
00000030: 60a9 9ebd 4251 95bd 0aec 5bbd 5e3b 28bc
00000040: c47d 503d 617b 1fbd 98f6 47bd 057a 2a3d
00000050: 9bd4 dd3d 0498 f13c 96b4 a1bd 03e4 bf3c
00000060: ab08 5cbc 35a4 15bd 6c05 4239 b5c1 0abd
00000070: 0835 89bd 68cb 6e3d 3a8e a6bc 17da c83d
00000080: 5c15 60bd c415 14bd 061e e5bd 0b2b 9bbd
00000090: 6d57 0dbd b95f 9dbb 1738 f4bc c47a cabc
000000a0: 5c52 8cbc e4cc 633b 876f 46bd 612b ad3c
000000b0: b3e2 b5bd a5e3 313d 4535 30bd 530e 1dbd
000000c0: 444a a1bd 65fc 6c3c fc2c 31bd 9ea5 783d
000000d0: 1d56 adbb d3fe b4bc e217 b8bd 14f7 06bd
000000e0: 8a13 2f3d 20b9 773d a52d c8bd 81b1 513d
000000f0: 0b41 4ebd dabf 443d 6e50 7c3d 134d a83b
00000100: 25f0 693d 46f3 abbd 5434 adbd 813d e13c
00000110: 941f 0dbe fcea 84bc 37f7 31bd ef4d dbbd
00000120: c952 47bd dbee 98bd 9e5b a0bc 1b41 a93c
00000130: 902c 01bc 9d10 4dbd 7257 27bd f1ff dcbd
00000140: 7269 2fbd 7786 5d3d d896 b0bd 46ae 1dbc
00000150: 595f bcbd 917c a6bd 9302 36bd a3db 9fb9
00000160: 6e76 65bd 2ed1 d4bc 751c 9dbd 7831 b43c
00000170: ee08 21bd 19eb 3abc b817 a23d 5188 da3d
00000180: 8ae7 973c b40c 69bd e241 5dbd ef3e 71bd
00000190: 3f98 7d3d 0f8a 02be 9568 313a 3e5e e03c
000001a0: 2f01 d7bd 483b ebbc d142 09bc bfbd 74bd
000001b0: 54d4 abbd f400 7fbd 2b0d f1bd 18d7 1c3d
000001c0: 4e31 07bd 237e c63c 19dd 46bd 5f67 b4bd
000001d0: 3428 1d3d 241e b0bd 039e 99bc 68f7 ccbd
000001e0: 89cc bdbd 2d28 e2bc a9d8 cabd f8c6 a4bc
000001f0: baea bd3c ce09 83bd 27d0 1c3d 02db 063c
00000200: aa51 c1bc fddd 8fbb 988c 45bd b623 3a3d
00000210: 967b ce3c 1c44 293a 1a3a 963b 8933 c23c
00000220: d165 a6bc 2f0e 38bd ea34 4c3d c232 953d
00000230: 15b0 4dbd d2d8 0ebe 8060 80bd b412 69bd
00000240: fa30 c3bd cfb7 d33d 4c98 93bd aee9 76bd
00000250: 8192 c7bd f30b 11bd a8e9 abbd 362a 4e3d
00000260: 55de 21bd acb8 1bbd c037 79bd d070 093d
00000270: f779 b3bd a30a f83c 0874 c6bd b640 2ebd
00000280: 464c 17bd bd6a 383d 25bd 7e3c bfee efbc
00000290: 5a2e 563c e20f 083c 95dc d3bb 844c 1d3d
000002a0: 5384 65bd 1ff6 853d 7536 4abc 6ef7 bbbc
000002b0: d748 63bd aa0e 833c 0aeb 813d 22c4 77bd
000002c0: a3a3 f4bd f7af c0bd b1b0 c93c 1c07 a3bd
000002d0: 31b9 f1bc 1352 2ebd a7d0 a6bd 5060 fabc
000002e0: 2b89 02bd 8e5b 6bbd 2ef0 063d 8c5f e3bc
000002f0: dcf3 b6bd 7a5e 5a39 51a9 f13c d2c2 efbd
00000300: 9885 fd3c 5f66 653d ac32 aa3c da8a 99bd
00000310: 30da 413d 7216 10bd 1479 09be 562b 0a3d
00000320: 8bca 15bd a94c 01be d0bc 07be 86fd 573d
00000330: 3adb 943d e003 c9bc be5d c3bd 3eb6 f63b
00000340: 82f7 413c 91b9 35bc 4e7d 5cbd 3fd2 d8bc
00000350: b232 823d 614b 4d3c 1e4b ab3b 14c2 273c
-0.09430221 -0.10753416 -0.0024048002 -0.032423794 -0.13209611 0.037368197 -0.068822525 -0.006822063
-0.06268643 -0.090285905 0.0127114095 -0.018621087 -0.077471495 -0.07290889 -0.0536919 -0.0102680605
0.05090119 -0.038936023 -0.048819155 0.041620273 0.10831567 0.029491432 -0.07895772 0.023424154
-0.013429801 -0.036533553 0.00018503302 -0.03387614 -0.06699568 0.058299452 -0.02033149 0.09807222
-0.05470787 -0.03615357 -0.11187367 -0.07576569 -0.034507204 -0.004802671 -0.029811902 -0.024716742
-0.017129116 0.0034759576 -0.048446205 0.021138849 -0.0888113 0.04342999 -0.04301955 -0.03834374
-0.07875493 0.014464472 -0.04325579 0.06070482 -0.0052898065 -0.022094166 -0.0898893 -0.032950476
0.042743243 0.060479283 -0.09774331 0.05119467 -0.050355 0.048034526 0.06160014 0.005136141
0.057113785 -0.0839601 -0.084572464 0.027495148 -0.13781577 -0.01622533 -0.043448653 -0.10708224
-0.048662934 -0.07467433 -0.019574936 0.020660928 -0.00788416 -0.05006467 -0.04085488 -0.107910044
-0.04282517 0.054083314 -0.08622521 -0.00962407 -0.091978736 -0.08129228 -0.04443605 -0.00030490485
-0.056021146 -0.02597865 -0.076714434 0.021996245 -0.039315157 -0.011408591 0.0791468 0.106705315
0.018543024 -0.05689688 -0.05401791 -0.05889791 0.06191277 -0.12747978 0.0006767598 0.027388688
-0.10498273 -0.028714791 -0.008377747 -0.05975127 -0.08390108 -0.06225677 -0.1177009 0.038291067
-0.033006005 0.024230069 -0.0485507 -0.08808779 0.03836842 -0.08599499 -0.018752104 -0.100081265
-0.092675276 -0.027607048 -0.09904606 -0.020114407 0.023183215 -0.063983545 0.038284447 0.0082309265
-0.02359851 -0.0043904767 -0.048229784 0.045444213 0.025205415 0.00064569875 0.004584563 0.023706215
-0.020312222 -0.0449354 0.04985515 0.07285072 -0.050216753 -0.13949898 -0.06268406 -0.056902602
-0.09530826 0.10337793 -0.07206783 -0.060281448 -0.0974474 -0.035411786 -0.08394176 0.050333224
-0.039518673 -0.038017914 -0.060844183 0.033554852 -0.08763497 0.03027851 -0.096901 -0.042542182
-0.036937974 0.04502367 0.015548025 -0.029288648 0.0130725745 0.008304568 -0.0064655044 0.03840305
-0.056034397 0.065410845 -0.012342085 -0.022945132 -0.055489387 0.015998203 0.06343658 -0.06048978
-0.11945274 -0.09408563 0.024620386 -0.079603404 -0.029507251 -0.04255874 -0.08145266 -0.030563504
-0.031869095 -0.05746036 0.032943897 -0.027755521 -0.08933231 0.00020825295 0.029499682 -0.11707081
0.030947492 0.05600583 0.020776115 -0.07497187 0.04732722 -0.035177656 -0.13425094 0.033732735
-0.036570113 -0.126269 -0.1325562 0.052732013 0.07268377 -0.02453798 -0.09539364 0.007529049
0.011838796 -0.011091606 -0.053830437 -0.02646744 0.063573256 0.012530179 0.0052274605 0.010239143

network_body.linear_encoder.seq_layers.2.weight f4 [216, 216]
00000000: 7ffe 80bd 4d9b d33d 2af9 093e 53d8 0abc
00000010: 4157 603d afd1 5c3d 8d49 5a3e 2bf0 1abd
00000020: d5bb 31be dbd8 8cbd 853d f7bd 87c8 f5bd
00000030: c216 3dbd 50f9 673d b2b9 f03d 5add c63c
00000040: fea5 fcbb 3f7f bc3d bfd6 eb3d f8e4 1bbd
00000050: a931 fd3d b5a0 743e 336b 173c 3075 36be
00000060: 7e77 63bd 518f 01bd 6d20 1abe 572b cfbd
00000070: 1603 8a3c c1e7 afbb 92ac c8bc 10d1 00bd
00000080: 419c f73d a348 5cbd 7ff2 d73c d6bb 063d
00000090: 113a 443d dbea 2dbc 59ca ccbb 5641 873d
000000a0: 7411 173e 9ef3 b8bd c300 69bd 9f42 b73d
000000b0: 1099 d1bc 7c28 3fbd ff56 b5ba 0ba9 81bd
000000c0: a9d9 313d 65c2 f4bd b849 a33e caee 213e
000000d0: 2f3b 413b 8a3c c13d 15e9 a6bc d02a 02be
000000e0: 5f37 72bd d6be f0bd 0635 f0bd f0ed febd
000000f0: 943b 7fbd bedd bb3d 7cb5 e5bd d6ee bb3a
00000100: cf3b 0e3c 718a b1bb 5c7a cf3c e6b6 b93c
00000110: c760 873e a5fc 9abd 0aca fabd 8aa1 bf3b
00000120: 85d9 053e 9418 fabd fcf2 3ebe 3419 fb3d
00000130: f8be b43d 3cc7 1fbd 1523 cbbd 2b3b 84bd
00000140: 36ae ac3d 7f83 33be fc0d 033d 2934 ca3d
00000150: 9f3e f53d a421 f9be c424 87bd bcaa e1bd
00000160: c466 ffbd e260 22bb 564e b83d c3de 103d
00000170: 9d80 a03d 4be4 c7bc 9f35 7dbd 8613 4f3c
00000180: 9e3f eb3c 7cb5 83bd 7a37 a0bd 4db2 0cbe
00000190: 46da 89be a6aa 70bc e704 ddbd 3f88 21be
000001a0: 046f 2abd 4fc0 0dbe a307 153d 5e3e 223e
000001b0: 677e 93bd 4fd2 e8bd 6008 533c 4ce7 90bc
000001c0: da32 563d 18cd 02be d285 2fbe f154 ca3d
000001d0: 2146 66bd 16ff b6be 8080 8bbd 2307 68be
000001e0: 08cd 4d3e beae ea3d 94ab 9b3d 1ddc 08bd
000001f0: 13c1 81ba 7965 ccbc 30d1 7fbd 8799 743d
00000200: b992 003e 771c a2bd 2355 143e 82e8 ef3d
00000210: cc49 0ebe 1de2 f93d 62bc 97bd 13a2 e93c
00000220: 0f25 29be ea9e 2e3d 0595 8bbe a56c 513d
00000230: d1b2 1e3e 9a29 5abd 145d 713b 2503 3cbd
00000240: 0f7a 913c 93cc e13a 0019 bc3d 81e7 783d
00000250: 947d cb3b f3ad b43c 9e09 563d 36c2 c7bd
00000260: 61b0 06be 0c21 313e c177 e93c e51a 203d
00000270: 0843 7bbe d63f 17be ae7b 823d f2b8 e8bd
00000280: d59f 0b3e 0431 06be 480a d63d e8e1 403c
00000290: fb8e d63d 2f3b 313b cabb 683c eeee d4bd
000002a0: f1f6 2fbd 19cd a0bc fa53 debd 36d3 073e
000002b0: 6046 3abd 3950 73bd ffea 99bc 6cef b9bd
000002c0: b8d5 583c c16f f23d 270a d8bc e1e0 243e
000002d0: 67c9 893d 21ce 8f3d d1da 5c3e 2350 563d
000002e0: 77c2 fcbd 7ee2 89bc 19f0 31bd 2ae4 aabd
000002f0: 459b debc f720 90bd dcb2 77bd 3ee9 8fbe
00000300: a1fb 79bb 3def d13d 9a59 4abd fd89 0d3e
00000310: 28d3 f6bb fe84 193d 89d6 a43c de33 3abe
00000320: a692 8b3d fde4 1b3d 9ef1 0e3e ac8c e03d
00000330: ee8b 00be 28ad b53c c432 573b 8ba2 29bc
00000340: 9b4f bdbd b2ea 8c3d 8604 ea3d 543f 95be
00000350: eaf9 29be 3abd a03d 0d45 86bc 5e8e 2b3c
00000360: b8cd 29be 07ee 9dbd ca6b d63d be79 3e3e
00000370: c0a8 fa3c ee18 2dbe 4b4d 3abe 7f4e 7a3d
00000380: 88d8 6cbd d5d7 3b3e 1b97 2d3c 4e81 11be
00000390: bb08 723e da2b 14be 84b8 84be bf9b 0e3e
000003a0: 666a 343d 40cf 2fbe 6d13 9bbe f9ec 673e
000003b0: 2e42 eb3c 35c9 933e fcd9 873d 4161 673e
000003c0: fdd8 98bb ef53 cc3d 89bc 213e a2a3 823e
000003d0: 0c8a efbd 8d7d 533d 3037 2a3d cb14 af3d
000003e0: d7f1 cf3d 94d9 0fbe 3001 21bd 153e 44be
000003f0: 494f 5dbd 0fe4 d53d d6b9 f43d a7ad 3f3d
-0.06298541 0.10332356 0.13473955 -0.008474427 0.05477071 0.053910907 0.2131712 -0.0378267
-0.17356808 -0.068772994 -0.12072281 -0.12001138 -0.04616428 0.056634247 0.117541686 0.02427547
-0.0077102175 0.09203958 0.11515569 -0.03806016 0.123629875 0.2388943 0.009241867 -0.17818141
-0.05553388 -0.031630818 -0.15051432 -0.10115688 0.016847175 -0.0053682034 -0.02449635 -0.031449378
0.1209035 -0.05378021 0.026360748 0.032893978 0.04790694 -0.010615076 -0.0062497077 0.06604259
0.14752752 -0.09030841 -0.056885492 0.08948254 -0.025585681 -0.04666947 -0.0013835131 -0.063310705
0.043420468 -0.1195114 0.3189218 0.15813747 0.002948474 0.09435375 -0.020374814 -0.12711644
-0.059134837 -0.11755149 -0.117288634 -0.12447727 -0.062312678 0.09173153 -0.11216256 0.0014338146
0.008681252 -0.005418115 0.0253269 0.02267022 0.26441023 -0.07567719 -0.12245567 0.0058481144
0.13071258 -0.12211719 -0.18647379 0.122606665 0.08825487 -0.039008364 -0.09918801 -0.06456598
0.084316656 -0.1753063 0.03199576 0.0987323 0.11974835 -0.48658478 -0.06598809 -0.11018893
-0.12470773 -0.0024776985 0.089993164 0.035368692 0.07837031 -0.02440085 -0.061818715 0.012638932
0.028716858 -0.064311 -0.07823081 -0.13739891 -0.26924342 -0.014689123 -0.10791951 -0.1577463
-0.04160978 -0.13842891 0.036384236 0.15844104 -0.07201844 -0.11368238 0.012880415 -0.017688416
0.05229459 -0.1277355 -0.17140892 0.098794825 -0.056219224 -0.3574149 -0.06811619 -0.22658972
0.20097744 0.11459111 0.07601085 -0.03341304 -0.000989946 -0.02495073 -0.062455356 0.059716728
0.1255597 -0.079155855 0.14485602 0.11714269 -0.13895339 0.12201331 -0.07408978 0.028519666
-0.16518043 0.04263202 -0.2726213 0.051129002 0.154979 -0.05326233 0.003682916 -0.045901436
0.017758397 0.0017227106 0.09184456 0.060767654 0.0062100384 0.022055602 0.052255265 -0.0975384
-0.1315322 0.17297763 0.028499486 0.03908815 -0.24537289 -0.14770445 0.06371246 -0.113634005
0.1363519 -0.13104635 0.1045118 0.01177261 0.1047649 0.0027043333 0.014204929 -0.10397135
-0.04296011 -0.019629048 -0.10855861 0.13264164 -0.04547727 -0.05940268 -0.018788813 -0.09078869
0.013234548 0.118377216 -0.026372029 0.1610141 0.067278676 0.07021738 0.21567847 0.052322518
-0.12341779 -0.016831633 -0.043441866 -0.083443 -0.027173648 -0.070375375 -0.060473308 -0.28107637
-0.0038144367 0.10250709 -0.049401857 0.1382217 -0.007532496 0.037480347 0.02012183 -0.18183848
0.0681508 0.038060177 0.13959357 0.10964331 -0.12553379 0.022177294 0.0032836655 -0.010353695
-0.09243699 0.06880702 0.11426644 -0.29149878 -0.16599241 0.07848592 -0.016390348 0.010470955
-0.16582382 -0.07711416 0.10469778 0.18601128 0.030598044 -0.16904041 -0.18193547 0.061110016
-0.057823688 0.18344052 0.010595108 -0.14209482 0.23636143 -0.14469853 -0.25922024 0.139266
0.044046782 -0.17168903 -0.30288258 0.22648992 0.02871808 0.28864446 0.06633374 0.22595693
-0.004664539 0.099769466 0.15794577 0.25515467 -0.11696252 0.051633406 0.041556537 0.08548888
0.10153549 -0.14047843 -0.039307773 -0.19164307 -0.05403069 0.10443889 0.11949508 0.046796467
