Project/results/VPlayer-FirstButCorrected/VPlayer/VPlayer-2999984.onnx (onnx, 681794 bytes, 15 tensors)

action_model._continuous_distribution.mu.weight f4 [1, 216]
00000000: 2be3 9bbc c94f 72bc 8409 6e3d cffb a1bc
00000010: 2e72 36bc 123d 6e3b c07f 71bd a0bd 8f3d
00000020: 5c26 2bbc 25ab 19bd 5e23 8abd 6ce3 28bb
00000030: 676f 6bbc 4f40 efbc c3af 9d3d f4f4 0c3c
00000040: 8cbd f43c 7469 113c 9cef 9e3d 8a11 1abc
00000050: 163b e73c 97f4 9a3b 7e8f 033d e517 6abc
00000060: e9b8 503d 1494 cebc 57c4 85bb 567f d43c
00000070: f342 963b a53c 003d 689b 2d3c 1029 163c
00000080: e7ec d03c d340 313b b8f8 d6bc 861e ebbb
00000090: 8301 94bd f74d 81bd cb4e 04bd 941e ff3a
000000a0: cd25 b73c 5763 173c a2a5 053d f322 dfbb
000000b0: 0c52 2dbd 4371 383a a4ba efbc a615 173d
000000c0: 363f 9cbd 3e36 a83b b5d3 45bc 9728 f1bc
000000d0: 364c f5bc c33a 05ba 641f 7d3c 0d40 7abd
000000e0: 3a6e 243a c614 ec3b 5572 ebbc 6b77 bdbc
000000f0: 8cab 82bb e769 e23b 0760 8e3c b1a5 0f3b
00000100: 8523 89bb ce36 8b3b 05a9 9a3c 15ed f63c
00000110: f60e 6cbc 2deb 9d3b 8c29 46bc 31a4 773c
00000120: 9a23 7f3c d58a 87bb cc76 9e3c ca61 953d
00000130: a6a2 c0bb fe91 2bbd f586 743c fcac ac3d
00000140: 45c5 1abc 70c4 82bd e093 9d3a cfce be3b
00000150: 1e43 883d 0533 d73b c666 683d ea51 88bd
00000160: 52bd 22bc 78f8 c3bb 87d8 e43c dd26 80bd
00000170: b347 15bc 365a 00bc 138f b73c 48b3 753b
00000180: e475 e8bc 2fd2 c63c 778e 7dbd c44a 063c
00000190: b886 b03c a815 2b3d a7f5 95bb 8c93 e2bc
000001a0: 7954 c7bc 4594 f8ba 27bf f03c 8c00 ee38
000001b0: 2b6b 18ba e076 75bd 73a2 48bc edb0 da3b
000001c0: 2da2 953b b842 4a3d a515 f7bb c169 59bd
000001d0: bf8e 21bc 32c9 abbc 1f2a 1c3c b67b cebb
000001e0: ac6d 543d 2169 ac3b b55e 9dbb 83ef 14bd
000001f0: db62 b23a 9efc 673c 1147 b0bc 1d89 3b3b
00000200: fd3a 01bd 1075 943d a97f 643d c095 a2bb
00000210: d68c 76bd 752c e83c b451 013c 3627 d53c
00000220: 6a9f 5d3c 0fba 2f3c 0a72 123d 3272 d73a
00000230: a8c6 473d 6421 653d 9b48 293c aa92 143d
00000240: 73e6 083d 452b 433d 496c c3bd 349d 243c
00000250: eb51 89bc 25e5 f8bb cad4 41bc 4f17 d33b
00000260: dfe1 013d f293 05bc 110f d2bc f1d1 fa3b
00000270: e4c7 cfbc 774a ee3b aa32 f6bb a7d4 8b3c
00000280: 9dc3 a9bc 5787 ea3c 53ca 4d3c da8b 9fbc
00000290: 6c3b b93c 0be0 8cbd 2f98 333d dec0 513b
000002a0: cb29 1c3d ce94 aebd 877f 03bc 57b9 c73c
000002b0: d46d 113c 0e85 4fbd ceeb 07bb 06bc 0f3b
000002c0: 0edb 26bd 3a86 8fbc 60dc 2a3c bb15 7c3b
000002d0: c449 98bd ce2a 493b de02 4d3d 8b13 453c
000002e0: 3c74 13bc 9152 acbb 3433 f6bd fc8d cdbc
000002f0: 959f 923d db90 3c3d f9d0 023c 317b a6bc
00000300: a5ff 443d deba 2a3d e690 ea3c c682 42bd
00000310: efe4 95bd de29 14bc ed94 d63a ae2d 5238
00000320: 8cab 86ba 4d75 b6bc 5f43 cd3c 2a47 6e3c
00000330: 990b 1d3d 7963 8ebc ef20 a4bb 8ba6 8e3b
00000340: cd9b d1bc 0c55 773b b88c 433c 26d8 6fbd
00000350: c6d7 4ebd 05ac a6ba 8dca 04bd e4e1 f8bd
-0.01902922 -0.01478953 0.058114544 -0.019773392 -0.011135621 0.0036352319 -0.058959723 0.0701859
-0.010446157 -0.03751673 -0.06745027 -0.002577032 -0.014369822 -0.02920547 0.076995395 0.008603323
0.02987554 0.00887524 0.077605456 -0.009403596 0.028226417 0.0047288644 0.032119267 -0.014287923
0.050957594 -0.025217094 -0.0040822434 0.025939625 0.0045856177 0.031307835 0.010596134 0.0091650635
0.025503589 0.0027046695 -0.026241645 -0.0071752695 -0.07226851 -0.06313699 -0.032301705 0.0019464069
0.022356892 0.009239993 0.032628663 -0.006809586 -0.042314574 0.000703592 -0.029263802 0.03688588
-0.07629244 0.0051334193 -0.012074401 -0.0294383 -0.029943567 -0.00050823035 0.015449379 -0.06109624
0.00062725286 0.007204625 -0.028741041 -0.023128232 -0.003987735 0.006909597 0.017379774 0.0021918828
-0.0041851425 0.0042484766 0.018879423 0.030142346 -0.014407864 0.004819295 -0.0120948665 0.01511483
0.015572453 -0.004136423 0.019343756 0.072940424 -0.005878764 -0.041887276 0.014924754 0.08431432
-0.009446447 -0.06385124 0.001202222 0.0058229933 0.066534266 0.0065673613 0.056738637 -0.06656249
-0.009932833 -0.0059805475 0.02793528 -0.062574126 -0.009111333 -0.007834008 0.02240709 0.0037490893
-0.028376527 0.024270145 -0.061903443 0.008196536 0.021548614 0.0417687 -0.004576403 -0.027658246
-0.024332272 -0.0018965086 0.029388024 0.00011348826 -0.0005814309 -0.05992782 -0.012245762 0.006673923
0.004566452 0.049380034 -0.007540422 -0.05307937 -0.0098606935 -0.02096996 0.009531527 -0.0063013686
0.051862404 0.005261556 -0.0048025497 -0.03636123 0.0013609783 0.01415935 -0.021518262 0.0028615661
-0.031550396 0.072488904 0.05578581 -0.0049616992 -0.060192905 0.028341511 0.007893015 0.026019674
0.013526777 0.010725512 0.035753287 0.0016437231 0.048773438 0.055940047 0.010332252 0.036272682
0.0334229 0.047648687 -0.09542138 0.010047246 -0.016762694 -0.0075956755 -0.011830518 0.0064419876
0.031709548 -0.008152949 -0.02564195 0.0076544215 -0.02536387 0.0072720605 -0.007513364 0.017069174
-0.020723158 0.028628988 0.012560445 -0.019475866 0.022611342 -0.0687867 0.043846305 0.0032005827
0.038125794 -0.08524476 -0.00802601 0.02438037 0.008876283 -0.050664 -0.0020739916 0.002193214
-0.04073625 -0.017520059 0.010428518 0.00384651 -0.07435945 0.003069568 0.050051562 0.012028585
-0.00899988 -0.005258866 -0.12021485 -0.025092117 0.07159344 0.046036582 0.007984393 -0.020322414
0.048095364 0.041682117 0.028633546 -0.047487997 -0.07319056 -0.009043185 0.0016371288 5.0110444e-05
-0.0010274514 -0.02227273 0.02505654 0.014543334 0.03834114 -0.017381417 -0.005008809 0.0043533496
-0.025586987 0.00377399 0.011935405 -0.058555745 -0.050498746 -0.0012716061 -0.03241973 -0.1215246

action_model._discrete_distribution.branches.0.bias f4 [3]
00000000: 39b4 1a3d c85a ffbd 6de6 a03d
0.03776953 -0.12468487 0.0785645

action_model._discrete_distribution.branches.0.weight f4 [3, 216]
00000000: c877 343d 0a45 ae3b f27b 25bd 7661 eebc
00000010: 3347 323d ada0 b33c ead1 03bc ff73 293d
00000020: e298 ac3d aedc 0f3d 18b6 b33d 2deb b23d
00000030: de2c 863c 8a9b ac3b 2501 3d3d ca33 333c
00000040: 3607 b73d 5263 fabd ab96 663d c910 cfbc
00000050: f2a3 0bbd bcbd 093d 29ee 87bd 285f 0dbd
00000060: badb 953d ded7 cfbd 328c d7bb 56ee 9ebd
00000070: 18c6 b63d 57fe 62bd 1e02 adbd 125c 92bc
00000080: 870b 3c3d d98b efbc fe28 993c 9cbe 653d
00000090: 617d 433d bd87 08bd bdae c4bc 9f7e 5a3d
000000a0: 675c 6d3d a904 c1bc ff89 5dbd 4135 7d3c
000000b0: 6328 25be a616 213d 9dbc 49bc 3d49 4dbd
000000c0: 6269 473c 58bd b4bd 4022 fdbc f2a6 a23d
000000d0: eff8 a2bd 500b 9b3d f607 c7bc f40a 29bd
000000e0: 7902 aebd 77ed 913c 2d52 9a3c ea61 543c
000000f0: d852 823c 2e18 d73d d5c3 423d 54a8 7a3d
00000100: ef02 15bb 820e d73b ed62 6d3d 52ca dbbc
00000110: 04f3 153d 4216 94bc 11ba 403d c7be 74bc
00000120: adf4 4cbd 10fa c3bd fc5d 563d 7e99 363d
00000130: 17f7 6f3d 4275 03bd c858 5fbd 7aaa a0bd
00000140: 26c2 a0bc 7940 c03d 0c84 cdbc fcf6 693d
00000150: 4af5 f53c 3da0 583d aae5 333d 3127 2dbd
00000160: 35f2 20bd 41e6 2c3c 4144 4b3d 7287 3dbd
00000170: 263c 5d3d 4c93 933c 4470 e0bd bd50 fb3c
00000180: 2b4e 35bc 8807 09bc 54f3 b1bc d682 09bd
00000190: f8b6 a7bd 7d07 473d 0d5d 2c3d d3c8 0ebb
000001a0: 421f 6fbd 64f2 dabd 16ea 53bb ae30 8bbd
000001b0: a32a 8f3d e086 023d 683a d63d 1b1f c9bc
000001c0: 1719 533d af26 06bd 7021 d2bb 7db6 7c3c
000001d0: 6387 54bc be02 03be e16c 183d 37ae ed3a
000001e0: 8ec1 3a3d bc62 0c3d cc3f 41bd e9d7 b63b
000001f0: 7746 023e b0e2 dabd 7eb5 03bd da08 ccbd
00000200: 12d8 3f3a e7c4 afbd 51d0 a33c a995 0dbd
00000210: bacc bb3c 99fd f8bc 5d6d d9bc 5660 fbbc
00000220: 2fcd c4bb 9005 b9b8 df9f cebd 81f6 f4bd
00000230: 0fbe 34bd ef8b 08bd cd72 63bd f66e 76bc
00000240: c817 4abd 173d de3d 6d9a fd3b 129f c63d
00000250: b9dc 283c e824 d1bc ae6a 463e 117b 00bd
00000260: a976 d7bb 58f3 afbd 7d45 48bc 6318 d33d
00000270: 7481 99bc e438 e0bd fac9 643a a3f8 90bd
00000280: fe1e 693d 64ff 3abd 6a04 2d3d 39b6 98bc
00000290: 45d8 babd 249c a2bb 9dba fb3c 7a8d 493d
000002a0: 94a4 b1bd 48b8 6e3c 19f5 4a3d 2735 2e3c
000002b0: bac1 9cbd d248 713d 9f10 923c 6b3c 643d
000002c0: 3969 38bd abcf 593d 3bae 733d 746d 403c
000002d0: 24fe 16bd ae13 26bd 39e2 97bd 9853 77bd
000002e0: 837d cebd 207d 80bd 68f8 8a3c c69f 18bb
000002f0: 648a 103d ffab efbb 7a81 d03c ed58 923d
00000300: be84 c3bd 9180 933d 0ddb ffbd 10b8 5ebd
00000310: 9795 8b3c c8e7 353d 2abc 683d 030b b93d
00000320: d48d a23d 441d 063e 80ea d73c 7b85 fdbb
00000330: b2e9 b83c e7a3 23bd d0df c43d 696a dfbc
00000340: db38 1fbd 690a f0bd a4ae b33d f8ab 833d
00000350: c6e6 1cbd 41c6 d1bd 1fa4 e8bd d2a9 df3a
00000360: 2460 143d 8cd0 163c 17d3 dd3a b378 a73b
00000370: 9b5e 593c 9a52 0cbb 7627 133c 5688 883d
00000380: 000c a23c 8fee b7bc 250d 0e3d e8cf 193d
00000390: d88f 32bd 42c7 20bc ffc1 0c3e 509a 8c3c
000003a0: a0d1 ebbc f40b df3c 2595 a83c ee38 c4bd
000003b0: 2d94 653d bc8e 12bc 497c 853d 1f00 38bd
000003c0: e215 15bd 220a be3c cf13 fe3c 2284 913d
000003d0: 9af3 8f3a cf19 b3bd bc32 24bd 2c18 97bd
000003e0: bb1d f93c 7b8c 93bd 2b25 2abb aa2d 233c
000003f0: 9bf3 1bbd 2d35 b33d c7e0 57bc 63be 00bd
0.044059545 0.0053182887 -0.040401407 -0.029099207 0.043524932 0.021927202 -0.008045653 0.041370388
0.084275976 0.035122566 0.08774966 0.087362625 0.016378816 0.005267565 0.04614367 0.01093764
0.08936922 -0.12225975 0.056296032 -0.025276558 -0.034091897 0.03362821 -0.06637222 -0.034514576
0.073173 -0.10148595 -0.006577992 -0.07760303 0.08924502 -0.05541834 -0.084476694 -0.017866168
0.04590943 -0.02924149 0.018696304 0.056089982 0.047726993 -0.033332575 -0.024009103 0.05334341
0.05794945 -0.023561792 -0.05408668 0.015454591 -0.16128688 0.03932824 -0.012313035 -0.050118674
0.012171121 -0.08825177 -0.03090012 0.079419985 -0.079576366 0.07570517 -0.024295788 -0.04127021
-0.08496565 0.017813427 0.018838013 0.012962798 0.015908644 0.10502659 0.04755004 0.061195686
-0.0022737344 0.0065630088 0.05795567 -0.026829872 0.03660871 -0.01807702 0.047052447 -0.014938063
-0.05003803 -0.0956918 0.052335724 0.044579975 0.058585253 -0.032094248 -0.054528028 -0.07845016
-0.019623827 0.09387297 -0.025087379 0.05712031 0.03002419 0.05288719 0.043920197 -0.042273704
-0.039293487 0.010552944 0.04962564 -0.04627175 0.05401244 0.018014573 -0.10958913 0.030678147
-0.011066 -0.008363612 -0.021722473 -0.03357204 -0.081891954 0.048591126 0.042080928 -0.002178718
-0.05837942 -0.106907636 -0.003233557 -0.06796394 0.06990554 0.031866908 0.10460359 -0.024550965
0.0515376 -0.032751735 -0.0064126775 0.015424368 -0.012971732 -0.12794015 0.03721321 0.0018133585
0.045594744 0.034273848 -0.047179982 0.0055799377 0.12722193 -0.106877685 -0.032155506 -0.09962626
0.0007318269 -0.08582478 0.019996794 -0.034566555 0.02292477 -0.030394362 -0.026541406 -0.030685585
-0.006005905 -8.8225235e-05 -0.10089087 -0.119610794 -0.044126566 -0.033336576 -0.055529404 -0.015041104
-0.049339086 0.10851496 0.0077393563 0.09698309 0.010306531 -0.025530294 0.19376633 -0.031367365
-0.0065754247 -0.08591336 -0.012223599 0.10307386 -0.018738486 -0.10948351 0.00087276066 -0.07078674
0.056914322 -0.045653716 0.042240538 -0.018641578 -0.091232814 -0.004962461 0.030728633 0.04920719
-0.08673969 0.014570303 0.04955015 0.01063279 -0.07654138 0.058907337 0.017830191 0.05572168
-0.045022223 0.053176563 0.05949233 0.011744846 -0.03686346 -0.04054611 -0.074161954 -0.060382456
-0.10082533 -0.06273866 0.016964152 -0.0023288592 0.03528823 -0.0073142047 0.025452364 0.071458675
-0.09546803 0.072022565 -0.124929525 -0.054374754 0.017039103 0.044410497 0.056820072 0.090353034
0.07937208 0.13097101 0.026356936 -0.0077368594 0.022572372 -0.03995123 0.09613001 -0.02727242
-0.03887258 -0.117207356 0.087735444 0.06429285 -0.03830602 -0.10242892 -0.113594286 0.001706416
0.0362245 0.009204995 0.0016923872 0.005110824 0.013267185 -0.002141154 0.008981576 0.06666629
0.019781113 -0.02245262 0.034680504 0.03755179 -0.04359421 -0.009813132 0.13745879 0.017163426
-0.02878648 0.02722738 0.02057893 -0.09581171 0.056049515 -0.008945163 0.06517846 -0.04492199
-0.036397822 0.023198191 0.031015305 0.071052805 0.0010982633 -0.08745157 -0.040087447 -0.07377657
0.030409684 -0.07204529 -0.0025962095 0.009959618 -0.038074117 0.08750377 -0.01317615 -0.031431567

action_model._discrete_distribution.branches.1.bias f4 [3]
00000000: 0ed8 ad3b 49ad 203d db32 55bd
0.0053052967 0.039227758 -0.052050453

action_model._discrete_distribution.branches.1.weight f4 [3, 216]
00000000: b1c9 68bd 048a 4c3d 3ab0 c2bd bbc0 e4bd
00000010: 1684 5bbe a38f 16bd 0849 6abd 8a3d f1bc
00000020: 2181 3f3d b976 2bbe b777 03be e9e1 e23d
00000030: 7c65 bc3d bcad 453d 68fe f93c 52ef d8bc
00000040: 5a5b 87bd 5f5d 45bd c143 0a3d ff11 56bd
00000050: 8b98 b43c 1af1 f63c b7e4 213d a8c1 893d
00000060: 720e 54bd babe ae3d 8682 f4bd 0d43 bf3b
00000070: e30c a53c a92d dd3d 2fc8 9b3d 69a7 e73d
00000080: 0e8c 0bbe f4a0 da3d e48a 88bd 80f2 9e3c
00000090: 23c3 05bd e8e4 35bd ba68 e4bd d1b3 c3bd
000000a0: d588 613e c0fb 8cbd 6464 86bc 560e 8f3d
000000b0: 284a fd3c ff99 d93d 8144 bdbc a478 5fbd
000000c0: 620a 9c3c 7d42 35bc e7b5 4fbe 8fa1 013e
000000d0: c2ba 9b3c 3dae d4bc 4bd2 98bb d6d7 ea3d
000000e0: 3226 babd 80ae 24be 4da5 9fbd d651 39be
000000f0: fd92 d53c 4aa0 163c b052 c2bd 4457 173d
00000100: 5d92 013c a879 c4bc 29a5 b2bd b3b2 393c
00000110: 766c 33bd 4d22 d23c ddd5 b0bc 1efd edbd
00000120: 8d9f bb3d a147 723d 967a 403e 6fee fe3c
00000130: 4bbc cfbd f27f 83bd 7358 d5bd ff32 343d
00000140: fa39 49bd 1859 f03d e461 c1bb 8257 2d3d
00000150: a3bf a4bd 656c 883c 71ae b7bd fb86 1f3d
00000160: 249f dd3c 8839 80bd 47f8 b53c ed14 e23b
00000170: 5673 93bc f4ba ca3d 50c9 3c3d ec2a a73d
00000180: ad40 8e3d f2f4 d13c 8fd9 cdbc 72b5 e63c
00000190: 1d6b 3f3d 3e49 c8bd 5b26 ce3c a66b 11bc
000001a0: 0b02 2dbd e4f9 e33d c90d e5bc f403 aabd
000001b0: 1da1 833b 75a4 d13b 556a 8bbd b29e a2bb
000001c0: c22e 3f3d f5a3 87bd d4d0 7b3d 7547 a3bd
000001d0: 7b95 82bd 9d6f 353e 3634 48bd 0b4f a4bd
000001e0: f04e 0bbd c40e 3239 df33 273d 6a36 6d3d
000001f0: 92c6 603d c2e0 2b3d cace 83bc e93f c63d
00000200: 0419 0dbd b80c 35bd 4653 8fbd 8a94 783d
00000210: 8f6d c33c bfeb da3b f1c0 923c c256 01be
00000220: 954d b03c 3418 e1bb 725e 3b3d c867 2a3d
00000230: c3bc a6bd 41a4 bf3d c3f5 49bb dd05 283d
00000240: 2594 973d a8f7 e53d ddb2 043c 7331 5f3c
00000250: 2664 2a3d 3aa6 1a3d 2885 5b3d 133a 76bc
00000260: 981a 9cbc 9289 80bc 6a3b edbc 23d8 1e3c
00000270: fc0e 7b3d bb60 afbc 58d1 87bc 9a95 a5bd
00000280: d4e5 81bd 7469 97bd 6e9c 463d 30bf 6ebd
00000290: f1d9 74bd 471a 1bbd 3128 95bd cd73 023c
000002a0: a4f6 d7bc 7e68 673d 8202 12be 6bb2 12bd
000002b0: 2de0 093e 0ac8 3e3c 0004 643d 68e0 60bd
000002c0: ab6f 95bc 5881 acbd ef55 c9bd 7552 23bd
000002d0: ab38 0f3c e3c2 d83c 4089 053d b0e8 e03b
000002e0: 76fb a53c 887d 85bc 9627 393d fba3 973c
000002f0: 837e 053e 4434 703d b26d 95bc 8317 0b3c
00000300: e4a6 c2bd 12a2 ce3d 272c 783d 9b37 ebbb
00000310: 1241 533d 4b6b 18bd cfe5 b33d 7856 553d
00000320: 2275 183d 6c62 8d3d dfd8 023e dd98 133d
00000330: 5f3b c63d b84e 05bd c14d f93d d823 9f3c
00000340: 1f7d 72bb a202 533c 51f1 4cbd 2244 9e3a
00000350: 71ad 173d f4fa 103e e79a 113d ce67 fdbb
00000360: a41f 1bbc fbf3 bbbd 480e 9b3d 8e4d 173e
00000370: 4733 543e effb 953d ab26 81bd aef1 1f3e
00000380: e37a 69bc b891 6e3e 66f4 21bc af8e bcbd
00000390: 7b41 36bd 244c 183d 5e9a 09be 54c3 25bd
000003a0: 104e 533d d69e 00bd 9126 e03c 5f70 e53b
000003b0: 1916 fabd 7032 95bc 6a2d 49bc b7c9 653d
000003c0: 1da3 003d b86f e1bd 2d95 ad3d 8481 74bd
000003d0: 4ac3 a5bc c783 f3bd a7f6 05be fe68 e8bc
000003e0: 460f 373e 266f 01be dc71 b3bd 8b3a 6f3d
000003f0: 1a6b 8cbc 0aec af3c a199 073e fa08 3e3b
-0.056832973 0.04993631 -0.09506269 -0.11169573 -0.21437106 -0.036758076 -0.057198554 -0.02944829
0.046754006 -0.16744508 -0.12838636 0.11078245 0.09199044 0.04826139 0.030516818 -0.026481304
-0.06609221 -0.04818475 0.03375602 -0.052263256 0.022045394 0.030144263 0.03952476 0.0672639
-0.05177159 0.08532472 -0.11938958 0.0058368505 0.020147746 0.107997246 0.07606541 0.11311228
-0.13627645 0.106752306 -0.06667116 0.019402742 -0.0326568 -0.044407755 -0.111527875 -0.09555782
0.22024854 -0.06883955 -0.016405292 0.06985156 0.03091915 0.106250755 -0.023103954 -0.05455841
0.01904792 -0.011063215 -0.20284234 0.12659286 0.019009952 -0.02596199 -0.0046637408 0.11466949
-0.090893164 -0.16082191 -0.077952005 -0.18097624 0.026071066 0.009193489 -0.09488428 0.036948457
0.007908431 -0.023983791 -0.08722908 0.011334109 -0.04380461 0.025651122 -0.021586353 -0.11620544
0.09161291 0.059150342 0.18796763 0.031119553 -0.10143336 -0.06420888 -0.10417261 0.043993946
-0.049127556 0.11735743 -0.005901562 0.042319782 -0.08044364 0.016653249 -0.08968819 0.038947087
0.027053423 -0.06260973 0.022213114 0.006899467 -0.017999332 0.0989894 0.046090424 0.081624836
0.0694593 0.025629494 -0.025128154 0.028162692 0.04673301 -0.09779595 0.025164774 -0.008875763
-0.042238276 0.11131647 -0.027960675 -0.08301535 0.004017009 0.0063977786 -0.068073906 -0.0049627656
0.04667545 -0.06623069 0.06147845 -0.07972614 -0.063761674 0.17718358 -0.048877917 -0.08022889
-0.034010828 0.00016980903 0.040820953 0.05791322 0.05487687 0.041962393 -0.016089816 0.09680159
-0.034447685 -0.044201583 -0.06998305 0.060688533 0.023855953 0.006680935 0.017914267 -0.12630752
0.021521369 -0.0068693403 0.045744367 0.04160288 -0.08141472 0.09357501 -0.0030816651 0.041021217
0.07401303 0.11228877 0.008099285 0.013622629 0.041599415 0.037756182 0.053593785 -0.015028494
-0.01905565 -0.015690599 -0.028958995 0.009695086 0.061293587 -0.02140843 -0.016579315 -0.08085175
-0.06342664 -0.073931605 0.048489027 -0.0582878 -0.059778158 -0.037866857 -0.072830565 0.007962179
-0.026362725 0.056496136 -0.14258769 -0.035814684 0.13464423 0.011644373 0.055667877 -0.05490151
-0.018241724 -0.08423108 -0.09830844 -0.03987356 0.008741538 0.026460117 0.032601595 0.006863676
0.020261507 -0.01629521 0.045203768 0.01851081 0.13036542 0.058643594 -0.018240783 0.008489492
-0.09504488 0.10089506 0.060588982 -0.0071782595 0.051575728 -0.037211698 0.08784067 0.052084416
0.03722108 0.06903538 0.12778042 0.036034454 0.09679293 -0.032545775 0.121730335 0.019426271
-0.0037000848 0.012879046 -0.050034825 0.0012074749 0.03703064 0.14158231 0.035548117 -0.0077333217
-0.009467993 -0.09177395 0.07571083 0.14775679 0.20722686 0.07323443 -0.063062035 0.15619537
-0.01425049 0.23297775 -0.009884929 -0.09206902 -0.04449604 0.03718199 -0.13437793 -0.040469483
0.051588118 -0.031401478 0.02736214 0.007001921 -0.12211246 -0.018212527 -0.012278894 0.056100573
0.031405557 -0.11007637 0.08475719 -0.05969383 -0.020234723 -0.11890369 -0.13082372 -0.028370377
0.1787692 -0.12640056 -0.08761951 0.05840544 -0.017140914 0.021474857 0.13242199 0.002899705

action_model._discrete_distribution.branches.2.bias f4 [3]
00000000: bb36 3d3d 8e5a 49bd ffe6 033b
0.046194773 -0.049158625 0.0020126698

action_model._discrete_distribution.branches.2.weight f4 [3, 216]
00000000: 92e5 923c db36 18bd c50b d6bd aa0a af3d
00000010: d427 e2bb 8a4f 2cbc 1c1a 39bd de9d cabc
00000020: 9273 103c 54c2 a43d 3a5e 8abd 8fdb 81bd
00000030: 3e22 27be 9d24 923c da79 a3bd 372e 29bd
00000040: f169 acbd d3fb b0bd 4200 fa3c f320 eebd
00000050: 65ad e3bc 1917 b5bd bff1 1fbe f0e6 87bc
00000060: ec85 693d 6520 d9bd 04e7 d33d 493c aabd
00000070: f8c2 1b3e 9a3b a2bc 5a49 a9bd b333 563c
00000080: 5439 693c bcc8 87bd b6fb 403d 5376 3e3d
00000090: 53c1 9fbb c59c 893c 1bd9 473b 9771 6fbd
000000a0: 2c40 96bc b85e 06bd 3c64 c9bd 5ee3 0dbd
000000b0: 7ff6 33bc 4eb1 9abd 250e aebd dc16 9f3d
000000c0: 82a9 a2bd a4b8 b93d c594 953d 8186 bc3d
000000d0: a929 55bb 6605 483d ae12 2f3d bf7d 4a3b
000000e0: 9a95 03bb 94eb f8ba fe07 42bc f519 833d
000000f0: e053 2abe cfcc 9fbc af2a 4f3d ff34 5b3c
00000100: d74e 683d 969a e0bd 0a15 f9bc 4550 723d
00000110: 8ac5 90bd ff04 bbbd e73c 113e 853d fbbd
00000120: e223 ce3d 26bd 833d 053a 493e d87c 10bd
00000130: fba5 0ebe a6d9 423d 0859 203c 0f88 debd
00000140: 6c13 9dbd 778a 78bd 2b52 a9bd 3353 cfbd
00000150: ff0e febd 3fff 84bd cfd6 b33d ad09 c93c
00000160: e54f b9bc c966 96bd d176 12bd 5ff5 b6bc
00000170: 2b06 3e3d 24ed 85bc 3b61 fb3d ba93 933d
00000180: ac53 6f3c 615f 91bd 352c 93bb e801 d1bc
00000190: f036 843d e033 37bd 90f6 d63c 9bdb 24bd
000001a0: 24bb 393d 86f8 2b3d 157c cdbd a447 6f3b
000001b0: fd96 763c 7ca4 ecbd aab7 a8bc 7cba ed3d
000001c0: d3ed 80bd 2867 9bbb f3c3 6abd d061 ac3c
000001d0: 7506 92bd c715 303d 8c4c 52be 2876 45bd
000001e0: 9285 403d 0adc e0bd 76fa bebd 8515 e4bc
000001f0: 8287 a33d 06ab c9bd 2708 ca3d c982 1cbe
00000200: ee75 ebbc 5b58 e13c ff44 9f3c 3d62 843d
00000210: 81bf 793d 3f1a 90bd 6eb0 003d 8ffe 81bd
00000220: a50c 063d daa3 c73b 30d7 8a3d e541 b93d
00000230: 8ee4 73bd de90 8cbd 87af 603d a2c0 783d
00000240: 2943 8e3d 118f 4ebd a050 95bc 7909 05bd
00000250: 6da4 edbc 5587 d83c 69ee 1bbd 7248 5d3d
00000260: 5e17 1a3e 7b7c 2fbd 378a af3d 7ecb 853c
00000270: cf7d fdbb 5ce1 4bbc c975 66bd 7f8e e43c
00000280: e1cb f93d 32f1 42bd e6bf 963b c938 92bd
00000290: be07 e0bd ec56 693d 48a7 e5bc 1ff5 963d
000002a0: 8be4 cb3c 1e61 ebbd 4ae5 5a3d 1339 e13b
000002b0: b4a9 b3bc 9f14 df3d aac5 febd 0839 ebbd
000002c0: 1706 9e3c 0503 a83c 1b98 30be 44a5 bcbc
000002d0: eeff 6cbd 3d79 4abd ce8c 3c3c 732e cf3d
000002e0: 14ca 113c d7b3 f13c 50fc aabc 703b c0bd
000002f0: 7a49 ff3b fd5d 803d 7d55 103e e520 2ebd
00000300: cd20 86bd caa1 d5bb 49f8 953d b62d 59bd
00000310: 6657 e73b 5415 1fbe ae89 ff3d 19ec 8c3c
00000320: 475c 453c f226 0b3e ca6a 873c 8a56 0abe
00000330: 9b1d 2dbd 8b77 49be 7f9f 2abc 22a6 0fbd
00000340: 77a5 78bd f38a 033d 3187 87bb b8d5 0cbe
00000350: 0a38 9ebd 714c 6b3d f1cf 17bd 32e3 813d
00000360: b02b 433d fa83 d93c d7b9 1dba 1fc8 593c
00000370: eb29 d0ba aa22 a43d 87f3 843c 4d81 6aba
00000380: 4c86 8cbc 4feb 0fbd ea85 37bd 9dd3 1cbc
00000390: 8918 e83c 57f4 bebc 7bca 393d fa6d 643d
000003a0: d1cb c83b 6246 d73c 2152 803c b18a b5bc
000003b0: fcdf 18bc 660c cfbc 1fe9 c93c 1fc8 263d
000003c0: 450a 79bd fae5 ff3d 1f82 acbd 1f5d 6a3d
000003d0: b23c ebbd d8be 133d 54e6 403a 53d0 a3bc
000003e0: 9e3e 19bc cbf3 67ba 8349 923c 1dcd 50bc
000003f0: 9235 89bd e776 26bd d13e 1ebd fccc e0bb
0.017931733 -0.03716169 -0.104514636 0.08546956 -0.0069017205 -0.01051701 -0.045190915 -0.02473348
0.008816617 0.08044878 -0.067562535 -0.063407056 -0.16321656 0.017839724 -0.07982226 -0.04130384
-0.08418644 -0.08641782 0.030517701 -0.11627378 -0.027792642 -0.08842296 -0.15619563 -0.016589612
0.057012483 -0.10601882 0.10346797 -0.0831228 0.15211093 -0.01980381 -0.08265944 0.0130738495
0.0142348595 -0.06630084 0.04711505 0.04649956 -0.004875341 0.016798386 0.0030494395 -0.058457937
-0.018341146 -0.032805175 -0.09833571 -0.034640662 -0.010984062 -0.075533494 -0.084987916 0.07768032
-0.07942487 0.090684205 0.07303766 0.09205342 -0.0032526052 0.048833273 0.042742424 0.0030897704
-0.0020078183 -0.0018991106 -0.011842726 0.06401435 -0.16633558 -0.01950684 0.050577816 0.0133793345
0.056715813 -0.10966985 -0.03040554 0.059158582 -0.070689276 -0.09131812 0.14183389 -0.12267593
0.10065438 0.064325616 0.19651039 -0.03527531 -0.13930504 0.047570847 0.009786852 -0.10865795
-0.0766972 -0.060678925 -0.082676254 -0.10123291 -0.12405204 -0.06493997 0.08781206 0.024540747
-0.022621104 -0.073438235 -0.035757843 -0.022333799 0.0463926 -0.016348429 0.122744046 0.07205911
0.014607351 -0.0709827 -0.004491354 -0.025513604 0.06455791 -0.044727206 0.026240617 -0.040248495
0.045344487 0.041985057 -0.100334324 0.0036511207 0.015050647 -0.115548104 -0.02059539 0.11607835
-0.06295361 -0.004742522 -0.057315778 0.021042734 -0.07130138 0.04298952 -0.20537013 -0.048208386
0.047002383 -0.10979469 -0.093251154 -0.027842293 0.079848304 -0.09847073 0.09864836 -0.15284266
-0.028742757 0.027507951 0.01944208 0.0646405 0.060973648 -0.07036256 0.031418256 -0.06347381
0.032726903 0.0060925307 0.06779325 0.090457715 -0.05954414 -0.06863569 0.054854896 0.060730584
0.069464035 -0.050429408 -0.018226922 -0.032479737 -0.029009068 0.026431719 -0.038069163 0.054024167
0.15047976 -0.042843323 0.08571284 0.016332384 -0.007735945 -0.012443867 -0.056264672 0.027899979
0.1219709 -0.047593303 0.004600513 -0.07139737 -0.10938977 0.05696766 -0.028033867 0.07370972
0.024889251 -0.11493133 0.053441323 0.006873259 -0.021931507 0.10892605 -0.12440045 -0.11485487
0.019290013 0.020509252 -0.17245524 -0.023028024 -0.05786126 -0.049432028 0.01150818 0.10116281
0.008898277 0.0295047 -0.020872265 -0.09386337 0.0077907415 0.06267927 0.14095111 -0.04251184
-0.06549225 -0.006519531 0.07322747 -0.05302211 0.0070599793 -0.1553548 0.12477432 0.017202424
0.012045926 0.13589075 0.016530413 -0.13509575 -0.042264562 -0.19674508 -0.010414003 -0.035070546
-0.060704675 0.032114934 -0.004135989 -0.13753402 -0.07725532 0.057445947 -0.037063543 0.06342162
0.047649086 0.02655219 -0.0006016767 0.0132923415 -0.0015881633 0.08014424 0.016229404 -0.0008945659
-0.017153881 -0.035136517 -0.044805445 -0.009571937 0.028332012 -0.02330987 0.045359116 0.055768944
0.0061278124 0.026278678 0.015664162 -0.02216086 -0.009330746 -0.025274467 0.024647294 0.040718194
-0.06080081 0.124950364 -0.08423256 0.057217713 -0.11486186 0.036070675 0.00073585403 -0.019996798
-0.009353308 -0.00088482787 0.017857319 -0.012744215 -0.06699671 -0.040640738 -0.038634125 -0.0068603735

network_body.linear_encoder.seq_layers.0.bias f4 [216]
00000000: 5b78 273a bac2 80bc 94bc 7e3c d4a0 123c
00000010: dd5e 083d a1f5 f1bb 7e20 9ebb e824 29bb
00000020: 0f36 713c 4f40 c5bc 57d3 93bc e433 74bc
00000030: f9e0 61bc 6e7c 24bb 15ca 843c 1693 85bc
00000040: 7a14 8dbd 8b60 96bc 3fa5 a7bb 1845 1c3d
00000050: 0b61 aebc 4fbe e53b 7551 303d a02b e0bc
00000060: 9d71 ebbc b169 47bd 6960 63bd 5c6c 3b3c
00000070: d6c9 85bc 4774 153d a046 87bc abaa 4abc
00000080: c3c9 34bd d573 31bd e5e7 e03c ee36 afbb
00000090: 5ed7 e6bc e7ae 67bd e356 f9bc 5af6 93bc
000000a0: 9214 c93a 1e60 2d3b f3f7 9e3b 4714 abbb
000000b0: 017d bbbc adb0 5f3b 86a1 5ebd 91ff e13b
000000c0: b2cc 3ebc dde0 42bd 5948 503c b2b5 713c
000000d0: d08f 1a3c 7df1 f33b 2e35 653a cd67 3b3b
000000e0: 48d7 37bd 9512 06bd f10b c03b 4fcc e9bb
000000f0: d23b bcbc a937 cf3c cb68 aebc f302 96bd
00000100: 8c17 17bc 71b1 a9bc 29d8 393c fd68 2f3c
00000110: 61b3 47ba 55da b5bc 18ed bbbc 507e 273c
00000120: f1ae c6bc 88b7 98bc e14a 7fbc ffdf 7e3c
00000130: 3aa4 933b b546 57bd 9990 e53c 3f84 f73b
00000140: 5be5 873b 32ef ed3c 6ce9 253d a21d ea3c
00000150: ecea 18bb a329 e83b 3985 babb 60f1 c8bc
00000160: 244c 0abc 81f1 2ebd a2d9 ad3c f8da f53c
00000170: 78a1 d33b 3083 8cbc 6adf 113b a35f 16bc
00000180: 7845 b63b 3ea1 393d bd3a cbbc b7ac a83c
00000190: f085 b1bc c1e5 2c39 bbcf 9bbd 164d 8abc
000001a0: 7d69 9d3c 2548 04bc f1b7 82bd e79a 44bc
000001b0: 0062 e73b de6f 913b 2e71 f6ba b056 603d
000001c0: 9c92 c5bc 3470 a7bb df1e 3bbc 3ce8 b6bc
000001d0: 1d97 06bd 4d12 b53c 6b15 a63c 2c1b 083b
000001e0: de4e e23b 5c35 88bb 4d82 2dbd 9e99 e6bc
000001f0: 6e27 0cbb 30a1 86bc ba8c 5ebd 4010 e23b
00000200: 3cbf c8bc ebe6 8abc 9273 053c cf82 07bb
00000210: 3814 97bc 61e6 aeb9 a3aa c8bb ed37 58bd
00000220: 91a3 70bd 73cc 7fbb a74d f2bc 0656 0e3c
00000230: 52e4 213c a015 ee3c b65d 23bd a1a8 c9bc
00000240: 1bc3 41bd 7ab2 00bd 0ad2 53bc a8a0 f5bc
00000250: ee76 ac3b e3ae 5cbd 58bf e9bc f933 113b
00000260: db35 9fbc 7736 62bc 7d93 11bc bb43 63bd
00000270: b570 203c 9636 803d 2abc ffba fb21 ad3c
00000280: 8787 faba dc42 b4bb 5ea9 413b 4731 3cba
00000290: 47fe d63c 0a43 3dbc 6a1c 12bc 9f81 3cbc
000002a0: e682 cebc 46c4 e3bb c6f6 cdbb 4f39 413d
000002b0: 7fb3 1abd 9b29 6bbc 356c 00bd 29c4 163b
000002c0: 9204 87bd dbbe 53bd b134 123d 24f9 6b3d
000002d0: e8ab 593b 9940 f3bc 46a8 e23b 125e de3c
000002e0: 90b6 7f3c e907 eabc c29a 12bd 9555 15bd
000002f0: 5b03 8c3b be11 9a3c 7161 28bd 4ba8 5dbd
00000300: 5c0b 36bd aaf1 ad3c 3928 4bbd b095 84bb
00000310: e2a6 debb fa02 ea3c a364 0dbc b2e8 19bb
00000320: 7faf e73c 6ad3 b43c 45d9 3bb9 79fb 413c
00000330: b660 6abd 1fa2 60bc 60a9 10bc 7984 463c
00000340: aa48 083b f782 5ebd d910 033d 6d69 81bc
00000350: 83b0 4dbc f81a 47bc d037 7c3c 7132 2dbb
0.0006388479 -0.015717853 0.01554789 0.008949477 0.033293594 -0.0073840176 -0.0048256507 -0.0025809351
0.014722361 -0.024078516 -0.01804511 -0.01490495 -0.013786548 -0.002509858 0.016209641 -0.016305488
-0.06888671 -0.018356582 -0.0051161344 0.03815183 -0.021286508 0.007011212 0.043046433 -0.027364552
-0.028740698 -0.04868478 -0.055511866 0.011439409 -0.016331594 0.036487844 -0.016513169 -0.012369792
-0.044137727 -0.043323357 0.027454326 -0.0053471243 -0.028178867 -0.056563284 -0.030436939 -0.018061806
0.0015341213 0.0026454995 0.004851335 -0.005220923 -0.022886755 0.0034132407 -0.05435326 0.006896921
-0.011645483 -0.047577728 0.0127125615 0.014752792 0.009433702 0.007444559 0.0008743581 0.0028595806
-0.044883043 -0.032732565 0.0058607985 -0.007134951 -0.022977743 0.025295096 -0.021290204 -0.07324781
-0.009221923 -0.020714493 0.0113430405 0.0107061835 -0.0007617977 -0.022198835 -0.022940204 0.010222986
-0.02425334 -0.018642202 -0.015581817 0.0155563345 0.0045056613 -0.052557666 0.028023051 0.0075536068
0.0041472143 0.029044721 0.04050581 0.028578583 -0.0023333384 0.0070850416 -0.005692151 -0.02452916
-0.008441005 -0.042710785 0.02122194 0.030011639 0.0064584576 -0.017152399 0.002225841 -0.009178075
0.0055624805 0.04531979 -0.024808282 0.02059017 -0.021670312 0.00016488788 -0.07607981 -0.01688246
0.01921534 -0.008073841 -0.0638274 -0.011999822 0.007061243 0.0044383844 -0.0018802041 0.05477017
-0.02411776 -0.005109811 -0.011420934 -0.022327535 -0.032858957 0.022103453 0.020273885 0.0020768149
0.0069063744 -0.0041567516 -0.042360593 -0.028149422 -0.0021385807 -0.016434282 -0.054333426 0.00689891
-0.02450525 -0.016955813 0.00814523 -0.0020677333 -0.018442258 -0.00033359512 -0.006123857 -0.05278771
-0.05874974 -0.0039031773 -0.029578043 0.008687502 0.009881096 0.029063046 -0.03988429 -0.024616541
-0.047305208 -0.03142021 -0.012928495 -0.029983833 0.005263201 -0.053877722 -0.028533623 0.0022156222
-0.01943486 -0.013806931 -0.008885262 -0.055484515 0.009792496 0.062604114 -0.0019511033 0.021134367
-0.0019113877 -0.0055011343 0.0029550414 -0.0007178974 0.026244296 -0.011551628 -0.008917907 -0.011505513
-0.025208902 -0.006950888 -0.006285521 0.047173794 -0.037768837 -0.014353181 -0.031353194 0.0023005104
-0.065926686 -0.051695686 0.03569478 0.057610646 0.0033214036 -0.029693889 0.0069170324 0.027144466
0.015607491 -0.028568225 -0.03579212 -0.03645857 0.004272861 0.018807288 -0.041108552 -0.054115575
-0.044444427 0.021233398 -0.049598906 -0.0040461645 -0.0067947963 0.028565872 -0.008629951 -0.0023484644
0.028281925 0.022073466 -0.00017914649 0.011839741 -0.057221137 -0.013710528 -0.008829445 0.012116545
0.0020795264 -0.054324117 0.03199849 -0.015797341 -0.012554291 -0.012152426 0.015394166 -0.002642777

network_body.linear_encoder.seq_layers.0.weight f4 [216, 121]
00000000: 243d 1d3d 419d 8a3c f91c eb3d c58b 093d
00000010: 5f79 3e3e 6f2b adbd d913 3b3d 15cf 003d
00000020: c62f 483e bc0d 363e dc57 2d3d 2114 f4bd
00000030: 7084 0f3e d4a3 3c3d dc14 963c 765a 5fbe
00000040: 16f7 79bd 7bbb 113d 45ca a23d b137 a0bd
00000050: a3db 363e abae 6abe 945b f5bc 91cd ca3d
00000060: a31e bdbd 1d92 a2be 99bd 22be ab51 03be
00000070: 31d2 8c3d ab45 963e 97f8 b2bd ba2d 73be
00000080: 7e79 88bd 5cf5 ddbd d7b3 ffbd e0d5 d23d
00000090: fc8f 62be 5452 64bd 1902 9cbd 705b e23c
000000a0: 44ec a2bd 742f b5bd db2d dbbc 48dd 0cbe
000000b0: de81 57bc 6607 873e 6a7b 5fbd ca1e 1bbe
000000c0: 4d6d 40be 15f8 553c a0f4 c93c 2edc 193e
000000d0: 7a41 90be 526e 4fbd e55e 6a3d f89e c2bd
000000e0: 0a58 2cbd c216 8abe b572 2fbe be02 cbbd
000000f0: 61ed 8c3c 6fc0 b23d 7386 49bd ca35 1f3e
00000100: dfc2 97be 6633 1ebe 01b3 48be 61d4 57bd
00000110: 118f 3fbd b2d5 fcbd 6391 d93d 1f58 13bd
00000120: 2327 4d3e 65a5 4abd 7ae1 3dbd 66cf 2fbe
00000130: 39e6 393e a5e4 99bd d441 54be 9dd2 f3bd
00000140: 1e62 083e a7af 15be 2a79 7b3e 6954 a43c
00000150: 31b7 993c 22d0 18bd 8673 253e da80 223e
00000160: 470e 78be db63 de3d da25 6c3d 2823 0f3d
00000170: 9dfa fdbd 166e 063e a1e2 c53c 5be6 d9bd
00000180: 170e dcbc 409f 463d 987d 29be 622b d33d
00000190: 3dbc 003e 5b9b 3c3d 9a53 213d b192 02be
000001a0: 1067 db3d b123 58bc 6748 cd3d 850a 9d3d
000001b0: 494b e23d 7d27 b93c b71f d9bd 7b5b 083e
000001c0: 3756 e13d 16e6 873c 8f20 06be 6cba cd3d
000001d0: 9078 a53b 7dd8 f03d 4daf b93d c640 13be
000001e0: 494f a23d d69c 1ebe b9a1 d1bd afe7 f1bd
000001f0: cf03 8bbd 30a4 ebbd 77f9 be3d ccad c83d
00000200: 0190 f3bd 7b42 813b d535 7fbd 6114 27bd
00000210: 846c d9bd 5c3a 6ebe c57c 50bc 0118 b33c
00000220: cb84 97bd c7c8 10be daef 8ebd 4b1a 9fbe
00000230: 6262 063e cbf2 ea3d ec9c 7bbd a0ee 1cbe
00000240: 1a90 8e3d 3993 143e 10ba 46be 544a c6bd
00000250: b945 e43c f26a a23e 3b4c f63d 578d 35bc
00000260: b4d5 d4bd 12f5 683e af7c e0bb bd30 c83c
00000270: 747e 19bd 288d 1b3e 6fec 34be 04b3 2f3e
00000280: 2c61 18be 9a46 39be 8aa4 563e 7a82 d7bd
00000290: c719 1fbd d046 a73d af43 c73c 18ef 5b3d
000002a0: a61f b5bd 55c0 63be 31ba 303d cf2c 0cbe
000002b0: 0a08 7f3c beb2 7abd dbdc 843e 5bfe e23d
000002c0: fbe3 b7bb c912 44be 31b8 25be 4353 58be
000002d0: 5828 27bc 5a3c 67be 386b 7d3d aa72 103e
000002e0: 5ed5 7e3c f346 f4bd 1e36 3bbe 1985 06be
000002f0: 6fb3 5bbe f06a 81be 88a0 84be db26 643e
00000300: 62f4 a1bd 35d2 4fbe 9d0b c63c c36d ef3c
00000310: e4a9 92bd ed7f b7be 3d3e b8bd f355 1fbe
00000320: dfc2 8cbd 070a 8ebe 3aea a23d 51f9 213e
00000330: f305 4dbd 9139 56bd 2cb6 dd3d dd5b 66bd
00000340: 782d 153d 982f ecbc d0c6 683e e7fb b2bd
00000350: 1f61 dbbb af37 793e dd89 47be bc8b 80bd
00000360: 4058 4abd 68fd 97be 31f8 6cbd 630f 3b3d
00000370: 5d3c 00be 9871 afbd 745a d5bd c705 f0bd
00000380: e019 bb3a d477 a53d c390 db3d b4e7 a7bc
00000390: 4838 d93c 803d e23c d47d 00bd a56a 11bc
000003a0: 2911 9f3d 8de1 b23b 10f8 b83d 27c4 62be
000003b0: b9c6 5b3d e53b 843d 3284 89be c878 dbbd
000003c0: 1658 3dbd cd4b 5dbd 367b eb3c af22 a2bd
000003d0: 92e0 c7bd 8fdb ebbc 1349 8b3d 7f46 1c3e
000003e0: bcfd 283e 20d8 453e 8858 a3bd e490 3b3e
000003f0: 1a01 253e 963e 133d ccbf e9bc 2d7c 2bbc
0.038388386 0.016920688 0.114801355 0.03358056 0.18600987 -0.0845555 0.045673225 0.03144749
0.19549474 0.17778677 0.042320117 -0.11917902 0.14015365 0.046054676 0.018320493 -0.21811852
-0.061026655 0.035579186 0.07948736 -0.07823122 0.17857222 -0.22918193 -0.029950894 0.0990249
-0.09234359 -0.317521 -0.15892638 -0.12824123 0.06876028 0.29350027 -0.08738821 -0.23747912
-0.06663798 -0.10837814 -0.124854736 0.102947 -0.22125238 -0.055742577 -0.076175876 0.027631491
-0.0795522 -0.088469416 -0.026755264 -0.13756287 -0.013153521 0.26372832 -0.054561056 -0.15148464
-0.18791695 0.013059636 0.02465278 0.15025398 -0.28174955 -0.05064232 0.057219405 -0.09502977
-0.042076148 -0.26970488 -0.17133601 -0.099126324 0.017203035 0.0872811 -0.049200486 0.15547863
-0.29640862 -0.15449294 -0.19599535 -0.052692775 -0.046767298 -0.12345447 0.106234334 -0.03597271
0.2003446 -0.04947414 -0.04635761 -0.1716896 0.18154229 -0.075143136 -0.20728236 -0.11905406
0.13318679 -0.14617787 0.24557939 0.020059781 0.01876411 -0.037307866 0.1615735 0.15869465
-0.24224196 0.1085889 0.057653286 0.034945637 -0.12401316 0.13127932 0.024155917 -0.1063964
-0.026862187 0.048491716 -0.16551816 0.10311009 0.12571807 0.046046596 0.03938637 -0.12751271
0.10713017 -0.013192103 0.10023575 0.07668022 0.11049516 0.022601837 -0.10601752 0.13316147
0.11002772 0.016589206 -0.13098358 0.10045323 0.0050497726 0.11760042 0.09066639 -0.14380178
0.07925279 -0.15489516 -0.10235924 -0.11811768 -0.06787836 -0.11505926 0.093249254 0.09798774
-0.11892701 0.0039446927 -0.062307198 -0.04079092 -0.10616401 -0.2326445 -0.01272506 0.021862032
-0.07398375 -0.1413909 -0.06979342 -0.31074747 0.13123468 0.1147209 -0.06142895 -0.15325403
0.06961079 0.14509286 -0.19406915 -0.09682146 0.027865278 0.31722218 0.120262586 -0.011081061
-0.10392323 0.22749737 -0.006850801 0.024437303 -0.03747411 0.15190566 -0.17668317 0.17158133
-0.14880818 -0.18093339 0.20961204 -0.10522933 -0.038842943 0.08167803 0.024324266 0.053694814
-0.08843927 -0.22241338 0.043146316 -0.13688968 0.0155658815 -0.061205618 0.2594975 0.11083671
-0.005611894 -0.19147791 -0.16183545 -0.21125512 -0.01020249 -0.22581616 0.06186983 0.14106241
0.0155538 -0.11927595 -0.18282363 -0.1313671 -0.21455167 -0.252769 -0.25903726 0.22280447
-0.079079404 -0.20295031 0.02417546 0.029227143 -0.0716131 -0.35839787 -0.08996246 -0.15560131
-0.06873106 -0.27742025 0.079548314 0.15817763 -0.0500545 -0.052300993 0.10825762 -0.05623995
0.036420316 -0.028831288 0.22732091 -0.08739453 -0.0066949273 0.24337648 -0.19486184 -0.06276652
-0.049400568 -0.2968552 -0.05785388 0.04566897 -0.12523027 -0.08566588 -0.10417643 -0.11719852
0.0014274679 0.08079496 0.107209705 -0.020496227 0.026516095 0.027617216 -0.03137 -0.008875524
0.07766945 0.0054590167 0.09031689 -0.22145139 0.053656314 0.064567365 -0.2685867 -0.107163966
-0.046226583 -0.054027367 0.028745275 -0.079167716 -0.0975963 -0.028791217 0.06801047 0.15261267
0.16503042 0.19320726 -0.0797587 0.1831699 0.16113701 0.03594836 -0.028533839 -0.0104666175

network_body.linear_encoder.seq_layers.2.bias f4 [216]
00000000: f733 35bd 331d abbd 3adc bb3c f8df d7bc
00000010: 015c 75bd c51f b23b 4fa0 eebb f53a aabc
00000020: 3b9d 1cbd ee3b 6cbd 71dc 32bb 9eae 0cbb
00000030: 05ca a4bc e062 21bd f16f 90bc 3b2d b8bc
00000040: ffe2 dd3c 1f79 a0bc 644d a4bc 9cf0 10b9
00000050: fa27 103d 8529 ffbc 5b47 18bd 4d2a 42bd
00000060: 2b9f ddbc c636 553c 73b1 2f3d 52a2 35bd
00000070: 2c19 03bd 0f62 b43c 7a52 263c dacb 0b3c
00000080: d693 62bd 772e f53b 4d50 89bd 2a22 edbc
00000090: 1a50 93bc b9e3 3bbd 88ec 4abc ae12 afba
000000a0: 8133 82b9 fb7b 30bd 19ac c0bc 1879 1f3b
000000b0: a929 22bd 96aa 0f3d 23f4 18bd d324 123a
000000c0: 77e2 f2bc 7799 b1bc e0fe 81bc c78d 30bd
000000d0: 8aa3 1dbd 5aaa 4d3c 05fc 94bc 35f8 c7bc
000000e0: 1b82 a9bc a475 05bd 6483 13bd b184 8a3c
000000f0: 7d18 5dbd 771d eb3b dc3c c03c 83ee 95bc
00000100: e11a 243d f68a 86bd 8783 7dbc ad01 55bb
00000110: 4afd dcbd e890 e6bc 4e8f fdbb 9b21 73bd
00000120: 3fdc 873b c3a4 8dbd e54c e43c d82e 77bd
00000130: a863 80bc 0be0 1cbd b8f1 7cbc bca0 6ebd
00000140: f7a4 5fbd 7b88 49bb b512 40bd 7496 58bd
00000150: 6199 46bd de1a aebb 0974 5ebd dbaa 15bc
00000160: ca36 81bd d710 24bd 3efb 06bc 6d9e dc3a
00000170: cd46 e5bb f97f 68bd 3133 d83c cd28 1c3d
00000180: f1b7 15bd a857 7ebd c173 69bc b817 a53b
00000190: 3409 20bc 81ed 82bd 255b 8cbc 1433 d13b
000001a0: 5315 d3bc e1d6 28ba 84e9 603c 32c3 ddbc
000001b0: 0ef5 3dbd 0f11 80bd 7660 c7bd 29cb 86bb
000001c0: 2ac8 93b9 6777 3e3d 57ea d2bc fef9 2bbd
000001d0: 43a0 ac3c 8c6d 91bd 82ca 15bb f42d 8ebc
000001e0: 727d 8dbd 42ca 82bc 48a0 aabd f313 b1bc
000001f0: b4eb 33bd 9958 20bd 5c33 1a3c f7c9 d03c
00000200: f828 fbbc c8e5 04bd 6ac4 d9bc b143 f0bb
00000210: 1bd1 833c 2eeb b2bc 197a 65bc c845 2bbc
00000220: f7c5 223c b9bd 82bd f54d e53c baba 2e3d
00000230: 6cc1 07bd 0b2d 85bd df26 24bd ceae 23bd
00000240: 5636 81bd f0a5 f33b 91ce 64bd e9de 09bd
00000250: a351 27bd 7fbd 46bd d74a 8bbd 56cd bd3c
00000260: 15da 3abc 002f d0bb 82e1 9abd 1cbe c3bd
00000270: 9f83 58bd 8c98 39bc 67bc 65bd 5d2b dabc
00000280: c01e 91bc 7449 8e3c d635 5abd 801a 173c
00000290: 9ad7 0e3c 2732 6b3c 9deb 3ebc a253 19bd
000002a0: 1d87 65bd a01b 253d ded2 66bc e46c 843c
000002b0: 0ecc 14bd c543 943c cdc9 8dbc 1d94 4ebd
000002c0: e857 babd fdce 93bd 839f bebc d6a7 27bd
000002d0: d446 3bbc 26c4 94bc 82a3 b4bb 4b69 15bc
000002e0: 4d4c 26bd ae1b 5bbd cdc2 a83c 2d32 783c
000002f0: 23b7 3cbd 8972 2c3c 9e0e 1fbc 9f8d 6abd
00000300: 1581 b6ba 66ca 83bc e006 483b 9ea2 1bbd
00000310: a616 e6bc 2ce7 8fbc 5b53 cfbd 6c65 533c
00000320: c617 dabc 3da7 7dbd 5c52 1dbd 1ba4 0bbc
00000330: 501a 8b3c e78e 763c 629a 78bc a048 b1bc
00000340: b8fd 99bc 52ec c4bb 9a8b 8cbd 0e90 5abd
00000350: ff5e 31bc 6204 403c 4ad1 b03c cc89 6c39
-0.04423901 -0.08355179 0.02293216 -0.026351914 -0.059902195 0.005435916 -0.007282294 -0.020780066
-0.038235884 -0.05767434 -0.0027292038 -0.0021466385 -0.020115862 -0.039400935 -0.017631503 -0.022482505
0.02708578 -0.019589005 -0.020056434 -0.00013822544 0.035194375 -0.031147728 -0.037177425 -0.047403622
-0.027053436 0.013013547 0.04289384 -0.044344254 -0.032006428 0.022019414 0.0101515 0.008532489
-0.05531677 0.0074823457 -0.06704769 -0.028946955 -0.017982531 -0.04587147 -0.012385495 -0.0013357007
-0.00024833906 -0.043086987 -0.023519563 0.0024333652 -0.03959051 0.035074793 -0.037342202 0.0005574945
-0.029649002 -0.021679623 -0.015868604 -0.04310396 -0.03848604 0.012552822 -0.018186579 -0.024410347
-0.020691922 -0.032582894 -0.036013976 0.016908975 -0.053978432 0.0071751433 0.02346652 -0.018302208
0.040064696 -0.065694734 -0.015473253 -0.003250222 -0.107904986 -0.028145269 -0.0077380305 -0.05935822
0.0041461284 -0.069161914 0.027868697 -0.060347408 -0.01567252 -0.0382996 -0.01543849 -0.058258757
-0.054600682 -0.0030751515 -0.04689284 -0.05287786 -0.048486117 -0.0053132614 -0.05430988 -0.009134973
-0.06309278 -0.040055122 -0.008238612 0.0016831883 -0.0069969655 -0.05676267 0.026391597 0.03812485
-0.036552373 -0.062095314 -0.014248789 0.005038228 -0.009767819 -0.063929565 -0.017133305 0.006384263
-0.025767004 -0.0006440711 0.013727549 -0.027070615 -0.04637628 -0.06253254 -0.09735195 -0.004113574
-0.0002818716 0.04650059 -0.025746508 -0.041986458 0.021072512 -0.071009725 -0.00228563 -0.017355897
-0.069086924 -0.015965585 -0.083313525 -0.021615958 -0.043925956 -0.039146993 0.009411659 0.02548693
-0.030659184 -0.0324457 -0.026582915 -0.007332288 0.01609092 -0.021840658 -0.014006161 -0.010453649
0.009934894 -0.06383843 0.027991274 0.042658545 -0.033143446 -0.06502732 -0.040076133 -0.03996163
-0.06309192 0.007435553 -0.05586106 -0.03365985 -0.04084934 -0.04852056 -0.06801384 0.0231692
-0.011404534 -0.006353259 -0.075625435 -0.09557745 -0.0528599 -0.011327874 -0.056087878 -0.026632005
-0.017714858 0.01736901 -0.053274 0.009222627 0.008718396 0.014355219 -0.011652854 -0.037433274
-0.056037057 0.04030955 -0.014088361 0.016165204 -0.036327414 0.018098721 -0.01730814 -0.05043422
-0.09098798 -0.07217214 -0.02326942 -0.040931545 -0.011430461 -0.018159937 -0.0055126557 -0.009119342
-0.04060011 -0.053493194 0.0206007 0.015148682 -0.04607309 0.010525354 -0.009708075 -0.057263967
-0.0013923967 -0.016087722 0.0030521676 -0.03799688 -0.028086971 -0.017566286 -0.10123321 0.012902599
-0.026622664 -0.06192707 -0.038408622 -0.0085230125 0.01698032 0.015048719 -0.0151735265 -0.021641076
-0.01879774 -0.006009617 -0.068625644 -0.053360038 -0.0108258715 0.011719795 0.021584172 0.00022558047

network_body.linear_encoder.seq_layers.2.weight f4 [216, 216]
00000000: f651 a0bd d0e9 843d 3117 fc3d 0a6c 3abd
00000010: da23 973d 20e1 fb3c ea80 1d3e 2604 b4bd
00000020: 0388 64be f6a5 d6bc 2c19 58bd 62af 89bd
00000030: 10b6 39bd b498 143d 3b3c c83d 09fe f93c
00000040: 2106 553c 7067 903d c881 e23d 24c7 74bd
00000050: 4a6c 833d 12e5 3f3e 34b8 bdbc 14f0 e4bd
00000060: cad2 8cbd 3546 88bd 6aab 37be 6f7c 03be
00000070: 4e9b f5bc 005d 193d e976 3abc 2820 96bd
00000080: 0063 b83d 3303 88bd 998f 533d ed09 c0bb
00000090: 5abd 733d 162c 32bd 38ec a7bc 7b67 163d
000000a0: 906d 683d edb8 95bd b440 6bbd bc77 853d
000000b0: 8851 3bbd 6b29 94bd 7e4d acbc d8c1 b1bc
000000c0: 4dff 823d 6d61 9fbd 302a 993e 6771 1c3e
000000d0: b52e 483d c52f 553d 275c eb3c 8439 d0bd
000000e0: 8c39 c33b 52f5 58bd ec4a cbbd 5082 04be
000000f0: 381a 03bd fbf8 f93d 1cf3 e2bd c8e9 0abd
00000100: 9748 803d 29ef 78bd ef40 de3c 7c9c 7b3d
00000110: bccb 1a3e d780 bbbd 0180 08be 2712 86bc
00000120: 12c5 ec3d f459 cebd c78d 35be c54d b23d
00000130: 94bf 943d 89b3 8ebd 1305 eabd 2129 d2bd
00000140: ab8e 1a3c 226f f8bd 043f 6a3d dfad b03d
00000150: bccd 073e 1ece e7be 6a30 b4bd 3758 99bd
00000160: 8ee7 edbd f7a0 e6bc a612 c93d 6a2b 223d
00000170: 4fe6 193d 13ce 03bd 4f9b a7bd 92a1 d53c
00000180: 21b7 863d 06b0 783c 868f b4bd 07ba f9bd
00000190: 48fd 3dbe 7bbe 90bc 651a febd 7db2 23be
000001a0: 2d46 48bd 8633 1bbe a2da 97bc fd65 0c3e
000001b0: a709 19bd ced2 98bd b542 da3b 372c e9bb
000001c0: 179f 323d fa9b 8ebd 49c3 0dbe f909 7e3d
000001d0: b60b 62bb 2505 82be 81c3 d8bc 6a9b 38be
000001e0: 0bd2 433e 4bbb d23d c5b3 6e3d 91e5 f9bd
000001f0: 3323 16bd 21df 023d 7b82 d1bc b7d7 953d
00000200: d304 7c3d 8122 27be b3f2 293e 65b2 5e3d
00000210: 807f 87bd 37aa ea3d 4f73 8cbd 1416 8a3d
00000220: 9069 73bd e2d7 163d f525 5dbe 7c25 103e
00000230: f419 393e 4e04 59bc 2a63 d33a ed07 a2bd
00000240: a811 003d ebf0 333d e2d2 c73d 55a3 313d
00000250: dabd b33b 2058 84ba 338a 0a3d eb4f 2bbd
00000260: 70fb 21be 2a90 413e 8da4 edbc 50d6 e3bc
00000270: baf4 40be 3265 06be bb2b 853d 17de 93bd
00000280: af69 fb3d f10f 0bbe 8152 573d 6ba4 433d
00000290: d18f e93c 44fe 883d 76a9 0dbb d873 c0bd
000002a0: 754c ffbc df4e ecbc f49c 5abd 9177 453e
000002b0: d44a 90bd f716 9ebd 9b05 923c aa01 08bd
000002c0: 8384 233d 804e 6b3d 3f7b 12be 20f8 063e
000002d0: 34d8 d63d fd4b 453d 871f 383e b41c 143d
000002e0: 4cd6 cfbd 50de a6bd e9dd 96bd 8ea1 85bd
000002f0: 1cfd edbc f087 8bbd 7472 1fbd dc68 38be
00000300: 96a8 4a3b 2417 c53d 5d12 5abc e30c 123e
00000310: f9e1 c6bc 0cd5 693c 0543 0abd 1eaf f7bd
00000320: dd5e bb3d 16a2 a63c 4ca5 a43d 5702 763d
00000330: c913 5ebd 3666 d53c ac07 60bd 604c 1cbd
00000340: eb34 d0bd 97d5 b63d 30d0 933d 9b4f 21be
00000350: bc1f 2abe d4c7 bb3c de14 55bb 42a1 9fbd
00000360: baf0 2dbe b8b4 1bbe 9dc1 b33d fe8d 1e3e
00000370: 66b0 113d eb59 59be f554 49be c346 7e3b
00000380: 15a9 d3bd 59cd 533e e9c1 a93c a12c b5bd
00000390: a1c2 6d3e 8b99 13be c085 66be ca20 203e
000003a0: 1b8c 4f3d 4369 fcbd f19a 7ebe cb7c 3c3e
000003b0: 600e f43b 7106 343e 75de 7a3d 955d b83d
000003c0: af35 5ebd cb7b ab3d 43ae 033e b031 6b3e
000003d0: 067c a6bd 231e b93c 5821 51bc a481 b33d
000003e0: 150f 8a3d 8665 50be 4c6b 1abd d788 31be
000003f0: 20ee adbd 5743 cf3d d250 013e 5266 833d
-0.07828133 0.06489909 0.12309111 -0.04551319 0.07379885 0.030746996 0.15381208 -0.08789854
-0.2231751 -0.026202183 -0.05275838 -0.06722905 -0.045339644 0.03627844 0.09777113 0.030516641
0.0130019495 0.07050979 0.1105991 -0.059760228 0.06417139 0.18739727 -0.023159124 -0.11178604
-0.06876142 -0.06654016 -0.17936483 -0.12840436 -0.029981282 0.037442207 -0.011380889 -0.07330352
0.09003258 -0.06641235 0.051650617 -0.0058605582 0.05950675 -0.043499075 -0.02049838 0.03671978
0.056745112 -0.073106624 -0.057434753 0.06516978 -0.04573205 -0.07234462 -0.021033045 -0.021698877
0.06396351 -0.07782254 0.29915 0.15277635 0.04887267 0.05204751 0.028730465 -0.1016722
0.005957788 -0.05296833 -0.099263996 -0.12940335 -0.032007426 0.122056924 -0.11081526 -0.033914357
0.062638454 -0.060774956 0.027130572 0.061428532 0.15116781 -0.091554336 -0.1333008 -0.016366078
0.11561026 -0.10075751 -0.17729865 0.087062396 0.07263103 -0.06967837 -0.11426749 -0.10261751
0.009433429 -0.12130572 0.057189003 0.08626913 0.13262075 -0.45274442 -0.08798297 -0.07487529
-0.11616431 -0.028152926 0.0981801 0.039592184 0.037573155 -0.03217895 -0.0818392 0.02607802
0.06577898 0.015178686 -0.088164374 -0.12193685 -0.1855365 -0.017668953 -0.12407378 -0.15986057
-0.04889505 -0.15156373 -0.01853687 0.1371078 -0.03736272 -0.07462083 0.006660784 -0.0071158665
0.04360875 -0.06963344 -0.13844027 0.06202123 -0.0034491844 -0.2539455 -0.026460411 -0.18028036
0.19123094 0.102896295 0.05827691 -0.122019894 -0.036654662 0.031951074 -0.025574913 0.07316535
0.06152804 -0.16321756 0.16596489 0.05436935 -0.066161156 0.11458247 -0.06857931 0.06742492
-0.059426844 0.036826976 -0.2159651 0.14076799 0.18076307 -0.013245655 0.0016127576 -0.07911668
0.03126684 0.04393093 0.097570196 0.043368656 0.0054852786 -0.0010097064 0.033823203 -0.041824263
-0.15818572 0.1890265 -0.029009128 -0.027812153 -0.18843356 -0.1312454 0.065024815 -0.07220095
0.12276017 -0.135803 0.052568916 0.047764223 0.02851096 0.06689122 -0.00216159 -0.093970954
-0.031164387 -0.028846202 -0.05337234 0.19283892 -0.07045522 -0.07719224 0.017824939 -0.033204712
0.039921295 0.05744791 -0.14304827 0.1318059 0.10490456 0.04816817 0.17980777 0.036160186
-0.10148296 -0.081478715 -0.07366545 -0.06524955 -0.029051356 -0.068130374 -0.03892751 -0.1800875
0.003092324 0.09623554 -0.013310042 0.14262728 -0.024277674 0.014271986 -0.03375532 -0.12093948
0.09148953 0.02034096 0.080393404 0.060060825 -0.054218087 0.026049715 -0.054694816 -0.038158774
-0.10166343 0.08927458 0.07217443 -0.15753023 -0.16613668 0.022922434 -0.0032513659 -0.07794429
-0.16986361 -0.15205657 0.08777163 0.15483853 0.035568617 -0.21225707 -0.19661315 0.0038799501
-0.10334984 0.20683803 0.020722346 -0.08846403 0.23218776 -0.1441404 -0.22511959 0.15637508
0.050670724 -0.123247646 -0.24863793 0.1840698 0.0074480027 0.17580582 0.061247308 0.09002224
-0.054250415 0.08373221 0.12859444 0.22968173 -0.08129124 0.022597378 -0.012764297 0.08764961
0.06741158 -0.20351228 -0.037699983 -0.17337357 -0.08492684 0.10120266 0.12628487 0.064160004
