Project/results/VPlayer-FirstButCorrected/VPlayer/VPlayer-499996.onnx (onnx, 681794 bytes, 15 tensors)

action_model._continuous_distribution.mu.weight f4 [1, 216]
00000000: 2033 58bc 2356 03bd ed04 153d 5d96 d4ba
00000010: 11f4 513c 327a 1e3c 9eb5 573c 22cc 523c
00000020: dd24 9abc 2daa b8bc 9238 853c 8bdb 24bb
00000030: d25a bd3b 8678 a5bc 6cd4 d43c 65d4 cbbb
00000040: 91cb b33c 7707 583b b9c6 b73c 07d2 56bc
00000050: 08e1 69bc f963 ddba d0be e4bb 37a6 79bc
00000060: 35f5 c03c 6b54 c7b9 4473 f13b 57ea b7bc
00000070: 18b6 73bc 9bfc 9f3c 1784 34bd af55 2b3c
00000080: a649 4d3c d307 9bba e33d 46bc 4675 b7bc
00000090: a1f1 91bc e400 f43b 0798 d6bc 1ca4 a43c
000000a0: 88c6 743c ab85 1bbc 8982 90bc 788a 01bd
000000b0: 4804 45bc e07d 0f3c 2f71 13bd 51a2 f33b
000000c0: 5ad0 bbbc 25dc 1ebc 40f4 e03b 5590 cbbc
000000d0: 11c5 91ba a63c 19bc 9bf9 643c c700 bbbc
000000e0: 8799 88bc a545 2a3c d841 203c 451f ce3c
000000f0: fcdd 8c3c 21e2 b73c f001 b1bc 17f8 50bb
00000100: 8916 82ba fba6 bd3b 3349 523c 0bf7 333c
00000110: 92fd b5bb d128 233c d45d 993b dd23 f13c
00000120: c753 3f3c 6a16 06ba 4ada b43c 6bcd f53c
00000130: fb15 1bba 2bf3 77bc ad73 d63b 33b2 bd3c
00000140: 5056 4c3b fe5b 01bd d24d 18bd 4b87 ae3c
00000150: 43df 153d 2a11 cb3b 51f0 b93c 38f0 47bc
00000160: 6373 16bc c85f fd3b d617 cc3c 8eb5 eabc
00000170: 78f9 e33c 3ff3 97bc 78ff f2bc 02cd a7bc
00000180: 513e b6bb d26c fa3b 25ea e6bc 7bd8 473c
00000190: 0064 69bc 88b7 be3c 8c78 62bc 00de 81bd
000001a0: 25cd 9fbc c569 05bb f31b c5bc 7a40 9f3b
000001b0: cea8 61bc e145 82bc 5bbb 04bd a43e 5e3c
000001c0: c586 cc3a 010d 793c 5e36 043c c509 413c
000001d0: f3a4 99bb 95fe 873b d0eb 6d3c d40a 00bd
000001e0: 0024 cb3c 0ddb 89bc 735f e1bc 8d76 f9ba
000001f0: 8e5f 41bc 9766 82bc c2c2 053c cdda 15ba
00000200: 398b 63bb eabf 7c3c 97f8 86ba 9f4f 7d3c
00000210: 23fc 6bbc 96b4 81bc 646b 193b 9ef6 ff3c
00000220: 823c 9cbc a27b 983b 77c0 0f3d f07c 5339
00000230: ef1a 933c b41b d43c f896 903c 7f09 08bb
00000240: db67 e63c 16c6 453c bd47 3bbc b8e9 f3bb
00000250: 2a0a 5bbc 17ad 9abb 4c07 80b6 4222 debb
00000260: 4f37 8ebb 6c85 aebc cc85 9c3a 4e49 45bc
00000270: 04f2 44bb 80e4 813c 6fd9 863b a70f f1bb
00000280: 7c6f 8f3c 4d5b 1fbc a355 06ba a13c 813c
00000290: 0bb0 50bc 004b 48bd c750 993c 100d 5fbb
000002a0: 31b4 ef3c 7b12 09bd 2a94 af3c 5fc7 85ba
000002b0: 3926 f53b ebcd 043d c818 2bbc 5206 033c
000002c0: d7c5 18bd fab8 6f3c 1be8 7d3c bff0 99bc
000002d0: 80e8 41bc 3cca b0bb 6e71 95bc c9ac 113b
000002e0: e79c 38bb 1b00 533c 311c a5bc 9b65 0dbd
000002f0: 4d62 ad3c 69cf 0a3b fa22 eabb f4a4 80bc
00000300: 50b4 0bbc 11c0 883c 4efc 9c3c e1b8 7ebd
00000310: 0841 c7bc 1f60 4f3c c788 f53b 5d31 babc
00000320: a85c 46bc df80 83bc 98e3 a23c 233c bc3b
00000330: f37b 073c 96f9 5e3c 183e 80bc a688 c73b
00000340: 62a3 28bb f09b 99bb bcf4 8abc 5439 c8bc
00000350: a2c2 403b 94a0 3f3b 19c6 49bc 4633 8ebc
-0.013195783 -0.03206457 0.03638165 -0.0016219128 0.012814538 0.009672688 0.0131658595 0.012866052
-0.018816406 -0.022542084 0.016262326 -0.0025155272 0.005778649 -0.020199072 0.025980197 -0.0062203878
0.021947654 0.0032963434 0.022433626 -0.013111598 -0.014274843 -0.0016890756 -0.0069807544 -0.015237383
0.023554424 -0.00038019134 0.007368477 -0.02245061 -0.0148749575 0.019529631 -0.044071283 0.01045744
0.012529766 -0.0011827893 -0.012099716 -0.022394788 -0.017815413 0.0074463952 -0.02619554 0.020097785
0.014939912 -0.009492318 -0.017640369 -0.031626195 -0.0120249465 0.008758038 -0.035996612 0.007435121
-0.022926498 -0.009696041 0.0068650544 -0.024849096 -0.0011121352 -0.009352839 0.013975526 -0.02282752
-0.01667477 0.010392581 0.009781323 0.025161395 0.017195694 0.022446694 -0.02160737 -0.0031886154
-0.0009924929 0.005787728 0.012834835 0.010984193 -0.0055539096 0.009958462 0.0046803746 0.029436046
0.011677689 -0.00051150343 0.022076745 0.030005177 -0.0005916056 -0.015133659 0.0065445513 0.023156261
0.0031179376 -0.03158187 -0.03718359 0.021304747 0.036589872 0.0061971145 0.0226976 -0.012203269
-0.009182784 0.0077323653 0.02491371 -0.028651025 0.027828917 -0.018548606 -0.029662833 -0.020483498
-0.005561628 0.007642367 -0.02818782 0.012197609 -0.014245033 0.023280874 -0.013822686 -0.06341171
-0.019507 -0.0020357233 -0.024061179 0.004859981 -0.013773156 -0.015902461 -0.03240524 0.013564739
0.0015604129 0.015200854 0.008069603 0.011782114 -0.004688853 0.0041502216 0.014521554 -0.031260327
0.02479744 -0.016828084 -0.027511334 -0.0019032523 -0.011802567 -0.01591806 0.00816411 -0.0005716503
-0.0034720434 0.015426615 -0.0010297474 0.015460878 -0.014403376 -0.01583318 0.0023409957 0.031245526
-0.019071821 0.00465341 0.03509566 0.00020169071 0.017957179 0.025892116 0.017650113 -0.0020757613
0.028125694 0.012071153 -0.011430678 -0.007443633 -0.0133691225 -0.004720341 -3.8155467e-06 -0.006778986
-0.0043400894 -0.021303855 0.001194173 -0.012041403 -0.003005148 0.015856028 0.0041152756 -0.0073566022
0.017509215 -0.009726358 -0.0005124455 0.01577598 -0.012737284 -0.04889965 0.018715275 -0.0034034885
0.029260727 -0.03346489 0.021432955 -0.0010206512 0.007481363 0.03242294 -0.01044292 0.007997112
-0.03729805 0.014631504 0.015497233 -0.018791554 -0.0118352175 -0.005395202 -0.018242564 0.0022228232
-0.0028169693 0.012878443 -0.020155044 -0.034520727 0.021165038 0.0021180755 -0.007145283 -0.015703656
-0.008526877 0.016693147 0.019163277 -0.062188033 -0.024323002 0.012657194 0.007493112 -0.022728616
-0.012107052 -0.016052661 0.019883916 0.0057444735 0.008269298 0.013609311 -0.015654609 0.006089288
-0.002573215 -0.0046877787 -0.016962402 -0.024441399 0.0029412885 0.002924 -0.012315297 -0.017358433

action_model._discrete_distribution.branches.0.bias f4 [3]
00000000: 6e9c a83c f3ab 40bd 4e04 f23c
0.020582404 -0.047038984 0.029543068

action_model._discrete_distribution.branches.0.weight f4 [3, 216]
00000000: 58a6 2ebb 21a6 9cba 8844 8fbc 5fec f6bc
00000010: a276 193d 44a0 423b 8714 f6bb c35b 45bd
00000020: 58ca f03c 2207 63bc 4ae9 903d de38 063d
00000030: 15cd 9bbc 6ec2 b3bc 3fc3 073d 2866 0fbd
00000040: 5722 aabb f8fb 6dbc 6e57 ac3c 59e0 d4bb
00000050: b0aa c3bb 4b91 09bc 9aca 07bd 90f0 e0bb
00000060: 5a83 de3c 9c3c 94bd b726 01bd e8c3 cfbc
00000070: 5249 ab3c 1ca5 d4bc 14c0 83bc d6c0 fcbb
00000080: c2e2 0c3d 9981 363c 9e3d 2fbb ad82 0d3d
00000090: b89d 373d 5aa9 88bb 6549 e3bc 7840 c03c
000000a0: db9d a73a b558 20bc 10a9 ecbc 5a66 20bc
000000b0: 90e7 27bd 740f 9c3c 18ad e1bc aad7 87bb
000000c0: 985f 43bd e4f0 15bd a476 783c 0303 223d
000000d0: ee7c b5bc a764 dc3b 3bff d539 e0ff e8bc
000000e0: 2bfd 8e3c 5dc3 cdbb 69bd c93b 9d94 a4ba
000000f0: 6572 96bc d24c 3a3d a6ba 0ebd a37f 103c
00000100: fb94 d3bc 2f0f fa3c 59d9 223d f113 60ba
00000110: 7cf8 683c e656 943c bc5a 1b3d 147d f23b
00000120: 2e6a 5ebd 61c6 02bd 6117 8a3c 0d34 183c
00000130: 9515 cf3c 7472 cdbc 947c cfbc f519 26bd
00000140: 3cdc 2bbd f0c7 49bc a725 983b bb71 04bc
00000150: 6426 3a3c be03 1a3d 2ba1 26ba 6923 18bc
00000160: 7b08 adbc 52a4 7c3c a16c da36 f7e1 e5bc
00000170: 0541 6a3c 29ed 3d3c bcaa 0bbd a1b3 06ba
00000180: 9dc9 7bbc 002c 56bb 4895 b8bc 3f3e 49bd
00000190: ba1d 88bc f1e7 a23b 25b3 6f3c 8cc6 19bd
000001a0: c5da a9bc 514d 0ebd 5bf7 e6bb b307 2d3c
000001b0: 01c2 0a3c 1134 b3bc 9cb9 d3bb 7a60 0bbc
000001c0: 9c35 223d 0741 47bb 27e3 6c3c 21fd 70bc
000001d0: 9d2f d53b b843 77bc 7934 023d 720a d6bb
000001e0: 7035 71bc eb9f ca3c b806 95bb ecca 6c3c
000001f0: 5c88 413d 96c9 23bd 1fee b4bc b897 82bd
00000200: 5e18 8cbc f687 93bc 3540 0fbc e761 3ebc
00000210: a859 363d 1735 c43c ed1e 373c 9967 80bc
00000220: bc5a 6ebc 747e 8a3c a512 a3bb 31f6 babc
00000230: 4d80 f6bc ea4f 3cb8 0a1c 8d3c 3175 88bc
00000240: 527b 0bbd 0dfb bb3b 3d2c 9c3c afd7 493d
00000250: c12e e239 4517 02bd f125 0a3d 488a 1cbd
00000260: 89d0 543c 1fa6 dabc 62d8 cbbb 3856 703c
00000270: 419d be3b e615 43bc 97b1 e7bc 0ec3 92bc
00000280: a6ca a83c cee1 15bd f19f 753b b07a f93b
00000290: e3ce 1abd ae92 2fbd 9e43 183d 571b 2b3b
000002a0: 6cff 02bd fb14 02bd 1ac4 81bb bb34 083d
000002b0: ec7b 03bc d540 0b3c 62df 09bb c9d1 043d
000002c0: 88fd 02bd 39b1 733b e070 be3c 1b5e 223a
000002d0: bf70 26bd b0cb de3b ce0f 5c3c 84e4 bbbc
000002e0: 4c3b b03b 2b4b b4bc 0cc6 e63c 2e0f bd3b
000002f0: 62d1 a93c e69c 29bc ea42 103c 2606 b8ba
00000300: 2b29 31bd 5e0a 1e3c 0108 c33b bd59 0abd
00000310: 64b5 133c 686b 233d a1fd 713b 1321 e43b
00000320: d392 f93c 0f26 1c3d 0ad0 b83a 7414 94bd
00000330: 758b ab3c 5cd5 84ba 711b 7fba 1acb 1cbb
00000340: 3446 f5bc 33ff 61bd 367c 3b3c 373d 213a
00000350: 7e53 0cbd 9282 5abc e069 92bc 7add 843c
00000360: 129f 023d 1a6a a53b e064 ee3c d616 b43c
00000370: d99c 45bc d153 b23b 0a9e a73b 1e03 bcbc
00000380: f285 433c 5744 d83c 134a e5bb dd76 7a3c
00000390: d065 393d 6aff 153c 3dfa e23a 9239 233d
000003a0: a3b8 933b ddb8 203c 93c7 d53b 1bd6 673b
000003b0: d9fc 5a3c 0b1a 03ba fcd5 5b3d 8569 aabc
000003c0: 04fe c13c ee61 333d 51f6 b03c b22e 823c
000003d0: 6652 dabc d355 3dbc 0231 4f3c 5904 5abd
000003e0: 30cc 00bb 59f9 9bbc de06 9f3c a3b2 a2bc
000003f0: b0a3 62bd 8e57 e93c 9228 89bc df42 29bd
-0.0026649442 -0.0011951366 -0.017488733 -0.030142007 0.037466653 0.0029697577 -0.0075097713 -0.048183214
0.02939336 -0.013856681 0.07075746 0.032769077 -0.01901869 -0.021943297 0.033145186 -0.035009533
-0.005192082 -0.014525406 0.021037783 -0.006496471 -0.0059712753 -0.008396457 -0.0331522 -0.006864615
0.027162243 -0.07238123 -0.031531062 -0.02536197 0.020908985 -0.025957637 -0.0160828 -0.0077134175
0.03439594 0.011139297 -0.0026739608 0.03454845 0.044828147 -0.004170579 -0.027744958 0.023468241
0.0012788133 -0.009786774 -0.028889209 -0.0097900275 -0.04099232 0.019050337 -0.027548358 -0.004145582
-0.047698587 -0.036606684 0.015165005 0.039553653 -0.022154298 0.006725866 0.00040816687 -0.028442323
0.017454704 -0.0062793926 0.0061566127 -0.0012556497 -0.018365094 0.045483418 -0.03484597 0.008819493
-0.025827875 0.030524818 0.03975806 -0.00085478934 0.0142194 0.018107843 0.037928328 0.0074001644
-0.05430048 -0.03192747 0.016856851 0.009289754 0.025278846 -0.02507899 -0.025327958 -0.0405521
-0.04195808 -0.012315735 0.0046431604 -0.008083756 0.011361692 0.037601225 -0.00063564134 -0.009285786
-0.021122208 0.015420036 6.5095523e-06 -0.02806185 0.014297728 0.011592188 -0.034098372 -0.0005138461
-0.015367893 -0.0032680035 -0.02253212 -0.049131628 -0.016615737 0.004971497 0.014630114 -0.037542865
-0.0207342 -0.034741703 -0.00704853 0.010560918 0.008469106 -0.021875413 -0.0064613353 -0.0085068885
0.039601907 -0.003040375 0.014458454 -0.014708788 0.00650592 -0.015091829 0.031788323 -0.006532007
-0.014722213 0.024734458 -0.00454792 0.014452677 0.047249183 -0.03998717 -0.022086201 -0.06376594
-0.017101463 -0.018009167 -0.0087433355 -0.011620021 0.044519097 0.023951096 0.011176807 -0.0156744
-0.014548 0.016906 -0.004976588 -0.022822471 -0.030090475 -4.489712e-05 0.017225284 -0.016657444
-0.034053154 0.0057367147 0.019064063 0.049277958 0.00043140913 -0.031760473 0.03372759 -0.038217813
0.012989172 -0.02669054 -0.006220863 0.014668994 0.005817086 -0.011907076 -0.028282924 -0.017915275
0.020604443 -0.036592297 0.0037479366 0.0076135024 -0.03779496 -0.042864494 0.03717386 0.0026108825
-0.03198187 -0.03175829 -0.0039601447 0.033253413 -0.008025151 0.008499344 -0.0021037688 0.03242663
-0.031980067 0.003718449 0.023247182 0.00061938324 -0.040634867 0.006799184 0.0134315025 -0.022936113
0.0053781625 -0.0220085 0.028170608 0.005769632 0.020729724 -0.010352349 0.008805016 -0.0014039918
-0.04325215 0.009646026 0.005951882 -0.033776987 0.009015415 0.039897352 0.0036924856 0.0069619506
0.030465519 0.038122233 0.0014100086 -0.072304636 0.020940522 -0.0010134387 -0.0009731567 -0.002392477
-0.029940702 -0.055175018 0.011443188 0.00061507843 -0.03425931 -0.013336794 -0.01787275 0.01621889
0.031889983 0.0050480487 0.029100835 0.021983545 -0.012061321 0.0054421206 0.0051152753 -0.022950705
0.0119337905 0.026399774 -0.0069973557 0.015287128 0.04526311 0.009155134 0.0017317008 0.039849825
0.0045080944 0.0098097 0.0065240352 0.003537542 0.013365948 -0.0005001134 0.05367087 -0.020802269
0.023680694 0.043794565 0.021601828 0.015891407 -0.026650619 -0.011556107 0.012645962 -0.053226802
-0.0019652955 -0.019039797 0.019412454 -0.019860571 -0.055331886 0.028484132 -0.016742978 -0.04132354

action_model._discrete_distribution.branches.1.bias f4 [3]
00000000: 823d aabc 0f60 e23c 2fbc 3fbc
-0.020781282 0.027633695 -0.011702581

action_model._discrete_distribution.branches.1.weight f4 [3, 216]
00000000: 384b 9f3c a327 6e3c 881c b6bc f1f7 cabc
00000010: f22b 50bd d1ff f1bc 396d e7bc e802 4dbc
00000020: 75a2 9e3c 6f37 00bd 41c6 28bd f3d8 7dbc
00000030: e28e 4e3c e77a c7bc fd61 03bd 2073 7fbb
00000040: 5f95 bb3c aa89 a4bb ae0c 953c e155 b6bb
00000050: 3f68 843b caf9 a03c d8de 7cbb d6f4 9b3c
00000060: 5f4d 21bd 3793 46bc 3a96 c3bc f1f8 223d
00000070: 696f a8bb ee1a 743d 1d8b 123d 3bf4 1b3d
00000080: fc9c 10bd 519a 643c d6cf cfbc 8eba b93c
00000090: 4251 67bd 4953 02bc 5460 65bd e8ce 1dbd
000000a0: f7fe bb3d 72cd debc d2ad 3cbc daaa 083d
000000b0: dde2 b8bc c91e b03c 89d2 22bb c8c8 2bbc
000000c0: 30b9 2a3b d2b7 87bc 04ce 393c 42c6 2b3d
000000d0: c8e0 10bc ad8a 2fbc 272c b7bb 7006 503d
000000e0: 38f9 31bd 40a3 ecbc 7f03 99bc f058 15bd
000000f0: 59e0 6a3c d282 38bd 253c febc 3992 803c
00000100: 4747 84bb c392 34bd 206b a7bc 730b fe3c
00000110: 6ff1 5cbd bac8 95bc 1c1c b5bc 83ed 9dbc
00000120: 2436 de3c 10be 883b 3360 6e3c be46 b43c
00000130: 59bf 4ebd 7de3 36bd 2150 9dbc f085 b13c
00000140: 23e8 113b 5c61 ea3c c94c 57bc 5bf4 20bb
00000150: b3b1 05bb 0a74 c93c 12f0 87bc 440e 8d3c
00000160: b03e cc3c 6917 55bd 3373 8f3c fb77 edbc
00000170: be28 74bc 3f8e 723d ee10 803b 329f e33c
00000180: c42e 163c f30e 243c c73e 9ebc 2622 9b3c
00000190: 8fe9 ddbb 81ca 62bc 7576 8cbc ef1b cabc
000001a0: 1d24 b2bb 7d0d cc3c 546a 1bbd 3619 e23b
000001b0: b97c c9bc c087 c33b 8a9c 2ebc 13f9 cabc
000001c0: ae9b 293b 4582 d03a 7560 ffbc d2c1 20bd
000001d0: f6b8 78bd baf0 fd3c 4ced 02bd 3dbf a1bc
000001e0: be08 813c 5d62 96bc 07ed 113c 280d 0eba
000001f0: 1b68 9d3a fbf2 143d 38b6 eabb dfcf 4fbc
00000200: 514f 3abd 716e 1a3a b97a ca3c f6dc d73c
00000210: 115d 0dbc 9ef0 a6ba 0d9b 5f3c 1d70 9ebc
00000220: bf95 0d3d 320f 563c b422 c73c 5add e33c
00000230: b87c c6bb 9e75 903d ba18 bebc 3ac9 863c
00000240: 24a2 193d b60b 7c3d 2509 f0bc 03c3 b3bb
00000250: 3c48 313c 349a c83c aa7a 9ebb 224b 873c
00000260: df3b 083c 423e d63b 6990 8ebc df98 793c
00000270: 95cd 31bd a725 873c a235 38bc 187a e4bc
00000280: c7aa febc 2f8c c73c 216f 11ba 0b5c 1fbd
00000290: 9198 73bc 517e a9bc 5309 d2bc 4373 40bc
000002a0: c176 90bc eed2 31bb 3cf5 27bd 84a0 a1bc
000002b0: 94c2 553d e608 0dbb 08ba 6cbc 8771 08bd
000002c0: abf6 873a 2007 b5bb 830a 68bd d66f 033b
000002d0: fcde d5bc fbe2 293c a291 5e3b ad78 513c
000002e0: 82da 293b f13b 33bc a7fe 573c 7f32 8fbc
000002f0: 9a32 a93d 82c5 fabc 5bac 0d3d 8d92 93bb
00000300: 3195 ebbb 93dd 4b3d 78ed e0ba ffac d73b
00000310: da76 873a d1f4 9abc 682f 5a3c 202b f23c
00000320: dd71 4bbc 7c1c 0fbc f587 743d 550a e73c
00000330: f64f 2b3d f3c7 a1bc 1731 093c 02d7 113c
00000340: 0aa8 c8bb fcfc 3b3c a240 983c af66 8d3b
00000350: 7fe1 d6bc 83b5 fc3b 9518 29bc 0418 98bc
00000360: ee56 6cbc a106 f4bc e9ad 823c aaeb 8b3d
00000370: 3bff 2b3d 5b00 0c3d 7578 bdba 1651 0a3d
00000380: e578 643c 3297 7a3d ece1 de3b 9f30 66bc
00000390: 7a5f 473b 59bf 273d 0c7b 5dbb e4d5 4cbc
000003a0: c211 28bc a50a 6bbd 96e2 b23c 1ad2 c53a
000003b0: 29e6 cfbc 8af1 1a3c 2a84 f8bb 59e8 4e3c
000003c0: 540e bd3c 9b7e d7bc 89d0 3d3d 95ea 09bd
000003d0: eb14 273c 9fa7 9bbd 9af1 85bd 47fa 173a
000003e0: 736a 393d c05f 3fbc dc05 dbba 2247 493d
000003f0: d7a7 3b3d 0b3e a33b d660 fa3c d124 a03c
0.019445047 0.014535817 -0.022230402 -0.02477643 -0.05082316 -0.029540928 -0.028250324 -0.0125129
0.019364575 -0.031302866 -0.041204695 -0.015493619 0.012607308 -0.024350597 -0.03207587 -0.0038978532
0.022898374 -0.0050212936 0.018194523 -0.005564437 0.0040407474 0.019650359 -0.0038584974 0.019037645
-0.039380427 -0.01212006 -0.023875345 0.03978819 -0.0051402343 0.059595995 0.0357772 0.038074713
-0.035305962 0.0139528075 -0.025367659 0.022671964 -0.056473978 -0.007954427 -0.05600007 -0.0385274
0.0917949 -0.027197573 -0.011516051 0.03336606 -0.022569114 0.021499055 -0.0024844727 -0.010484882
0.0026050322 -0.016567145 0.011340622 0.04193712 -0.0088426545 -0.010714215 -0.00558998 0.05078739
-0.043450564 -0.028886437 -0.018678425 -0.03646177 0.014335715 -0.045046635 -0.031034539 0.015694724
-0.0040368172 -0.044085275 -0.020436823 0.031011319 -0.053941187 -0.01828419 -0.02210813 -0.019278293
0.027125426 0.004173048 0.014549303 0.022006389 -0.050475452 -0.044650543 -0.019203248 0.021670312
0.0022263608 0.028610878 -0.013140866 -0.002455971 -0.0020400106 0.024591465 -0.016593967 0.017218716
0.024932235 -0.05202428 0.017510986 -0.028987875 -0.014902292 0.059217688 0.003908268 0.027785871
0.009166423 0.01001333 -0.019317044 0.018937182 -0.006772227 -0.013842226 -0.017146328 -0.024671523
-0.005436434 0.024908775 -0.0379432 0.006899978 -0.024595605 0.0059671104 -0.010657439 -0.024776971
0.0025880146 0.0015907964 -0.031173924 -0.03924734 -0.060723267 0.030998576 -0.031964585 -0.01974451
0.015751239 -0.01835745 0.008906609 -0.00054188306 0.0012009175 0.036364537 -0.0071628354 -0.012683838
-0.0454858 0.0005891091 0.024716722 0.02635048 -0.008628146 -0.0012736504 0.013647807 -0.01934057
0.034566637 0.013065146 0.02430854 0.02781551 -0.006057348 0.07053684 -0.02320515 0.016453374
0.037508145 0.061534606 -0.029301235 -0.0054858937 0.010820445 0.024487592 -0.0048364 0.016515318
0.008315056 0.0065381834 -0.017402845 0.015234201 -0.04340895 0.016497446 -0.011243256 -0.02789025
-0.031087292 0.024358837 -0.00055478705 -0.03890614 -0.014867918 -0.020690115 -0.025639212 -0.011746231
-0.017634751 -0.002713378 -0.041005358 -0.01972986 0.052187517 -0.0021520196 -0.01444865 -0.033311393
0.0010373195 -0.005524531 -0.05665065 0.0020055673 -0.026107304 0.010369058 0.0033961316 0.012785119
0.0025917594 -0.010939584 0.013183272 -0.017480133 0.082616046 -0.030611757 0.0345882 -0.004503554
-0.007189416 0.049771857 -0.0017160615 0.006581902 0.0010335103 -0.018915566 0.013316967 0.02956158
-0.012417284 -0.008734819 0.05969997 0.028203169 0.041824304 -0.019748664 0.00837352 0.0089013595
-0.0061235474 0.01147389 0.018585507 0.0043152194 -0.026230572 0.0077120676 -0.010320802 -0.018566139
-0.0144250225 -0.029788317 0.015952067 0.06832059 0.041991454 0.034180027 -0.0014455455 0.033768736
0.013944839 0.061179347 0.0068018343 -0.014049678 0.0030421899 0.040953968 -0.0033795265 -0.012502167
-0.01025814 -0.0573832 0.02183656 0.0015092522 -0.025378304 0.009457001 -0.0075841146 0.012628638
0.023078121 -0.026305487 0.046341453 -0.03367098 0.010197858 -0.076003306 -0.065402225 0.0005797487
0.045267534 -0.011680543 -0.001671012 0.049140103 0.04581436 0.0049817613 0.030563753 0.019548805

action_model._discrete_distribution.branches.2.bias f4 [3]
00000000: 7d21 b33c 4dfc 10bc a50d 55bc
0.021866554 -0.008849216 -0.013003741

action_model._discrete_distribution.branches.2.weight f4 [3, 216]
00000000: 5d2f a03c b321 23bc 123b 5cbd 1c19 cf3c
00000010: d6e4 95bc dd6b 583c 2437 9bbc e690 09b9
00000020: 78aa e63b 3af9 a93c 4244 e7bc 3c98 64bb
00000030: 351e a9bc da57 453c 33d0 c8bb 0246 e5bc
00000040: f02e 21bd f3ae 8c3c 8dd6 b03c aca6 aa3a
00000050: a115 853c 7ced ffbc d669 c4bc 1b1d 183c
00000060: 3c0c 13bc b73f 13bd 3029 0a3c f807 8fbc
00000070: fff6 e1bb f310 e6bb b7c0 573a 2cce d23b
00000080: a588 8abb 2f95 febc 1e10 cebc 31f7 ad3c
00000090: 1eb0 0bbb 7936 0cbc a899 c1bb d28e 80bc
000000a0: 12c6 abbc 2341 dfbc d353 a2bc 6c25 5a3c
000000b0: 1d54 913c c47e adbc c4af 21bd 19ce 803c
000000c0: 86ef 18bd cb0c 133d 14ed bdba 406c 413d
000000d0: dee8 b93c 9d90 0d3c 89ae df3c 6833 133c
000000e0: 28a8 4b3c 3fe0 0a3c 0f45 babc 5e1f 3dba
000000f0: 2ea8 c0bc 0fe5 a0bc 5657 ba3c 0f61 c33c
00000100: 86e7 70bc 1d4d 4abc 1047 debb a626 113d
00000110: 3462 a9bb 324f 99bc b324 473c 626d bdbc
00000120: 74eb cb3c 100a 82bc d6d4 9b3b d902 fabb
00000130: 2144 59bc 3025 80bc 808b 243b 271e 10bb
00000140: 6ce4 7fbb 5a0d 5f3b ef91 22bd 751d 2a3c
00000150: d978 08bd 70d0 78bc 6ab3 903d 69da 25bc
00000160: 819f 28bb 48b6 81bb 8611 fdb9 57cc 4c3c
00000170: d907 893c a581 ae3a 545a 453d d795 5f3c
00000180: edeb 47bc e8ac d4bb 7edc 2f3c 5ce4 f2bc
00000190: f5b1 163d ba39 47bc bc1f 643c f7ee ccbc
000001a0: 67e5 c7bc 3e46 3e3c 6b6e c3bc 3501 123c
000001b0: 8135 c83c 3487 2abd 9baa 2e3c ce28 703c
000001c0: 128e 0dbc 2aaf cf3b cf75 f8bc 6f52 4f3c
000001d0: 3026 143c 18fc e3b9 2d78 0dbd 0a56 cebc
000001e0: e56f 863d d99e b2bc 0ebd c23b 13c3 dc3b
000001f0: 34d3 833c 934a 01bd 1f9b cd3c bd2d f6bc
00000200: f4b8 fc3a 1614 d13c 1241 ea3b c957 0e3c
00000210: 7129 503c 52d9 27b9 df93 403c 19fa 91bb
00000220: f548 f93c e3b1 c33c 2a63 5d3c 9dad d33b
00000230: e7a3 3f3c a43d 87bc d351 263a 39d1 583d
00000240: 83cf 203c 7296 b1bb 9db3 423b fc6b 28bc
00000250: 2015 28bc 8d2f 2a3c 4872 bfbc c7d9 dbbc
00000260: b019 82bb 1b39 c3bb 3599 453d d517 b53c
00000270: f68e 043c 9fa4 7bb9 896e a4bc 092b 7abb
00000280: bcc7 c03c d1f6 88ba 3fd8 b83c 456e 9ebc
00000290: 78f7 573c 17b6 b23c 05be 48bc 2e8f 093d
000002a0: a174 873c 7640 0ebd 65d2 2e3d 0f4d 63bc
000002b0: a0b9 1e3d 4d1b 0c3d 40ca afbc 8e11 3bbd
000002c0: 32d7 a3bb 328d 943c f254 acbc 44cd b8bc
000002d0: 78b1 18bd bff7 e5bc fbe6 b43c 61cd 083d
000002e0: 3b4e ba3b b004 fa3c 9854 7239 d6bd 00bd
000002f0: 8534 fc3b 5585 213d 1005 f53c 0fa2 063c
00000300: 4e71 f0bc dbe6 043c d935 f4bb f3ed d2bb
00000310: 32b2 603c e159 d0bc b2b9 5e3c 943a b9bb
00000320: cec2 9c3b 3be2 ba3c 49ea 6fbc 02ba e9bc
00000330: d8bf 393c 6768 03bc 49c4 1abc 49c6 8d3b
00000340: 9352 3cbd 0a96 0ebc 7646 823b e818 29bd
00000350: 56ef 23bd c0da c53c 6011 203c ca37 933c
00000360: 7d46 30bd c05b b7bb 57f8 883b bd02 123d
00000370: f42c 7c3c 7054 c53c 00ca 623c 8bce b23c
00000380: bae5 40bd aef3 41bc fe2f cbbb 0d40 6cbc
00000390: 15fe aeba f953 d93c 646c 2f3d 071c 5e3c
000003a0: 7ac8 a43c 0697 003c 6074 d2bb e225 a63a
000003b0: 7331 2cbc 906a 2cbc 6858 cebb df3b aabc
000003c0: 24f3 d5bc f580 e03a 4830 00bd 2017 263d
000003d0: 275a 68bc ddf9 ef3c 73fb 203c 1c61 e3bb
000003e0: cc2e 8d3c 208e cf3c 8d0b 7a3c 8b3d c8bc
000003f0: 4fdc 22bd 10ef 36bb 82ec 7c3c 56b7 de3c
0.019553835 -0.009956765 -0.05376727 0.025280528 -0.018297594 0.01320931 -0.018947192 -0.00013119317
0.0070393644 0.020748723 -0.02823079 -0.0034880778 -0.020644287 0.012044871 -0.006128335 -0.027987484
-0.039351404 0.017173266 0.02158668 0.0013019643 0.016245665 -0.031241171 -0.023976248 0.009284283
-0.008975085 -0.035949435 0.008432671 -0.017459854 -0.0068958993 -0.0070210635 0.0008230316 0.006433269
-0.004227715 -0.031076996 -0.02515417 0.021236034 -0.002131469 -0.008557909 -0.00590821 -0.015693102
-0.02096847 -0.02725274 -0.019815361 0.013314586 0.017740304 -0.02117861 -0.039474264 0.015723275
-0.037337802 0.035900872 -0.001449021 0.047222376 0.022694048 0.0086404355 0.027304905 0.008984424
0.012430228 0.008476316 -0.022738008 -0.0007214452 -0.023517694 -0.019640474 0.022746723 0.023849992
-0.014703637 -0.012347487 -0.0067833737 0.03543725 -0.0051691774 -0.018714521 0.012154746 -0.023123447
0.024892546 -0.015873939 0.0047555966 -0.007629734 -0.013260872 -0.015642732 0.0025107563 -0.0021990628
-0.0039046062 0.0034035058 -0.039689954 0.010383 -0.033318374 -0.015186414 0.070654705 -0.010122874
-0.0025729837 -0.003958497 -0.00048268976 0.01249989 0.016727375 0.0013313784 0.048181847 0.013646564
-0.012202245 -0.0064903386 0.010733722 -0.029649906 0.036790807 -0.012159759 0.013923582 -0.025016291
-0.02440138 0.011613427 -0.023856362 0.008911421 0.024439575 -0.041632846 0.010660793 0.014658166
-0.008639829 0.00633802 -0.030329613 0.012653931 0.009042308 -0.00043484638 -0.034538437 -0.025187511
0.06564311 -0.02180426 0.005942947 0.006737122 0.01609192 -0.03156526 0.025098382 -0.030051107
0.0019281195 0.025522273 0.0071488703 0.008687922 0.012705193 -0.00016007319 0.011754005 -0.004454863
0.030430296 0.023888534 0.013512412 0.0064599053 0.011696792 -0.016508885 0.000634459 0.052933905
0.0098151 -0.005419546 0.0029709109 -0.010279652 -0.010258943 0.010387314 -0.023369923 -0.026837243
-0.0039703473 -0.0059577352 0.048241813 0.02210609 0.008090725 -0.00023998551 -0.020072239 -0.0038172624
0.02353274 -0.0010449534 0.022564052 -0.01933969 0.01318156 0.021815343 -0.012252335 0.033583812
0.016535105 -0.034729443 0.042681117 -0.013873353 0.038751245 0.034205724 -0.021458745 -0.04567104
-0.0050000185 0.018133733 -0.021036599 -0.022558816 -0.037278622 -0.028072236 0.022082796 0.03339899
0.0056855953 0.030519813 0.00023110432 -0.03143104 0.0076966905 0.039433796 0.02990964 0.008217349
-0.029350903 0.008111681 -0.007452708 -0.006437057 0.01371436 -0.025433483 0.013594078 -0.005652735
0.0047839647 0.022812953 -0.01464326 -0.028531078 0.011337243 -0.008020497 -0.009446212 0.004326616
-0.045977186 -0.008702764 0.0039756848 -0.041283518 -0.04002317 0.02415216 0.0097697675 0.017970938
-0.043035973 -0.0055956542 0.004179995 0.035647143 0.015391577 0.024088115 0.013842106 0.021827003
-0.047094084 -0.011837883 -0.0062007895 -0.014419568 -0.0013350869 0.0265293 0.04282798 0.013556487
0.020115126 0.007848507 -0.0064225644 0.0012676085 -0.0105098365 -0.010523453 -0.00629716 -0.020780502
-0.026116915 0.0017128276 -0.031296045 0.040549397 -0.01418165 0.029293949 0.009825575 -0.0069390666
0.017234229 0.025336325 0.015261543 -0.024443408 -0.039760884 -0.0027913488 0.015437247 0.02718703

network_body.linear_encoder.seq_layers.0.bias f4 [216]
00000000: 127a 29bc 92b7 8ebc eadb 52ba c0a1 133c
00000010: 1a48 f03c 5dea 05bb 8684 1ebb 64a1 a5bb
00000020: 15d6 163b 7005 a4bb e607 67bc dc14 1d3c
00000030: 62de 4fbc 0895 11bc 0727 493c 17db a5bc
00000040: 2bd0 5dbc 6875 0ebc f698 de3a c5cb 143d
00000050: 6db1 123c 1afc 9dbb ef7f 6e3b 5417 efbc
00000060: 9ff7 d6bc ad53 a1bc 2135 13bc d45e e53c
00000070: bf7e e8bb ab70 3d3d b6ad bc3b f88c aa3c
00000080: 431a f7bc b1d1 aebc bb11 f23b 03f0 05bc
00000090: a597 e1bc f2d2 aabc 10a9 a8bc 277d 93bb
000000a0: 2233 afbb ac30 1cbc 33bf f1bb e86f 6e3c
000000b0: a12f ccbc 49e1 a23c a8e6 f3bc 72ec 7fbb
000000c0: 5156 2abb 8896 9abc ba5e f63b eaa9 473c
000000d0: 6f07 483b 4c2a aabb 7bc6 cabb 8ed8 0bbc
000000e0: 4b68 d4bb f391 bfbc 7a6d 3f3c 6c92 fbbb
000000f0: 4390 ffbc 743a 233c 16b1 86bc 26ba 7bbc
00000100: a144 c8bc 9c3a b8bc 5328 b13c f446 3dbc
00000110: 71a9 293c 5f03 47bc 46ed 8abc ed55 8cba
00000120: 0052 4cbc 5d3d cbbb a414 a3bc 36de 78bc
00000130: 675e 32ba 3f94 21bd af65 1e3c 342d 1d3c
00000140: 5b2f f83b 134e 9e3c 8da6 033c 4b12 cb3c
00000150: 32e7 f6bb 255e 90bb 16c6 223a 0931 ec3a
00000160: 9c46 63bc 572d 19bd dcc4 9cbb ad0f 923c
00000170: 98dc 913c 8e7b 233b 4891 4e3c 6f4c b1bb
00000180: 0e50 0c3d 48b8 a43c 645c 5dbc e565 e4bb
00000190: 9f3a d9bb 567e 17bc bc05 ffbc 51a5 1c3c
000001a0: d060 3c3b 4a62 ce3b 8329 88bc 6044 c6bc
000001b0: 139e 193b 7da6 f2b9 1218 ef3b 9ea2 093d
000001c0: 68df 30bc 965e 59bc cde6 1abc a771 f1bb
000001d0: f563 18bc 163c 133c b065 403c 2ad1 183b
000001e0: 4f95 7a3c 548e f53b 9902 03bc 6d81 f0bb
000001f0: d170 2d3c 3ab2 a8bc 88c1 2abc 7e6f 00bd
00000200: 4811 0ebd 0284 e03b 7484 a13c 4fed 56bc
00000210: d2cf 54bc 755f 353c d563 0b3c 58fa 68bc
00000220: 5d90 acbc d137 0a3c a951 d2bc 4024 61bc
00000230: bcda 743c 85bc 813c 15b3 0cbc a23d 29bc
00000240: 2653 66bc 5255 13bc 5b11 17ba 0e75 aeba
00000250: 9a93 553c cde6 a8bc 5173 cf3b 3538 af3c
00000260: 038f 99bc 853b b1bb 3e6f 85bc 9748 25bd
00000270: b356 ac3b e2ca 403d c828 693c 0824 c9bb
00000280: 3661 153b f2d3 c73a 278e 8e3c 36ae 473c
00000290: fa5e c03c ed73 14bc ac30 09bb bb41 7fbc
000002a0: ae24 01bd 5793 5dbc a774 61bc 3f95 a53b
000002b0: 5ab6 82bc 7217 23bb 80aa 8fbc 6036 1b3c
000002c0: e1bf 34bd a1ac b3bc 3a14 293c 7fb2 853c
000002d0: b9c1 003c fc59 c8ba db82 013d 48f4 923c
000002e0: 3b62 66b9 be40 43bc 6381 e6bc 015d c4bc
000002f0: 5d6c 9a3c 8e96 98ba 9306 e6bc 84d7 eabc
00000300: 784e c1bc 0af1 c33b ac65 c1bc 98bb 623c
00000310: 3561 86bc bbb1 143c cc9e 7c3c 0520 99bb
00000320: 74c3 dd3c 7d48 c03c 9a22 2d3d 4e12 903c
00000330: efdc dbbc c523 fb3b 16dc 09bb d1a8 ba3b
00000340: 1a9f e7bb 2f9d bfbc 6809 083c 4c9f 27bc
00000350: bea2 96ba 8b04 423c 5f63 bc3b 1c57 ef3a
-0.010344045 -0.017421518 -0.0008043634 0.009010732 0.029331256 -0.002043388 -0.0024187877 -0.0050546397
0.0023015786 -0.005005531 -0.014101004 0.009587493 -0.012687298 -0.0088856295 0.012277371 -0.020246072
-0.013538401 -0.008694984 0.0016982842 0.036327142 0.008953434 -0.0048213126 0.0036392172 -0.029185928
-0.026241122 -0.01969322 -0.008984835 0.02799932 -0.0070951874 0.046250027 0.0057580126 0.020819172
-0.03016389 -0.021340223 0.0073873675 -0.008174899 -0.02753813 -0.02085254 -0.020588428 -0.0045010033
-0.0053466717 -0.009533089 -0.007377529 0.014553048 -0.024925055 0.019882815 -0.029773071 -0.0039050844
-0.002599139 -0.018870607 0.0075186165 0.012186507 0.003052201 -0.0051930305 -0.0061882115 -0.008535517
-0.0064821593 -0.023385024 0.011683816 -0.007677367 -0.031196719 0.009962667 -0.016441863 -0.015364205
-0.024446787 -0.022488885 0.021625673 -0.011552561 0.010355339 -0.0121468 -0.016958844 -0.001070676
-0.012470722 -0.0062023834 -0.019907303 -0.015189698 -0.0006804228 -0.03944802 0.009667798 0.009593297
0.0075740046 0.019324338 0.008035314 0.024788996 -0.007534885 -0.004405754 0.00062093267 0.0018019985
-0.013871815 -0.037396755 -0.0047842097 0.01782974 0.017805383 0.002494547 0.01260788 -0.005410723
0.034256034 0.020107403 -0.013510797 -0.0069701546 -0.0066293026 -0.009246429 -0.031130664 0.009560899
0.0028744228 0.006298338 -0.016621357 -0.024202526 0.0023440167 -0.0004628188 0.0072965706 0.03360235
-0.010795452 -0.01326718 -0.009454441 -0.0073682847 -0.009301175 0.008986494 0.011742994 0.002331803
0.015294387 0.0074937735 -0.007996225 -0.0073396475 0.01058598 -0.020592798 -0.010422118 -0.031356327
-0.03468445 0.006851674 0.019716479 -0.013118102 -0.012989001 0.011070122 0.0085076885 -0.014219843
-0.021064932 0.008436159 -0.025673704 -0.013741553 0.014944728 0.015836963 -0.008587618 -0.010329636
-0.01405791 -0.00899251 -0.0005762779 -0.0013310031 0.013035679 -0.020617867 0.0063308855 0.021389106
-0.018744951 -0.0054087066 -0.016288396 -0.04035243 0.005259359 0.047068484 0.014230914 -0.0061383285
0.0022793538 0.001524566 0.017401768 0.012187531 0.023482788 -0.009060842 -0.0020933552 -0.015579636
-0.03152912 -0.013523898 -0.013760722 0.005053192 -0.015956093 -0.00248858 -0.017537355 0.009473413
-0.044128302 -0.021932902 0.010319764 0.016320465 0.007858687 -0.0015285606 0.031618934 0.017938748
-0.00021971103 -0.011917291 -0.028137868 -0.023970129 0.0188505 -0.0011641548 -0.028079307 -0.028667219
-0.023596987 0.005979662 -0.023608051 0.013838671 -0.016403774 0.009075577 0.0154187195 -0.0046730065
0.027070738 0.023472065 0.042269327 0.017586853 -0.026838748 0.007664176 -0.0021035722 0.005696394
-0.007068527 -0.02339038 0.008303024 -0.01023085 -0.0011492593 0.011841903 0.0057491506 0.0018260214

network_body.linear_encoder.seq_layers.0.weight f4 [216, 121]
00000000: ace5 f8bb 8c0e 40bc d4bc cb3c 8766 22bd
00000010: 0106 273e 80f7 daba 006d 353e 2fb5 a83c
00000020: c59f 263e d306 c03d 48d7 31bd 2336 17be
00000030: 78e7 0a3e a5dd 973d a2f1 89bd 7466 3dbe
00000040: 9535 86bd 6a69 823d 62c9 cabb 559f 38bd
00000050: 5cc7 373e d20c 6fbe 15f7 a43d 81e1 f73d
00000060: 2a59 aabd cd20 44be b175 f8bd ff95 31be
00000070: 6811 b63d bb58 0e3d 214d 673a 44eb 21be
00000080: 9123 91bd b7d1 84bd 92f7 8dbd 7010 763d
00000090: 1c25 0fbe 46e4 03be f28e 89bc ae81 cc3c
000000a0: 2c03 a2bd 4f43 a0bd a38c 0cbe 0aaa 6bbe
000000b0: 66ce d7bc b05d 293e fd7a 1cbc 30a3 fabd
000000c0: ae58 35bd 643b 4d3d 6755 5fbd 03cd 993d
000000d0: 034c 3dbe 9534 efbc 8f3d 343d 0f3a d5bd
000000e0: 6e49 05bd 252d 45be 26d5 41bd f3ff 02bd
000000f0: b3e4 f93d 19cf 003b 72f8 0ebe 401a dc3d
00000100: a3c4 0fbe d28b 3cbe 6d7d 84bd 195e 84bc
00000110: df5b fcbd 221d dcbd 8d25 873d 6636 6fbd
00000120: f9c5 083e 63ba 38be 8c90 22bd 9a04 28be
00000130: 884d 153e 747a 95bc 2d6e 16be 2138 d3bd
00000140: c78d 193e d7c5 04be ebcb 533e 2b01 50b9
00000150: 5b8a 113d 7851 aabc 928c fb3d 57c2 0d3e
00000160: 31c6 3ebe 23ec 6a3d ff61 dc3d 65fa bb3b
00000170: dea9 12be 3859 c83d 8d62 af3c 44d6 33bd
00000180: fffd 9cbc cb39 b43c b5b4 2bbe 56f9 f43d
00000190: 54ac f73c beb1 843c 7f66 403d edc1 10be
000001a0: ee3a b23d 36f8 253d b195 0c3e 49ea ea3b
000001b0: e60e 613d 620e f6bc 4f8f bfbd cc10 753d
000001c0: 2f32 a83d 7318 e5bc d3ed 37be 6e83 883d
000001d0: b934 183d e7f9 db3d 241a 20bd 403d 01be
000001e0: d153 713d 1453 29be 705d d4bd e38e cdbd
000001f0: 76db 7dbd b3fd d4bd 33e3 803d ee21 2b3d
00000200: 7e30 07be 9583 2b3d 7f69 8ebc b9ad 20bc
00000210: 1294 b2bd f9c4 4fbe 43cb c3bc 3849 ca3d
00000220: 76e4 98bd a3a6 e4bd 0fd3 a5bd e072 6fbe
00000230: 91b2 053e 838d edbb 27e3 94bd 4bfd 37bd
00000240: aac9 da3d 9c1c b1bd f263 35be 0237 0bbe
00000250: d912 1c3d 4132 2d3e 81a4 8a3d 123f 8a3d
00000260: 20b7 04bd 2b63 883d add0 8fbd a0b6 d1bb
00000270: 2838 89bc 1239 083e 1939 25be 0818 21bd
00000280: 3fbe 4dbe 1770 22be 3a58 5d3d 1652 2bbe
00000290: 0aa0 7cbd b32a 0c3e bec3 c13d 03ec 81bd
000002a0: fa12 09be bd65 f1bd 5aa2 47bd 3900 1ebe
000002b0: a2b0 0c3c 2439 8fbd eefc 763e ec13 9cbc
000002c0: a34b 39bd 7aa3 d8bd 78f6 19be 005d acbd
000002d0: 911d c73d 58db eebd 2e10 e4bb 2048 083d
000002e0: c16f e5bc ee2b 11be dd44 4bbd 531a dcbc
000002f0: fcc9 e8bd 700c e9bd 9663 41be 0feb 903e
00000300: d6e3 34bc 3393 05be 084b 433d e204 213e
00000310: 6a41 473d a84f 59be eaa1 e1bc 21f0 dabc
00000320: f5ef 3c3d 6f58 28be 44cb 9e3d b037 813e
00000330: b05a 133d 03b5 783d 1897 d93d b57c 1b3d
00000340: fac6 fa3d 1445 f83c d8b9 333e 21af d5bd
00000350: afe3 43bd a80d 5c3e e446 27be 5b53 10bd
00000360: dfbf 16bd f6c9 9ebe a4ae 58bd 3e7b 953d
00000370: 17e4 cbbd b287 b4bd efe2 05be 1e5c 91bd
00000380: 87ba c43c 0e55 6d3d e6cb 673d 0f62 a6bd
00000390: 3e96 373d 3f52 31bd 2d80 4639 3722 e4bc
000003a0: da3e 0b3e ccaf 863c 3ae3 33bb 7202 29be
000003b0: 0964 4d3d b9da 763d 3a45 60be 9c92 e6bd
000003c0: f2aa a3bd d07c 15bd 32ab 933c d380 a6bd
000003d0: 40cd 4fbd bb28 84bd a1f7 9f3d ecca f33d
000003e0: eac2 243e 39b6 293e 2616 1dbd a5d6 e13d
000003f0: e2fb 74bc 02f8 2fbc 9b29 5cbd 5fe9 b2bc
-0.0075957384 -0.011722218 0.024870314 -0.03964856 0.16310884 -0.0016705841 0.17717361 0.020594208
0.16271885 0.093763016 -0.0434182 -0.14766745 0.13564861 0.07415322 -0.06735541 -0.18496114
-0.06553189 0.063677624 -0.0061885575 -0.045073826 0.17947143 -0.23344734 0.0805494 0.12103558
-0.08317788 -0.19153138 -0.12131823 -0.17342375 0.08890039 0.03475259 0.0008823444 -0.15812403
-0.07086862 -0.064853124 -0.06931986 0.06007427 -0.13979 -0.12880048 -0.016791794 0.02496418
-0.07910761 -0.07825338 -0.13725524 -0.23014084 -0.026343536 0.16539645 -0.009550807 -0.12238157
-0.044274025 0.050105467 -0.054524805 0.07509806 -0.18486027 -0.029199878 0.04400402 -0.104114644
-0.03254073 -0.19255503 -0.047322415 -0.031982373 0.12201824 0.001965469 -0.13961962 0.10747194
-0.14039855 -0.18412712 -0.064692356 -0.01615815 -0.123222105 -0.10747744 0.06598959 -0.058401488
0.1335677 -0.18039851 -0.039688632 -0.16408005 0.14580357 -0.018246867 -0.14690466 -0.1031344
0.1499549 -0.12966095 0.20683257 -0.00019836861 0.035532337 -0.0207908 0.12282671 0.13843666
-0.18630292 0.057354104 0.10760879 0.0057366365 -0.14322612 0.09782642 0.021409297 -0.04390551
-0.019164084 0.022000214 -0.16768153 0.119616196 0.03023354 0.016198035 0.046972748 -0.14136477
0.08702646 0.040519916 0.13728978 0.0071690422 0.05494585 -0.030036155 -0.09353506 0.059830472
0.08212697 -0.02796576 -0.17961816 0.06665693 0.037159655 0.107410245 -0.03908743 -0.12621021
0.058917824 -0.16535598 -0.10369384 -0.10037019 -0.061976872 -0.10399952 0.06293335 0.041780405
-0.13202092 0.041873533 -0.017384289 -0.009807044 -0.087196484 -0.20289983 -0.023900634 0.098772466
-0.074654505 -0.11164596 -0.08096897 -0.23383665 0.13056399 -0.0072495355 -0.07269888 -0.044919293
0.106829956 -0.08648035 -0.17713907 -0.13595203 0.038103912 0.16913702 0.06769658 0.06750311
-0.032401204 0.0665954 -0.070222236 -0.0063999444 -0.01675041 0.1330302 -0.16135062 -0.03932956
-0.20092104 -0.15863071 0.054039218 -0.16730532 -0.061676063 0.13688163 0.09461163 -0.06343844
-0.13386145 -0.11786983 -0.048738815 -0.15429772 0.008587034 -0.069933206 0.24119923 -0.019052468
-0.04523815 -0.10578056 -0.15035427 -0.08416176 0.09722436 -0.1166293 -0.0069599366 0.03327191
-0.02800739 -0.14176914 -0.04962622 -0.026868021 -0.113666505 -0.113793254 -0.18885645 0.28304335
-0.011040648 -0.13044433 0.047678977 0.15724519 0.048646368 -0.21221793 -0.027543027 -0.02672583
0.04612728 -0.16439985 0.077536136 0.252378 0.03597516 0.0607195 0.10624522 0.037960727
0.12244983 0.030306377 0.17551363 -0.10433794 -0.047824558 0.21489584 -0.16335636 -0.035235744
-0.036804076 -0.3101346 -0.052900925 0.07298897 -0.09955614 -0.08814944 -0.1307485 -0.07097648
0.024014724 0.057942443 0.056590937 -0.08124172 0.044821016 -0.043291327 0.000189305 -0.027848346
0.13598195 0.016441248 -0.002744867 -0.16504839 0.05014423 0.060267184 -0.21901408 -0.11258432
-0.079915896 -0.036495984 0.018025968 -0.0813004 -0.05073285 -0.06453081 0.07810903 0.11903939
0.16089979 0.16573419 -0.0383512 0.11027268 -0.014952632 -0.010740282 -0.053750616 -0.021839796

network_body.linear_encoder.seq_layers.2.bias f4 [216]
00000000: dba2 b8bb 66cc 8cbc cea7 8f3c b5a2 c8bb
00000010: cb55 54bc beb1 6f3c 9175 053c e6d5 68bc
00000020: 8fc5 84bc 92e8 7bbc 2ed2 c4b9 492d 03bb
00000030: 978d 2bbb f7ad 953b e2cd 98bb d0bd b1bc
00000040: e8e5 84bb 6fd0 4e3c b900 923b 4e47 9e3b
00000050: 449a 303c c1be 18bc ef27 fabb a221 99bc
00000060: 94a3 27bb 2d59 38bc 4047 8d3b db2f bc3a
00000070: 7fd3 393a 704b a6bb 6081 fd3b a117 86bc
00000080: a147 00bd bc40 723c ea05 cfbc 6b14 1abc
00000090: ac22 9dba b8f6 7dbc 518b 8ebb a4ae 8d3b
000000a0: 222c 943c 923d 83bc 196b 91bb 966d 0dbc
000000b0: c967 7abc 8777 9abb c620 cebb 5468 6d3a
000000c0: 48ca fbba a3c1 36bc 74de 8dba 6615 3dbc
000000d0: ae37 a0bc 30fb 883b 9b9f 23ba ecef 8f3b
000000e0: 81bf cbbc e07d 50bc 339b 123c 2635 653c
000000f0: 64e8 dfbc da30 cdbb 7f56 583b 2a6e 12bc
00000100: 5219 6fbb f91d b9bc e819 9b3c 90a5 043c
00000110: cc5b d2bc 5146 ca3a d99a fabb b72d 6fbc
00000120: fb18 22bc ffd6 14bc 4532 07bc e288 23bc
00000130: b7f5 613a 5626 a8ba e0d3 e93b 38ae d239
00000140: 2126 a6bc aacc 853c f889 6dbc db53 12bd
00000150: f048 e8bb 4963 adbc 81c2 99bc 02b8 8ebc
00000160: b1eb 47bc 5765 2ebc fb14 56bb ff57 82bc
00000170: 7fd8 643c a711 1abc 841b 313c 25b0 e8bb
00000180: 505c 023c b7e0 25bd 3c48 b1b9 3cee 613b
00000190: 9728 d9bb bae0 68bc c1df abbc aba1 213c
000001a0: 0dce 72ba 135c 1dbc 00f9 3abc 4c34 0cbc
000001b0: 6f3f 00bc 69d5 15bc 4c83 2fbc 837d 88bb
000001c0: 6ea4 013b e1ff 263c 7a6f 85bc 79ee db3b
000001d0: 7f53 f53b 415d 8cbc 72d1 673b dbf1 893b
000001e0: 9e2a 48bc a675 4fbc 7bb6 4bbb 839d 86bc
000001f0: ed8d 43bc b1cf 28bc 5a35 82b8 1057 9e3b
00000200: 6c20 03bc 46a5 4c3c f68c 0f3c ceb9 913c
00000210: be6e 84ba 56f5 88bb 04ce 4cbb c364 5a3c
00000220: cacd 333b 2f26 25bc ac20 acbc 4d51 f93c
00000230: fa88 4abc 26a8 2ebb 5850 d3bb 4d28 6cbb
00000240: a19a 1b3b 918b a23b e8d9 3c3b b41c 93bc
00000250: bf01 d9bb ea90 b6bc f8ce 3fbc b2f2 a23c
00000260: c543 24bc 805b 32ba 3ab2 96bc 749f babc
00000270: 77af 32bc cdde d9b9 9ad8 4c3b 36d2 8bbc
00000280: 63b4 4dbc aa37 bf3c 96f5 43bc 8140 88bb
00000290: df81 803c be53 45bc 7890 913a 611c 75bc
000002a0: d875 8e3b a37e ae3c fd44 8139 dfdb 883c
000002b0: 160c 83bb bfd2 61bc 19ad adbb d536 a9bb
000002c0: a686 a2bc 43e9 81bc 6aa5 7ebc d6bc 66bc
000002d0: de1d 163c b30b cb3b 606a 953c a6a9 813b
000002e0: c8c7 cabb 6ade c1bb e10c 83bb 9dd8 463b
000002f0: db78 9a3a 695c 283c 274c 14bc eecd c6bc
00000300: ece5 aebb a5c9 b4ba e397 babb 911f 72bc
00000310: 22d7 c9bb bd6e ac3b cd3d f5bc 20a7 bd3a
00000320: 5b0f 3dbc 0558 08bc f502 80bc 75fd 4c3b
00000330: 40eb 663c fc16 253c 7ebe 39bc 160a 15bc
00000340: fc27 41bc 2744 00bc 8e9d abbc fc6d 78bc
00000350: 9dca 84bb cf08 853c 9b9e e73a 5193 7d3b
-0.0056346483 -0.017187309 0.01753607 -0.006122912 -0.012959908 0.014629779 0.008145706 -0.014211154
-0.016207485 -0.015375273 -0.0003754063 -0.0020016006 -0.0026176923 0.0045678574 -0.004663215 -0.021696955
-0.0040557273 0.012622937 0.0044556526 0.0048302775 0.010778967 -0.009322823 -0.007634155 -0.018692795
-0.0025579678 -0.01125173 0.004311472 0.0014357524 0.00070887053 -0.005074911 0.00773637 -0.016368689
-0.03131831 0.014785942 -0.025271375 -0.009404282 -0.0011988482 -0.015500717 -0.004350104 0.0043237973
0.01808745 -0.01602057 -0.004437816 -0.008632084 -0.015283533 -0.004713956 -0.006290528 0.00090563786
-0.0019210065 -0.011154565 -0.0010823742 -0.011540746 -0.0195578 0.0041803345 -0.00062417396 0.0043926146
-0.02487159 -0.012725323 0.008948135 0.013989722 -0.027332492 -0.006261927 0.003301054 -0.008937398
-0.0036483598 -0.0225973 0.018933252 0.008096114 -0.025678538 0.0015432333 -0.007647854 -0.014598302
-0.009893651 -0.009084462 -0.008251731 -0.009981366 0.0008619683 -0.0012828808 0.007135853 0.00040184124
-0.020281853 0.016332943 -0.014498226 -0.035724502 -0.007088773 -0.021165507 -0.018769505 -0.017421726
-0.012202189 -0.0106442785 -0.0032666314 -0.0159111 0.013967632 -0.009403623 0.010809783 -0.007101076
0.007956579 -0.040497508 -0.0003381389 0.0034474274 -0.006627153 -0.014213735 -0.020980718 0.009865205
-0.00092622713 -0.009604472 -0.011411905 -0.00855739 -0.007827624 -0.009145119 -0.010712456 -0.004165353
0.0019781846 0.010192842 -0.016288508 0.0067117778 0.00748676 -0.01713431 0.0035372642 0.0042097396
-0.012217192 -0.012662327 -0.0031084109 -0.01643253 -0.011935693 -0.010303424 -6.2088206e-05 0.004832156
-0.008003335 0.012490576 0.008761635 0.017788794 -0.0010103805 -0.004179637 -0.0031250725 0.0133296875
0.0027435892 -0.010079904 -0.021011673 0.030434275 -0.012361759 -0.0026650517 -0.0064487867 -0.0036034763
0.002374329 0.0049604853 0.0028816406 -0.017958023 -0.0066225226 -0.022285897 -0.01170706 0.019891117
-0.010025923 -0.00068037957 -0.018395532 -0.022781111 -0.010906092 -0.00041555465 0.0031257034 -0.01706801
-0.012555215 0.023341972 -0.011960408 -0.00415808 0.015686927 -0.0120438915 0.0011105677 -0.014960379
0.004347544 0.02130062 0.00024656198 0.016706405 -0.0039992435 -0.013783156 -0.005300176 -0.005164007
-0.019839596 -0.015858298 -0.0155423675 -0.014083108 0.009162394 0.006196463 0.0182392 0.0039569912
-0.0061883666 -0.0059164064 -0.003999338 0.0030341514 0.0011785285 0.010275939 -0.009051359 -0.024268117
-0.0053374674 -0.0013793005 -0.005694376 -0.014778034 -0.006159679 0.0052622245 -0.029936695 0.0014469363
-0.011539306 -0.008321767 -0.01562641 0.0031279002 0.014094174 0.010076281 -0.011336921 -0.009096643
-0.011789318 -0.007828749 -0.020949151 -0.015162941 -0.0040524737 0.016239552 0.001767117 0.0038692544

network_body.linear_encoder.seq_layers.2.weight f4 [216, 216]
00000000: e909 f7bd ed29 aa3d f009 393d 36f4 dabc
00000010: 8240 0f3d 4f93 dbbb 8b97 be3d b7a4 80bd
00000020: a3d3 c7bd 09b9 a9bd 33dd 96bc 58fd 9b3c
00000030: f250 4ebd a581 b1bc 8efd 933d 5d55 5f3c
00000040: a592 923d a607 513c 16d9 fd3c 5f3a 27bd
00000050: 71dd 133d 75d6 e13d 40af 54bd 19bc 5fbd
00000060: ecd2 9f3d 8439 bdbd 5914 fabd 7717 2abe
00000070: 31e3 193c 6bb0 3bbd c03f c13b ed6b f1bd
00000080: b578 e7bb d3b0 273d 6219 0cbb 641c a43c
00000090: f4cc ca3b 959a 96bd 346f 5fbb e969 5d3d
000000a0: 6679 903d cb3e 0dbd 69d4 533b 0768 573d
000000b0: ffa9 c0bd 669d 7bbd bd70 5e3d efd2 76bd
000000c0: 7875 d73c 9b68 893d deea 643e a450 123d
000000d0: 81d2 ab3b 1d4d c53d 4b97 d9bc 30b3 1abe
000000e0: 1e60 e83b eed5 6bbd a326 b7bd 44f4 dc3c
000000f0: 37f6 96bd f7f6 733d f86d 1abe ced4 6abd
00000100: 8023 983d b945 50bd 69e8 283d c086 08bc
00000110: 5d97 433d 972a 01bd fad6 fcbd 2bb2 e5bc
00000120: c630 5e3d ac4c e9bd 0c86 f9bd 4573 8bbc
00000130: f258 873d 1e82 0fbc e6cb 9dbd 7bcf d3bd
00000140: 5426 a93d 3374 e3bd 66a5 bfbc 4d98 b53d
00000150: ffb3 bf3d 51c1 87be 3264 5fbd 728a 543d
00000160: 5dba 25bc 0c06 aa3b 500d 1c3c 2731 9a3c
00000170: d75b 853d 007d 22bd f95c b7bd 0379 44bd
00000180: 7dfd 41bc 1aa1 973d 1b84 863d f1b6 e0bd
00000190: 0d82 953a fe8a 05bd 0b20 84bd 48ad 71bd
000001a0: e798 85bd af32 0cbe b0ef 35bd 6bd9 ba3c
000001b0: 52ff 223c e340 073d 840d 10bd 0d7a 98bd
000001c0: 04c5 853c eb4d 64bc d0f4 13bd 0909 2d3d
000001d0: a6d3 f43c 6c21 1dbe a0cf 73bd d3c7 08be
000001e0: 86a4 0c3e 8fa7 c53c ada0 023e deda 51bd
000001f0: c4c5 2cbd b93e 103b d0e9 9e3d faed 0dbc
00000200: 7346 e2bc 1c1b babc 9a79 64ba aa9c f83b
00000210: 08d1 8cbd ec34 9f3d 907a 09bd 06a1 c73b
00000220: fbef 1ebd 50d6 6e3d 27b0 7bbd fcf4 243d
00000230: a4ea 983d b024 d63c 51d8 99bc 0dd5 a83a
00000240: 78f7 41bd 2460 9d3c e1e4 743d 96c1 b93d
00000250: c59e 3dbd 03e0 aa3c 8916 913c 14c7 a43d
00000260: 6f5b dbbd 723b 2a3e 70f9 03bd de64 913b
00000270: 7dfc 99bd ae7e 72bd f2cf 53bd 5d7b c1bd
00000280: d417 cf3d 8f44 ccbd 4f3f 5dbc 6258 ba3c
00000290: 00c2 013b 4ac3 0d3c 8e24 44bc 70d1 d5bc
000002a0: 2b16 893d 5591 6dbd 08a2 403d f7f6 383e
000002b0: ecaa 8fbd 99d4 283d c0af cb3c 3383 323b
000002c0: c2e5 ecbc 082a bf3b eb71 3abe ce76 4b3c
000002d0: ff46 fd3d cf47 1d3d 090d c73d 10a9 b73c
000002e0: bbe3 203a 8a30 97bd 4813 10bd 2501 1dbd
000002f0: c4b1 82bd ef3c f0bd d558 1fbc 5f8a 02bd
00000300: 6625 f93c 9426 25bc 9756 453c f27e 833d
00000310: 9bbe 48bb c94e 2dbd c51c 4bbd bd4b 9abd
00000320: 84e8 0d3e 7283 a03d bacf 9d3d a052 0a3d
00000330: 949f c3bb bd49 ffbd 0a32 55bc dec4 0ebe
00000340: e1b0 aabd b46b fe3d 06a5 9b3d baac 1f3d
00000350: 9baf 83bc 64e5 e93a 3d6d 47bc 8abc c5bd
00000360: 5a17 0dbe d928 afbd d940 043e b807 bd3d
00000370: 5675 843d 82ab 2ebe f2cb a4bd 9b7d 293d
00000380: ae01 3dbd b128 1a3e 5bb5 573d b80b a7bd
00000390: e9a1 003e 1e18 05be 2f4f 09be a6db ed3d
000003a0: e083 af3d 1abe 24be f86a e8bd 9cb6 443e
000003b0: 055e 833b 02d6 c73d 7a58 193c 7347 073e
000003c0: 592b 1dbb c263 163d 0ced 303e b0bb 243e
000003d0: 801c bbbb feaf 113d ba03 6d3d b194 e93d
000003e0: 8393 aa3d 93a4 0dbe dc52 d8bd 5c05 f4bd
000003f0: 40a2 8bbc be5c 293d 5778 893d d04f 083e
-0.12062437 0.08308778 0.045175493 -0.026727777 0.03497363 -0.00670091 0.09306248 -0.06281417
-0.097571634 -0.08287246 -0.018416023 0.019041702 -0.050370164 -0.021668265 0.07226096 0.013631192
0.071568765 0.012758171 0.030987304 -0.04082715 0.036099855 0.110272326 -0.051924944 -0.054622743
0.07803902 -0.09239486 -0.12210912 -0.16610514 0.009392546 -0.045822542 0.005897492 -0.11788163
-0.00706395 0.040940117 -0.0021377434 0.020033069 0.006188983 -0.07353703 -0.0034093382 0.054056082
0.07054405 -0.034483712 0.0032322651 0.052589443 -0.09407424 -0.061429404 0.054306734 -0.060259756
0.02630113 0.06709405 0.2235522 0.035721436 0.0052436 0.09633849 -0.0265614 -0.15107417
0.007091536 -0.057577066 -0.08942916 0.026971944 -0.073711805 0.059561696 -0.15081012 -0.057331853
0.07428646 -0.050847743 0.04123727 -0.008332908 0.047751773 -0.031534757 -0.12345691 -0.028039059
0.054245733 -0.11391577 -0.121837705 -0.017022738 0.06608762 -0.00875905 -0.07704906 -0.10342308
0.08259264 -0.111061476 -0.023394298 0.0886694 0.093605034 -0.26514676 -0.054538913 0.051889844
-0.010115233 0.005188709 0.009524658 0.018822266 0.06511658 -0.03966999 -0.0895328 -0.04796697
-0.0118402215 0.074037746 0.06568166 -0.10972393 0.0011406556 -0.032603256 -0.06451424 -0.059003145
-0.065233044 -0.1369121 -0.044418037 0.022808751 0.009948568 0.033020865 -0.03516914 -0.07445154
0.016329296 -0.013934593 -0.036122143 0.042244945 0.029886078 -0.1534478 -0.05952418 -0.13357477
0.13734636 0.02412775 0.12756605 -0.05123412 -0.04218079 0.0022010042 0.0775944 -0.008662695
-0.027621483 -0.022718005 -0.000871563 0.007587035 -0.06875807 0.07773766 -0.03356415 0.0060921935
-0.038803082 0.058309853 -0.06144729 0.040272698 0.07466629 0.02614054 -0.018779906 0.0012880877
-0.047355145 0.019210882 0.05978859 0.09070127 -0.046293993 0.02085877 0.01771094 0.08045784
-0.10710799 0.16624239 -0.032220304 0.004437073 -0.075188614 -0.059202842 -0.051711984 -0.09447358
0.10111967 -0.09974014 -0.0135038635 0.022747222 0.001979947 0.008652518 -0.011971606 -0.026100844
0.06693681 -0.057999928 0.047029525 0.1806296 -0.07015023 0.041218374 0.024864078 0.0027238845
-0.02891815 0.005833868 -0.18207519 0.012418462 0.12367057 0.03839856 0.09719283 0.022419482
0.000613745 -0.07382305 -0.035174638 -0.03833117 -0.06381562 -0.11730372 -0.009725769 -0.031870242
0.03041334 -0.0100799985 0.01204457 0.06420697 -0.0030631188 -0.042311464 -0.049587984 -0.07533977
0.13858229 0.07837571 0.07705636 0.033770204 -0.005969951 -0.12465236 -0.0130124185 -0.13942286
-0.08334518 0.124228865 0.07599835 0.038983084 -0.016074946 0.0017844853 -0.0121720405 -0.096551016
-0.13778439 -0.08552713 0.12915362 0.09229988 0.064676926 -0.17057613 -0.08046712 0.041379552
-0.04614418 0.15054585 0.05266319 -0.08156532 0.12561764 -0.12997481 -0.13409112 0.1161416
0.08570075 -0.16088143 -0.11348528 0.19210285 0.0040090107 0.097576156 0.009359473 0.1321085
-0.0023982136 0.03671623 0.17277926 0.16087222 -0.0057101846 0.03556823 0.057864882 0.11405314
0.08328917 -0.13832311 -0.10562679 -0.11915085 -0.01704514 0.04134821 0.06712406 0.13311696
