Project/results/VPlayer-FirstButCorrected/VPlayer/VPlayer-7917728.onnx (onnx, 681794 bytes, 15 tensors)

action_model._continuous_distribution.mu.weight f4 [1, 216]
000000 b5 4e 46 bd 24 ba b6 3c 4b 05 2f 3d 51 17 cf bc
       -0.048414905 0.022305556 0.042729657 -0.025279673
000010 71 87 95 3d 7e 0a 65 3d ef 10 15 bc d7 b1 d8 3d
       0.07301224 0.05591821 -0.009098276 0.10580795
000020 af 4f ff 3c 31 f8 f3 3c ca 31 1c be d7 6d 64 3d
       0.031165926 0.029781433 -0.15253368 0.055768814
000030 31 20 27 bd d7 87 90 bc f8 c1 be 3d 6c f6 08 bb
       -0.040802184 -0.017642898 0.0931434 -0.0020898832
000040 a2 65 81 3d fd 72 27 bd f2 ed f0 3d e4 d7 9d bd
       0.06318213 -0.040881146 0.117641345 -0.077071935
000050 b4 37 84 bc da 46 88 3c b5 e2 0d bd 96 b6 0b bc
       -0.016139843 0.016635347 -0.034640033 -0.008527419
000060 1d 7f c4 3d 84 a8 9b 3c 78 8d 29 bd 2d 46 fa 3d
       0.095945574 0.019001253 -0.04139468 0.12220416
000070 70 e7 2a bd f2 29 02 bd 97 51 04 3d 2a 1e 71 bd
       -0.041724622 -0.031778283 0.032304373 -0.058866657
000080 29 9d c4 3c fc 1e 49 3b 64 e5 cb bb 4f 53 53 3c
       0.024000721 0.0030688634 -0.006222414 0.01289828
000090 20 be 16 bd 8d 28 c4 ba 1f 95 0a bd 1b 56 f9 bc
       -0.03680241 -0.0014965698 -0.03383362 -0.030436566
0000a0 8f 47 b3 3c ef e7 94 bd 60 c5 5d bb 35 0d ae bc
       0.021884708 -0.072708 -0.0033839568 -0.021246532
0000b0 8a 18 9b bd aa 1e 9b bc d1 a0 7c bd 51 88 67 3d
       -0.0757304 -0.01893552 -0.061676804 0.056526486
0000c0 35 05 5b bd f5 04 b5 bc b8 07 13 3d 08 90 5c bc
       -0.053471763 -0.02209709 0.035896033 -0.013462074
0000d0 3a 49 b9 bc 4f 40 c3 bc 4a 33 86 bd 2d 61 0f bd
       -0.022617925 -0.023834376 -0.06552751 -0.035004783
0000e0 b1 c4 f7 bb d8 41 d8 ba 78 58 36 bd ab 48 a3 3c
       -0.0075612892 -0.0016499115 -0.044517964 0.019932112
0000f0 11 3a bc 3c 46 69 e7 3c 42 65 61 3d 2f 85 29 3d
       0.022976907 0.02824844 0.055028208 0.04138678
000100 b2 b3 b6 bd 24 16 ee 3c 97 f0 8b 3c b6 0a 7e 3d
       -0.08920993 0.029063292 0.017082496 0.062021933
000110 6b 63 5c bc ec d1 06 be db 30 79 3d 9c ec 84 bd
       -0.0134514375 -0.13166016 0.060837608 -0.06490442
000120 dc b2 e3 3c cf 9a f6 bb 14 e3 b6 bb f0 d9 d3 3d
       0.027795248 -0.007525779 -0.005581269 0.10344303
000130 9a 79 aa bc 77 f3 cc bd 89 b3 93 bd 70 c4 b8 3d
       -0.020809937 -0.10007375 -0.07211978 0.090218425
000140 7d 17 da bd cc 51 a8 bd 6c a2 b0 bd 1e a8 ef 3c
       -0.10649011 -0.082187265 -0.086247295 0.02925497
000150 ee 8c cf 3d 16 08 9a bc 8b 45 8f 39 6d 60 b8 bd
       0.10134302 -0.018802684 0.000273269 -0.09002767
000160 22 cc 16 bd 00 9c 29 3d 39 a9 70 3d 1a a9 24 bd
       -0.03681577 0.04140854 0.058755133 -0.04020033
000170 0c e9 40 bc 8b d6 21 3d ae 2e 5d 3b f0 bc 58 bd
       -0.011774313 0.039511245 0.0033749747 -0.05291456
000180 ea 7a 04 bd 3d 92 b9 3d ab 1c d3 bd c3 12 18 3e
       -0.032343782 0.09061096 -0.10308202 0.14850907
000190 d1 fd a9 3d 80 c2 a1 3d 8e ca a1 bc d2 0f 9e bd
       0.08300365 0.07898426 -0.019749906 -0.07717861
0001a0 0f 7b cc bd b9 79 5d bc 4c 81 86 bd 19 d5 70 3d
       -0.09984409 -0.0135177905 -0.0656763 0.058796976
0001b0 ad 76 e0 3c 9c e7 87 bc 3c 4b 11 bd 1a a2 10 3d
       0.027400339 -0.016589932 -0.03547214 0.035310842
0001c0 54 0c 45 3d 38 92 c7 3d df ef 22 3d 2d b6 f6 bd
       0.04810746 0.09744686 0.03977954 -0.12046466
0001d0 4a 50 5b bc 7d 2d 91 3c dc 2c 15 3d 04 9f 92 bc
       -0.013385842 0.017721886 0.036419734 -0.01789809
0001e0 50 14 cb bb 27 6a e1 3c f6 2c 33 bd bf 32 27 be
       -0.00619749 0.027516438 -0.04374405 -0.16327952
0001f0 bc 6a 6b 3b ce 5a 50 bc 73 eb f3 bd 0e 86 42 bd
       0.0035921773 -0.012716962 -0.11910143 -0.047491126
000200 57 47 26 bd 43 58 ab 3d f7 0e fd 3d 3c 1b c0 bd
       -0.04059538 0.08366444 0.1235637 -0.093801945
000210 21 1b b0 bd 33 f8 3b bd 97 d1 f0 bc cc 64 dd 3c
       -0.085989244 -0.045890998 -0.029396815 0.027025603
000220 a6 20 60 3d ac 58 1a bd 9f 99 4e 3d fd 96 84 bd
       0.054718636 -0.03768222 0.050439473 -0.06474111
000230 2a 2b 76 3d eb a3 ae 3d 21 83 5b 3d be ef d9 bc
       0.06009976 0.085273586 0.05359185 -0.026603576
000240 fa da 6d bc b2 8a c5 3d 30 dd a9 bd cd 0b 70 3d
       -0.01451754 0.09645595 -0.08294141 0.058605004
000250 10 36 36 bd db 9e 56 bd e2 ae 80 3c 0a 8c 90 3d
       -0.04448515 -0.05239759 0.01570839 0.0705796
000260 73 83 b3 3c 20 0e 73 3d d9 a4 dc 3a ae 8a a9 3d
       0.021913266 0.059339643 0.0016833796 0.08278404
000270 14 5c 36 bd 2f f9 b3 bc 93 6e 6b 3c 66 cf 98 bc
       -0.044521406 -0.021969406 0.014369625 -0.018653583
000280 9c 82 92 bd 39 22 b8 bd d9 c6 7b 3d ac 46 a0 bd
       -0.07153818 -0.089909025 0.061468933 -0.078259796
000290 48 66 39 3c 9f 2b 93 bc dc 8b be 3d 86 bd 44 bd
       0.01131589 -0.017965136 0.0930402 -0.048032306
0002a0 9b 53 8c 39 3f 67 6a bd 69 c8 5a bd ad ed 94 3d
       0.00026765172 -0.05722737 -0.053413782 0.072718956
0002b0 fd 2a 0c bd 27 07 d2 bc 8b 97 0f 3d c0 32 0c 3d
       -0.034220684 -0.025638176 0.035056632 0.034228086
0002c0 e1 ef 46 bd f8 0f 8d bd 40 84 62 3d 89 d5 74 3b
       -0.04856861 -0.068878114 0.055301905 0.0037358722
0002d0 68 36 e1 bd 4c 55 17 bc 24 b7 a0 3d b3 7b 8c bd
       -0.10996705 -0.009236645 0.07847431 -0.06859531
0002e0 45 14 90 3d ad 3e a5 bc d8 65 1a be 45 5b 20 3d
       0.07035116 -0.020171488 -0.15077913 0.03914954
0002f0 3b 6a d0 3d 32 6a 48 bd 33 d9 c0 bc d5 b2 97 bc
       0.10176512 -0.0489294 -0.023541069 -0.018517891
000300 2c 96 a1 3a 23 7a 81 3d 5a 79 30 3d 1f 75 c4 bd
       0.001232808 0.06322124 0.04308448 -0.095926516
000310 0d ca da bd 72 67 8d bd 05 43 2b 3c 01 64 0b bd
       -0.106830694 -0.06904496 0.01045299 -0.034030918
000320 14 7b 72 3b e1 04 6c bd c3 af 0d 3d 55 c6 d6 bc
       0.003699963 -0.05762184 0.034591448 -0.026217619
000330 14 0a 7c 3d 75 f0 df bb 60 e7 ff 3c 1f 3e 9f bd
       0.06153305 -0.0068340846 0.031238258 -0.077755205
000340 f5 f5 aa bc cd 9d 18 3c ee 9a 11 bd 2b eb 8b bd
       -0.020869235 0.009314966 -0.035548143 -0.06831964
000350 b9 7e a4 3b f1 a9 72 3d 67 42 29 3d e4 f8 91 bc
       0.0050199893 0.0592441 0.04132309 -0.017818876

action_model._discrete_distribution.branches.0.bias f4 [3]
000000 df 55 d4 3d b0 5d 51 be 5f e3 a2 3d
       0.10367941 -0.20445895 0.07953524

action_model._discrete_distribution.branches.0.weight f4 [3, 216]
000000 76 98 1c 3c 09 07 9b bd af 8f 85 bd a5 b7 49 bc
       0.009557834 -0.07569701 -0.06521546 -0.012311851
000010 7d a3 c1 3d 58 93 55 bd 54 05 a2 3b 76 f5 9a 3d
       0.09455011 -0.05214247 0.004944483 0.07566349
000020 0b d6 c6 3c 86 ec c1 3d 65 d7 eb 3d a9 78 59 3d
       0.024271986 0.094689414 0.115156926 0.053093586
000030 b7 9b 5e 3d a3 f8 ef 3d 48 ce 66 bc 3b d5 01 be
       0.05434772 0.117173456 -0.014087267 -0.12678997
000040 4e 9b a0 3d b2 cd 6e be 5e 02 26 3d d1 fe 90 bd
       0.07842122 -0.23320654 0.0405296 -0.07079852
000050 70 9e 08 be 78 bc bb 3c a0 9a 3d bd 1f ba 99 bd
       -0.13341689 0.022917017 -0.04629004 -0.07506203
000060 93 35 49 3d 84 13 61 be 9e ad 84 bb 06 12 d7 bd
       0.049123358 -0.21980101 -0.004049017 -0.105014846
000070 fc 03 47 3e bf d7 ce bd 74 1a 27 be c2 19 6b bd
       0.19435114 -0.10099744 -0.16318685 -0.05739761
000080 7e 59 6b bb d8 2c 62 3c 21 6d a1 3d 2f 05 2f 3d
       -0.0035911496 0.013804637 0.07882143 0.042729553
000090 59 c3 67 3d 0e 53 69 3b e6 e6 11 be 54 fd 92 3d
       0.056582782 0.0035602483 -0.14248237 0.07177225
0000a0 40 1d b0 3d 91 76 bc 3d c3 75 0f be 65 ef 34 3e
       0.08599329 0.09202302 -0.14009766 0.17669447
0000b0 7b 1a 28 be 1c 17 a8 3d b0 f1 d7 bd 48 41 bf bd
       -0.16416351 0.08207533 -0.10544145 -0.09338623
0000c0 80 04 19 3e de 49 d4 bd 14 29 17 be b8 95 a6 3b
       0.14943123 -0.103656515 -0.14761764 0.005083766
0000d0 a3 f7 5e be 1d 50 42 3d a6 2c 77 bd 2b 0f 54 3c
       -0.21774153 0.047439683 -0.060345314 0.012943069
0000e0 0b 90 0a be 0a a4 00 3d ff eb f9 3a eb f7 94 3d
       -0.1353151 0.03140644 0.0019067525 0.07273849
0000f0 0f f6 83 3d 4a e6 b7 3b ab 75 97 b8 0b 44 b5 bb
       0.06443416 0.0056121694 -7.2221585e-05 -0.005531793
000100 28 f1 89 3e b3 8e 1c bd 06 95 be 3d df 7a 47 bc
       0.269418 -0.038222026 0.09305768 -0.012175291
000110 0f 03 fb bd 3c 78 9c 3d fb 20 a0 3d 2e f7 12 be
       -0.12256443 0.076401204 0.078187905 -0.14352104
000120 28 b7 3d 3d 48 93 bd bd fb 8d 74 3d 55 f4 54 3d
       0.04631725 -0.09256607 0.059705716 0.051990826
000130 14 cd 71 3d a3 3a 6a bb 32 1c 0c be 84 7e 9d bd
       0.05903347 -0.0035740517 -0.1368263 -0.076901466
000140 6e 4e dc bb f4 85 d3 3d a9 39 0d 3d 3f d9 5a 3d
       -0.0067232167 0.10328284 0.034478817 0.05342984
000150 34 fe e8 bc 86 20 b9 3d d1 3e a9 3c 08 e0 3e bd
       -0.028441526 0.090394065 0.020659836 -0.04660037
000160 37 b1 d7 bd 73 0b ef bc c4 83 37 bd 7f 0a 8e be
       -0.10531848 -0.029180264 -0.044803396 -0.27742383
000170 57 88 c8 3d 43 94 6d 3c 1f 69 11 be a4 3e 3b bd
       0.0979163 0.01450068 -0.14200257 -0.045714036
000180 fe 1e b3 bb 07 a0 9c bd da 12 8d bd a4 b6 34 bd
       -0.005466341 -0.0764771 -0.06888361 -0.044119492
000190 7f 6c ac bd 65 eb 07 3b 8d 83 c0 3d a8 d3 b3 bc
       -0.084191315 0.0020739671 0.09400091 -0.021951512
0001a0 32 0f 43 be 62 26 21 be f8 58 0d be 68 bc 0f 3e
       -0.19048765 -0.15737298 -0.1380347 0.14036715
0001b0 50 ac 45 3d 69 5b e2 3d cf 9c 92 bd 00 03 61 bd
       0.048260033 0.11052591 -0.07158815 -0.0549345
0001c0 1f fc 39 bc 59 32 f7 bc a7 bb c2 3d 2a c8 0e 3e
       -0.011351614 -0.030175375 0.09508448 0.13943544
0001d0 7a ff d2 bd cd 37 2b be 40 f3 af bc fa ae f3 bc
       -0.103026345 -0.16720505 -0.021478295 -0.029746521
0001e0 61 f7 64 bd e3 94 85 3a 5d 10 ca bd fc cf 9e bd
       -0.05589998 0.0010191466 -0.09866402 -0.077545136
0001f0 9e 7b aa 3d 8a ed 9c be 9a 16 da bd 5b cc 5f bc
       0.08324359 -0.30649978 -0.10648842 -0.013659562
000200 6b 43 37 3d 41 8f 3e be 55 70 bf 3b a5 a1 d2 bd
       0.04474203 -0.18609335 0.0058422484 -0.102847375
000210 98 6e 03 3d 19 3a 39 ba 0f da a9 bd b7 cf d9 bd
       0.032087892 -0.0007065847 -0.082935445 -0.106353216
000220 15 40 48 be 72 f8 19 be ee 72 25 be b0 40 3e be
       -0.19555695 -0.1503618 -0.16157123 -0.18579364
000230 ff 00 82 3d af fd a7 bd b2 6b af bc 75 a1 46 bd
       0.06347846 -0.08202683 -0.021413658 -0.04849382
000240 8e 3f 70 bd b8 ec 98 3d a9 dc c5 3c e1 69 c7 3d
       -0.05865436 0.074670255 0.02415307 0.09736992
000250 1c 12 16 bc 3d 36 31 bc be 75 97 3e fb 3e 41 bd
       -0.009159591 -0.010816154 0.29582018 -0.047179203
000260 dd a6 c9 3b 8f 77 17 be 6a 26 09 3c f2 26 7e 3d
       0.006153925 -0.14791702 0.008370975 0.06204886
000270 ec 57 19 be 56 83 13 be 64 0b 28 be 87 b1 34 be
       -0.14974946 -0.1440557 -0.16410595 -0.17645846
000280 7f 8c ac 3d 0e a3 de bc 8b fe b2 3c 2a 9d 00 be
       0.08425235 -0.02717736 0.021849891 -0.12559953
000290 5b 91 e2 bd ef 4d 33 bd af 21 c0 bb ed a7 82 3d
       -0.110628806 -0.043775495 -0.0058633904 0.063796856
0002a0 5d 14 ca bd b3 05 e7 3d ea e5 4b 3d bc 52 28 bd
       -0.09867165 0.11280384 0.04977981 -0.041094527
0002b0 51 40 c1 bd 76 e6 2d 3a 73 50 1b bd 24 18 35 bd
       -0.094360955 0.00066337676 -0.03791852 -0.044212475
0002c0 3f a4 aa bc 51 ba 0a 3e 13 13 25 3c 08 9c 85 bc
       -0.020830272 0.13547637 0.010075348 -0.016309753
0002d0 56 7a 46 be b0 aa a2 3d cc 92 b4 bd a5 e8 23 be
       -0.19382605 0.07942712 -0.08817062 -0.16006716
0002e0 e8 7b 8a 3c 42 2e 05 be 16 83 5c 38 07 e5 cb 3c
       0.016904786 -0.13005927 5.257417e-05 0.024889482
0002f0 cb bb 09 3c 36 9a 2f bd 5c 61 f7 3c 61 56 98 3d
       0.00840659 -0.042871676 0.030197792 0.074383505
000300 e0 c2 ae bd 4e 87 eb 3c 1d 5e 13 be 4a 6f f1 bd
       -0.08533263 0.028751042 -0.1439137 -0.11788805
000310 b2 85 c5 3c a1 39 2a bd 20 75 57 bd bc 5f d2 3d
       0.024111602 -0.041558865 -0.052601933 0.10272166
000320 df f3 60 3e 9b 70 06 3e fa 4f 87 bc 2b a9 97 bd
       0.2196803 0.13128893 -0.016517628 -0.07405313
000330 49 b8 7d bc bb b5 62 bc 55 7f 43 3e 15 12 80 3c
       -0.015485832 -0.013837273 0.19091542 0.015633622
000340 d2 29 91 be f5 a0 85 be 77 c7 fd 3d c0 31 f9 3d
       -0.2835222 -0.26099363 0.123915605 0.12167692
000350 0f 99 c3 bd 42 d6 58 be 7e 03 95 bd 0e ab 2a bd
       -0.09550678 -0.21175483 -0.07276057 -0.041667037
000360 be 9b 3b 3d 07 99 64 3e fd 06 16 3d 8d 47 44 3c
       0.045802824 0.22324 0.03662776 0.01197995
000370 c4 b2 60 3c 6d 07 21 3d 64 bb ac 3d d2 82 89 3d
       0.013714496 0.039313722 0.084341794 0.06714405
000380 03 a6 f5 3d e0 f2 6a bd aa 8a bb bc ea fc a5 3d
       0.11994555 -0.05736053 -0.022893269 0.0810488
000390 ad 89 09 3d 60 1c 96 bc 81 e3 6d 3e b8 53 83 3e
       0.033578563 -0.018324077 0.23231317 0.2564981
0003a0 1e 18 87 bc 1f f4 dd bc 92 34 29 3d b8 8b f4 bc
       -0.016490992 -0.027093945 0.0413099 -0.02985178
0003b0 6a 2d 07 3d dc b0 a7 3d 70 0a 51 3a 74 5b 83 be
       0.033002295 0.0818803 0.00079742726 -0.2565571
0003c0 98 20 ce bb 4c 6d 86 3d e6 3e a9 3c 5e 0a 94 bc
       -0.0062905066 0.065638155 0.020659875 -0.01807135
0003d0 37 47 ce ba 8f 07 56 bd 22 6b f3 bc a2 c5 ae bd
       -0.0015737776 -0.052253302 -0.02971417 -0.08533789
0003e0 8d f6 95 3d 50 36 22 3d 4a 1e a0 bd db c3 b4 bd
       0.073224165 0.039602578 -0.07818277 -0.08826419
0003f0 4b 99 b5 bd 82 ed 82 3d 55 87 b1 3c 2c f1 df 3b
       -0.08867129 0.06392957 0.021670977 0.00683417

action_model._discrete_distribution.branches.1.bias f4 [3]
000000 4f 61 da bc fe 4f eb 3d 74 19 ba bd
       -0.026657728 0.11489867 -0.09086886

action_model._discrete_distribution.branches.1.weight f4 [3, 216]
000000 97 7c 8b bd ef 51 7c 3e 9a ab dd bd 92 ee 3d be
       -0.06810873 0.2464063 -0.10823746 -0.18548039
000010 72 7f 02 be 30 ce 1d bd 2d 04 27 be a5 ea ad 3c
       -0.12743929 -0.038526714 -0.16310187 0.021230051
000020 0e c0 88 3d 56 3b 85 be 57 3c e4 bd 68 1b 94 3d
       0.066772565 -0.26021832 -0.111443214 0.0723179
000030 88 13 a1 3d 43 e9 1f be 96 ac c2 3d a4 ee 5e bd
       0.078650534 -0.15616326 0.095055744 -0.054426804
000040 10 9c 91 bd da c8 23 3d bb d0 b9 bb 9f 32 21 be
       -0.07109845 0.03998647 -0.0056706346 -0.15741967
000050 81 fc 4e 3d 30 4f 0b 3e 35 0a cc 3d 4a 78 68 bc
       0.050533775 0.13604426 0.09962884 -0.014188835
000060 1d d8 1f 3d d7 79 18 3e ad ec 82 bd 9a 7c 0d 3d
       0.03902446 0.14890228 -0.063927986 0.034542657
000070 37 f6 35 bd 41 98 a3 3d 64 65 1c 3d 77 ff 9b 3c
       -0.044424262 0.079880245 0.03818263 0.019042714
000080 f7 86 21 be ba 91 00 3e 20 fb b1 bd 9d e2 b5 3d
       -0.15774141 0.1255559 -0.086904764 0.08881114
000090 31 b5 f8 bd 1b 9b 26 bd 18 88 db bd 99 09 48 be
       -0.121439345 -0.040675264 -0.10719317 -0.19534911
0000a0 cd 81 5f 3e 04 ca cf bc 27 90 d2 3d 1d 47 19 3e
       0.21826859 -0.025364883 0.10281401 0.14968534
0000b0 cb f0 0e 3e 57 b4 b6 bb 77 6c 2f bd 2a aa a8 bd
       0.13959043 -0.0055756974 -0.04282805 -0.08235581
0000c0 c5 9a 3a 3e 9b fe 47 3d ce 54 66 be a3 88 69 3e
       0.18223102 0.048826795 -0.22493288 0.22806029
0000d0 a6 2a 83 3d 80 9e 1e 3d b6 5c 81 3d d8 ba 48 3e
       0.06404619 0.038725376 0.06316511 0.19602525
0000e0 85 93 cb bd 31 ce fa bd 90 38 04 be 3e 73 87 be
       -0.099402465 -0.12246359 -0.12912202 -0.2645511
0000f0 36 9a ca 3c b2 a2 8e bd 6e 60 83 be 29 6a 20 3d
       0.024731737 -0.069646254 -0.25659508 0.039163742
000100 62 91 c2 3d 52 30 90 3c 38 89 69 be bd 91 31 3d
       0.09500386 0.017601166 -0.22806251 0.043351877
000110 18 22 f0 bd 6c c3 15 be 8c 31 34 bd 83 42 02 be
       -0.11725253 -0.14625329 -0.043992564 -0.12720685
000120 9d 57 3a 3e 76 84 47 3c 2f e7 71 3e f8 57 05 3d
       0.18197484 0.012177577 0.23623346 0.032554597
000130 57 8f 7f be 85 4a b2 bd a6 72 7c bc be ae 12 3d
       -0.24957024 -0.0870562 -0.015408194 0.03581118
000140 cf 3a ca bd a3 67 9a 3d 14 59 25 bd a8 a6 10 3d
       -0.09874498 0.075392984 -0.040368155 0.035315186
000150 d4 2a ce bd 78 73 2c 3e 06 f2 2c be 24 d5 7f 3c
       -0.100667626 0.16840923 -0.168892 0.0156147815
000160 88 51 90 3e dc de c2 bd 1b 76 b2 3c 53 5d 19 3e
       0.28187203 -0.09515163 0.021784833 0.14977007
000170 ec e3 c1 bd 0f b8 d7 3d da d0 21 3d 55 f8 ab 3d
       -0.09467301 0.10533153 0.039505817 0.08396975
000180 ba 7a 7a 3e 6a 5b ea 39 89 86 f8 3b a4 53 47 3e
       0.24460879 0.00044700067 0.007584397 0.194655
000190 d3 9e fa 3c 7e e9 ad bd 25 09 85 bd cd 04 34 bd
       0.030593311 -0.08491801 -0.06495885 -0.04394989
0001a0 a8 5e a0 3d 2f 9b 0c 3e 28 f2 13 bd e9 fb 83 3d
       0.07830554 0.13731073 -0.03611961 0.064445324
0001b0 95 64 f5 3c 73 b8 ce 3d 98 26 3f 3d b6 24 b1 bc
       0.029955188 0.10093775 0.046667665 -0.02162395
0001c0 e4 c7 19 3d ae 1d 3d bd a1 a3 00 3e 81 fc 23 be
       0.037544146 -0.046170883 0.1256242 -0.16014291
0001d0 63 9e c6 bd ce 66 88 3d 6a 7f 79 3c c4 54 27 be
       -0.096981786 0.066602334 0.015228132 -0.1634093
0001e0 2c 19 81 3d e2 c0 8c 3d 9d df fa 3d 5c 96 9f 3d
       0.06303629 0.06872727 0.12249682 0.07792351
0001f0 a6 85 de 3d 05 15 bb 3d 63 3b 98 bc cc ef 3f 3e
       0.10865335 0.091348685 -0.018583005 0.18743819
000200 fa 9d f4 3c ec 41 95 bc db 2d fa bc 49 cf 46 3d
       0.029860485 -0.01821991 -0.030539444 0.048537526
000210 39 31 08 bd f2 5b f1 bd dd cc 3b bd 29 61 27 be
       -0.033250067 -0.11785115 -0.04584967 -0.16345657
000220 26 10 9b 3d 3f 08 e9 bc 95 bc f2 3d c2 34 2e bb
       0.075714394 -0.028446315 0.118523754 -0.002658174
000230 2a eb 3c be 87 0a cb 3d 14 c0 90 bd 8f 9a 15 3e
       -0.18449083 0.09914117 -0.07067886 0.1460974
000240 dc 66 c2 3d 34 b4 a7 3d af 5b 4d bc 2d 20 4e bd
       0.09492275 0.08188668 -0.012534066 -0.050323654
000250 ba b4 c3 3c 69 79 fc bb 2f ec 3f 3c 21 0d 4f bc
       0.023889888 -0.007704903 0.011714025 -0.0126374075
000260 cf 0f ed 3c c0 7e 87 bc 74 81 58 3d 90 4a 8a 3d
       0.028938202 -0.016539931 0.05285783 0.06752503
000270 ae f6 44 bc 0d 41 69 bd 60 67 a3 3c 07 27 38 be
       -0.012021704 -0.056946803 0.019946754 -0.17983638
000280 a3 94 cb bc 39 cb b3 bd b1 6c 70 3d 03 8f 2f bd
       -0.024851149 -0.08778996 0.058697406 -0.042860996
000290 d9 a6 c5 bc 1d 2f 46 bd cf e1 f3 bd 21 2e ac bd
       -0.02412741 -0.048384774 -0.11908304 -0.08407236
0002a0 0f de 20 be 0a 7e b5 3d b5 04 50 be 65 28 7d bd
       -0.15709709 0.08861931 -0.20314296 -0.0618061
0002b0 0d 55 61 3d 8e 7a b5 3d 88 43 39 3e 5c 36 35 be
       0.05501275 0.08861266 0.18092167 -0.17696518
0002c0 06 77 1f 3d 07 c5 28 be 76 07 04 be 45 db eb bd
       0.03893187 -0.1648141 -0.12893471 -0.11516432
0002d0 23 e5 de 3d 7c 94 c1 3d dc fa be 3d 17 a3 2a bc
       0.10883548 0.09452149 0.093251914 -0.01041486
0002e0 2c fa 1e 3d a5 39 64 bd c2 83 ff bc 59 82 80 3d
       0.0388128 -0.055719037 -0.031190757 0.06274862
0002f0 4d 54 db 3d 84 24 8f bc a5 0d a1 3d b4 9c f5 bc
       0.107094385 -0.017473467 0.078639306 -0.029981948
000300 ce 45 1f bb e0 ef f4 3d ad 7f 8e 3d ce 52 47 3d
       -0.0024303081 0.11959815 0.06957946 0.048662953
000310 da 3b 6b 3d 0e 97 9e 3d d1 fe 14 3e 2c 23 1f 3e
       0.057430126 0.07743655 0.1455033 0.15540761
000320 6b db 4d 3e a4 49 ab 3d 3f eb 0b 3e ee 56 0d 3d
       0.20103233 0.08363655 0.13663958 0.03450673
000330 1f 11 ee 3d ab 60 79 3d ed b5 03 3e 26 5c 86 bd
       0.11624359 0.060883205 0.12862368 -0.06560545
000340 5d 58 f1 bd 02 72 f6 3d 3d 01 ba bc 72 26 df 3d
       -0.11784432 0.12033464 -0.022705669 0.10896005
000350 27 60 b9 3d 70 77 07 3e a1 bd 05 3e d7 c9 1d 3d
       0.09051543 0.13229156 0.13060619 0.038522568
000360 9b 0e 05 bd 55 6a 5a be fb 64 66 bc c5 13 f1 3d
       -0.032484632 -0.21329625 -0.014062162 0.11771349
000370 80 f0 54 3e dc 75 9d 3d 01 9d 8c 3d ae ce 3b 3e
       0.20794868 0.076884955 0.068658836 0.18340561
000380 cb cd 51 3c 03 a1 eb 3e 4c b7 c6 3d 38 ee 9e bd
       0.0128054125 0.4602128 0.0970293 -0.0776028
000390 6c 79 b0 bc bd 83 64 3e 09 5d 48 be 7f c3 75 bd
       -0.021542273 0.22315879 -0.1956674 -0.060000893
0003a0 80 c3 52 3c c0 ed d0 bc b9 b1 6d 3d 30 fc a5 3d
       0.012863994 -0.025503993 0.058030818 0.081047416
0003b0 3c d6 28 be 5f a4 cd bd 08 f3 c6 bc 06 f6 9d 3d
       -0.16487974 -0.10041117 -0.024285808 0.07712941
0003c0 48 5d a5 bc 3f bf 1f be d7 6f 06 3d 61 8d 07 bd
       -0.020186082 -0.15600298 0.032821503 -0.033093814
0003d0 60 9e c2 3b 4b ec 1c be b1 17 82 be eb 60 35 3d
       0.00593929 -0.15324514 -0.254087 0.04428188
0003e0 58 e4 47 3e fd ec 83 bd dc 6e 55 be 69 bb a9 3d
       0.195207 -0.06441686 -0.20843071 0.08287699
0003f0 96 cd 0a 3d 94 ec 85 3c 64 47 1b 3e 67 69 ea 3b
       0.03388747 0.01634816 0.15163952 0.007153678

action_model._discrete_distribution.branches.2.bias f4 [3]
000000 89 cc 8a 3c c1 a3 11 bd 3c 73 a3 3c
       0.016943233 -0.03555656 0.019952409

action_model._discrete_distribution.branches.2.weight f4 [3, 216]
000000 1b 00 b9 3c f7 15 89 bc 5d d1 95 bc d9 6e d4 3d
       0.022583058 -0.016734106 -0.018288309 0.10372705
000010 44 2e 00 bd 05 df 9e 3d ea 1d 82 3d 6f ec 0e 3d
       -0.031294122 0.07757381 0.06353362 0.03489345
000020 ea 59 19 3d 71 9c 06 bd a0 92 93 bd c1 01 1b bc
       0.037439264 -0.032864038 -0.07205701 -0.009460867
000030 6d c3 31 be db 5c 66 3d 63 39 29 be 91 0c c1 bc
       -0.17359705 0.056240898 -0.16525798 -0.023565562
000040 15 4b 8f 3c 9c 67 ff 3b cd 92 22 3c f5 e0 c0 bd
       0.017491857 0.0077943336 0.009922695 -0.09417907
000050 de fb 1e 3e f0 83 40 be df ea ef bd a8 62 56 bd
       0.15525767 -0.1880033 -0.1171472 -0.05234018
000060 bc f8 85 3d 06 70 25 be a0 a6 1b 3e 57 3f 3d 3d
       0.06541583 -0.16156015 0.15200281 0.046202984
000070 c7 2c 7c 3e 07 cd 0e 3d dd a9 22 bd 06 71 56 3d
       0.24626456 0.034863498 -0.039712775 0.05235388
000080 1f 54 cf 3c 33 fb bb bc b7 69 c9 3d 7e 3d c2 3d
       0.025308667 -0.02294693 0.09834617 0.09484385
000090 04 a0 e2 bb ad 39 01 3a 60 bb 0c 3d 34 6e fa 3b
       -0.006916048 0.0004929554 0.034358382 0.007642532
0000a0 72 da 66 3a 0c a6 2a bc 10 51 83 bd 16 e5 32 bd
       0.00088063546 -0.010415565 -0.06411946 -0.043675505
0000b0 be 2a b1 3b 2f a8 92 bd 8a 8e c4 bc 65 9c e0 3d
       0.0054067066 -0.07160985 -0.02399375 0.1096733
0000c0 ff ab ce 3c aa d4 be 3d bc b0 ae 3d a7 fa 8f 3e
       0.025228499 0.09317906 0.08529803 0.2812092
0000d0 28 69 66 bd 5c 72 18 3e 08 61 34 3c f3 31 26 bd
       -0.05625263 0.14887375 0.011009462 -0.04057498
0000e0 f9 76 3c bd e5 63 9f 3d e8 60 b1 bc a7 b2 15 3e
       -0.0460119 0.07782725 -0.021652654 0.14618932
0000f0 59 fb 38 bc 49 dd e4 3b 49 32 2f 3d b2 a4 01 3d
       -0.011290395 0.006984387 0.042772565 0.031651206
000100 0f ff 08 3e d3 75 81 bd 7a d9 91 bd 1b 4a 6b 3d
       0.13378547 -0.06321301 -0.071215585 0.05744372
000110 6a 91 4a be d7 aa 25 bd bd 7b 32 3e ce d9 03 be
       -0.19782034 -0.04044613 0.17430015 -0.12876055
000120 d6 09 ac 3d c2 20 fc 3b 8e 14 51 3e 9a 7c 3a bd
       0.084003136 0.0076943347 0.20417997 -0.045528986
000130 0f 69 cb bd 83 42 15 3e cf 65 09 3d d9 8e 8a bd
       -0.09932148 0.14576153 0.033544358 -0.06765527
000140 33 92 56 bd aa 82 88 bd fd 52 7c be 84 9f 4e bd
       -0.05238552 -0.06665547 -0.24641033 -0.050445095
000150 02 58 03 be dc 6f e9 bd ea 2b 19 3e 7e b5 66 3d
       -0.12826541 -0.113982886 0.14958158 0.05632543
000160 97 f2 12 3d 13 c7 d2 3c 15 d3 a7 3c 03 3c b4 bd
       0.035875883 0.025729692 0.020486394 -0.08800509
000170 2e cb b6 3d a9 a5 30 3c 69 32 33 3e 0b b2 f5 3d
       0.08925472 0.010781684 0.17499699 0.119968496
000180 5f e0 c0 3d 9e bf 87 bc 8b 08 20 3c 27 da f9 3c
       0.094177954 -0.016570862 0.009767662 0.030499531
000190 06 ca 3a 3c 5c 7f 78 bb e7 1b 69 3c bb 65 bb bc
       0.011400705 -0.003791771 0.014227844 -0.022875657
0001a0 5f 91 b0 bc cb 5d c2 3d f0 a9 1d be 78 8e fe 3d
       -0.021553693 0.09490546 -0.15396857 0.124295175
0001b0 d9 84 d4 bc 05 a3 94 3c b5 42 9a 3c 5a 6c 08 3e
       -0.025942253 0.01814414 0.018830637 0.13322583
0001c0 a4 d3 67 bb 4b 4a ec 3c da dc 7b 3d 59 98 9a bb
       -0.003537395 0.02884402 0.061489917 -0.0047178683
0001d0 a7 79 a1 bd 9d 30 96 bd 3e e7 34 be 0d 50 d2 bd
       -0.078845315 -0.07333491 -0.17666337 -0.10269175
0001e0 18 1c ce 3d 98 31 aa bd 7a a9 37 bd cd 06 be bd
       0.10063952 -0.083102405 -0.04483936 -0.09278641
0001f0 a7 0b 0e 3e 62 21 0c bc 9f 02 b8 3d 8b 18 37 bd
       0.13871633 -0.008552881 0.08984875 -0.04470114
000200 eb 1d 0f bb 6f e9 51 3d 78 09 0a bb 67 d1 ac 3d
       -0.00218379 0.05124801 -0.0021062773 0.08438378
000210 c3 21 33 3d 5b 24 3d bd b4 0f 32 3d e1 93 a4 bc
       0.04373337 -0.04617725 0.043472007 -0.020090045
000220 d6 c4 db 3d 76 85 fa 3b 46 98 a1 3d a0 04 41 3e
       0.10730903 0.0076453043 0.07890372 0.1884942
000230 62 fb fa bc 5d e2 b4 bd 39 3c 08 3e 0a ac 8b bc
       -0.030637447 -0.08832238 0.13304223 -0.017049808
000240 d7 cf 05 3e bc 9a b3 ba d9 29 ce 3d 6b a6 04 bd
       0.13067566 -0.0013702731 0.100665756 -0.03238527
000250 5d 5e 64 bd d7 05 90 bc 0a 43 6e bc 2e 06 36 3d
       -0.055754054 -0.01758091 -0.014542351 0.044439487
000260 6b 42 c8 3d cc 29 95 bc c7 56 f0 3d 86 23 48 3d
       0.09778293 -0.018208407 0.117353015 0.048862003
000270 28 d5 8e bc f2 2b 06 3d 68 66 f9 bd 9e 19 c8 3d
       -0.017435625 0.032756753 -0.121777356 0.09770511
000280 36 f2 3c 3e 1a dc 88 b8 11 e9 17 3d dc e0 b8 bd
       0.18451771 -6.5259825e-05 0.037087504 -0.090272635
000290 25 43 09 bd e5 89 94 3d 13 74 55 bb 96 9e 54 3b
       -0.0335113 0.07252864 -0.0032570406 0.0032443157
0002a0 c7 6b 49 bd da 23 e3 bc 4e 74 7b bd 9a f4 b2 3c
       -0.04917505 -0.027727056 -0.061390214 0.02184515
0002b0 5c cc 2d bc 08 7f 30 3d 90 84 1d be f3 df 5e be
       -0.010607805 0.043089896 -0.153826 -0.21765117
0002c0 f7 12 01 3c a9 09 4a 3c 5f e1 31 be 3e c3 0c 3d
       0.007878057 0.012331405 -0.17371128 0.034365885
0002d0 29 5f 64 be 1e fe 05 be b2 4c a9 bd 77 c4 0b 3e
       -0.22301926 -0.1308522 -0.082665816 0.13649164
0002e0 05 8f ec bd 46 77 58 bc 52 d7 bc bc 0e 4e e8 bd
       -0.11550716 -0.013212031 -0.023051891 -0.11343013
0002f0 2e 3e 45 bc 7f 99 21 3d e6 b1 50 3e d4 99 0c be
       -0.012038751 0.039453026 0.20380363 -0.13730556
000300 51 81 5c be cd e6 ad 3d 0a e5 22 3e ca d0 af 3d
       -0.21533705 0.084912874 0.15907684 0.08584745
000310 21 e1 1e bc 48 05 4a be e1 a0 63 3e 7d 9a 39 bd
       -0.00969723 -0.19728577 0.22229339 -0.045313347
000320 a7 1c 20 3c fb 40 bd 3d 85 c6 a3 3d a1 2a 8c be
       0.009772456 0.0924091 0.07996849 -0.27376273
000330 0e fb 19 bd 19 43 8c be 61 87 b3 3d 6e 8e b6 bd
       -0.03759294 -0.2739494 0.08766056 -0.08913885
000340 17 95 47 bd 10 f2 24 bd 88 e5 a5 3d 27 87 ab bd
       -0.048726168 -0.04026991 0.0810042 -0.08375388
000350 d5 c9 29 bd ea 19 3e 3e 99 4c bd bd ba 75 6f bc
       -0.041452248 0.18564573 -0.092431255 -0.014615471
000360 00 d8 56 3d 69 62 07 be 8f 57 8e bc 0d df 04 bd
       0.052452087 -0.13221134 -0.017375736 -0.03243928
000370 62 d8 87 bd 52 25 2a 3d c1 e4 4e bc 3a 59 9b bd
       -0.066330686 0.041539498 -0.012627781 -0.07585378
000380 8d 2e 7e bd 44 1f 99 3d ad c4 2f 3c 83 83 e6 bb
       -0.062056113 0.074766666 0.0107280435 -0.0070347204
000390 3f 83 a2 3c 88 63 49 3d 6c 13 e0 3d 72 b5 a7 3d
       0.019837974 0.049167186 0.109412044 0.08188905
0003a0 a0 19 d7 bd de 7a 05 bd ac 44 0e 3d 8c a9 ba bd
       -0.105029345 -0.03258788 0.03473346 -0.0911437
0003b0 db d1 a2 bb c8 c7 c6 bc 45 d3 02 be b3 3f f8 3d
       -0.0049688644 -0.024265185 -0.12775905 0.12121525
0003c0 e3 41 84 bd 7a 39 ca 3d 43 71 f8 bd 2a 53 0e 3d
       -0.064578794 0.09874244 -0.12130978 0.03474728
0003d0 b5 9c 32 be e1 de 5a 3c b0 08 a7 3b b1 ac c8 3c
       -0.17442591 0.013358803 0.005097471 0.024496408
0003e0 04 41 13 bd cf a8 1e be ec ea aa 3d 68 fa 8c 3d
       -0.035950676 -0.15494083 0.08345589 0.06883699
0003f0 93 b2 31 bc 40 8f ce bd a8 3d a5 bc 78 df 98 bb
       -0.010845798 -0.100859165 -0.020171002 -0.0046653114

network_body.linear_encoder.seq_layers.0.bias f4 [216]
000000 39 db c4 bb 96 25 81 3c 2a eb 12 3c c1 c7 2b 3d
       -0.0060075787 0.015764993 0.0089672 0.041938547
000010 13 ec 47 3d 22 fd 91 bd c9 43 a7 3c d6 9a 3d 3c
       0.048809122 -0.071283594 0.020418065 0.01157256
000020 8b fb 47 bd 94 ca 48 3b 3b cc 14 bd 6d 04 1f bd
       -0.048823874 0.0030638324 -0.03632758 -0.03882258
000030 c7 ae 0d ba a9 f0 2e bd da af 23 bd 88 c8 cb bb
       -0.0005404767 -0.04270998 -0.039962627 -0.0062189735
000040 9a 3e 5a bc 97 0f 9e bc e8 b6 0b bd e6 a5 a2 3d
       -0.013320589 -0.019294543 -0.03410998 0.07941799
000050 7a 19 7f bc 97 d0 9a 3c 1a a4 26 3d 60 78 22 bd
       -0.015570039 0.018898292 0.040683843 -0.03966558
000060 f9 b0 4b bd 13 b1 10 bd 8e 39 c1 bd 29 4e 28 3d
       -0.04972932 -0.03532512 -0.09434806 0.041090164
000070 75 28 08 bd ea 26 b7 3c 81 83 f7 3d 1f 7d b4 3a
       -0.033241708 0.022357423 0.12085629 0.0013770199
000080 87 ea 2c bd af 3e 50 bd 45 3f 64 3d 67 c6 62 3a
       -0.04221585 -0.05084103 0.0557244 0.000865078
000090 18 d4 27 bc 4d e4 c5 bd ca d8 8e bd 35 39 5d bd
       -0.010243438 -0.096626855 -0.06974943 -0.054009635
0000a0 a4 c4 1b 3d be e3 db 3c d5 e5 c0 bc ee ae bc bc
       0.038029328 0.026841994 -0.023547092 -0.023032632
0000b0 d5 3b 9d bc e7 8b f5 bc 79 90 d0 bd d6 ae 8d 3c
       -0.01919357 -0.029973937 -0.10183806 0.017295282
0000c0 e9 ec e7 bc a9 bd d3 bc 86 79 8d 3b dd ac de 3d
       -0.02831121 -0.025847273 0.0043174652 0.10872815
0000d0 62 01 81 3d 57 80 76 bc dd 63 99 bc 9a ba 1d 3d
       0.06299092 -0.015045247 -0.018724376 0.038508035
0000e0 66 9c 6c bd 14 81 9d bd a8 81 ff 3b 15 dc a8 bc
       -0.05776634 -0.07690635 0.0077974387 -0.020612756
0000f0 22 80 26 bc 94 f4 72 3c b5 0a 30 bd 6e 0b f9 3b
       -0.010162385 0.01482882 -0.04297896 0.0076002395
000100 b5 71 58 bd 4c c9 30 ba 71 cd 8a bc ef 98 8b bb
       -0.052842814 -0.0006743863 -0.016943665 -0.0042601745
000110 5f a3 da bc 1c 54 81 3c 6b fb 07 bd ec 40 0d 3c
       -0.02668923 0.015787177 -0.033198755 0.008621436
000120 cf 6a 63 bd 7d e4 19 bd e5 68 18 bd a5 26 ba 3b
       -0.055521782 -0.03757142 -0.03720941 0.0056808763
000130 9a 6c 22 3d 1f ae ab 3c ae cf 3b 3d 09 77 a7 bc
       0.03965435 0.02095705 0.045852356 -0.020442503
000140 37 92 de 3c 5a 64 46 3d c5 32 8e 3a dc ad e0 ba
       0.02716933 0.048435546 0.0010848871 -0.0017141658
000150 bd 51 f2 3c 58 e4 cf 3c ff 85 dc 3b 44 5a 1d bc
       0.029579991 0.025377437 0.0067298408 -0.0096040405
000160 80 39 60 3d 15 74 2f bc a6 b1 60 3c c8 8b 6e 3d
       0.054742336 -0.010708828 0.01371423 0.058238775
000170 42 86 dc 3c 95 69 8b bd 82 de c9 bb 4b 21 a1 bc
       0.026919488 -0.068072475 -0.006160558 -0.019669196
000180 3e 32 30 bb de 31 a7 3d d9 16 29 3c 39 e1 74 3d
       -0.0026885415 0.08163808 0.010320389 0.0597851
000190 36 49 8c bc 90 cc 47 3c 5b 4f 15 bd 3a f8 63 3b
       -0.017124753 0.012194768 -0.036452632 0.0034785406
0001a0 f2 db d2 bc 9e 68 b8 bb 64 18 9f bd bf 6d 23 bd
       -0.025739644 -0.0056277057 -0.07768324 -0.039899584
0001b0 fa 3f b6 3c 9c b6 b6 3d 90 2f 37 bb ff c9 6d 3c
       0.022247303 0.08921549 -0.0027951933 0.014513492
0001c0 2d 42 4e bd 98 7e 63 3b 31 0a 17 bb 4a 90 00 bd
       -0.05035608 0.0034712907 -0.0023046846 -0.031387605
0001d0 0d a9 91 3b f7 cf b7 3c c0 4f ad bc 61 23 de bc
       0.0044452013 0.022438033 -0.021156192 -0.02711648
0001e0 fd 59 7a 3d 58 94 22 bc 43 1b 21 bd f4 27 89 bc
       0.061120976 -0.009923063 -0.03933264 -0.016742684
0001f0 1f 3a 48 3c 90 de 35 bd 62 5a 1f 3c ff 88 64 3b
       0.012220888 -0.044401705 0.009726139 0.0034871695
000200 fa 29 fa bc 44 93 32 bd 48 e8 29 bc 60 fd 8d bc
       -0.030537594 -0.043597475 -0.010370322 -0.017332733
000210 09 37 44 bc df aa 7d 3c 62 83 8b bd 0f 8d a1 bd
       -0.011976012 0.015482633 -0.06812169 -0.07888233
000220 8d 7b 95 bd c8 97 ba 3c a2 f5 3c bd 19 68 aa bc
       -0.07298956 0.022777453 -0.04613269 -0.02080159
000230 8a cc ab bc 11 73 8b 3d 1d 27 8b bc 5e 61 6f bd
       -0.020971555 0.068090566 -0.016986424 -0.058442466
000240 65 e9 af bc 57 8d 95 bd c3 2b 8e bd 40 3f 34 bd
       -0.021473596 -0.07302349 -0.06941941 -0.044005632
000250 5e 7c 84 3c b7 9e 62 bd 5b 6c 69 bd a5 77 c8 3c
       0.016172584 -0.055327144 -0.0569881 0.024471113
000260 bb 48 36 bd 49 3c 3d bd 85 0d 3b bd 2d 4b d5 bd
       -0.044502955 -0.04620007 -0.04566719 -0.10414729
000270 17 37 d9 3c 5d e3 a8 3d 0b 2f a0 ba 7c c0 25 3b
       0.026515527 0.08246491 -0.0012221051 0.0025291732
000280 66 67 4b bd 7b c4 a5 3c 0e de 6b 3d 24 1b 52 3c
       -0.049659155 0.02023529 0.057584815 0.012823854
000290 81 4b 29 3d 50 de 79 3b 68 12 e1 bc b6 17 1c bd
       0.04133177 0.0038126893 -0.027474597 -0.03810855
0002a0 59 59 9b bc c5 79 f5 bc a2 67 ff 3b 3b 8e a1 3d
       -0.018963503 -0.02996529 0.0077943364 0.078884564
0002b0 43 68 4b bd c4 b4 5e 3d e1 e2 82 bd d4 37 10 3d
       -0.04965998 0.05437161 -0.0639093 0.03520949
0002c0 ef 7c b0 bd 5c ab 81 bc d8 3c 97 3d 3f c3 70 3a
       -0.08617579 -0.01582878 0.07384652 0.00091843674
0002d0 3d aa b1 3c 8a 02 92 bd 16 24 64 bc 86 72 40 3d
       0.021687621 -0.071293905 -0.013924619 0.046984218
0002e0 a3 d7 89 3d 9d aa 01 bd 20 e3 8d bd 1b a1 68 bd
       0.067305826 -0.03165685 -0.06928086 -0.056794267
0002f0 4b 99 32 bc c3 ba ea 3b d6 a0 ce bd 9d 6c 06 bd
       -0.010900806 0.007163377 -0.10089271 -0.032818425
000300 d3 ee 4e bd 28 fc ef bb 88 7c 27 3c 4e 0f 4a bd
       -0.05052073 -0.0073237605 0.010222562 -0.049331002
000310 8f 53 0e bd 4f 7b 89 3d 2d a7 f4 bc 43 9f bc 3b
       -0.034747656 0.067129724 -0.029864872 0.00575629
000320 3a ce 4f 3d 52 aa 2c 3d 81 96 99 3c 3b 60 58 3b
       0.050733782 0.042154618 0.018748524 0.0033016342
000330 a6 79 c7 bd 69 48 3c bd 64 e3 82 bd 4d ef 5a 3d
       -0.097399995 -0.045967493 -0.063910276 0.05345087
000340 7c 6b 13 3d 8f 87 ab bd 9b b4 63 bb 66 60 7f 3c
       0.035991177 -0.08375465 -0.00347451 0.015586948
000350 75 de 77 bd 83 e9 9e bb 43 83 a9 bc 3b b6 de bc
       -0.060514886 -0.004849614 -0.020692473 -0.027186504

network_body.linear_encoder.seq_layers.0.weight f4 [216, 121]
000000 31 bc bb 3d da 5c 57 bc bb 8e 89 3d 1e a6 e8 3c
       0.09166754 -0.013144696 0.06716677 0.028399523
000010 6d f4 0f 3e e1 22 fb bd 78 54 3c be b6 30 37 3c
       0.14058085 -0.12262512 -0.18391597 0.011181047
000020 3d cc 48 3e 8e 31 9e 3e 57 13 7d bd a6 d8 ca bd
       0.1960916 0.30897182 -0.061786022 -0.09904604
000030 a4 2f 96 3d 66 76 57 3b 11 04 6d bc 1a 43 83 be
       0.073333055 0.0032876967 -0.014466302 -0.25637132
000040 6b ea 02 be 63 88 eb bb 3a 49 3f 3d 27 8f ee bd
       -0.12784736 -0.0071878894 0.046700694 -0.11648398
000050 9e 87 8e 3e 7a ec 86 be 5f 1d 85 bd 3e fb ae 3d
       0.27837843 -0.26352292 -0.06499743 0.085440144
000060 f7 70 08 be 10 29 bd be 99 86 32 bd 1f 9a f4 bd
       -0.13324343 -0.3694539 -0.043585394 -0.11943459
000070 f4 33 75 3d d9 c6 d3 3e ea fc 61 bd cc 65 6f be
       0.059864 0.41362646 -0.05517284 -0.23378676
000080 17 35 1c be 5b 08 f9 bd 01 de 3d be 86 97 78 3d
       -0.15254627 -0.12159797 -0.18541719 0.06069138
000090 ea c7 4e be 17 50 86 bc e3 0b 0f 3d f0 d4 81 3d
       -0.20193449 -0.016395612 0.034923445 0.06339443
0000a0 a7 34 3a bd 8b 71 9a 3b 30 44 f7 bc e9 94 42 be
       -0.04546037 0.0047132424 -0.030183882 -0.19002117
0000b0 30 22 38 3d 7e fe 44 3e e7 2b 15 3d ba cf ee bd
       0.04495448 0.19237706 0.03641882 -0.116607144
0000c0 ac 94 7b ba a0 13 2e be e0 ab a7 3d bf a6 bc 3d
       -0.0009597044 -0.16999674 0.081870794 0.09211492
0000d0 87 a8 61 be aa dc 1c be 11 fa ad 3d 42 2d 34 bd
       -0.22036944 -0.15318552 0.08494962 -0.043988474
0000e0 c1 4a 67 3d 11 0c 9d be d4 5b e5 bd 99 86 03 be
       0.056467775 -0.30673268 -0.111991554 -0.12844314
0000f0 e6 a2 51 bd 0f 7c 9f 3c de 23 0c bc f5 55 53 3e
       -0.051180743 0.019468335 -0.008553473 0.20638259
000100 f5 a8 28 be 50 50 31 be a4 77 76 be b2 07 a3 bd
       -0.16470702 -0.17315793 -0.24069077 -0.07960452
000110 dc 43 c6 bd 53 44 89 3c 62 0f 47 3e b0 23 3e 3c
       -0.09680912 0.016756212 0.19439462 0.011605188
000120 c6 fc 98 3e 22 8d 32 bd 3d d7 93 bd cf c4 4c be
       0.2988035 -0.043591626 -0.07218788 -0.19996952
000130 77 12 21 3e 45 10 dc 3d 72 0a 41 be da e5 10 be
       0.157297 0.10745291 -0.18851641 -0.14150181
000140 d9 5b 5f 3e e0 79 d3 bd c4 60 74 3e 7f 45 a1 3b
       0.21812381 -0.1032598 0.23865038 0.0049216147
000150 c2 62 d4 3d 34 d8 b7 3b 16 5b 1e 3e 77 00 13 3e
       0.10370399 0.00561049 0.15464434 0.14355646
000160 c1 d3 67 be 83 2e 17 3e cb 0e 94 3d bd a3 92 3d
       -0.22639371 0.14763837 0.07229384 0.07160137
000170 01 27 09 be 8c c6 be 3d 37 c3 a1 3c 0d d9 eb bd
       -0.13393785 0.093152136 0.019746406 -0.115160085
000180 83 cb 8c 3c 9e 34 d3 3c 74 10 29 be e3 8b af 3d
       0.017186886 0.025781926 -0.16510183 0.08571603
000190 f7 13 f3 3d 59 f3 d8 3d 7e 16 aa 3d b2 33 0d be
       0.11869042 0.1059329 0.08305071 -0.13789251
0001a0 88 d9 c8 3d 58 c6 c8 3c 66 fe 27 3e dc ca f4 3d
       0.09807116 0.02450864 0.16405639 0.11952755
0001b0 07 e0 40 3e ee a3 a8 3c 2d cf fa bd 35 3c 0f 3e
       0.1883546 0.02058598 -0.12246547 0.13987811
0001c0 54 5d fd 3d c7 1d a7 bc c0 12 03 be 5a 6e d1 3d
       0.123713166 -0.020399941 -0.12800121 0.10226126
0001d0 36 89 b9 ba d4 fe 0a 3e 96 81 56 3e ad 31 2b be
       -0.0014155272 0.13573772 0.2094787 -0.16718169
0001e0 fb a2 aa 3d 0c 70 bb bd cc d0 c4 bd 51 5d 0d be
       0.08331867 -0.091522306 -0.09610137 -0.13805129
0001f0 49 80 14 bd 43 82 2a be 40 a9 f5 3d c8 d3 1a 3e
       -0.036255155 -0.16651253 0.119951725 0.1511985
000200 c6 82 a4 bd e5 0d 7c bd 03 c0 3f 3d 54 08 c7 bd
       -0.080327556 -0.06153669 0.046813976 -0.09718385
000210 f8 7b 79 bd ce 6b a7 be 01 86 fb 3c 8e 5e 15 3c
       -0.06090924 -0.32699436 0.030703546 0.009116782
000220 fa b1 72 bd 04 66 71 be ae fb d7 bc de a0 a5 be
       -0.059251763 -0.23574072 -0.026365127 -0.32349294
000230 3c 78 15 3e b7 24 22 3e 86 ac 9f bc cb 9c 0c bd
       0.14596647 0.15834318 -0.019491445 -0.034329217
000240 3f 6c f0 3d 0f 59 d5 3d a4 34 3b be b6 16 73 bd
       0.11739396 0.10417377 -0.182818 -0.05934783
000250 3e 8a 23 3b 03 9b cc 3e 10 5e 37 3e ed 06 01 bd
       0.0024954225 0.39962015 0.17906976 -0.031500746
000260 0d be 60 bd fa 5c 35 3e 83 b5 ba bc 08 e4 41 bd
       -0.054868747 0.17711249 -0.02279163 -0.04733661
000270 7a e8 4e bd ab f5 28 3e 7c 3c 15 be e2 bc 76 3e
       -0.050514676 0.16499965 -0.14573854 0.2409549
000280 f2 3e b7 bd 92 bb a6 bd 4c a0 12 3e 3d 90 ef bd
       -0.08947553 -0.08141245 0.14318961 -0.11697433
000290 a7 15 ab bb 97 98 5d 3d a8 b8 34 3d 55 64 1b 3e
       -0.005221087 0.0541006 0.044121414 0.15174992
0002a0 a8 71 29 bd b2 0a 7f bd 84 62 c8 bd 4b 1b 02 be
       -0.041368157 -0.06226606 -0.09784415 -0.12705724
0002b0 29 97 ac 3c 25 98 e7 bd 24 38 8a 3e f8 bd 22 3e
       0.021068173 -0.11308316 0.26995957 0.1589278
0002c0 34 f6 68 3d 1c 7c bd bc ff bb ef bd cf e8 ff bd
       0.056875423 -0.023130469 -0.11705779 -0.124955766
0002d0 2f f7 b8 3d 68 55 66 be d7 2e 41 3d 89 cd 60 3e
       0.090315215 -0.22493517 0.04716381 0.21953405
0002e0 9d 07 dc 3d 3e 3d 2c bd 16 76 ce bd ae 34 07 be
       0.107436396 -0.042050593 -0.10081117 -0.1320369
0002f0 bc f9 28 be 57 bc 96 be d0 39 43 be d5 5b 94 3e
       -0.16501516 -0.29440567 -0.19065022 0.28976312
000300 d6 96 32 3c a0 c6 09 be c2 e9 df 3d 17 b4 74 3d
       0.01090022 -0.13454676 0.10933258 0.05974206
000310 5b 4c f8 ba d9 23 c6 be 17 01 a1 3c c5 36 06 be
       -0.0018943654 -0.38699225 0.01965384 -0.1310683
000320 4a 9d 11 bc 7f 8c ac be e7 d7 0e 3e 41 c6 50 3e
       -0.008887598 -0.3370094 0.13949548 0.20388128
000330 c2 e6 ec 3c 98 29 e5 bd d6 3d 2c 3e 4a a1 2c bc
       0.028918628 -0.11189574 0.16820464 -0.010536501
000340 67 53 ec 3d 66 a4 bc bc 27 99 b8 3e 96 b7 bc bd
       0.11539345 -0.02302761 0.36054346 -0.09214704
000350 e2 76 5a 3d 5d bd 8d 3e 75 9a 75 be 4e 5a 14 bd
       0.05333603 0.27683535 -0.23984702 -0.036218934
000360 ca 41 2b 3c e8 87 6e be 5b 17 00 bd 2c d5 a0 3d
       0.010452697 -0.23294032 -0.031272274 0.07853159
000370 c6 b5 bf bd 23 8d 92 be 55 e7 2a be 3c 25 14 be
       -0.093608424 -0.28623304 -0.16689809 -0.14467329
000380 03 d5 15 3d bb 16 b3 3d 76 34 0d 3e 53 6d 9d bc
       0.036580097 0.0874457 0.13789544 -0.019217169
000390 a0 ab 29 bc 40 f1 c0 bc 0e 3a c7 b8 3b e0 7c bd
       -0.01035586 -0.023552537 -9.499873e-05 -0.06173728
0003a0 2d 91 9c 3d 68 df 38 3d 90 a9 e1 3d f2 16 32 be
       0.076448776 0.04513493 0.110186696 -0.17391565
0003b0 79 8a bd 3d d1 7e 78 3c e9 50 bd be cf e9 b4 bd
       0.09254927 0.015166954 -0.36975792 -0.08833658
0003c0 80 e9 21 bd 82 a4 70 bb 60 85 49 3d 99 06 b7 bd
       -0.039529324 -0.0036719148 0.049199462 -0.08936805
0003d0 9a c3 8f be ed 83 29 bd 2c e5 89 3c 75 51 21 3e
       -0.2807892 -0.04138558 0.01683291 0.1575373
0003e0 b2 1e 74 3c 7f 50 29 3e 32 fa 01 bd 71 66 9c 3e
       0.014899896 0.16534613 -0.031732745 0.30546907
0003f0 01 d3 57 3e 4e de 03 3d a7 61 db bd 73 68 f5 3b
       0.21076585 0.03219443 -0.10711985 0.007489258

network_body.linear_encoder.seq_layers.2.bias f4 [216]
000000 56 ca b7 bd 08 09 e7 bd 2b 5d 10 bc 9e 3f 14 bd
       -0.089741394 -0.112810194 -0.0088112755 -0.036193483
000010 da f5 fc bd 26 aa 0c 3d 10 e8 82 bd 0c 16 9f bc
       -0.1235158 0.034341954 -0.06391919 -0.019419692
000020 9c 4e 80 bd 7f ae a1 bd 30 10 27 3c c2 d3 0b 3a
       -0.062649935 -0.078946106 0.0101967305 0.00053339836
000030 d3 c5 91 bd 01 4d 63 bd 3d 96 5e bd 00 1b 45 bc
       -0.0711781 -0.05549336 -0.054342497 -0.012030363
000040 1a d1 4d 3d c7 ec a2 bc 61 58 b4 bd 5d d0 20 3d
       0.050248243 -0.019888295 -0.088059194 0.03926121
000050 f9 ab da 3d a7 98 26 3d 04 45 b3 bd 32 2b 6e 3c
       0.106773324 0.040672924 -0.08753398 0.014536666
000060 af 04 5f bc 7b 03 0a bd 88 b3 0f bc ca e0 88 bc
       -0.0136119565 -0.033694725 -0.008770831 -0.01670875
000070 0e d4 53 bd 97 d4 42 3d 27 19 fc bc af c9 b6 3d
       -0.051715903 0.047566023 -0.030773712 0.08925187
000080 7a 09 6a bd a6 20 08 bd 3b cb eb bd 3a 62 93 bd
       -0.057137944 -0.03323426 -0.115133725 -0.071964696
000090 c0 99 eb bc 27 66 57 bc c7 5c f7 bc 20 98 a7 bc
       -0.028759837 -0.013146914 -0.030195607 -0.020458281
0000a0 08 0c 0b 38 fb ba 33 bc c0 b4 5b bd ae 64 a7 3c
       3.3151387e-05 -0.010969873 -0.053639174 0.02043375
0000b0 39 1e b2 bd 06 d2 3f 3d 87 d9 3e bd fe e0 31 bd
       -0.08697171 0.046831153 -0.04659417 -0.04342746
0000c0 a2 e0 bd bd b4 c1 17 3c 4c b2 49 bd a0 5d 80 3d
       -0.09271361 0.009262491 -0.049242303 0.062678576
0000d0 9c 4b 73 bc a4 e4 0f bd 64 28 cd bd 86 3e 33 bd
       -0.01484957 -0.035130158 -0.100174695 -0.0437608
0000e0 ca 4c 39 3d 34 0c 9a 3d 9c 20 01 be 62 9a 38 3d
       0.045239247 0.07521859 -0.12610096 0.045069106
0000f0 d7 4c 72 bd 33 bc 43 3d 1d f8 57 3d 42 92 9c 3b
       -0.05915531 0.047786903 0.052726854 0.0047781775
000100 5e 72 4e 3d 01 73 8b bd 66 de d4 bd ef 50 06 3d
       0.050402038 -0.06809045 -0.10393982 0.032792028
000110 08 5a 03 be c4 0d 05 bd 11 b9 4f bd 0c 1c b4 bd
       -0.12827313 -0.03248383 -0.050713602 -0.08794412
000120 f2 4f 3a bd 2f 43 8b bd e2 48 ad bc f8 25 a5 3c
       -0.045486398 -0.06799924 -0.021152917 0.020159706
000130 d6 b8 41 bc 50 f6 65 bd cd 47 b1 bc 4e 93 e5 bd
       -0.0118238535 -0.056143105 -0.021640683 -0.11209737
000140 76 6e 70 bd e9 4f 60 3d ae a0 ae bd 14 25 5b bc
       -0.058699094 0.05476371 -0.08526741 -0.013375539
000150 59 52 d1 bd 3d 16 eb bd d0 89 6e bd f9 73 33 bb
       -0.10220785 -0.11478851 -0.058236897 -0.0027382358
000160 6c 40 6b bd 1d 1c d6 bc ef e2 b1 bd 12 b9 b4 3c
       -0.057434484 -0.026136452 -0.08685862 0.022060905
000170 6c c2 2e bd 10 d6 b7 bb 4a f5 a4 3d 96 db e3 3d
       -0.042665884 -0.005610235 0.08054598 0.11125867
000180 ef 3c 9e 3c c6 a6 69 bd 11 0d 42 bd ca a2 86 bd
       0.019316165 -0.057043813 -0.047375742 -0.06574018
000190 a1 1a 67 3d 24 48 02 be e9 82 83 ba 8f bf 8a 3c
       0.05642188 -0.12722832 -0.0010033521 0.016937045
0001a0 21 89 f1 bd 7c 91 14 bd 60 f9 bd 3b 5b f9 8e bd
       -0.117937334 -0.036271557 0.00579755 -0.069811545
0001b0 e0 e5 8f bd c3 f3 a9 bd ab d6 bd bd 04 6a 01 3d
       -0.07026267 -0.08298447 -0.0926946 0.031595245
0001c0 d6 98 d7 bc 98 04 0e 3d ce 9d 16 bd 9a 9b a7 bd
       -0.026317995 0.03467235 -0.036771588 -0.081839755
0001d0 56 62 12 3d 13 37 d5 bd e4 24 a1 bc 17 06 c9 bd
       0.03573831 -0.10410895 -0.019670911 -0.09815615
0001e0 15 80 bc bd 71 f7 d6 bc bf 27 bb bd a1 b9 8c bc
       -0.09204117 -0.026241036 -0.0913844 -0.017178359
0001f0 8e b3 1a 3d b7 f6 41 bd 6d bd 1b 3d 5e f6 78 bb
       0.037768893 -0.047354426 0.038022447 -0.0037988643
000200 62 18 19 bd 74 15 f5 bb e6 b4 5f bd aa 74 27 3d
       -0.03737677 -0.007479364 -0.054615878 0.040882744
000210 93 05 d3 3c 6a a6 6c 3a 31 53 0e 3c 7e d5 bb 3c
       0.025759494 0.0009027483 0.008686827 0.02292895
000220 98 75 6e bc 4f ed 31 bd 98 c5 7a 3d 84 74 94 3d
       -0.014554404 -0.043439206 0.061223596 0.07248786
000230 60 e9 63 bd 15 bf 18 be 9c 1a 9b bd fa f7 4e bd
       -0.055642486 -0.14916642 -0.07573435 -0.050529458
000240 98 e3 ca bd 79 e0 dc 3d ee e8 61 bd 30 dd 7d bd
       -0.09906691 0.10785002 -0.05515378 -0.06197852
000250 72 62 d0 bd dd 97 ec bc ca 10 ab bd 5f af 60 3d
       -0.10175027 -0.028881008 -0.08352812 0.054854747
000260 87 db f1 bc 09 f9 ff bc 53 11 89 bd 2f f9 e9 3c
       -0.029523624 -0.031246679 -0.066927575 0.028561203
000270 57 23 b4 bd 41 6f d0 3c 73 65 b8 bd 72 ed 1e bd
       -0.08795803 0.025443675 -0.09003725 -0.038800664
000280 4e 04 ed bc b2 dd 48 3d 75 bb e5 3c 90 ed cd bc
       -0.028932717 0.04903955 0.028043488 -0.025137693
000290 92 0f 8a 3c 11 9b 93 3c 0b ff 13 bc 28 55 33 3d
       0.016853128 0.018018277 -0.009032975 0.043782383
0002a0 bf 0f 89 bd 34 82 7b 3d b7 71 49 bc 87 39 d5 bc
       -0.066924565 0.06140347 -0.012295178 -0.026028408
0002b0 4e 69 7e bd bd f9 2b 3c b5 65 81 3d e2 15 78 bd
       -0.062112145 0.010496554 0.06318227 -0.060567744
0002c0 34 6a 03 be 97 03 9d bd 3b 74 94 3c 34 75 ae bd
       -0.12833482 -0.076667 0.01812183 -0.085184485
0002d0 a4 d4 28 bd 63 1c 1d bd 8b de 62 bd cb b3 60 bc
       -0.041218415 -0.03835715 -0.055388015 -0.013714741
0002e0 b5 a5 11 bd b2 0d 74 bd 5d 19 0a 3d 33 8b 1c bd
       -0.03555842 -0.059583373 0.033715595 -0.03821869
0002f0 31 f9 bc bd c1 72 09 bc ab 99 ca 3c 6e be d9 bd
       -0.09227217 -0.008389176 0.024731478 -0.10632025
000300 b5 8f 12 3d ad 46 84 3d 10 55 f8 3c ca e9 86 bd
       0.03578158 0.06458793 0.030313998 -0.065875605
000310 6b db 32 3d c3 61 c2 bc 55 bb 02 be bd f2 13 3d
       0.043666285 -0.023728257 -0.12766774 0.036120165
000320 16 51 10 bd c0 af f8 bd f0 a7 1d be 7a 17 4b 3d
       -0.03523358 -0.12142897 -0.15396094 0.049582936
000330 02 6e 95 3d 33 82 a4 bc 20 06 ba bd 35 cb e8 bc
       0.07296373 -0.020081615 -0.090831995 -0.02841721
000340 26 0c a4 3c 63 ac 4a bc 07 4a 57 bd be 36 cc bc
       0.020025324 -0.012370202 -0.052560832 -0.024928447
000350 3d 5d a1 3d 7b d4 4f 3c 48 4e 57 3c b9 27 9a 3c
       0.07879112 0.012684937 0.013141222 0.01881777
