Project/results/VPlayer-FirstButCorrected/VPlayer/VPlayer-4094644.onnx (onnx, 681794 bytes, 15 tensors)

action_model._continuous_distribution.mu.weight f4 [1, 216]
0	0xbcd74b78	-0.026281103
1	0x3c244f2a	0.01002864
2	0x3d326f5f	0.043563243
3	0xbcac2f02	-0.021018509
4	0x3c1e758f	0.009671583
5	0x3d86f192	0.06589045
6	0xbd409314	-0.047015265
7	0x3dde5163	0.10855367
8	0x3d2aaad8	0.041666836
9	0xbc365d5e	-0.011130659
10	0xbde90fcd	-0.11379967
11	0x3d840e39	0.06448025
12	0xbd2fad3b	-0.042889815
13	0xbcddb976	-0.027065974
14	0x3d0c3a58	0.03423533
15	0xbca1a45d	-0.019731695
16	0x3d8ff105	0.07028393
17	0x3c8a52de	0.016885217
18	0x3dffebca	0.12496145
19	0xbd26ec0f	-0.040752467
20	0x3d510e49	0.051039014
21	0xbb63a3fa	-0.0034735189
22	0x3cff3a3a	0.031155694
23	0x3c2df93e	0.010618506
24	0x3dd6ae58	0.10482472
25	0x3c37f83a	0.011228615
26	0xbcbb495a	-0.022862125
27	0x3cb1be8b	0.021697303
28	0xbccd2e5a	-0.025046516
29	0xbc12558d	-0.00893153
30	0xbcc5fafa	-0.024167527
31	0xbd324c0a	-0.043529548
32	0x3d5c5f6f	0.05380195
33	0xbc9d23ab	-0.019182047
34	0xbbfea8f8	-0.0077716075
35	0x3cc80435	0.024416069
36	0xbd2d7028	-0.04234329
37	0xbd5ada6f	-0.05343097
38	0xbbd70905	-0.0065623545
39	0xbcc95187	-0.024575008
40	0x3d495924	0.049157277
41	0x3b8e1121	0.004335538
42	0x3c0f9943	0.008764568
43	0xbcc09703	-0.023509508
44	0xbc23c79e	-0.009996323
45	0xbd4cbe7a	-0.04998634
46	0xbd5030d4	-0.050827816
47	0x3d872fab	0.06600889
48	0xbd6bf495	-0.0576063
49	0xbca77653	-0.020442164
50	0x3c5470e7	0.012966371
51	0xbcc12279	-0.023576008
52	0xbd350ab8	-0.044199675
53	0xbb56cf3a	-0.0032777325
54	0xbc34d946	-0.01103813
55	0xbd57a193	-0.052644324
56	0xbb60e92e	-0.0034318673
57	0xbc82c286	-0.015961897
58	0xbbf33efa	-0.007423279
59	0xbb36e63d	-0.0027908229
60	0xbb355758	-0.002767047
61	0x3d34a40e	0.044101767
62	0x3c8cb5f2	0.017176602
63	0x3d5c48f1	0.0537805
64	0xbd2ab173	-0.041673135
65	0x3d159377	0.036517587
66	0xbc099ae5	-0.008398746
67	0x3d9465c9	0.072459765
68	0xbd0c73d8	-0.034290165
69	0xbc890a62	-0.016728584
70	0xbb91591a	-0.0044356706
71	0xbb9a8801	-0.00471592
72	0xbc7d746b	-0.015469651
73	0xbbd2dc9f	-0.0064349915
74	0xbb4012f0	-0.0029308163
75	0x3de5bd06	0.11217694
76	0xbcb3007f	-0.021850822
77	0xbd30bef6	-0.043150865
78	0xbc905fad	-0.017623747
79	0x3dc9d2b4	0.098546416
80	0xbd19c294	-0.03753908
81	0xbd830fa8	-0.063994706
82	0xbbb58054	-0.0055389795
83	0x3d0bf933	0.0341732
84	0x3ddce8b0	0.10786569
85	0xbd11c776	-0.03559061
86	0x3cf3c006	0.02975465
87	0xbd2f437b	-0.042788964
88	0xbd9ac4c2	-0.0755706
89	0x3d55ed3b	0.052228194
90	0x3d8ea771	0.06965531
91	0xbd36367e	-0.04448556
92	0xbb4635e7	-0.003024453
93	0x3b2ff53e	0.0026849057
94	0x3cfebd2c	0.031096064
95	0x3aea8ae8	0.001789418
96	0x3cba522c	0.02274426
97	0x3dcd907c	0.10037324
98	0xbd8b37fb	-0.06797787
99	0x3a2f95d2	0.0006698045
100	0x3d3c67ce	0.045997433
101	0x3db18837	0.08668559
102	0xbcb55fae	-0.02214035
103	0xbd24e3c8	-0.04025629
104	0xbd0da949	-0.03458527
105	0xbca57765	-0.020198533
106	0xbb4244ae	-0.0029642987
107	0x3cdb4844	0.026767857
108	0x3d3df3bd	0.046375025
109	0xbdb62743	-0.08894207
110	0xbd81799b	-0.063220225
111	0x3d493a3c	0.049127802
112	0x3d673366	0.0564455
113	0x3dd78c52	0.10524811
114	0x3b5e5221	0.0033923464
115	0xbd9df35e	-0.07712434
116	0xbbbac952	-0.005700269
117	0xbca3f207	-0.020012869
118	0x3d2736d3	0.04082377
119	0xbc00e4af	-0.007867022
120	0x3c872363	0.016496366
121	0x3cf718a3	0.030163115
122	0xbb8e1901	-0.004336477
123	0xbd8e2f49	-0.06942613
124	0x3c8a3221	0.016869606
125	0x3c09c4ca	0.008408735
126	0xbd94cc98	-0.07265586
127	0xb9c7033e	-0.00037958653
128	0xbd56bf05	-0.052428264
129	0x3dc1235b	0.09430572
130	0x3e052256	0.1300138
131	0x3b40f361	0.002944194
132	0xbd71079a	-0.05884514
133	0xbb70346e	-0.0036652344
134	0xbb77ebab	-0.0037829678
135	0x3d4521cc	0.048127934
136	0xbc02192e	-0.007940574
137	0x3a761286	0.00093869155
138	0x3d78a90a	0.060708083
139	0xbcdfea2d	-0.027333343
140	0x3ca99ee9	0.020705657
141	0x3dbf70df	0.093477
142	0x3d88934d	0.066687204
143	0x3c345daf	0.011008664
144	0xbab235c4	-0.0013596346
145	0x3dd4f777	0.10398763
146	0xbdf213c4	-0.11820176
147	0x3d8b0dea	0.06789763
148	0xbc1a1b4f	-0.009405925
149	0xbc728522	-0.014802249
150	0x3cab9a76	0.020947676
151	0x3da2e1b1	0.079532035
152	0x3d2c72c5	0.04210164
153	0x3d915eea	0.070981815
154	0xbc68047f	-0.014161228
155	0x3db75413	0.08951583
156	0xbd1ba7f9	-0.038001988
157	0xbc9f924f	-0.019478945
158	0x3c9f0aa7	0.01941426
159	0xbc31b600	-0.010846615
160	0xbbc570e7	-0.006025422
161	0xbc109253	-0.008823949
162	0x3d90d1e7	0.07071286
163	0xbccd8abf	-0.025090573
164	0x3cda332b	0.026635727
165	0xbd3b0d63	-0.045667063
166	0x3dcf9fbd	0.101378895
167	0xbd14942e	-0.036274128
168	0x39bd54e7	0.00036112146
169	0xbda7c932	-0.08192672
170	0xbbe46f25	-0.0069712573
171	0x3da7c5ee	0.08192049
172	0xbcc6a216	-0.02424721
173	0xbcedc8fd	-0.029026503
174	0x3c5d76bc	0.013517078
175	0xbc95e97c	-0.01829981
176	0xbd8f997c	-0.07011697
177	0xbc429910	-0.011877313
178	0x3d778a02	0.06043435
179	0x3ccd63df	0.025072036
180	0xbd863c20	-0.06554437
181	0x3c75df84	0.015006904
182	0x3d20b5e1	0.039235953
183	0xbc822a2b	-0.015889248
184	0xbc4f5106	-0.012653595
185	0xbc4a0ba1	-0.012331874
186	0xbddc5c70	-0.107598186
187	0xbcc578cd	-0.024105454
188	0x3de04026	0.10949735
189	0x3d929abe	0.07158421
190	0x3c498759	0.012300336
191	0xbd215dd1	-0.03939611
192	0x3c5033e7	0.012707687
193	0x3d90419d	0.07043765
194	0x3d69395e	0.056939475
195	0xbd4a2099	-0.049347494
196	0xbdd9fee9	-0.106443234
197	0xbd3f86e7	-0.046759512
198	0x3cde4cdb	0.027136257
199	0xbc63c6c4	-0.01390237
200	0x3bb5fdc7	0.0055539343
201	0xbd2c62e4	-0.042086497
202	0x3d4fece6	0.050763033
203	0x3c65bd5a	0.014022196
204	0x3d8a01f5	0.067386545
205	0xbcfb39b9	-0.030667173
206	0xbc9e1653	-0.019297754
207	0xbd3e36e3	-0.046439063
208	0xbd0e679b	-0.034766775
209	0xbb201c35	-0.0024430875
210	0xbd272a85	-0.040812034
211	0xbda65a5b	-0.08122703
212	0xbd43b68c	-0.047781512
213	0xbbf6e32c	-0.007534405
214	0xbb903cc5	-0.0044017755
215	0xbd9fb580	-0.0779829

action_model._discrete_distribution.branches.0.bias f4 [3]
0	0x3daa531a	0.083166316
1	0xbe39c768	-0.18142474
2	0x3dabe089	0.08392436

action_model._discrete_distribution.branches.0.weight f4 [3, 216]
0	0xbaf2e9ac	-0.0018532774
1	0xbd2b1004	-0.04176332
2	0xbd24b4cd	-0.040211488
3	0xbd506250	-0.050875008
4	0x3d4d35be	0.05010008
5	0xbc77bbb8	-0.015120439
6	0xbb9f887a	-0.004868564
7	0x3d8d6f3c	0.06905982
8	0x3d85d184	0.065341026
9	0x3d5365be	0.0516107
10	0x3db0d808	0.08634955
11	0x3dad4ee9	0.084623165
12	0x3bfc79e9	0.0077049625
13	0x3c898e14	0.016791381
14	0x3c54ce54	0.012988646
15	0xbc3eddbb	-0.011649544
16	0x3db562e4	0.088567525
17	0xbe0d25c0	-0.13783932
18	0x3d948632	0.07252158
19	0xbd2e5b03	-0.042567264
20	0xbdf4076a	-0.119154766
21	0x3d0be249	0.03415135
22	0xbd9ce3d2	-0.07660641
23	0xbd3f28fa	-0.046669938
24	0x3d993116	0.074800655
25	0xbdf9a980	-0.12190533
26	0xba063133	-0.00051190256
27	0xbda449de	-0.080219015
28	0x3de58bea	0.11208327
29	0xbdb362a8	-0.087590516
30	0xbdce5f6b	-0.10076793
31	0xbd325fb7	-0.043548312
32	0x3d456b12	0.048197813
33	0xbc9b90f3	-0.018990016
34	0x3d348fbd	0.044082392
35	0x3d8520eb	0.06500419
36	0x3d72e3c7	0.059299257
37	0x3ca0516a	0.019570071
38	0xbcd5f76e	-0.02611896
39	0x3d18aeb0	0.03727597
40	0x3de94ec9	0.1139198
41	0xbd2dcdfc	-0.04243277
42	0xbd727a2f	-0.059198555
43	0x3c9559fa	0.01823138
44	0xbe37ed0e	-0.17961523
45	0x3d442de1	0.047895316
46	0xbd2659db	-0.040613037
47	0xbd60bf4e	-0.054869942
48	0x3c1693cb	0.00919051
49	0xbddf72ec	-0.109105915
50	0xbd869fa6	-0.06573419
51	0x3e00b0d9	0.12567462
52	0xbd9e6921	-0.077348955
53	0x3d9fceea	0.078031376
54	0xbd1d76fb	-0.038443547
55	0xbd49c664	-0.049261466
56	0xbe016577	-0.12636362
57	0x3d00d9bf	0.03145766
58	0x3c896ef8	0.016776547
59	0x3ccb625d	0.024827177
60	0x3bcf03e7	0.006317604
61	0x3ddb68c5	0.107133426
62	0x3db4571d	0.08805678
63	0x3ccb2304	0.02479697
64	0xbc0efae1	-0.008726806
65	0x3c186b95	0.009302993
66	0x3dafd96d	0.085863926
67	0xbc1ed6a9	-0.009694734
68	0xbcedef1f	-0.029044686
69	0xbd2097ae	-0.039207153
70	0x3d49b573	0.04924531
71	0xbcd7da76	-0.026349287
72	0xbd7767ca	-0.060401715
73	0x3b179ad4	0.0023133056
74	0x3d830933	0.06398239
75	0x3d818e8e	0.06326018
76	0x3d2c300f	0.04203802
77	0xbd1de3ee	-0.03854745
78	0xbdb54e0e	-0.088527784
79	0xbd89bc69	-0.067253895
80	0x3c32f2a8	0.010922112
81	0x3dc9ca91	0.098530896
82	0xbcf10983	-0.02942348
83	0x3dbef25e	0.093235716
84	0x3a8f6e9c	0.0010942998
85	0x3da8621b	0.08221837
86	0x3d95ac5c	0.073082656
87	0xbd2d2a54	-0.042276695
88	0xbdd86b74	-0.1056737
89	0x3b3684be	0.0027850117
90	0xbb82f791	-0.0039967974
91	0xbd71317a	-0.058885075
92	0x3db3a315	0.0877134
93	0x3b8c76b6	0.0042866124
94	0xbdddfda5	-0.108393945
95	0x3d0a9546	0.033833764
96	0xbd29f0d4	-0.041489437
97	0xbd3df246	-0.046373628
98	0xbd764730	-0.060126483
99	0xbd39b808	-0.04534152
100	0xbde4f59d	-0.111796595
101	0x3cf75578	0.030192122
102	0x3d5a0b69	0.053233538
103	0x3c398fd6	0.011325797
104	0xbddca241	-0.10773135
105	0xbe3042dc	-0.17213005
106	0xbcba75a9	-0.022761183
107	0x3da4774a	0.08030565
108	0x3d67bf9c	0.056579217
109	0x3caf8f1b	0.021430543
110	0x3dfaa72c	0.12238917
111	0xbc7cea06	-0.015436655
112	0x3d088de2	0.033338435
113	0xbb60f2c4	-0.0034324387
114	0x3d00850c	0.031376883
115	0x3d07a57c	0.033116803
116	0xbd1c3bc3	-0.03814293
117	0xbe244aa4	-0.16044098
118	0x3d28424e	0.041078858
119	0xbb544bf1	-0.0032393897
120	0x3c9b1cf3	0.018934703
121	0x3d6089cb	0.05481891
122	0xbd5fb017	-0.05461129
123	0xbce34973	-0.027744984
124	0x3e2060df	0.15661953
125	0xbe1e8143	-0.15478997
126	0xbd653b59	-0.0559648
127	0xbe31d2e6	-0.17365608
128	0xbd04b479	-0.032398675
129	0xbdeed319	-0.116613574
130	0x3ce41562	0.027842227
131	0xbd8b3f97	-0.06799238
132	0x3bb680c4	0.0055695493
133	0xbc3dd406	-0.011586195
134	0xbddbb44b	-0.107277475
135	0xbd0b955c	-0.034077987
136	0xbc461200	-0.0120892525
137	0xbd3491fe	-0.04408454
138	0xbdac81b6	-0.08423178
139	0xbe3ac30d	-0.18238468
140	0xbd6302db	-0.055422645
141	0xbd4d7d8b	-0.050168555
142	0x3c4bdea6	0.01244322
143	0xbd032bf3	-0.032024335
144	0xbd67230d	-0.05642991
145	0x3dcb0534	0.09913102
146	0x3b9f45de	0.0048606237
147	0x3dd97fba	0.10620065
148	0xbd19c983	-0.037545692
149	0xbd09246f	-0.03348201
150	0x3e6d1890	0.23153901
151	0xbc997084	-0.01873041
152	0xbbfda5d5	-0.007740716
153	0xbde54d9c	-0.111964434
154	0x3c23f11c	0.010006215
155	0x3dbc9608	0.09208304
156	0xbd052454	-0.03250535
157	0xbe1997d2	-0.14999321
158	0xbe0b1435	-0.13581927
159	0xbda29ec8	-0.07940441
160	0x3cd86626	0.026415896
161	0xbd8dbae3	-0.069204114
162	0x3d1b337a	0.03789089
163	0xbd439fab	-0.047759693
164	0xbdcdcd10	-0.10048878
165	0xbd32469d	-0.043524373
166	0x3d199e60	0.037504554
167	0x3d78a7ae	0.060706787
168	0xbe086ef0	-0.1332357
169	0x3c5b3b45	0.01338083
170	0x3da24461	0.079231985
171	0xbc1c66de	-0.00954601
172	0xbdea7725	-0.11448506
173	0x3db2271f	0.08698868
174	0x3b57d58f	0.0032933687
175	0x3cfb348a	0.030664701
176	0xbd6c51ac	-0.057695076
177	0x3d8a6ef2	0.067594424
178	0x3d9d7929	0.07689125
179	0x3d125251	0.035723034
180	0xbd9ecc5e	-0.07753824
181	0x3ab07993	0.0013463966
182	0xbdbcb013	-0.09213271
183	0xbd8897d2	-0.066695824
184	0x3d10dc3c	0.035366282
185	0xbd9a6aac	-0.07539877
186	0x3c39cd29	0.011340418
187	0xbcfcbbe0	-0.030851305
188	0x3d5c2333	0.053744506
189	0xbcf8726b	-0.030327996
190	0x3cabb76a	0.020961482
191	0x3dba809a	0.0910656
192	0xbe10dfa1	-0.14147808
193	0x3d14e494	0.0363508
194	0xbdbc5b95	-0.091971554
195	0xbd90818c	-0.07055959
196	0x3d51f31f	0.05125725
197	0xbc57feb9	-0.013183289
198	0x3d3a5145	0.04548766
199	0x3ddfe886	0.10933022
200	0x3e11b186	0.14227876
201	0x3e0565d2	0.13027123
202	0x3c05231e	0.008126048
203	0xbd1bc533	-0.03802986
204	0x3c9fbaeb	0.01949831
205	0xbd8218a5	-0.06352357
206	0x3deb9953	0.11503854
207	0xbd5b7fe5	-0.053588767
208	0xbd8bb5ea	-0.06821807
209	0xbe5391a0	-0.2066102
210	0x3dc4a691	0.096020825
211	0x3d9c9b92	0.0764686
212	0xbd90ce50	-0.07070601
213	0xbe213949	-0.15744509
214	0xbdfb4297	-0.122685604
215	0xbca52845	-0.020160804
216	0x3d74a546	0.05972793
217	0x3d1e942e	0.038715534
218	0xbc45d9c4	-0.012075845
219	0x3b1c9b19	0.0023896156
220	0x3d04fd25	0.03246798
221	0x3b1cd77c	0.002393215
222	0x3d2568a6	0.040383004
223	0x3d30ad8f	0.04313427
224	0x3d95ab42	0.073080555
225	0xbcb02e2f	-0.021506397
226	0x3d1a93f4	0.037738755
227	0x3d581a6f	0.052759584
228	0xbd723d33	-0.059140395
229	0xbca28077	-0.019836647
230	0x3e1fd8aa	0.15609995
231	0x3d0383bc	0.032108054
232	0xbc9b6c0a	-0.018972415
233	0x3d694f55	0.056960423
234	0x3c33a93c	0.010965642
235	0xbdba9fcb	-0.09112509
236	0x3da53cda	0.08068247
237	0x3cbfe858	0.02342622
238	0x3dbbfa39	0.091785856
239	0xbd2cc58a	-0.042180575
240	0xbd0a39d0	-0.03374654
241	0x3c4b9bb3	0.012427258
242	0x3c3e74d3	0.011624533
243	0x3d44f365	0.04808368
244	0x3ce033db	0.027368477
245	0xbd9b8a00	-0.07594681
246	0xbd42f7bd	-0.047599543
247	0xbdc7d02e	-0.09756504
248	0x3d0df10b	0.034653705
249	0xbdafd0d5	-0.085847534
250	0xbbb86157	-0.005626838
251	0x3c8f7e1f	0.017516194
252	0xbd903a55	-0.07042376
253	0x3d23cfaf	0.039992984
254	0xbb7db4f8	-0.0038712602
255	0xbc23b2b7	-0.009991339

action_model._discrete_distribution.branches.1.bias f4 [3]
0	0x3a18d5ba	0.00058301876
1	0x3d40c57c	0.047063336
2	0xbd64439b	-0.055728536

action_model._discrete_distribution.branches.1.weight f4 [3, 216]
0	0xbd4b40e2	-0.049622424
1	0x3d7fea40	0.062479258
2	0xbd8eed23	-0.06978824
3	0xbe367a76	-0.17820153
4	0xbe6e7202	-0.23285678
5	0xbd0ba7bd	-0.034095515
6	0xbda3d84d	-0.080002405
7	0x3c0e78c7	0.008695788
8	0x3db7837b	0.08960625
9	0xbe6e692a	-0.23282304
10	0xbe22ee69	-0.15911259
11	0x3dcb7a62	0.09935452
12	0x3dc5ce28	0.09658462
13	0xbaa06047	-0.0012235724
14	0x3d04c33a	0.032412745
15	0xbc5d1974	-0.013494838
16	0xbd7e642b	-0.062107246
17	0xbd35fa08	-0.0444279
18	0x3b6f44fe	0.0036509628
19	0xbd9e019e	-0.07715152
20	0xbc8757ea	-0.016521413
21	0x3d3d8968	0.04627362
22	0x3d144233	0.036195945
23	0x3d19cd56	0.03754934
24	0xbc60d67f	-0.013723015
25	0x3d9db6f7	0.077009134
26	0xbe0f8cce	-0.14018556
27	0x3c7e8261	0.015534014
28	0xbd0a1c0e	-0.03371816
29	0x3db7dcfe	0.08977698
30	0x3da89460	0.08231425
31	0x3dd5e2ee	0.10443674
32	0xbdfa5fbe	-0.122252926
33	0x3d93052b	0.0717872
34	0xbddc1da6	-0.107478425
35	0xbd73f1ac	-0.059556648
36	0xbd381a09	-0.044946704
37	0xbd459fb4	-0.048248008
38	0xbddd7947	-0.108141474
39	0xbdf79bc7	-0.12090259
40	0x3e5ab2e7	0.21357308
41	0xbda64fd9	-0.081206985
42	0x3d23ec3b	0.04002021
43	0x3d9d6f68	0.07687265
44	0x3d9e0d93	0.07717433
45	0x3de9c225	0.11413983
46	0xbcc117d9	-0.023570942
47	0xbd64b355	-0.055835087
48	0x3bbcf8f4	0.005766982
49	0xbc21c8ef	-0.009874566
50	0xbe0b0f6a	-0.13580099
51	0x3e43b360	0.19111395
52	0x3c94e1ed	0.018174136
53	0xbd16c0ca	-0.03680495
54	0xbcdc4517	-0.026888413
55	0x3e0a74b1	0.13521077
56	0xbdfe9c43	-0.12432148
57	0xbe3a36e5	-0.18185003
58	0xbdefd00c	-0.11709604
59	0xbe59f59a	-0.21285096
60	0x3d28e3f0	0.041233003
61	0xbd63bbc6	-0.055598997
62	0xbd5ed47e	-0.054401867
63	0x3d5a1e79	0.053251717
64	0xbcdf1b3f	-0.027234672
65	0x3c72ad0c	0.014811765
66	0xbdacf156	-0.08444469
67	0x391ea5ab	0.0001512977
68	0xbbf3c15a	-0.007438821
69	0x3c284bce	0.0102719795
70	0xbce65ec2	-0.028121356
71	0xbdb9e9f3	-0.090778254
72	0x3d6f85dd	0.05847727
73	0x3d830df2	0.06399144
74	0x3e6989ed	0.22806521
75	0x3d807c9f	0.062737696
76	0xbe146ada	-0.14493886
77	0xbe0d3f64	-0.13793713
78	0xbdb8f479	-0.090310045
79	0x3da5090f	0.080583684
80	0xbce30fc8	-0.027717486
81	0x3dc340d3	0.095338486
82	0xbc797e2d	-0.015227837
83	0x3d7f2b24	0.062297
84	0xbda6261c	-0.081127375
85	0x3c94545c	0.018106632
86	0xbdda7c68	-0.1066826
87	0x3ba45b2f	0.0050157527
88	0x3d8c3156	0.068453476
89	0xbda11594	-0.07865444
90	0x3bfd89c4	0.00773737
91	0x3c3f7349	0.011685201
92	0xbd93a0d4	-0.0720841
93	0x3d998728	0.07496482
94	0x3d6afa13	0.057367396
95	0x3d8e8653	0.06959214
96	0x3df0d8b5	0.117600836
97	0x3c01ad2b	0.007914822
98	0xbd379d47	-0.044827726
99	0x3d266290	0.04062134
100	0x3d11affa	0.035568215
101	0xbdbc7e6e	-0.09203802
102	0x3c276885	0.0102177905
103	0xbd0cba37	-0.034357276
104	0xbd278c1c	-0.040905103
105	0x3e0889b9	0.13333787
106	0xbce0d88e	-0.027447011
107	0xbbc2c392	-0.005943724
108	0x3cf33dd9	0.029692577
109	0x3c2b8651	0.010469035
110	0xbcaac235	-0.020844558
111	0xbcc7cb17	-0.024388833
112	0x3d2e2c9c	0.04252301
113	0xbd6760e8	-0.0564889
114	0x3d5756da	0.052573062
115	0xbdcb8f43	-0.099394344
116	0xbd5cfd24	-0.05395235
117	0x3e5ba971	0.21451356
118	0x3c881f7b	0.016616574
119	0xbe22f2ef	-0.15912984
120	0xbd4f22f1	-0.050570432
121	0x3c954708	0.018222347
122	0x3db4373f	0.087996
123	0x3d8225d0	0.063548684
124	0x3db7d194	0.08975521
125	0x3ce23b0b	0.027616045
126	0xbc3af6dc	-0.011411395
127	0x3e2f7733	0.17135315
128	0xbd90fc40	-0.07079363
129	0xbc8d7f46	-0.017272603
130	0xbcd5cb42	-0.026097897
131	0x3d84025e	0.06445764
132	0x3cd5f71c	0.026118807
133	0xbc495265	-0.012287711
134	0x3d24bb14	0.040217474
135	0xbe2732ac	-0.16327924
136	0x3a21a41b	0.0006166116
137	0xbc886c0c	-0.016653083
138	0x3d8aca79	0.067769
139	0x3d8b06d1	0.067884095
140	0xbdb7180b	-0.08940133
141	0x3dc4537a	0.095862344
142	0xbd234e1a	-0.039869405
143	0x3d6ccf14	0.057814673
144	0x3dbcae7e	0.09212969
145	0x3db36180	0.08758831
146	0xbc1ad9a2	-0.009451302
147	0xbd30e728	-0.043189198
148	0x3d0be5a2	0.03415454
149	0x3b48902e	0.0030603516
150	0x3c6111fe	0.0137372
151	0xbca4f75d	-0.020137483
152	0xbcde57ec	-0.027141534
153	0xbd00aa82	-0.03141261
154	0xbcd44132	-0.025909994
155	0x3db026fb	0.08601185
156	0x3ca716fa	0.020396698
157	0xbccdce33	-0.025122738
158	0x3cefe192	0.029282365
159	0xbdc07a59	-0.09398336
160	0xbdda595b	-0.106615745
161	0xbdcb843c	-0.09937331
162	0x3d9c608c	0.07635602
163	0x3cbad2c6	0.022805583
164	0xbd51456b	-0.051091593
165	0xbd86df83	-0.065856
166	0xbdcd26c9	-0.10017163
167	0x3b098ee7	0.0020989717
168	0xbcede490	-0.029039651
169	0x3d439477	0.04774901
170	0xbe1ebeca	-0.15502468
171	0xbd9023f2	-0.07038106
172	0x3e49b158	0.19696558
173	0x3d370b3a	0.04468844
174	0x3d9d806c	0.0769051
175	0xbd3372cc	-0.04381065
176	0xbc8558dc	-0.016277723
177	0xbddcad1e	-0.10775207
178	0xbd6c86d8	-0.057745785
179	0xbd8be08c	-0.06829938
180	0xbd01d765	-0.031699557
181	0x3d4d82ef	0.050173696
182	0x3d8a8a6c	0.06764683
183	0x39918eef	0.0002776305
184	0xbd0a6bd7	-0.03379425
185	0xbcaa4eeb	-0.020789584
186	0x3d48d6af	0.049032863
187	0x3d1dbc49	0.03850964
188	0x3e046c52	0.12931946
189	0x3d899e48	0.06719643
190	0x3c1b146a	0.009465316
191	0xbcfba55c	-0.030718498
192	0xbd7f2143	-0.06228758
193	0x3dad78f2	0.08470334
194	0x3dcdd0b0	0.100495696
195	0xbc869628	-0.016429022
196	0x3de3e58a	0.111277655
197	0xbd2914fa	-0.04127977
198	0x3dede829	0.11616547
199	0x3d8df1b9	0.069308706
200	0x3d91e003	0.07122805
201	0x3dbcc9e5	0.09218196
202	0x3dd91b4e	0.10600911
203	0x3d40b946	0.04705169
204	0x3df43385	0.11923889
205	0x3b8f503a	0.0043735774
206	0x3df9ce86	0.12197594
207	0x3c84df5b	0.016219785
208	0xbbc9196b	-0.0061370633
209	0x3d903ca7	0.070428185
210	0xbcd41085	-0.025886783
211	0x3cd4b4c6	0.025965106
212	0x3d1a59a8	0.03768316
213	0x3e2061f1	0.15662362
214	0x3d865d98	0.0656082
215	0xbc234a49	-0.009966441
216	0xbcd47d2c	-0.025938593
217	0xbdb163c1	-0.08661605
218	0x3cf38a81	0.02972913
219	0x3e2ffaa0	0.1718545
220	0x3e7c2181	0.24622156
221	0x3d8a432b	0.067510925
222	0xbd39c407	-0.045352962
223	0x3e11c1d4	0.14234096
224	0xbca86719	-0.020556973
225	0x3ea7e38f	0.327908
226	0x3d6a8dd6	0.05726417
227	0xbdd6251d	-0.104562975
228	0xbd2082fc	-0.039187416
229	0x3dab558a	0.08365925
230	0xbe0f2ffb	-0.13983147
231	0xbd9c083f	-0.0761876
232	0x3b8a8617	0.0042274105
233	0xbc9940d4	-0.01870767
234	0x3d20829f	0.03918707
235	0x3d8fdbd2	0.07024349
236	0xbde926b1	-0.11384333
237	0xbbee43f9	-0.0072712866
238	0xbcb71353	-0.022348082
239	0x3d8b6033	0.06805458
240	0x3d561bb4	0.052272514
241	0xbd9b9ca6	-0.07598238
242	0x3db14f68	0.08657724
243	0xbd9bfb17	-0.07616251
244	0xbd1c04ba	-0.038090445
245	0xbda04886	-0.07826333
246	0xbe1fefd9	-0.15618838
247	0x3cd5b13b	0.026085487
248	0x3e1fa358	0.15589654
249	0xbdfac99f	-0.122454874
250	0xbdec0c75	-0.115258135
251	0x3e1da2c0	0.15394115
252	0x3ca946cb	0.02066364
253	0xbc858945	-0.016300807
254	0x3e0956ce	0.1341202
255	0x3d14fea8	0.03637567

action_model._discrete_distribution.branches.2.bias f4 [3]
0	0xbc5abe89	-0.013351091
1	0x3c8840ca	0.016632456
2	0x3b6c3f5a	0.0036048503

action_model._discrete_distribution.branches.2.weight f4 [3, 216]
0	0x3cbdf59d	0.023188407
1	0xbcaa2f2c	-0.020774446
2	0xbdcc65db	-0.09980365
3	0x3dc12363	0.094305776
4	0xbb1078da	-0.002204469
5	0x3d327035	0.04356404
6	0xbcc72a26	-0.02431209
7	0x3ca7a280	0.020463228
8	0x3d4f9d14	0.05068691
9	0x3cd28547	0.025698317
10	0xbce03a47	-0.027371539
11	0xbc1f6fc4	-0.009731237
12	0xbe1ab26c	-0.15107125
13	0x3c7f3bef	0.015578254
14	0xbdccddb5	-0.10003225
15	0xbcea66c2	-0.028613452
16	0xbd17b857	-0.037041035
17	0xbdad4654	-0.0846068
18	0x3d6e635c	0.058200225
19	0xbe26a22d	-0.16272803
20	0xbc6d06b3	-0.014466929
21	0xbdef1e63	-0.11675718
22	0xbe193bc4	-0.14964205
23	0xbd936d1b	-0.071985446
24	0x3d7779ff	0.06041908
25	0xbda58173	-0.08081331
26	0x3e1fcebe	0.1560621
27	0xbd60be48	-0.054868966
28	0x3e5f93ea	0.21833768
29	0xbb4c4eef	-0.0031174978
30	0xbd508a9a	-0.05091343
31	0x3d062f7d	0.032760132
32	0x3ce5a1a9	0.028031187
33	0xbd272e18	-0.040815443
34	0x3de38ef1	0.11111248
35	0x3d49d956	0.049279533
36	0x3c4e0624	0.012574706
37	0x3c4f283e	0.012643872
38	0x3d268998	0.040658563
39	0xbd8426ec	-0.06452736
40	0xbced4a94	-0.028966226
41	0xbd005b70	-0.0313372
42	0xbd471791	-0.04860646
43	0xbd580f17	-0.052748766
44	0xbae76baf	-0.0017655994
45	0xbdc38484	-0.0954676
46	0xbde41bc6	-0.1113811
47	0x3d9cfc62	0.07665326
48	0xbda62d45	-0.08114103
49	0x3dccad08	0.099939406
50	0x3e0c4971	0.1369989
51	0x3e1db47f	0.15400885
52	0x3c375a88	0.011191018
53	0x3e052697	0.13003002
54	0x3d60e894	0.054909304
55	0xbb02d802	-0.0019965176
56	0x3b162466	0.0022909879
57	0x3d01a5c1	0.031652216
58	0xbc88fd71	-0.016722413
59	0x3d69af0e	0.05705171
60	0xbe3e271e	-0.1856961
61	0x3d429139	0.047501776
62	0x3c437114	0.011928815
63	0x3d046848	0.032326013
64	0x3dda94b6	0.106728956
65	0xbd8de65a	-0.06928702
66	0xbcdf2769	-0.027240472
67	0x3d9c56e1	0.07633758
68	0xbdeedff8	-0.116638124
69	0xbd2ba465	-0.041904826
70	0x3e194f53	0.14971666
71	0xbe01df67	-0.12682877
72	0x3dd3d8c5	0.1034408
73	0x3d1185b3	0.035527896
74	0x3e4e031a	0.2011837
75	0x3ccc3637	0.024928195
76	0xbdf24c4e	-0.1183096
77	0x3d81e3e7	0.06342297
78	0x3d3a3550	0.045461
79	0xbdb17f1f	-0.086668245
80	0xbd6960c4	-0.05697705
81	0xbdba07fd	-0.09083555
82	0xbe00ebb0	-0.12589908
83	0xbdb09624	-0.08622387
84	0xbdf17292	-0.11789431
85	0xbd8debe2	-0.06929757
86	0x3de93d33	0.11388626
87	0xbbb1177f	-0.0054044123
88	0x3d8b264b	0.06794413
89	0xbd7c99ce	-0.061670117
90	0x3bf419b5	0.0074493536
91	0xbd554a5e	-0.052072875
92	0x3db3b2ea	0.087743595
93	0x3c9f2e4e	0.01943126
94	0x3e120b78	0.14262187
95	0x3d934218	0.07190341
96	0xbc5ba2bc	-0.013405498
97	0xbc23e102	-0.0100023765
98	0xbc15d875	-0.009145846
99	0xbbef6be4	-0.0073065627
100	0xba4fffa8	-0.0007934519
101	0x3ca418f5	0.020031432
102	0x3cf17841	0.029476287
103	0xbc30e412	-0.010796564
104	0x3d5575d4	0.052114323
105	0x3d185a9e	0.037195794
106	0xbdbbd8e7	-0.0917223
107	0x3c7eee7b	0.015559788
108	0x3c8f7526	0.017511915
109	0xbcdad6ec	-0.02671381
110	0x3d130a53	0.035898518
111	0x3e1349fd	0.14383693
112	0xbd2fd171	-0.04292435
113	0x3da53c75	0.08068172
114	0xbd80b4e5	-0.06284503
115	0x3a9f4abd	0.0012153011
116	0xbda2e4d9	-0.079538055
117	0x3d71208b	0.058868926
118	0xbe590ba8	-0.21195853
119	0xbd23710b	-0.039902728
120	0x3d645c9d	0.055752385
121	0xbdb7f3a5	-0.089820184
122	0xbe125d17	-0.14293323
123	0xbcf3e90c	-0.029774211
124	0x3e02bf43	0.12768273
125	0xbd822f21	-0.063566454
126	0x3e0506db	0.12990896
127	0xbdad9adb	-0.08476802
128	0xbca94f89	-0.020667808
129	0x3d97f1f2	0.07419194
130	0x3cd430df	0.02590221
131	0x3d84b3af	0.064795844
132	0x3d874faa	0.066069916
133	0xbda33212	-0.079685345
134	0x3d85fb2a	0.06542046
135	0xbd0693dd	-0.032855857
136	0x3d557ea7	0.05212274
137	0x3d19cf37	0.03755113
138	0x3dc650f6	0.09683411
139	0x3dfa8255	0.1223189
140	0xbd8eb2f6	-0.06967728
141	0xbd2427ed	-0.04007714
142	0x3dfb6b9f	0.122763865
143	0x3d92bbf8	0.071647584
144	0x3db08b18	0.0862028
145	0x3c94ce58	0.018164799
146	0x3d6301a8	0.0554215
147	0xbb9a609f	-0.004711225
148	0xbbec1183	-0.007204236
149	0x3d14bdfc	0.036313996
150	0xbd283e11	-0.041074816
151	0x3d90deae	0.07073723
152	0x3e1315e2	0.14363816
153	0xbbd73005	-0.0065670037
154	0x3e04398b	0.12912576
155	0x3d899009	0.06716926
156	0xbd61832b	-0.055056732
157	0xbb69a9a7	-0.00356541
158	0xbd47f647	-0.048818853
159	0x3d2271c9	0.039659295
160	0x3e16fc8d	0.14744778
161	0xbd116b0d	-0.035502482
162	0x3d4c75fd	0.04991721
163	0xbd4681f0	-0.04846376
164	0xbdd2da56	-0.102955505
165	0x3d90712d	0.070528366
166	0x3d160177	0.03662249
167	0x3dfa6896	0.122269794
168	0x3cb2cd05	0.021826277
169	0xbda7e999	-0.08198852
170	0x3d8b38cf	0.06797945
171	0x3d3c0f65	0.04591312
172	0x3c7b52aa	0.015339533
173	0x3dc42794	0.095778614
174	0xbe35bddf	-0.17748211
175	0xbe1031ac	-0.14081448
176	0x3ccd9040	0.025093198
177	0x3d4ea3a4	0.05044903
178	0xbe1cd748	-0.15316498
179	0x3d6480f3	0.055787038
180	0xbd46b1f8	-0.048509568
181	0xbd375224	-0.04475607
182	0x3d1b69ec	0.03794281
183	0x3def6b83	0.11690428
184	0xbd6cf518	-0.057850927
185	0x3d8e3a9a	0.06944771
186	0xbd53d499	-0.05171642
187	0xbe1a8f2d	-0.1509368
188	0x3ce5dcfa	0.028059471
189	0x3db2714c	0.08713016
190	0x3e445f70	0.19177032
191	0xbc4de8d8	-0.012567721
192	0xbda9ff26	-0.08300619
193	0x3cb604a2	0.022219006
194	0x3db13819	0.08653278
195	0xbd29725a	-0.04136882
196	0x3c603540	0.013684571
197	0xbe00d99e	-0.12583014
198	0x3e2a3ce6	0.16624793
199	0x3ce2d1ac	0.02768787
200	0x3d493b92	0.049129076
201	0x3e41a73f	0.18911456
202	0x3d6f7566	0.05846157
203	0xbe3b36f4	-0.18282682
204	0xbcd8c3c7	-0.026460541
205	0xbe5d7be2	-0.21629289
206	0xbccb0533	-0.024782753
207	0xbbfc4f0f	-0.007699854
208	0xbd85539b	-0.06510087
209	0x3d51c467	0.051212694
210	0x3d979fc8	0.07403523
211	0xbe036864	-0.1283279
212	0xbd6352f9	-0.05549905
213	0x3db8d5e0	0.090251684
214	0xbdfb1d49	-0.12261445
215	0x3d1d75e4	0.038442507
216	0x3d805f78	0.06268209
217	0x3b866b1d	0.0041021244
218	0x3c08297c	0.008310672
219	0x3cc30a3a	0.023808587
220	0x3c00eaac	0.00786845
221	0x3d286bc6	0.041118406
222	0xbc2d1054	-0.010562975
223	0xbd78d439	-0.060749266
224	0xbd8c9b1c	-0.06865522
225	0x3db0ff40	0.08642435
226	0xbccd7ad0	-0.025082976
227	0xbd04487e	-0.032295696
228	0x3cecac56	0.02889077
229	0x3d59cf5f	0.05317628
230	0xbb094025	-0.0020942774
231	0x3d90ea17	0.07075899
232	0xbd8e560b	-0.06950005
233	0x3cb2b205	0.021813402
234	0x3c5701a3	0.013122949
235	0xbd3342dd	-0.043764938
236	0x3bad57a7	0.00528999
237	0xbcd702d0	-0.026246458
238	0x3cb27cd2	0.021788035
239	0x3d8eda73	0.0697526
240	0xbdae12e2	-0.08499695
241	0x3dd6b802	0.104843155
242	0xbdf34982	-0.11879255
243	0x3d82bfd5	0.06384245
244	0xbe3e0958	-0.18558252
245	0x3be69a5e	0.007037445
246	0x3bfec7ba	0.007775274
247	0xbdb59a08	-0.0886727
248	0xbd0823de	-0.03323733
249	0xbd8db21d	-0.06918738
250	0x3c3c1ab3	0.011480975
251	0x3c6d8a68	0.014498331
252	0xbd64f289	-0.055895362
253	0xbd30a5ba	-0.0431268
254	0xbd308f03	-0.043105137
255	0x3ccbeaff	0.024892328

network_body.linear_encoder.seq_layers.0.bias f4 [216]
0	0xbb2393a4	-0.0024959827
1	0x3caf0dab	0.021368822
2	0x3cdf2df4	0.027243592
3	0x3d2612f9	0.040545437
4	0x3d2ea2f6	0.04263588
5	0xbd261a09	-0.040552173
6	0x3c849ca0	0.016187966
7	0xbcff7329	-0.031182842
8	0xbcec1ff3	-0.028823828
9	0xbc9a173d	-0.018809909
10	0xbd22369c	-0.03960286
11	0xbd3adb4f	-0.045619305
12	0x389b6503	7.409791e-05
13	0xbc69a203	-0.014259818
14	0xbd073da1	-0.03301776
15	0x3bcc02f8	0.00622594
16	0x3b3efe4c	0.0029143272
17	0x3b046c92	0.0020206315
18	0xbd013e8c	-0.03155379
19	0x3d9e129e	0.07718395
20	0xbc17f641	-0.00927502
21	0xbcd10cb4	-0.025518753
22	0x3d087308	0.033312827
23	0xbd88c1f9	-0.06677622
24	0xbd3488cf	-0.044075783
25	0xbd0f152b	-0.034932297
26	0xbdbf521e	-0.093418345
27	0x3d94577e	0.0724325
28	0xbcccbcd0	-0.024992377
29	0x3c8d74bf	0.017267583
30	0x3d72ae34	0.059248164
31	0xbc0ab08b	-0.008464943
32	0xbd7f389f	-0.062309857
33	0xbd5bd795	-0.053672392
34	0x3d452874	0.048134282
35	0x3c3ed1f1	0.011646734
36	0xbcb65ded	-0.022261584
37	0xbdbc9aba	-0.09209199
38	0xbd5cb134	-0.05387993
39	0xbcfba40c	-0.030717872
40	0x3d45e6f5	0.04831596
41	0x3d23911c	0.03993331
42	0xbc98ddde	-0.018660482
43	0xbd157657	-0.03648981
44	0x3bffee28	0.007810373
45	0xbd41a469	-0.047275934
46	0xbd97ddae	-0.07415329
47	0xbc116fb0	-0.008876726
48	0xbcf80cd2	-0.03027955
49	0xbd03666b	-0.032080095
50	0x3c3c9f96	0.011512658
51	0x3e0c52ca	0.13703457
52	0x3cfb8250	0.030701786
53	0x3b3d96f7	0.0028929093
54	0xbc0d00cb	-0.008606146
55	0xbc2592ce	-0.010105802
56	0xbd8666cb	-0.06562575
57	0xbd8a8d67	-0.067652516
58	0x3c8077cc	0.015682124
59	0xbd341b00	-0.04397106
60	0xbba927dc	-0.0051622223
61	0x3c6026d5	0.013681133
62	0xbd6dbec6	-0.058043264
63	0xbcfe06e7	-0.03100915
64	0xbd2be6ab	-0.04196803
65	0xbce51d96	-0.02796821
66	0xbbf8f5b0	-0.0075976476
67	0xbb890185	-0.0041810893
68	0xbce816c9	-0.028331177
69	0xbc81403b	-0.015777698
70	0xbd59f589	-0.053212676
71	0x3ba6724e	0.005079544
72	0xbc62a420	-0.013833076
73	0xbcd5b2f1	-0.026086302
74	0xbd1e2944	-0.038613573
75	0xbbb807f6	-0.0056161834
76	0x3d5930cf	0.053025063
77	0x3ceea635	0.029131988
78	0x3d1291f4	0.035783723
79	0xbb185a78	-0.0023247283
80	0xbb0603cf	-0.0020449047
81	0x3d3d7af0	0.04625982
82	0x3c32508f	0.0108834645
83	0x3c5208cd	0.012819481
84	0x3cc0e277	0.023545487
85	0x3d04e5a8	0.03244558
86	0xbc65fe47	-0.014037675
87	0xbd0ad540	-0.033894777
88	0x3d8a4e6f	0.06753241
89	0xbd2e2675	-0.042517144
90	0x3c5f7fc9	0.013641306
91	0x3d5ffff4	0.054687455
92	0x3bb4a2fa	0.0055125924
93	0xbd52f55c	-0.051503524
94	0xbc9e6df5	-0.019339541
95	0xbcb6ba9b	-0.022305777
96	0xbab563dd	-0.0013838966
97	0x3d97c91e	0.07411407
98	0xbceb097f	-0.028691052
99	0x3d69c204	0.057069793
100	0xbc8b9d77	-0.017042859
101	0x3cb2dd82	0.021834139
102	0xbd9aede7	-0.075649075
103	0x3cf1ee8b	0.029532691
104	0xbc362b21	-0.011118681
105	0xba4fc1ef	-0.00079253217
106	0xbd90ded6	-0.070737526
107	0xbbbebc87	-0.005820814
108	0x3c9d211f	0.019180832
109	0x3d9d495d	0.076800086
110	0xbb672f82	-0.003527612
111	0x3ce239f2	0.027615521
112	0xbd80bd6e	-0.06286131
113	0xbc454e5f	-0.012042611
114	0x3cac55a8	0.021036938
115	0xbc7c4c9a	-0.015399123
116	0x3be5f02b	0.0070171556
117	0x3d2ecd5a	0.042676307
118	0x3bcee1c6	0.0063135354
119	0xbcee92a5	-0.02912266
120	0x3d813299	0.06308479
121	0xbcb1c77f	-0.021701572
122	0xbcb04d31	-0.021521183
123	0xbd081152	-0.033219643
124	0x3d418eef	0.047255453
125	0xbd4a9791	-0.04946095
126	0x3bbe372d	0.0058049173
127	0xbd2295fc	-0.039693817
128	0xbb5590a6	-0.0032587438
129	0xbcf0b473	-0.02938292
130	0xbcdf0b57	-0.027227087
131	0x3b7a72ca	0.0038215392
132	0x3c575ff0	0.013145432
133	0x3cee9348	0.029122964
134	0xbd06f172	-0.032945104
135	0xbdb3ee7f	-0.08785724
136	0xbdbdbbcd	-0.09264336
137	0x3cd61210	0.02613166
138	0xbcd41aff	-0.025891779
139	0x3bcc7953	0.006240049
140	0xbcdc5228	-0.026894644
141	0x3d96cd3e	0.073633656
142	0xbc946303	-0.018113619
143	0xbd4ac95d	-0.04950844
144	0xbd09ed77	-0.03367373
145	0xbd90f6d1	-0.070783265
146	0xbd5a27a4	-0.05326046
147	0xbd8594c4	-0.065225154
148	0x3d18de65	0.037321467
149	0xbd5f57ae	-0.054526977
150	0xbd63f758	-0.055655807
151	0x3d3dc454	0.04632981
152	0xbd61c920	-0.05512345
153	0xbd5f80bc	-0.05456613
154	0xbce604d6	-0.028078478
155	0xbdaba0ca	-0.083802775
156	0x3c812fcc	0.015769862
157	0x3d99e2fd	0.07513998
158	0x3c2331c9	0.0099606
159	0xbb73824a	-0.0037156516
160	0xbd168ddb	-0.036756378
161	0x3bc4998d	0.00599975
162	0x3d6467fb	0.055763226
163	0xbcdae6d1	-0.02672139
164	0x3c2b4c49	0.0104551995
165	0x3b472bba	0.0030391053
166	0xbcc15fd3	-0.023605263
167	0xbd2f10d6	-0.042740665
168	0xbd022559	-0.0317739
169	0xbca8e15e	-0.020615276
170	0x3cb20c66	0.021734428
171	0x3dcb00be	0.09912251
172	0xbd8ffaa3	-0.07030227
173	0x3d68e7be	0.05686163
174	0xbd86cc9a	-0.065819934
175	0x3cc9ab61	0.024617853
176	0xbdb2c440	-0.08728838
177	0x3c0d7622	0.008634122
178	0x3d99410e	0.07483111
179	0x3bdd57ba	0.0067548426
180	0x3d268e19	0.04066286
181	0xbda7e2bd	-0.08197544
182	0xbc66a33d	-0.014077005
183	0xbab2b6dd	-0.001363482
184	0xbb7a6160	-0.0038205013
185	0xbc9df5fe	-0.019282337
186	0xbd8129ed	-0.06306825
187	0xbd783700	-0.060599327
188	0xbd20607f	-0.039154526
189	0xbc147af0	-0.009062514
190	0xbd85eb98	-0.065390766
191	0xbd120cf9	-0.035656903
192	0xbd6f2423	-0.058384072
193	0xbc182078	-0.009285085
194	0x3cf55cf5	0.029951552
195	0xbcb2bce9	-0.021818595
196	0xbd2f0c54	-0.042736366
197	0x3d58f6c1	0.052969698
198	0xbce5a112	-0.028030906
199	0x3c3a8be7	0.011385894
200	0x3d0d3151	0.03447086
201	0x3d265605	0.04060938
202	0x3d39f2f2	0.045397706
203	0xbbfc6640	-0.007702619
204	0xbdbf7e62	-0.093502775
205	0xbcf0c0dc	-0.029388838
206	0xbd0a1429	-0.033710632
207	0x3d861fbd	0.06549022
208	0xbb9fb06e	-0.004873327
209	0xbdbdcb71	-0.09267319
210	0xbb5e79cd	-0.003394711
211	0x3c9eac53	0.01936928
212	0xbd2516fe	-0.04030513
213	0xbd2aeb3b	-0.04172824
214	0xbd0c1276	-0.034197293
215	0xbcb49158	-0.022041962

network_body.linear_encoder.seq_layers.0.weight f4 [216, 121]
0	0x3d2586ab	0.040411633
1	0x3bd43a54	0.00647668
2	0x3da99dfb	0.082820855
3	0x3d012747	0.0315316
4	0x3e216d3a	0.15764323
5	0xbde3d6f0	-0.111249804
6	0xbc033b8b	-0.008009802
7	0x3c7a0595	0.01526012
8	0x3e636e3a	0.22210017
9	0x3ea049b3	0.31306228
10	0x3c882e60	0.016623676
11	0xbdcd544c	-0.10025844
12	0x3dba4cdc	0.09096691
13	0x3ced8d13	0.028997933
14	0x3c875c9e	0.016523656
15	0xbe7ab87a	-0.24484435
16	0xbde1b78e	-0.110213384
17	0x3c97bc4c	0.018522404
18	0x3d9f1c39	0.07769055
19	0xbdd6f3cc	-0.10495719
20	0x3e8e2b62	0.27767473
21	0xbe510544	-0.20412165
22	0xbcae0399	-0.02124195
23	0x3db017bb	0.08598276
24	0xbdd45cfe	-0.10369299
25	0xbea8bd92	-0.3295713
26	0xbe2980e7	-0.16553079
27	0xbe089735	-0.13338931
28	0x3da80b8f	0.082053296
29	0x3ec63d2c	0.38718545
30	0xbc09f1d5	-0.008419474
31	0xbe70bb08	-0.23508847
32	0xbe21f1cc	-0.15814894
33	0xbe0a8076	-0.13525566
34	0xbe2072bb	-0.15668766
35	0x3d99d0cc	0.07510528
36	0xbe4e18ad	-0.201266
37	0x3cc0e2f0	0.023545712
38	0xbc09f17b	-0.00841939
39	0x3d7d16db	0.061789375
40	0xbd813336	-0.06308596
41	0xbd4f9d40	-0.050687075
42	0xbd037bb8	-0.03210041
43	0xbe36a4e2	-0.17836335
44	0xbd8607a6	-0.065444276
45	0x3e929c55	0.28634897
46	0xb9af8847	-0.00033480136
47	0xbdebc64a	-0.1151243
48	0xbdf77af3	-0.120839976
49	0xbcbf146f	-0.023325173
50	0xbc9c0b4d	-0.019048357
51	0x3dcea9bb	0.10090967
52	0xbe813e03	-0.25242624
53	0xbd16cca2	-0.036816247
54	0x3da4d76b	0.080489
55	0xbd43437c	-0.04767178
56	0xbc849624	-0.016184874
57	0xbe9bb638	-0.3041246
58	0xbe1278a3	-0.14303832
59	0xbdf37212	-0.118869916
60	0xbd29481c	-0.041328534
61	0x3dd584c3	0.10425713
62	0xbbf14a82	-0.0073636184
63	0x3e548c5e	0.20756671
64	0xbe6dbcbd	-0.23216529
65	0xbe3641ce	-0.1779854
66	0xbe77f22f	-0.2421348
67	0xbda35232	-0.07974662
68	0xbd4251dc	-0.04744135
69	0xbcc5e484	-0.024156816
70	0x3e4216e5	0.18954046
71	0x3bf7495e	0.007546588
72	0x3e593336	0.21210942
73	0xbd63a9c3	-0.05558182
74	0xbd9913f2	-0.074745074
75	0xbe4ece29	-0.20195831
76	0x3e3f198a	0.18662086
77	0x3c83f4a8	0.016107872
78	0xbe44b72d	-0.19210501
79	0xbe138d29	-0.14409317
80	0x3df54622	0.119762674
81	0xbe24a714	-0.1607936
82	0x3e70b95b	0.23508207
83	0x3b1025ef	0.0021995266
84	0x3baf10af	0.005342565
85	0xbd54ad96	-0.051923357
86	0x3e1ab3ad	0.15107603
87	0x3e1036d4	0.14083415
88	0xbe665f18	-0.22497213
89	0x3e02696b	0.12735526
90	0x3d98a12b	0.07452615
91	0x3d9879b2	0.074450865
92	0xbe06be7a	-0.13158599
93	0x3dba8876	0.09108059
94	0x3c69245d	0.014229861
95	0xbdce0091	-0.10058702
96	0x3c466c1c	0.012110736
97	0x3d0066fa	0.031348206
98	0xbe1c0121	-0.15234806
99	0x3dc45cd5	0.09588019
100	0x3e1479db	0.14499609
101	0x3d9f6391	0.07782663
102	0x3d5108ec	0.0510339
103	0xbe0adb22	-0.13560155
104	0x3de49b8c	0.11162481
105	0x3d19410d	0.037415553
106	0x3e2a3651	0.16622283
107	0x3ddbed75	0.10738651
108	0x3e3ba753	0.18325548
109	0x3cc2e15e	0.023789104
110	0xbe018fb5	-0.12652476
111	0x3e097e38	0.13427055
112	0x3de92174	0.11383334
113	0xbd3d3918	-0.046197027
114	0xbe05e130	-0.13074183
115	0x3dd81775	0.10551349
116	0xbacd989c	-0.001568574
117	0x3de14a0f	0.11000454
118	0x3e4e3f5a	0.20141354
119	0xbe179796	-0.14803919
120	0x3daf70fb	0.08566471
121	0xbe2df5b1	-0.16988255
122	0xbd8059d8	-0.06267136
123	0xbdcad2d8	-0.099034965
124	0xbd082f66	-0.033248328
125	0xbe422a00	-0.18961334
126	0x3e059cfe	0.13048169
127	0x3df38a73	0.118916415
128	0xbda7c54f	-0.081919305
129	0xbbed4c77	-0.0072417813
130	0x3d004716	0.031317793
131	0xbd9ef043	-0.0776067
132	0xbd7c24c3	-0.061558496
133	0xbe9c0f6e	-0.30480522
134	0x3d2c5354	0.042071655
135	0x3c6685ce	0.014069987
136	0xbd425c42	-0.047451265
137	0xbe5aad33	-0.21355133
138	0xbc75b541	-0.014996828
139	0xbea317a2	-0.31853968
140	0x3e218da2	0.15776685
141	0x3e1d7025	0.15374811
142	0xbcabb93c	-0.02096235
143	0xbdee4fa0	-0.11636281
144	0x3df4e0f7	0.11956971
145	0x3da2aea5	0.07943467
146	0xbe09eee0	-0.1347003
147	0xbde4f7b0	-0.11180055
148	0x3c580215	0.01318409
149	0x3e9502fb	0.29103836
150	0x3e37f630	0.17965007
151	0xbda565a1	-0.08076025
152	0xbd5544a6	-0.05206742
153	0x3e1f2923	0.15543036
154	0x3c8f3be8	0.01748462
155	0xbdcc14d5	-0.09964911
156	0xbd4e1c46	-0.050319932
157	0x3e408d87	0.18803988
158	0xbe0dc6c4	-0.13845354
159	0x3e823df4	0.2543789
160	0xbdb04b23	-0.08608081
161	0xbd7b1db4	-0.061307624
162	0x3e2c4da5	0.16826494
163	0xbe46d08e	-0.19415495
164	0xbc3de2f2	-0.0115897525
165	0x3cd62a47	0.026143206
166	0x3ca5abb5	0.020223478
167	0x3e092b5c	0.13395447
168	0xbd0e2d53	-0.034711193
169	0xbda1ef5f	-0.079069845
170	0x3bce7239	0.0063002375
171	0xbe2a4c0f	-0.16630577
172	0x3cf2311f	0.029564438
173	0xbd22dfec	-0.03976433
174	0x3e917709	0.2841113
175	0x3e2ca102	0.16858295
176	0x3d747878	0.0596852
177	0xbddd7466	-0.10813217
178	0xbe3cac92	-0.18425205
179	0xbe3c304b	-0.18377797
180	0x3d926753	0.07148614
181	0xbe50b7a8	-0.2038256
182	0x3d3bf1c7	0.045884874
183	0x3e66ab63	0.22526316
184	0x3de8bf2e	0.1136459
185	0xbd8a7c00	-0.067619324
186	0xbe4ad393	-0.19807272
187	0xbe113bdc	-0.14182991
188	0xbe3036b2	-0.17208365
189	0xbe8120d1	-0.2522035
190	0xbe594179	-0.21216382
191	0x3e93e5bc	0.2888621
192	0x3c11d527	0.008900917
193	0xbe0be26e	-0.13660595
194	0x3d08d7ba	0.033408858
195	0x3d4cdac8	0.050013334
196	0xbc3e14bb	-0.011601622
197	0xbeb675de	-0.356368
198	0xbb76c567	-0.0037654282
199	0xbe0a9c2e	-0.1353614
200	0xbc676837	-0.014123968
201	0xbe8990b4	-0.26868212
202	0x3d7d18d7	0.061791267
203	0x3e4bc044	0.19897562
204	0x3cbd85e0	0.023135126
205	0xbd3274c7	-0.0435684
206	0x3db9584d	0.09050045
207	0xbc7cffad	-0.015441817
208	0x3de07b3a	0.109610036
209	0xbd188db4	-0.037244514
210	0x3e6eea45	0.23331554
211	0xbd9679d3	-0.07347455
212	0x3d60f725	0.054923195
213	0x3e89eb7c	0.26937473
214	0xbe7769ce	-0.24161455
215	0xbd1d56fe	-0.03841304
216	0x3c8eec61	0.017446699
217	0xbe62bb5a	-0.22141781
218	0xbce2ca5b	-0.027684381
219	0x3dc9ddab	0.09856733
220	0xbdd8ce25	-0.10586194
221	0xbe4c71d3	-0.19965295
222	0xbe0784fa	-0.1323432
223	0xbd9818f5	-0.07426635
224	0x3d24b005	0.040206928
225	0x3dc9a7e2	0.09846474
226	0x3e3c43b7	0.18385206
227	0xbc01e52a	-0.007928172
228	0x3a875a07	0.0010326513
229	0xbccfc7b3	-0.025363779
230	0x3bb81ffc	0.005619047
231	0xbd5f1ba1	-0.05446971
232	0x3d5db2c1	0.05412555
233	0x3c9c65a3	0.019091433
234	0x3e016f90	0.12640214
235	0xbe4041af	-0.18775056
236	0x3dcb34f5	0.0992221
237	0x3ca1008c	0.019653581
238	0xbec61f0a	-0.38695556
239	0xbde75dad	-0.11297164
240	0xbd343408	-0.043994933
241	0xba292e78	-0.0006453763
242	0x3d095067	0.033523943
243	0xbd90de50	-0.07073653
244	0xbe2cd51c	-0.1687817
245	0xbccd97ee	-0.02509686
246	0x3d293031	0.041305725
247	0x3e102bf1	0.14079262
248	0x3dc3a62b	0.095531784
249	0x3e3bb70c	0.18331546
250	0xbbc54741	-0.006020457
251	0x3e95b636	0.29240578
252	0x3e0b97cf	0.13632129
253	0x3d427e73	0.047483873
254	0xbda3e074	-0.080017954
255	0xbc7d1fb6	-0.015449455

network_body.linear_encoder.seq_layers.2.bias f4 [216]
0	0xbdc2b22c	-0.0950664
1	0xbe0c491d	-0.13699766
2	0x3d2ba161	0.04190195
3	0xbcde5d41	-0.027144076
4	0xbdf0a88e	-0.11750899
5	0x3d7a593a	0.06112025
6	0xbd29fdbc	-0.041501746
7	0xbb88abca	-0.0041708695
8	0xbd3ef2d4	-0.046618298
9	0xbdd4b64c	-0.10386333
10	0x3c733508	0.014844187
11	0xbce161c8	-0.027512446
12	0xbd64d7f5	-0.055870015
13	0xbd6dedaa	-0.058087982
14	0xbd682807	-0.056678798
15	0xbc12bf05	-0.008956675
16	0x3d2ac166	0.041688345
17	0xbd91ce77	-0.07119458
18	0xbd4d37f4	-0.05010219
19	0x3cfe343c	0.031030767
20	0x3d5b4f72	0.05354256
21	0x3c19af8a	0.009380231
22	0xbd59a2ac	-0.05313365
23	0xbc716b6f	-0.014735087
24	0xbd4bbbf7	-0.049739804
25	0xbc3400bc	-0.010986503
26	0x3d312147	0.043244626
27	0xbdcbf4ff	-0.09958839
28	0xbd474db3	-0.048658084
29	0x3d62ca40	0.055368662
30	0xbc414764	-0.011796806
31	0x3d91389c	0.070908755
32	0xbd6530eb	-0.055954855
33	0xbc3e2691	-0.011605875
34	0xbde5673d	-0.11201332
35	0xbd8d0978	-0.06886572
36	0xbbc5f38e	-0.006040997
37	0xbc234937	-0.009966186
38	0xbd08b73b	-0.033377867
39	0x3bf707b4	0.00753876
40	0x3b4a7a54	0.0030895667
41	0x3ba613e9	0.0050682914
42	0xbd2237b6	-0.03960391
43	0x3cc94b01	0.024571897
44	0xbdb5dd42	-0.08880092
45	0x3d1aa03d	0.03775047
46	0xbd171032	-0.03688068
47	0xbcd4ee7e	-0.025992628
48	0xbd5aaa47	-0.053385045
49	0xbc4bffd9	-0.012451136
50	0xbc8c70e9	-0.017143684
51	0x3d805aa5	0.06267289
52	0xbd80b509	-0.0628453
53	0xbcca0c2d	-0.024664009
54	0xbd585170	-0.05281204
55	0xbd30bb85	-0.043147583
56	0x3d1449b8	0.036203116
57	0x3c81d44b	0.0158483
58	0xbda4c043	-0.080444835
59	0x3d923eed	0.071409084
60	0xbd3fac88	-0.046795398
61	0x3d510659	0.051031444
62	0x3d9ef69c	0.07761881
63	0x3c036a32	0.008020924
64	0x3d7473ee	0.05968087
65	0xbddb6158	-0.10711926
66	0xbd23581d	-0.039878953
67	0x3cc0a778	0.023517355
68	0xbdfddd88	-0.12395769
69	0xbccf454d	-0.0253016
70	0xbd35c8cc	-0.044380948
71	0xbdca4f15	-0.09878365
72	0xbd1bb836	-0.038017474
73	0xbdcd5dd6	-0.100276634
74	0x3cabd930	0.020977587
75	0xbcf436a2	-0.029811207
76	0xbd10861f	-0.035284158
77	0xbd42de4c	-0.04757528
78	0xbd385b5d	-0.045009006
79	0xbdccd3ad	-0.100013115
80	0xbd8ffd65	-0.07030753
81	0x3d3b35d4	0.04570563
82	0xbd87b649	-0.06626565
83	0xbbca649e	-0.0061765453
84	0xbd8a9036	-0.06765787
85	0xbd651ac0	-0.055933714
86	0xbceed4d4	-0.029154219
87	0x3ce93553	0.02846781
88	0xbd418231	-0.0472433
89	0xbc78fe70	-0.015197381
90	0xbd5f8ee1	-0.05457962
91	0x3c93c164	0.018036552
92	0xbcc0d8a6	-0.023540806
93	0xbcb64a7f	-0.02225232
94	0x3da43198	0.08017272
95	0x3da0a54e	0.07844029
96	0x3c59223c	0.013252791
97	0xbda13922	-0.07872225
98	0xbd4a48a5	-0.049385685
99	0xbce8ef4c	-0.028434418
100	0x3cc9e195	0.024643699
101	0xbdb4f4e7	-0.08835774
102	0xbb81aed5	-0.003957609
103	0x3d11dd83	0.03561164
104	0xbda99dab	-0.08282026
105	0xbd1b20e7	-0.037873175
106	0xbba0caf0	-0.0049070045
107	0xbd1d8575	-0.038457353
108	0xbd9c5eb3	-0.0763525
109	0xbd4093b9	-0.04701588
110	0xbdfef972	-0.12449922
111	0x3cf0a835	0.029377082
112	0xbcaddba4	-0.021222897
113	0x3be25838	0.006907489
114	0xbd787d8d	-0.06066661
115	0xbd4a71c6	-0.04942491
116	0x3d97733f	0.07395028
117	0xbd9cd605	-0.076580085
118	0xbb380af3	-0.0028082698
119	0xbd7fdda8	-0.062467247
120	0xbdcbdea0	-0.09954572
121	0xbb16f3ec	-0.0023033572
122	0xbdcf69fb	-0.10127636
123	0xbbe1ec5d	-0.006894632
124	0xbc614a09	-0.0137505615
125	0xbd3f4adb	-0.046702247
126	0x3d07bfab	0.033141773
127	0xbd0aaf89	-0.03385881
128	0xbc2aace1	-0.010417194
129	0xbc02ac01	-0.007975579
130	0xbd13a67c	-0.036047444
131	0x3d15707e	0.036484234
132	0x3d726e2f	0.05918711
133	0x3b93069f	0.0044868733
134	0x3aeb540b	0.0017954124
135	0x3cd7090f	0.026249437
136	0xbc7f19ef	-0.015570148
137	0xbd316089	-0.043304954
138	0x3d3cb814	0.046073988
139	0x3d8e9c0d	0.06963358
140	0xbd45a1a0	-0.04824984
141	0xbe0b1f9f	-0.13586281
142	0xbd598539	-0.053105567
143	0xbd659f8b	-0.056060355
144	0xbdc46cec	-0.09591088
145	0x3db475e8	0.08811551
146	0xbdd96e94	-0.10616794
147	0xbd31e63b	-0.043432456
148	0xbd89d90f	-0.06730854
149	0xbcc5d853	-0.024151003
150	0xbd3eb007	-0.04655459
151	0x3d0b8518	0.034062475
152	0xbd3268fc	-0.043557152
153	0xbba9e5ec	-0.0051848795
154	0xbd10c5f7	-0.035345044
155	0x3cbe4144	0.02322448
156	0xbda3d0d2	-0.07998814
157	0x3d090ebf	0.03346133
158	0xbdbecf70	-0.09316909
159	0xbd0aafe8	-0.033859164
160	0xbb8bbc2b	-0.0042643747
161	0x3d2ffcbf	0.042965647
162	0xbccc3ebf	-0.024932263
163	0xbc904583	-0.01761127
164	0xbcce883d	-0.025211448
165	0x3c2cd2b4	0.010548282
166	0xbbdebf77	-0.0067977267
167	0x3ca605e6	0.020266484
168	0xbd82b63c	-0.06382415
169	0x3d833dc6	0.06408267
170	0xbc7bc9c5	-0.01536793
171	0x3b5eeb31	0.0034014697
172	0xbd3ed212	-0.046587057
173	0x3c5e92b3	0.0135847805
174	0x3d291a59	0.041284893
175	0xbd177486	-0.03697636
176	0xbe09de04	-0.13463598
177	0xbda8ee55	-0.08248583
178	0x3d32893e	0.043587916
179	0xbd4a39aa	-0.0493714
180	0xbd2b2d94	-0.041791514
181	0xbd2c42b1	-0.04205579
182	0xbd3cd123	-0.046097886
183	0xbd0523dd	-0.032504905
184	0xbcdbec0e	-0.026845958
185	0xbd8276ea	-0.06370337
186	0x3ce9e76e	0.028552737
187	0x3bbfda57	0.0058548856
188	0xbdb1a7d0	-0.08674586
189	0xbca683e5	-0.020326564
190	0x3d1ccdc1	0.03828216
191	0xbdc7f50a	-0.09763534
192	0x3d3e2d5e	0.046429984
193	0x3c2fa0a6	0.010719454
194	0x3d02b89a	0.03191433
195	0xbd602cd0	-0.054730237
196	0xbc5ca015	-0.013465901
197	0xbce69e65	-0.0281517
198	0xbe2b3d6b	-0.16722648
199	0x3d145e5d	0.036222804
200	0xbdbbfa89	-0.09178645
201	0xbdddaea1	-0.108243234
202	0xbdbc9f36	-0.092100546
203	0x3da3f7f4	0.08006278
204	0x3d5f092e	0.054452114
205	0xbc633370	-0.013867244
206	0xbd7f34de	-0.062306277
207	0x3be4f99d	0.006987764
208	0xbadd3f7e	-0.0016879884
209	0xbc96d3a7	-0.01841147
210	0xbd61218f	-0.054963645
211	0xbcc9461a	-0.02456956
212	0x3c908d57	0.017645521
213	0x3cd87ee9	0.026427703
214	0xbcd4f6a5	-0.025996516
215	0x3bc96b7c	0.0061468463
