Project/results/VPlayer-FirstButCorrected/VPlayer/VPlayer-3499996.onnx (onnx, 681794 bytes, 15 tensors)

action_model._continuous_distribution.mu.weight f4 [1, 216]
0	0xbc3d84cd	-0.011567307
1	0x3c4dba2f	0.012556597
2	0x3d8f886a	0.07008441
3	0xbc2e39b8	-0.010633878
4	0x3a8195e7	0.0009886593
5	0x3c08a4e4	0.008340094
6	0xbd0eb54e	-0.034840874
7	0x3d8c81ae	0.06860672
8	0xbbbd4f7b	-0.005777297
9	0xbd011fed	-0.031524587
10	0xbd9e2530	-0.07721937
11	0x3c26a256	0.01017054
12	0xbc5827a8	-0.013193049
13	0xbce6b481	-0.028162243
14	0x3d60e3b2	0.054904647
15	0x3c685925	0.01418141
16	0x3cc396bd	0.023875589
17	0x3cc3f359	0.023919748
18	0x3d9dc63a	0.07703824
19	0xbbe46186	-0.0069696335
20	0x3d52586b	0.051353853
21	0x3a02d33e	0.0004990584
22	0x3ce8298a	0.02834012
23	0xbc36f05c	-0.011165705
24	0x3d67f749	0.056632314
25	0xba6873ea	-0.000886737
26	0xbb5b77cb	-0.003348815
27	0x3d20db9a	0.03927193
28	0x3bef8ea7	0.0073107067
29	0x3c9ddbe7	0.019269897
30	0x3b912f39	0.004430678
31	0xbb5c1a2d	-0.0033584938
32	0x3cb22ec5	0.021750817
33	0x3c027f7d	0.007964966
34	0xbbeab3c6	-0.007162544
35	0x3ab3cf36	0.001371837
36	0xbd7b6b40	-0.06138158
37	0xbd1efe36	-0.038816653
38	0xbcee1a1f	-0.02906519
39	0xbbc3cd2c	-0.005975386
40	0x3c9b12dd	0.018929893
41	0x3c049142	0.008091273
42	0x3c877d29	0.016539173
43	0x3c2169cb	0.009851883
44	0xbc87e586	-0.016588937
45	0xbbd8cdfd	-0.0066163526
46	0xbc84b256	-0.016198318
47	0x3d287b78	0.041133374
48	0xbd91a511	-0.07111562
49	0x3b9874e5	0.004652607
50	0x3c6f3095	0.014598985
51	0xbcd86b59	-0.026418375
52	0xbcdec132	-0.027191732
53	0xbbbba044	-0.0057258923
54	0x3c364981	0.011125923
55	0xbd1d6546	-0.03842666
56	0xbaa1aa84	-0.0012334143
57	0x3ba86a70	0.0051396415
58	0xbc3c0515	-0.011475821
59	0xbcd3b926	-0.025845122
60	0xbb0ec037	-0.002178205
61	0x3ca880fd	0.020569319
62	0x3cac2e5f	0.021018205
63	0xba936f7d	-0.0011248436
64	0xbc3a1215	-0.01135685
65	0x3c41a6df	0.01181957
66	0x3d290b4d	0.041270543
67	0x3ce5a211	0.02803138
68	0xbc7b13fd	-0.01532459
69	0xbb337581	-0.002738327
70	0xbc251318	-0.010075353
71	0x3c83a7f2	0.016071294
72	0x3bfe0d50	0.007753052
73	0x3bea48ef	0.0071498076
74	0xb95e2f6a	-0.00021189233
75	0x3d81271f	0.0630629
76	0x3c0c2c00	0.008555412
77	0xbd3614b9	-0.044453356
78	0x3c99964f	0.01874843
79	0x3da0fe72	0.078610316
80	0xbd156851	-0.036476437
81	0xbd8d7091	-0.06906236
82	0x39f0fecf	0.00045966214
83	0xbb955486	-0.004557195
84	0x3d7dce46	0.061964296
85	0xbb963f12	-0.0045851553
86	0x3d397fb8	0.045287818
87	0xbd384d0c	-0.044995353
88	0xbc1e7420	-0.009671241
89	0xb9974cb6	-0.00028858118
90	0x3c696e52	0.014247494
91	0xbd5ea4cf	-0.054356392
92	0xbc3ca46a	-0.011513809
93	0xbb12483a	-0.0022320882
94	0x3ca6a34e	0.020341542
95	0xbb0bf046	-0.002135293
96	0xbb595626	-0.003316292
97	0x3c940541	0.018068912
98	0xbd2d668c	-0.042334124
99	0x3c7949b5	0.015215327
100	0x3d671084	0.056412235
101	0x3d000bea	0.031261362
102	0x3b6df182	0.003630728
103	0xbce20165	-0.027588556
104	0xbcf5e78d	-0.030017639
105	0xbb81009f	-0.0039368416
106	0x3c8fb22b	0.017541012
107	0x3bc546fa	0.006020424
108	0x3c39919d	0.011326221
109	0xbd95da88	-0.07317072
110	0xbcc91d9b	-0.02455025
111	0x3c001dfb	0.007819648
112	0x3c0cb25e	0.008587448
113	0x3d4e5241	0.050371412
114	0xbce06331	-0.027391048
115	0xbd0d6676	-0.034521542
116	0x3aeaab8e	0.001790391
117	0xbc8b3814	-0.016994514
118	0x3c816655	0.015795866
119	0x3ba87b53	0.0051416545
120	0x3d35b23c	0.04435943
121	0x3b4cc2e3	0.0031244091
122	0x3b9b39ac	0.0047370996
123	0xbd1d27b7	-0.038367953
124	0x3742e749	1.1617151e-05
125	0x3c2af0b3	0.010433364
126	0xbc76b8a7	-0.015058673
127	0x3a1e4bb5	0.0006038503
128	0xbcc5a5fe	-0.024127003
129	0x3d72fcf8	0.05932328
130	0x3d6b1db4	0.057401374
131	0xbb102078	-0.002199201
132	0xbd872234	-0.065983206
133	0x3d04b969	0.032403383
134	0xbb2d143e	-0.002640977
135	0x3ccaf2d2	0.024773989
136	0x3c5bf9ca	0.013426254
137	0x3c0d7bdb	0.0086354865
138	0x3ce8a5d4	0.028399386
139	0xbc721b7c	-0.014777061
140	0x3d5373a1	0.051623944
141	0x3d55d660	0.052206397
142	0x3ce18f31	0.0275341
143	0x3d41f493	0.047352385
144	0x3d2f2a5b	0.042765003
145	0x3d4a3c12	0.049373694
146	0xbdddeb62	-0.10835911
147	0x3c1d54c2	0.009602727
148	0xbc01f143	-0.007931056
149	0x3bf3b386	0.0074371723
150	0xbbb51440	-0.0055260956
151	0xba424ffc	-0.00074124313
152	0x3cf07587	0.029352916
153	0x3c5f168f	0.013616218
154	0xbc755b32	-0.014975356
155	0x3cb04558	0.02151744
156	0xbc6ebc97	-0.0145713305
157	0xba67a350	-0.0008836286
158	0x3b20f940	0.0024562627
159	0xbc08205c	-0.008308496
160	0xbbb6d590	-0.005579658
161	0x3c78a6d5	0.015176495
162	0x3c830c10	0.015996963
163	0xbbb8f2b0	-0.005644165
164	0x3cf0a706	0.029376518
165	0xbd6625b8	-0.056188315
166	0x3d2a8d79	0.041638825
167	0x3b96f1a0	0.0046064407
168	0x3d2a8227	0.04162803
169	0xbd6c81ce	-0.05774098
170	0x3abc66ee	0.0014373937
171	0x3ca90f9f	0.020637332
172	0x3c3816ab	0.011235873
173	0xbd3e998c	-0.046533152
174	0x3a4ee91b	0.0007893012
175	0x3c11840d	0.008881581
176	0xbd2c080a	-0.041999854
177	0x3c266586	0.010156041
178	0x3c744afb	0.014910455
179	0x3c21fb50	0.009886578
180	0xbd5fa890	-0.054604113
181	0xbc0ca129	-0.008583345
182	0x3d1fccf2	0.03901381
183	0x3c0a3243	0.008434835
184	0xbbfb77f6	-0.0076742126
185	0x3cc61198	0.024178311
186	0xbdf5b292	-0.1199695
187	0xbd1ec471	-0.03876156
188	0x3d8b5a80	0.06804371
189	0x3d9124a1	0.070870645
190	0x3c2552c9	0.010090538
191	0xbd0a56af	-0.033774074
192	0x3d2bf750	0.041983902
193	0x3d0750a7	0.0330359
194	0x3c4b4184	0.012405757
195	0xbcdabba8	-0.02670081
196	0xbd90b4ff	-0.07065772
197	0xbc1dde0e	-0.0096354615
198	0x3cc1cd46	0.023657452
199	0xb8d2325b	-0.0001002296
200	0xbb529166	-0.0032130121
201	0xbc87aa2f	-0.016560642
202	0x3cabcf0d	0.020972753
203	0x3c85560f	0.016276387
204	0x3d06c2a2	0.03290046
205	0xbc154eb0	-0.009112999
206	0x3c8f2b1a	0.017476607
207	0x3bc78610	0.0060889795
208	0xbbd6efd3	-0.006559351
209	0x3c8062d1	0.01567212
210	0xbc9258c8	-0.0178646
211	0xbd993a68	-0.07481843
212	0xbd1df183	-0.0385604
213	0xbbd65797	-0.0065412032
214	0xbd071d59	-0.032986972
215	0xbde90d47	-0.113794856

action_model._discrete_distribution.branches.0.bias f4 [3]
0	0x3d4b8ca6	0.04969468
1	0xbe1ebd04	-0.15501791
2	0x3dc019a3	0.0937989

action_model._discrete_distribution.branches.0.weight f4 [3, 216]
0	0x3d0f68fc	0.03501223
1	0xbd15d090	-0.036575854
2	0xbd2abfe0	-0.041686893
3	0xbd373b9a	-0.044734575
4	0x3d592b63	0.053019892
5	0x3b8649dc	0.00409816
6	0xbca808df	-0.020512043
7	0x3d7a1eb0	0.061064422
8	0x3dc1a5cf	0.094554536
9	0x3d12f353	0.035876583
10	0x3dc2cc1d	0.09511588
11	0x3def57cc	0.11686668
12	0x3d24145e	0.040058486
13	0xbc813171	-0.015770646
14	0x3d27be4f	0.040952977
15	0xb9f86392	-0.00047376432
16	0x3deb8f06	0.11501889
17	0xbe055c8f	-0.1302359
18	0x3d858d90	0.065211415
19	0xbc976295	-0.018479625
20	0xbd4de262	-0.050264724
21	0x3cbb8a51	0.022893103
22	0xbdeca56b	-0.115549885
23	0xbd6d3f26	-0.05792155
24	0x3da8136c	0.082068294
25	0xbdda87d4	-0.106704384
26	0xbb005671	-0.0019582773
27	0xbd8aed04	-0.067834884
28	0x3df37017	0.11886614
29	0xbdb0201f	-0.085998766
30	0xbdccc4ce	-0.09998475
31	0xbd73dedb	-0.059538703
32	0x3d64d87e	0.055870526
33	0xbb8a84b0	-0.0042272434
34	0x3d26cde9	0.040723715
35	0x3d94f239	0.07272763
36	0x3d4940bb	0.049133997
37	0xbd470f93	-0.048598837
38	0xbd34d34f	-0.044146832
39	0x3d066500	0.032811165
40	0x3db402e4	0.08789614
41	0xbd1335b1	-0.035939876
42	0xbd6243a4	-0.05524029
43	0x3cd69653	0.026194727
44	0xbe3fea9c	-0.1874184
45	0x3d2619a6	0.040551804
46	0xbccfe1e1	-0.025376262
47	0xbd69ef9f	-0.057113286
48	0xbafd818c	-0.0019340976
49	0xbdcd4fd9	-0.10024995
50	0xbd208d29	-0.03919712
51	0x3db2ee88	0.087369025
52	0xbda01cde	-0.07818006
53	0x3da04bf6	0.078269884
54	0xbcec835f	-0.028871236
55	0xbd48d2f4	-0.049029306
56	0xbddbfdca	-0.10741766
57	0x3cbae074	0.022812106
58	0xbb497208	-0.0030738134
59	0x3b28329f	0.0025664938
60	0x3c12d1c7	0.008961148
61	0x3e1c95be	0.15291497
62	0x3da18cc2	0.078881755
63	0x3d95f81a	0.07322712
64	0xbd0eb16d	-0.034837175
65	0x3c39463b	0.011308248
66	0x3d7f8f70	0.062392652
67	0xbccd8234	-0.0250865
68	0x3c3b52b5	0.011433293
69	0xbc499572	-0.012303697
70	0x3d839ba3	0.0642617
71	0xbccfdf90	-0.025375158
72	0xbd05e53e	-0.032689326
73	0xbc1b9b9b	-0.009497548
74	0x3d1bbcd2	0.03802187
75	0x3c794e3c	0.015216406
76	0x3d69c48c	0.057072207
77	0xbd1e0794	-0.038581446
78	0xbd78551e	-0.06062805
79	0xbd92fa4e	-0.07176648
80	0xbc8c204c	-0.017105244
81	0x3dd787de	0.105239615
82	0xbc871e77	-0.016494019
83	0x3d9a8322	0.07544543
84	0x3c5c337b	0.013440008
85	0x3d90ea5e	0.07075952
86	0x3da1e3b5	0.0790476
87	0xbd18dd04	-0.037320152
88	0xbdcc3e67	-0.0997284
89	0xbc2e8844	-0.010652605
90	0x3d3b6b82	0.045756824
91	0xbd1d46c7	-0.038397577
92	0x3da233c2	0.07920028
93	0x3ca8b59a	0.020594407
94	0xbe03a674	-0.12856466
95	0x3d306a08	0.04306987
96	0xbd09de03	-0.033658992
97	0xbc1f00a0	-0.009704739
98	0xbd305865	-0.04305305
99	0xbd5cb372	-0.05388207
100	0xbdbb2a1a	-0.091388896
101	0x3d0f3add	0.034968246
102	0x3d589c9a	0.052883722
103	0x3bb46a91	0.005505868
104	0xbd878730	-0.06617582
105	0xbe0f3f17	-0.1398891
106	0xbc881c6f	-0.01661512
107	0xbb00f814	-0.0019679116
108	0x3d7256b5	0.05916472
109	0xbc0f3d2a	-0.00874261
110	0x3e06855f	0.13136815
111	0xbc808adc	-0.015691213
112	0x3d271ace	0.040797047
113	0xbc9768c3	-0.018482571
114	0x3d1c8ef9	0.038222287
115	0x3d1db384	0.038501278
116	0xbce363f2	-0.027757619
117	0xbe214f94	-0.15753013
118	0x3cb9f6ac	0.02270063
119	0xbc0209f6	-0.007936945
120	0x3d8f7e9e	0.07006572
121	0x3cfd8c25	0.030950615
122	0xbd44e312	-0.048068114
123	0x3bd4c0fb	0.0064927316
124	0x3e1edf2b	0.1551482
125	0xbe181313	-0.14851026
126	0xbcc897ea	-0.0244865
127	0xbe08a5b2	-0.13344458
128	0xbc595298	-0.013264321
129	0xbde642a9	-0.11243183
130	0x3cc0f18f	0.023552684
131	0xbd76541c	-0.060138807
132	0x3c8f142f	0.017465679
133	0xbccbe439	-0.024889098
134	0xbd655fa5	-0.055999417
135	0xbca2af30	-0.019858927
136	0xbc90ad65	-0.017660806
137	0xbc98d8eb	-0.018658122
138	0xbdf1a5fb	-0.117992364
139	0xbe224d5e	-0.15849826
140	0xbd2d7e46	-0.04235675
141	0xbd30f98e	-0.043206744
142	0xbd2c0b9e	-0.042003267
143	0xbc61cf60	-0.013782352
144	0xbc7f2b70	-0.015574321
145	0x3df12102	0.11773874
146	0xbc9d6448	-0.019212857
147	0x3dd89ad7	0.10576408
148	0xbbdf8de6	-0.0068223355
149	0xbbf2ac6d	-0.0074058087
150	0x3e61ed0a	0.2206308
151	0xbd8dfa07	-0.069324546
152	0x3c26d971	0.010183678
153	0xbdaac905	-0.08339123
154	0xbb3f212d	-0.0029164061
155	0x3dc91f68	0.098204434
156	0xbccdacd3	-0.025106823
157	0xbe02028a	-0.12696281
158	0xbd87357b	-0.066019975
159	0xbdb0565f	-0.08610224
160	0x3d11956c	0.03554289
161	0xbd81d328	-0.06339103
162	0x3d8b96c9	0.06815869
163	0xbd10d574	-0.035359815
164	0xbdb37449	-0.08762414
165	0xbcbb52d6	-0.022866648
166	0x3d8cf0c7	0.06881862
167	0x3d9177ed	0.07102952
168	0xbdd5cde8	-0.10439664
169	0x3cb9055a	0.02258556
170	0x3da95fdf	0.08270239
171	0x3a1d9d84	0.00060125464
172	0xbddf0707	-0.10890012
173	0x3d8eeafe	0.06978415
174	0xbc2bd05f	-0.010486691
175	0x3d243e37	0.040098395
176	0xbd62981e	-0.05532085
177	0x3da108d7	0.07863014
178	0x3d3eebac	0.046611473
179	0x3c9c4908	0.019077793
180	0xbd409e9d	-0.047026265
181	0xbce73acd	-0.02822628
182	0xbdbfda18	-0.0936777
183	0xbda2f772	-0.07957353
184	0xbcec5c1b	-0.028852513
185	0xbd7ee552	-0.062230416
186	0x3cd3babd	0.02584588
187	0xbc913c20	-0.017728865
188	0x3d32e5a1	0.043676022
189	0xbc0ca109	-0.008583316
190	0x3cbbc768	0.022922233
191	0x3dc547ff	0.09632873
192	0xbdf3431d	-0.11878035
193	0x3d9e1607	0.07719045
194	0xbdf39296	-0.118931934
195	0xbd91bf97	-0.07116621
196	0x3bbf7a88	0.0058434643
197	0x3c93dd7d	0.01804995
198	0x3d753c57	0.059871998
199	0x3ddeb94c	0.10875186
200	0x3daa4f17	0.083158664
201	0x3e134352	0.1438115
202	0x3ce944b1	0.028475137
203	0xbc6583e4	-0.014008496
204	0x3d03c579	0.032170746
205	0xbd47203b	-0.04861472
206	0x3ddd6e1e	0.10812019
207	0xbd48fb5c	-0.04906784
208	0xbd30400b	-0.043029826
209	0xbe16ea43	-0.14737801
210	0x3dd2b190	0.102877736
211	0x3d53b570	0.051686704
212	0xbd345efc	-0.044035897
213	0xbe16c673	-0.1472414
214	0xbdfa8936	-0.12233202
215	0xbcaa9753	-0.02082411
216	0x3d169743	0.03676535
217	0x3d55d1f5	0.052202184
218	0xbc271668	-0.010198213
219	0x3b338be4	0.0027396614
220	0x3b6907e7	0.0035557689
221	0x38a7a25e	7.993424e-05
222	0x3cbb276c	0.022845946
223	0x3d966768	0.07343942
224	0x3cfdd30b	0.030984422
225	0xbd0931b9	-0.033494685
226	0x3d1ccb4b	0.038279813
227	0x3ceafd51	0.028685244
228	0xbdb7a53d	-0.089670636
229	0xbca1abe4	-0.019735284
230	0x3e15a699	0.14614333
231	0x3d10f7bb	0.035392504
232	0xbd330d4f	-0.043713864
233	0x3d38c29e	0.045107476
234	0x3cd10f33	0.025519943
235	0xbdd49866	-0.1038063
236	0x3d971a43	0.07378056
237	0x3c6cff5d	0.01446518
238	0x3db14b9e	0.08657001
239	0xbd0dd486	-0.034626506
240	0xbd1862d2	-0.037203617
241	0x3cff7c8b	0.031187316
242	0x3c9cbc73	0.019132828
243	0x3d422b80	0.047404766
244	0x3c0c907f	0.008579372
245	0xbda230f6	-0.07919495
246	0xbcf4362a	-0.029810984
247	0xbd813f1b	-0.063108645
248	0x3cd70932	0.026249502
249	0xbdca595e	-0.09880327
250	0xbca4eb8b	-0.020131847
251	0x3ca8f473	0.020624375
252	0xbd60a89d	-0.054848302
253	0x3db9936b	0.09061321
254	0x3a6b0eb5	0.000896673
255	0xbcb82aec	-0.022481404

action_model._discrete_distribution.branches.1.bias f4 [3]
0	0xbcb3f04e	-0.021965172
1	0x3d38760b	0.04503445
2	0xbcde112b	-0.027107796

action_model._discrete_distribution.branches.1.weight f4 [3, 216]
0	0xbd998414	-0.07495895
1	0x3d8f8dbc	0.070094556
2	0xbdcf6a2e	-0.10127674
3	0xbe0ab4cc	-0.13545531
4	0xbe7b09ba	-0.24515429
5	0xbcc63130	-0.024193376
6	0xbdbba213	-0.091617726
7	0xbceb40a9	-0.028717356
8	0x3d8f1054	0.06985536
9	0xbe3803c4	-0.17970186
10	0xbde26d05	-0.1105595
11	0x3dc6d44a	0.0970846
12	0x3def56c4	0.11686471
13	0x3ca7154c	0.020395897
14	0x3d32333c	0.043505892
15	0xbc8aca3a	-0.016942132
16	0xbd854b81	-0.06508542
17	0xbd1cc820	-0.03827679
18	0x3c9058ca	0.017620463
19	0xbd800592	-0.062510625
20	0x3cb83b8e	0.022489335
21	0x3d9bd47c	0.076088876
22	0x3d818bbc	0.0632548
23	0x3d99100f	0.07473766
24	0xbd3d8564	-0.04626979
25	0x3dce2ff2	0.100677386
26	0xbe1a4a32	-0.15067366
27	0x3c460e44	0.012088362
28	0x3d480f8a	0.048842944
29	0x3ddd437d	0.10803888
30	0x3db07213	0.08615508
31	0x3e072e5e	0.13201281
32	0xbe0dc9b9	-0.13846482
33	0x3db76c61	0.089562185
34	0xbdb2d43d	-0.087318875
35	0x3c0c7709	0.008573302
36	0xbd3777f1	-0.04479212
37	0xbd4353ec	-0.047687456
38	0xbdddbdd6	-0.10827224
39	0xbdcbe02b	-0.09954866
40	0x3e5ff17a	0.2186946
41	0xbd966a48	-0.0734449
42	0x3d3a1750	0.04543239
43	0x3da394b7	0.079873495
44	0x3d5842fe	0.052798264
45	0x3ddaa86e	0.10676657
46	0xbd077376	-0.033069097
47	0xbd363b66	-0.04449024
48	0x3bf842be	0.0075763157
49	0xbc8babcc	-0.017049693
50	0xbe414373	-0.18873386
51	0x3e1c59a1	0.15268566
52	0x3c83acc0	0.016073585
53	0x3b74967f	0.0037321148
54	0xbc7d46bd	-0.01545876
55	0x3e17338d	0.14765759
56	0xbdd38310	-0.103277326
57	0xbe2fda3f	-0.17173098
58	0xbdc490ab	-0.09597906
59	0xbe3c1730	-0.1836822
60	0x3d70adb0	0.05875939
61	0xbce872fb	-0.02837514
62	0xbdbc5c52	-0.09197296
63	0x3d723274	0.059130147
64	0xbc3004e4	-0.0107433535
65	0xbc46adda	-0.01212641
66	0xbdbd7450	-0.092507005
67	0xba82c9cd	-0.0009978354
68	0xbc3559f7	-0.011068813
69	0x3cf2ec78	0.029653773
70	0xbcea7662	-0.028620902
71	0xbdf4391a	-0.11924954
72	0x3dcd8fb6	0.10037176
73	0x3d4826f3	0.04886527
74	0x3e500470	0.20314193
75	0x3c93f7d6	0.018062513
76	0xbe0a204a	-0.1348888
77	0xbd819136	-0.06326525
78	0xbddce619	-0.10786075
79	0x3d706ea3	0.05869926
80	0xbd62a0a4	-0.05532898
81	0x3df957ed	0.12174974
82	0x3c89395d	0.016750986
83	0x3cfe3eb2	0.031035755
84	0xbd939e16	-0.07207887
85	0xbb9c1ee7	-0.004764426
86	0xbdc56e67	-0.09640198
87	0x3d5508d5	0.052010376
88	0x3d4d2f25	0.05009379
89	0xbd364b24	-0.044505253
90	0x3c823fe9	0.015899615
91	0x3cdd3bf0	0.02700612
92	0xbd109252	-0.035295792
93	0x3dd176fe	0.10227774
94	0x3d1a815c	0.037721023
95	0x3d98a1b2	0.07452716
96	0x3dc88e14	0.09792724
97	0x3c6c834c	0.0144356005
98	0xbd12d32a	-0.035845913
99	0x3d123a28	0.035699993
100	0x3da024b9	0.07819504
101	0xbdb446ac	-0.08802542
102	0x3cca320c	0.024682067
103	0xbcc51aeb	-0.024060687
104	0xbd5ca4aa	-0.053867973
105	0x3e06fa08	0.13181317
106	0xbcf74c14	-0.030187644
107	0xbd81527d	-0.063145615
108	0x3c82abe2	0.0159511
109	0x3baa8931	0.005204343
110	0xbd17d3dd	-0.037067283
111	0xbd2554db	-0.040364128
112	0x3d48c7c7	0.049018648
113	0xbd811ec9	-0.063047
114	0x3cf48a4d	0.029851103
115	0xbdd7047d	-0.10498903
116	0xbd72d913	-0.05928905
117	0x3e34c021	0.17651416
118	0xbd12157a	-0.035665013
119	0xbdaca532	-0.08429946
120	0xbd06058c	-0.032720134
121	0x3cd5364d	0.02602687
122	0x3dc4ed43	0.096155666
123	0x3d58cecf	0.052931603
124	0x3d6d52f5	0.057940442
125	0x3d36ca27	0.04462638
126	0xbbc11b5b	-0.0058931536
127	0x3df974e7	0.121805005
128	0xbd4be2bc	-0.049776778
129	0xbd230cd1	-0.039807145
130	0xbd318261	-0.04333723
131	0x3d7ee12a	0.062226452
132	0x3cfa702b	0.030571064
133	0xbc942c8f	-0.018087653
134	0x3cb07b54	0.021543182
135	0xbe0fd633	-0.14046554
136	0x3c429f42	0.01187879
137	0xbb607f76	-0.003425566
138	0x3d350c71	0.04420132
139	0x3d93b2a1	0.07211805
140	0xbd986e66	-0.07442932
141	0x3dd2ef41	0.1029954
142	0x3c25b85d	0.010114756
143	0x3d6148df	0.055001136
144	0x3d91a95c	0.07112381
145	0x3dc4ae5b	0.09603568
146	0xbd0a736f	-0.033801492
147	0xbc92e293	-0.017930305
148	0x3d4a8497	0.049442854
149	0x3d1d4ee7	0.038405325
150	0x3c3242f4	0.010880221
151	0xbd0412f4	-0.032244638
152	0xbc6b8069	-0.014373877
153	0xbbb1c454	-0.0054250155
154	0xbce0a9c2	-0.027424697
155	0x3d640cbf	0.055676218
156	0x3cec25f7	0.028826697
157	0xbbc049fd	-0.005868195
158	0xba046d5a	-0.0005051695
159	0xbd9cc4bd	-0.07654712
160	0xbd6c7f45	-0.05773856
161	0xbdbb1bee	-0.091361865
162	0x3db075f8	0.08616251
163	0xbb33489c	-0.002735651
164	0xbd31248d	-0.04324775
165	0xbd0b5de6	-0.034025095
166	0xbdbd1f93	-0.09234538
167	0xbc43e1ee	-0.011955721
168	0xbcd8ccd0	-0.02646485
169	0x3d5941ac	0.053041145
170	0xbe194f8d	-0.14971752
171	0xbd0bcc5e	-0.034130447
172	0x3e2a9f62	0.16662362
173	0x3b92d883	0.0044813766
174	0x3d991d6c	0.07476315
175	0xbd66a6c6	-0.05631139
176	0xbc8a2e3b	-0.016867748
177	0xbdc1699e	-0.09443973
178	0xbdbe6343	-0.092962764
179	0xbd83e54c	-0.06440219
180	0xbbf0609e	-0.0073357364
181	0x3ce79da5	0.028273413
182	0x3d3fea60	0.046854377
183	0x3c17b66c	0.009259801
184	0x3d2a254e	0.041539483
185	0x3c72e7b6	0.014825752
186	0x3c9e83c2	0.019349936
187	0x3d4803fb	0.04883192
188	0x3e0d73d2	0.13813713
189	0x3d8c475a	0.06849547
190	0x3baf0134	0.0053407196
191	0xbd20acbc	-0.039227232
192	0xbdc4615b	-0.095888816
193	0x3db0e204	0.08636859
194	0x3db4be06	0.088253066
195	0xbc4e776a	-0.012601713
196	0x3d3cf259	0.04612956
197	0xbd759c1e	-0.059963338
198	0x3df4b3e5	0.11948375
199	0x3d7743c1	0.06036735
200	0x3d3a8d66	0.045545004
201	0x3d886263	0.06659391
202	0x3e0903c2	0.1338034
203	0x3d4528ba	0.048134543
204	0x3dddd89f	0.10832333
205	0xbb8403ff	-0.0040287967
206	0x3e04afe0	0.12957716
207	0x3c64336e	0.013928277
208	0x3aeb6cc0	0.0017961487
209	0x3d274381	0.04083586
210	0xbcc76a90	-0.024342805
211	0x3b4df8de	0.0031428854
212	0x3d3c4976	0.045968495
213	0x3e100863	0.140657
214	0x3d898fe6	0.067168996
215	0xbc8ba594	-0.017046727
216	0x3b8851f7	0.0041601616
217	0xbdcb7c29	-0.09935791
218	0x3d543e6c	0.051817343
219	0x3e38abaf	0.18034242
220	0x3e7b7c4a	0.24559131
221	0x3d91e9a7	0.07124644
222	0xbcd0f54d	-0.025507594
223	0x3e292405	0.16517647
224	0xbc4f3d4b	-0.012648891
225	0x3e79d421	0.24397327
226	0x3cf2816e	0.029602733
227	0xbdc6cca8	-0.09707004
228	0xbd7aba43	-0.06121279
229	0x3d596d5a	0.0530828
230	0xbe0e13c4	-0.13874727
231	0xbd713b4c	-0.05889444
232	0x3ce9c564	0.028536506
233	0xbca2e570	-0.019884795
234	0x3c69f141	0.014278711
235	0x3d071588	0.03297952
236	0xbe0115ae	-0.12605926
237	0xbd129665	-0.03578796
238	0xbd4d6a69	-0.05015031
239	0x3d57bad3	0.052668404
240	0x3d44ffac	0.04809539
241	0xbdd40105	-0.10351757
242	0x3dd5177d	0.10404871
243	0xbd82683b	-0.06367537
244	0xbd7d3ba5	-0.06182446
245	0xbddf9c7a	-0.109185174
246	0xbe0c9f17	-0.13732563
247	0xbd21d34f	-0.03950816
248	0x3e2ff614	0.17183715
249	0xbdffeccd	-0.12496338
250	0xbde56cd4	-0.11202398
251	0x3db80b7a	0.08986564
252	0xbacf2bec	-0.0015805936
253	0x3c9b79ed	0.018979037
254	0x3e04f438	0.12983787
255	0x3cdb14e3	0.026743358

action_model._discrete_distribution.branches.2.bias f4 [3]
0	0x3c50cf87	0.012744791
1	0xbc91f048	-0.01781477
2	0x3c012491	0.007882253

action_model._discrete_distribution.branches.2.weight f4 [3, 216]
0	0x3c687e60	0.014190286
1	0xbd05bf7a	-0.03265331
2	0xbdca188b	-0.098679624
3	0x3dc597f4	0.096481234
4	0xbc376718	-0.011194013
5	0xbc5b7c73	-0.01339637
6	0xbd2a220c	-0.041536376
7	0xbc3f268a	-0.011666903
8	0x3c621f9d	0.0138014825
9	0x3da99da1	0.082820185
10	0xbd0f788a	-0.035027064
11	0xbd49be2f	-0.04925364
12	0xbe3295b6	-0.17439923
13	0x3cc33dd2	0.02383319
14	0xbdaf3b0e	-0.08556186
15	0xbd563dde	-0.052305095
16	0xbdb32cea	-0.08748801
17	0xbdbf800c	-0.09350595
18	0x3cc1f14e	0.023674633
19	0xbe29a82c	-0.16568059
20	0xbc824e1d	-0.015906388
21	0xbdea6eb1	-0.11446894
22	0xbe11511d	-0.14191099
23	0xbc02d686	-0.007985717
24	0x3d211d09	0.03933433
25	0xbe011740	-0.12606525
26	0x3e192c7c	0.14958376
27	0xbd99f001	-0.0751648
28	0x3e385ba1	0.18003704
29	0xbc95daf8	-0.018292889
30	0xbd9d0243	-0.07666447
31	0xb9d06a23	-0.0003975193
32	0x3c294c2d	0.010333103
33	0xbd819d0e	-0.06328784
34	0x3dff4f26	0.12466268
35	0x3d42cfb6	0.04756137
36	0x3c97dd35	0.018538097
37	0x3ce34caa	0.027746517
38	0x3bcdd383	0.0062813177
39	0xbd4830ad	-0.048874546
40	0xbd2dd46c	-0.04243891
41	0xbd107ffb	-0.0352783
42	0xbdbaccee	-0.091211185
43	0xbcd53de0	-0.02603048
44	0xbcbae96a	-0.022816379
45	0xbd9b1b98	-0.075736225
46	0xbdd2f17e	-0.10299967
47	0x3d8ff3ab	0.07028898
48	0xbd9d7bb7	-0.07689612
49	0x3ddc2573	0.1074933
50	0x3e010d40	0.1260271
51	0x3dc091ef	0.094028346
52	0x3abd1cd3	0.0014428146
53	0x3daabf2e	0.08337246
54	0x3d525510	0.051350653
55	0xbbe58337	-0.0070041674
56	0xbc0052ca	-0.007832238
57	0x3d1aba1a	0.037775137
58	0xbc5ec423	-0.013596567
59	0x3d8784d8	0.06617135
60	0xbe44692c	-0.19180745
61	0x3c4237bd	0.011854109
62	0x3d715de8	0.058927447
63	0x3b87c88b	0.0041437796
64	0x3de9a3b4	0.11408177
65	0xbdb9791f	-0.09056305
66	0xbc8ef8bf	-0.017452596
67	0x3d8aa8ab	0.06770452
68	0xbdae3e89	-0.085080214
69	0xbdaa6026	-0.0831912
70	0x3e25cb8f	0.16190933
71	0xbdf7aa57	-0.120930366
72	0x3dc0aa55	0.09407488
73	0x3d0e1718	0.034689993
74	0x3e474907	0.19461451
75	0xbc4535b6	-0.0120367315
76	0xbe01e120	-0.12683535
77	0x3da7365f	0.08164667
78	0x3d0ef83f	0.034904715
79	0xbdf9398a	-0.12169178
80	0xbda3072f	-0.079603545
81	0xbdaf540c	-0.085609525
82	0xbdba821d	-0.091068484
83	0xbdc74a86	-0.09731011
84	0xbe09d151	-0.13458754
85	0xbd890362	-0.06690098
86	0x3dad5973	0.08464327
87	0x3c7bdd60	0.015372604
88	0x3cbe8392	0.023256097
89	0xbd80e6f2	-0.06294049
90	0xbd1b57c9	-0.037925515
91	0xbced6fa1	-0.028983893
92	0x3d63c1ac	0.05560462
93	0xbca06e4c	-0.019583844
94	0x3e051565	0.12996443
95	0x3d8e90c3	0.06961205
96	0x3c06104e	0.008182598
97	0xbd85f3d5	-0.06540648
98	0xbc3dfe93	-0.01159634
99	0xbcb80529	-0.022463398
100	0x3d86d975	0.065844454
101	0xbcf68ce7	-0.030096484
102	0x3c823860	0.015896022
103	0xbca3fdc7	-0.020018471
104	0x3d937906	0.07200818
105	0x3cdb23d9	0.026750492
106	0xbdc98580	-0.09839916
107	0xbd1aa75d	-0.037757266
108	0xbc7e238a	-0.015511403
109	0xbd85770f	-0.06516849
110	0x3c717b12	0.014738815
111	0x3e030af4	0.12797147
112	0xbda995e9	-0.08280546
113	0x3d094946	0.033517145
114	0xbcff85f8	-0.031191811
115	0xbbbf859d	-0.0058447854
116	0xbda5ead7	-0.08101433
117	0x3d58eded	0.05296128
118	0xbe56e2c5	-0.20984943
119	0xbd44bd6e	-0.048032217
120	0x3d56c037	0.052429404
121	0xbe07a287	-0.13245593
122	0xbe203c13	-0.15647916
123	0xbc682cc8	-0.014170833
124	0x3dc9d42c	0.09854922
125	0xbdd5319b	-0.10409852
126	0x3dd9004f	0.10595762
127	0xbe032189	-0.12805761
128	0xbd054f56	-0.032546364
129	0x3d16b1c7	0.036790635
130	0xbc3e4154	-0.011612255
131	0x3d561991	0.052270476
132	0x3d695c87	0.056973007
133	0xbd932031	-0.071838744
134	0x3dc07898	0.093980014
135	0xbd6e2825	-0.058143754
136	0x3d212300	0.03934002
137	0x3cae5c22	0.021284167
138	0x3d994582	0.07483961
139	0x3de51278	0.11185163
140	0xbd893156	-0.06698863
141	0xbd941ca1	-0.07232023
142	0x3d8b467c	0.06800553
143	0x3d73a7de	0.059486263
144	0x3d93e361	0.072211035
145	0xbd0672d2	-0.032824345
146	0xb9e93366	-0.00044479518
147	0xbd2eb968	-0.042657286
148	0xbcb641a6	-0.0222481
149	0x3b42e632	0.0029739258
150	0xbd6575e6	-0.05602064
151	0x3d06e55d	0.03293358
152	0x3e0da68a	0.13833061
153	0xbd679cac	-0.0565459
154	0x3de30166	0.11084251
155	0x3ae3e3cd	0.0017386616
156	0xbc970e3b	-0.018439403
157	0xbc989f41	-0.018630626
158	0xbcfabcf7	-0.030607684
159	0x3d15fbda	0.036617137
160	0x3e0efafc	0.1396293
161	0xbd2692ee	-0.040667467
162	0xb8ec3e63	-0.000112649774
163	0xbd37adb7	-0.0448434
164	0xbdf3bb02	-0.11900903
165	0x3d8cff28	0.06884605
166	0xbc7fbbdc	-0.015608754
167	0x3da4317b	0.0801725
168	0x3c999f27	0.018752648
169	0xbdd5700c	-0.10421762
170	0x3d5c395d	0.053765643
171	0x3bd7d13c	0.006586222
172	0xbd06d00b	-0.03291325
173	0x3de25b1c	0.11052534
174	0xbe195857	-0.14975105
175	0xbde295d2	-0.11063732
176	0x3c9dfa1f	0.019284306
177	0x3d1eb31a	0.038745023
178	0xbe350ccd	-0.17680664
179	0xbc8e6dcb	-0.017386338
180	0xbd6d7e0c	-0.057981536
181	0xbd0e733b	-0.03477786
182	0x3cd7e599	0.026354598
183	0x3de90dc4	0.11379579
184	0xbc1b7988	-0.0094894245
185	0x3cfa39d2	0.030545149
186	0xbd3b792d	-0.04576986
187	0xbdb6d80a	-0.08927925
188	0xbb489a06	-0.0030609383
189	0x3d8ff245	0.07028631
190	0x3e32480a	0.17410293
191	0xbc87c403	-0.016572958
192	0xbd9dc7c6	-0.077041194
193	0xbc1b34c7	-0.009473032
194	0x3d956058	0.07293767
195	0xbd239d0f	-0.039944705
196	0x3ba420dd	0.0050088004
197	0xbe0944cc	-0.1340515
198	0x3e00b202	0.12567905
199	0x3c8aa695	0.016925136
200	0x3d0b7a7a	0.03405235
201	0x3e0e1a97	0.1387733
202	0x3c1f6c94	0.009730477
203	0xbe377d85	-0.17918976
204	0xbd902358	-0.07037991
205	0xbe68d7bd	-0.22738548
206	0xbccecc1e	-0.025243815
207	0xbc868d62	-0.016424838
208	0xbd70c38a	-0.05878023
209	0x3cd8c62b	0.026461681
210	0x3bc51585	0.006014528
211	0xbdd01058	-0.10159367
212	0xbd8e3a64	-0.06944731
213	0x3da817c5	0.08207659
214	0xbdb85370	-0.090002894
215	0x3d767ba7	0.060176518
216	0x3d5b5f21	0.05355752
217	0xbbe47fd9	-0.0069732484
218	0x3bac9a3f	0.005267411
219	0x3c6e1443	0.014531198
220	0x3cb562fa	0.022141922
221	0x3db04020	0.08605981
222	0x3aa1d4c3	0.0012346733
223	0xbd4bf3e5	-0.049793143
224	0xbcb19a02	-0.021679882
225	0xbd39d192	-0.045365877
226	0xbd67b896	-0.05657252
227	0x3996727f	0.00028695536
228	0x3cfb766a	0.030696113
229	0x3c60a3a4	0.01371089
230	0x3c82080c	0.015872978
231	0x3d94f97c	0.07274148
232	0xbcc16ed9	-0.023612427
233	0x3cba32de	0.022729333
234	0x3d1c3413	0.0381356
235	0xbd1b482e	-0.037910633
236	0x3bfded27	0.007749218
237	0xbd13d278	-0.03608939
238	0xbb7ab8e6	-0.003825718
239	0x3ceb3436	0.02871142
240	0xbd3d9f1d	-0.04629432
241	0x3dea1160	0.11429095
242	0xbdf6a94d	-0.1204401
243	0x3d735a69	0.059412394
244	0xbe02b7a0	-0.1276536
245	0x3cc3e1a8	0.023911312
246	0xbc23bc69	-0.009993651
247	0xbd12fd5b	-0.03588615
248	0xbc1cd80c	-0.009572994
249	0xbd37db7e	-0.04488706
250	0xbbb352d3	-0.00547252
251	0xbd1086c7	-0.035284784
252	0xbd9c5ee0	-0.076352835
253	0xbd878537	-0.066172056
254	0xbd17fe15	-0.037107546
255	0xbb8a35bc	-0.0042178314

network_body.linear_encoder.seq_layers.0.bias f4 [216]
0	0xbbcf51de	-0.006326898
1	0xbcd0b11d	-0.02547508
2	0x3cd0ea06	0.025502216
3	0x3c16e371	0.0092095
4	0x3d10add9	0.035322044
5	0xbc66ece0	-0.014094561
6	0xb9fdb22b	-0.00048388666
7	0xbc38e3ca	-0.011284778
8	0x3c0b5852	0.008504944
9	0xbc990040	-0.018676877
10	0xbd1930a5	-0.037399907
11	0xbc90d839	-0.017681228
12	0xbc60e7b0	-0.013727114
13	0xbc187a8f	-0.009306564
14	0x3aca5aaa	0.0015438397
15	0xbcd91577	-0.026499493
16	0xbd8b96b7	-0.06815856
17	0xbbaf949a	-0.005358291
18	0x3c52f6fb	0.012876268
19	0x3d15d42a	0.03657929
20	0xbc5c5029	-0.013446846
21	0x3c2d130b	0.010563622
22	0x3d5bc865	0.053657908
23	0xbd16fd04	-0.03686239
24	0xbd0f5f2b	-0.03500287
25	0xbd54523b	-0.051836234
26	0xbd94a64b	-0.0725828
27	0x3c841e92	0.016127858
28	0xbc9f23a4	-0.019426174
29	0x3d18330e	0.037158065
30	0xbc8d6479	-0.017259823
31	0xbbb5b1c7	-0.0055448744
32	0xbd27cb3d	-0.040965308
33	0xbd15f70b	-0.03661255
34	0x3d0b7e76	0.03405615
35	0xbc2d2287	-0.010567314
36	0xbcb03bff	-0.021512983
37	0xbd940535	-0.07227556
38	0xbd12a81c	-0.035804853
39	0xbc36704b	-0.011135171
40	0x3b52529d	0.0032092698
41	0x37bf1255	2.277751e-05
42	0x3bf22ec1	0.0073908274
43	0xbb637e71	-0.0034712816
44	0xbcf6c7f2	-0.030124638
45	0xbba22ada	-0.004948956
46	0xbd56409b	-0.052307706
47	0x3bd13b36	0.0063852323
48	0xbb4af0c2	-0.0030966257
49	0xbd3e10ae	-0.046402626
50	0x3c2416aa	0.010015169
51	0x3cacbe43	0.021086818
52	0xbc6c486a	-0.014421562
53	0x3c90b1b6	0.017662864
54	0x3c37f87c	0.011228677
55	0x3c5ba9a0	0.013407141
56	0xbd2b9c7d	-0.041897286
57	0xbd0d5e7a	-0.034513928
58	0xbb7e9844	-0.0038848082
59	0xbc142449	-0.009041854
60	0xbce19131	-0.027535053
61	0x3d1c3144	0.03813292
62	0xbce042b1	-0.027375551
63	0xbdab8206	-0.083744094
64	0xbc2b702e	-0.010463757
65	0xbc9f01be	-0.01941001
66	0x3cbcb65c	0.023036174
67	0x3cb7e1d4	0.02244655
68	0xbbea53c8	-0.007151101
69	0xbc776e79	-0.015102022
70	0xbce8485e	-0.02835482
71	0x3c4762d5	0.0121695595
72	0xbc5ff60b	-0.013669501
73	0xbc6e0903	-0.014528516
74	0xbc28a542	-0.010293307
75	0x3b601420	0.0034191683
76	0x3b3dbd4f	0.0028951948
77	0xbd577309	-0.05259994
78	0x3cade8d4	0.021229185
79	0x3c0d020e	0.008606447
80	0xbb0226bd	-0.0019859516
81	0x3cc68b51	0.024236353
82	0x3d2d9a7b	0.042383652
83	0x3d21888e	0.03943687
84	0xbb0d6aad	-0.0021578476
85	0x3bd8228b	0.0065959147
86	0xbba25211	-0.0049536307
87	0xbd3db181	-0.04631186
88	0xbbb9f1a9	-0.00567456
89	0xbd12400f	-0.035705622
90	0x3c8da777	0.017291768
91	0x3cbad243	0.022805339
92	0x3aa5499c	0.0012610438
93	0xbcc350c5	-0.023842225
94	0x3c198777	0.009370676
95	0xbc09ea33	-0.008417654
96	0x3b97f779	0.0046376553
97	0x3d38a2a3	0.045076977
98	0xbca9d795	-0.02073268
99	0x3cc9d7ec	0.024639092
100	0xbce14e5e	-0.027503189
101	0xbb33eb2c	-0.0027453406
102	0xbd96af00	-0.07357597
103	0xbcc4adc5	-0.024008641
104	0x3c824ea6	0.015906643
105	0xbbd12737	-0.0063828486
106	0xbd858fa3	-0.06521537
107	0x3ad37c81	0.0016135128
108	0xbaa31ea6	-0.0012445047
109	0x3c00e99d	0.007868198
110	0xbb556815	-0.0032563258
111	0x3d7ef6b9	0.06224701
112	0xbd24c185	-0.040223617
113	0xbca70830	-0.020389646
114	0xbc9ae733	-0.018909073
115	0xbcb7a4da	-0.022417475
116	0xbd1022a4	-0.035189286
117	0x3cae9ef3	0.021316027
118	0x3cbfc8e0	0.023411214
119	0x3c1e2939	0.009653383
120	0xba2d55b9	-0.00066122
121	0xbbaeef40	-0.0053385794
122	0xbd3ef1a5	-0.04661717
123	0xbcbafd20	-0.022825778
124	0xbb30cc58	-0.0026977267
125	0xbcf09e6c	-0.029372416
126	0xbd5bc5c0	-0.053655386
127	0xbc17da35	-0.009268333
128	0xbcc440ec	-0.023956738
129	0xbc99efb4	-0.018791057
130	0x3bae5743	0.005320461
131	0x3b1b0691	0.0023655037
132	0xbbe3e53b	-0.0069548166
133	0x3b838a5b	0.004014296
134	0xbb9689f6	-0.004594083
135	0xbd60e2c1	-0.05490375
136	0xbd9d77c0	-0.07688856
137	0xbbd56af9	-0.0065129963
138	0xbce06591	-0.02739218
139	0x3c83e674	0.0161011
140	0x3c9e98ae	0.019359913
141	0x3d23486e	0.039863996
142	0xbd551523	-0.05202211
143	0xbce0b162	-0.027428333
144	0xbd5a232e	-0.053256206
145	0xbd1b0c66	-0.03785362
146	0xbbb7e0e7	-0.0056115272
147	0xbd2b32a3	-0.041796338
148	0xbbc51ca3	-0.0060153767
149	0xbd1a16b5	-0.03761931
150	0xbcb8be2d	-0.02255162
151	0x3c12e7f6	0.008966437
152	0xbcbacdbf	-0.022803186
153	0xbc4fab1a	-0.012675071
154	0xbc2e1d53	-0.010627109
155	0xbd79485f	-0.060860034
156	0xbb96fb0b	-0.0046075634
157	0x3d600b86	0.05469849
158	0x3c3676c5	0.011136715
159	0x3cbbdc32	0.022932146
160	0xbc10e0d9	-0.00884267
161	0xbbd95a5e	-0.006633087
162	0xbba35730	-0.004984759
163	0x3b3fc366	0.0029260754
164	0x3d0622d5	0.032748062
165	0xbc0575fe	-0.008145807
166	0xbab903a8	-0.001411547
167	0xbc822793	-0.015888011
168	0xbd31f83c	-0.043449625
169	0x3b078928	0.0020681117
170	0xbbbe8395	-0.0058140256
171	0x3d7c48f2	0.061593004
172	0xbd2daec4	-0.042402998
173	0xbc055bd5	-0.00813957
174	0xbd0bdcf4	-0.034146264
175	0xbb46bf97	-0.0030326599
176	0xbd81d4cf	-0.06339418
177	0xbd6b0e75	-0.057386834
178	0x3d0e04b7	0.034672465
179	0x3d3a9d23	0.045560014
180	0x3c4ee1b9	0.012627059
181	0xbd2be6c7	-0.041968133
182	0x3c0e7053	0.008693772
183	0x3ce44d3b	0.027868858
184	0x3c6d20d0	0.014473155
185	0xbcb60821	-0.022220673
186	0xbd1c5002	-0.03816224
187	0xbd17cd25	-0.037060875
188	0xbb4c7005	-0.0031194699
189	0x3c9f2ed6	0.019431513
190	0xbd452654	-0.048132256
191	0xbd7a7dfa	-0.061155297
192	0xbd337394	-0.043811396
193	0x3cbf1882	0.023327116
194	0xbd3b7c45	-0.04577281
195	0x3b36cab3	0.0027891814
196	0xbc67dd8c	-0.014151942
197	0x3cc5a637	0.024127109
198	0xbbded4c4	-0.006800266
199	0xbbb197ef	-0.005419723
200	0x3cbc7901	0.023006918
201	0x3c8ffaf8	0.017575726
202	0xbb84a52b	-0.00404801
203	0x3c8fcb6c	0.017553054
204	0xbd772dd1	-0.06034643
205	0xbb002a97	-0.0019556636
206	0x3a9cfbc6	0.001197689
207	0x3bc93c34	0.00614121
208	0x3ab97a0f	0.0014150756
209	0xbd48c1f4	-0.049013093
210	0x3ce3690a	0.027760047
211	0xbb8a154c	-0.0042139646
212	0xbc869a79	-0.01643108
213	0xbc1ead39	-0.009684854
214	0x3ba1a528	0.0049330182
215	0xbc1529a2	-0.009104164

network_body.linear_encoder.seq_layers.0.weight f4 [216, 121]
0	0x3d2c5c3a	0.04208014
1	0x3bda1537	0.006655361
2	0x3de82ccb	0.113366686
3	0x3cb82234	0.022477247
4	0x3e370296	0.1787208
5	0xbdaa0dd2	-0.08303417
6	0xbc8c60cf	-0.017136006
7	0x3c7ab063	0.015300843
8	0x3e458d32	0.19292143
9	0x3e3a99a9	0.18222679
10	0xbc34d61f	-0.011037379
11	0xbe040a8c	-0.12894648
12	0x3e0183d6	0.12647948
13	0x3d12ea0a	0.03586773
14	0x3c0cd487	0.008595592
15	0xbe6c758b	-0.23091714
16	0xbd98fcc3	-0.074700855
17	0x3cd00355	0.025392214
18	0x3d8edfa7	0.06976252
19	0xbdba6de6	-0.09102993
20	0x3e3a954d	0.18221016
21	0xbe5b988f	-0.21444915
22	0xbd2b66cc	-0.04184608
23	0x3daecdde	0.0853536
24	0xbe046fc6	-0.12933263
25	0xbe9f8700	-0.31157684
26	0xbe390f5c	-0.18072265
27	0xbe12642f	-0.1429603
28	0x3d3d0da8	0.0461556
29	0x3eaf9a4f	0.34297416
30	0xbd5ae76c	-0.053443357
31	0xbe89f665	-0.26945797
32	0xbdafa3cc	-0.08576164
33	0xbdd30919	-0.103044696
34	0xbe31c0d8	-0.1735872
35	0x3d92593f	0.071459286
36	0xbe608bb0	-0.21928287
37	0xbcf838c3	-0.030300504
38	0xbcfa75ec	-0.030573808
39	0x3cba5ba0	0.022748768
40	0xbd5e46dc	-0.054266796
41	0xbd4fba17	-0.05071458
42	0xbd933ec9	-0.0718971
43	0xbe34c976	-0.17654976
44	0xbd0429b6	-0.03226634
45	0x3e8fbf8b	0.28075823
46	0xbd46ef21	-0.048567895
47	0xbe2d09fb	-0.16898338
48	0xbe1ddf15	-0.1541713
49	0xbac0b06c	-0.0014701015
50	0xbd1d30e5	-0.038376708
51	0x3def4b28	0.11684257
52	0xbe89ecdc	-0.26938522
53	0xbd24d9dd	-0.040246833
54	0x3d443690	0.047903597
55	0xbdd5fe6f	-0.1044892
56	0xbce7e92c	-0.028309427
57	0xbe8a6742	-0.27031904
58	0xbe36af2c	-0.1784026
59	0xbdd995e1	-0.1062429
60	0x3ca2ac45	0.019857535
61	0x3d9333b3	0.07187595
62	0xbd337919	-0.04381666
63	0x3e2c426e	0.16822216
64	0xbe8a915d	-0.27064028
65	0xbe1bc445	-0.1521159
66	0xbe5a748c	-0.21333522
67	0xbd86cce7	-0.06582051
68	0xbd463999	-0.048394773
69	0xbe0416ad	-0.12899275
70	0x3dd28274	0.10278788
71	0xbd2acbfd	-0.041698445
72	0x3e559045	0.20855816
73	0xbd536cd7	-0.05161747
74	0xbd5acecd	-0.053419877
75	0xbe3df868	-0.1855179
76	0x3e3496ad	0.17635603
77	0xbdb2e27d	-0.087346055
78	0xbe650823	-0.22366385
79	0xbe094856	-0.134065
80	0x3e10bdaa	0.14134851
81	0xbe2a0214	-0.16602355
82	0x3e839690	0.25700808
83	0x3c9f2003	0.019424444
84	0x3cdc98b8	0.02692829
85	0xbd6a19bb	-0.057153445
86	0x3e312777	0.17300211
87	0x3e21da3d	0.15805908
88	0xbe624edb	-0.22100393
89	0x3df4e187	0.119570784
90	0x3d593c35	0.053035934
91	0x3c99f669	0.018794255
92	0xbe0e8ff7	-0.13922106
93	0x3e01aa75	0.1266268
94	0x3c828746	0.015933644
95	0xbde75004	-0.11294559
96	0xbcebda3d	-0.028790588
97	0x3d183a94	0.03716524
98	0xbe27344f	-0.16328548
99	0x3d9b4351	0.07581199
100	0x3ddc62bc	0.107610196
101	0x3d930fe9	0.07180769
102	0x3d471c9b	0.048611265
103	0xbe0cddef	-0.13756536
104	0x3dd94053	0.10607972
105	0xbccab9cc	-0.024746798
106	0x3de37587	0.11106401
107	0x3dc783ae	0.09741913
108	0x3e05c119	0.13061942
109	0x3c8ce00a	0.017196674
110	0xbdee847b	-0.116463624
111	0x3e034f93	0.12823324
112	0x3db5ac7d	0.0887079
113	0x3c5b3cb8	0.013381176
114	0xbdf764c5	-0.12079767
115	0x3dc7ed1a	0.097620204
116	0xbb59f81b	-0.0033259455
117	0x3e15c2a9	0.14625038
118	0x3dbd7a41	0.09251834
119	0xbe1235d7	-0.14278351
120	0x3da000c5	0.07812647
121	0xbe1d5ec0	-0.15368176
122	0xbdd7f332	-0.10544433
123	0xbe056ce2	-0.13029817
124	0xbd9ab595	-0.07554165
125	0xbe0c3759	-0.13692988
126	0x3dd75f77	0.10516255
127	0x3de79d70	0.11309326
128	0xbdfd85e0	-0.1237905
129	0xbc5e7372	-0.013577329
130	0xbd74e048	-0.059784204
131	0xbd37eaa7	-0.044901516
132	0xbdeb912d	-0.115022995
133	0xbe818510	-0.2529683
134	0x3a4b759b	0.000776136
135	0x3cc9140f	0.024545697
136	0xbd938ced	-0.07204614
137	0xbe25988d	-0.16171475
138	0xbd6692bd	-0.056292284
139	0xbe9dba91	-0.308064
140	0x3e085e42	0.13317207
141	0x3df5a82f	0.11994969
142	0xbd1089a6	-0.03528752
143	0xbe1f5d6e	-0.15562984
144	0x3d880a2f	0.06642567
145	0x3dd24fe3	0.102691434
146	0xbe250960	-0.16116858
147	0xbde9b2b7	-0.1141104
148	0xbc94251b	-0.0180841
149	0x3ea38fdf	0.31945702
150	0x3e094a0f	0.13407157
151	0xbd5802f2	-0.052737184
152	0xbdbd57d5	-0.09245268
153	0x3e6bae1e	0.23015639
154	0xbbd980cf	-0.0066376696
155	0xbd1b6b38	-0.03794405
156	0xbd9c96e4	-0.076459676
157	0x3e1dc6f2	0.15407923
158	0xbe28bcc5	-0.1647826
159	0x3e6997c4	0.228118
160	0xbe01074e	-0.12600443
161	0xbe02fb6d	-0.12791224
162	0x3e4908f7	0.19632326
163	0xbde4fdc1	-0.11181212
164	0xbd314f9a	-0.043288805
165	0x3c4ab2f3	0.012371766
166	0x3d364fd7	0.044509735
167	0x3d82bd7f	0.063838
168	0xbdeea260	-0.11652064
169	0xbe4c995c	-0.19980377
170	0x3c30ca6f	0.010790451
171	0xbe21b037	-0.15789877
172	0x3b8d07eb	0.0043039224
173	0xbdaa7ba0	-0.08324361
174	0x3e94dec7	0.29076216
175	0x3e25734b	0.16157262
176	0x3b44c134	0.0030022385
177	0xbe590d9c	-0.21196598
178	0xbe30ce3c	-0.17266172
179	0xbe19c8d5	-0.15018018
180	0x3d56aebd	0.052412737
181	0xbe4dee6c	-0.20110482
182	0x3d8454e6	0.064615056
183	0x3e523208	0.20526898
184	0x3d87479a	0.06605454
185	0xbdaa88cd	-0.08326874
186	0xbe429fe0	-0.190063
187	0xbe1750cb	-0.14776914
188	0xbe60df29	-0.21960129
189	0xbe83bc75	-0.2572972
190	0xbe92d58e	-0.28678554
191	0x3e895f17	0.2683036
192	0xbd1b0c26	-0.037853383
193	0xbe4cee37	-0.20012747
194	0x3c7f3647	0.015576906
195	0x3d1dcecd	0.0385273
196	0xbd7991c1	-0.060930017
197	0xbeb719d8	-0.35761905
198	0xbd93b203	-0.072116874
199	0xbe0f46fe	-0.13991925
200	0xbd58c783	-0.052924644
201	0xbe7801ea	-0.2421948
202	0x3dca823b	0.09888121
203	0x3e3723b4	0.17884713
204	0xbcdf65e1	-0.02727026
205	0xbc8bed9b	-0.017081073
206	0x3e02a712	0.12759045
207	0xbd11b24d	-0.03557043
208	0x3d72808e	0.05920463
209	0xbcab00db	-0.020874431
210	0x3e6af9c5	0.22946842
211	0xbdc0e7c8	-0.09419209
212	0x3c4272e4	0.011868212
213	0x3e6c0573	0.23048954
214	0xbe44391d	-0.19162412
215	0xbda93ca1	-0.08263517
216	0xbd51c2bf	-0.051211115
217	0xbe906002	-0.28198248
218	0xbd8d222e	-0.06891285
219	0x3d30f72f	0.043204483
220	0xbdfc8b3e	-0.12331246
221	0xbe21d7e7	-0.15805016
222	0xbe017724	-0.12643105
223	0xbdccdf1a	-0.10003491
224	0xbbbe82e1	-0.005813942
225	0x3d603fb6	0.05474826
226	0x3dec8a37	0.115498
227	0xbcce572a	-0.025188047
228	0x3d1b5b12	0.03792865
229	0x3d28a1aa	0.0411698
230	0xbd245e37	-0.040128913
231	0x3a4123f4	0.0007367723
232	0x3d91ee2a	0.07125504
233	0x3cb22ec1	0.02175081
234	0x3df1f436	0.11814158
235	0xbe408625	-0.18801172
236	0x3d4f66a6	0.050635003
237	0x3da2813b	0.07934805
238	0xbe95037f	-0.2910423
239	0xbdeaeb76	-0.11470692
240	0xbd1ba510	-0.037999213
241	0xbd5f7f1c	-0.05456458
242	0x3caca99c	0.02107697
243	0xbd81329a	-0.063084796
244	0xbdff8555	-0.12476603
245	0xbcc3aea0	-0.023886979
246	0x3d946078	0.072449625
247	0x3e1f4c28	0.15556395
248	0x3e0caa82	0.13736919
249	0x3e44e0bd	0.19226356
250	0xbd7fc760	-0.062446
251	0x3e3efd70	0.18651366
252	0x3deb0568	0.114756405
253	0x3d2c395c	0.04204689
254	0xbd42d1d1	-0.047563378
255	0xbbc5820f	-0.006027467

network_body.linear_encoder.seq_layers.2.bias f4 [216]
0	0xbd66667d	-0.056250084
1	0xbdc29daa	-0.09502728
2	0x3c933f68	0.01797457
3	0xbc74783c	-0.014921244
4	0xbd96af1e	-0.0735762
5	0x3c6a9779	0.01431834
6	0xbca3e9cd	-0.020008946
7	0xbc55f937	-0.013059906
8	0xbd59a14c	-0.05313234
9	0xbd81619e	-0.06317447
10	0xbc374423	-0.011185679
11	0xbc3e6d5e	-0.011622755
12	0xbcd3fbb0	-0.02587685
13	0xbcf7790f	-0.030209092
14	0xbcb3b0a0	-0.021934807
15	0xbc5af73e	-0.013364611
16	0x3ce759f8	0.028241143
17	0xbcea1153	-0.028572714
18	0xbc942185	-0.01808239
19	0x3bd68ced	0.0065475614
20	0x3c90e2c2	0.017686252
21	0xbd2e5bf2	-0.042568155
22	0xbd0a0423	-0.03369535
23	0xbd23f27d	-0.040026177
24	0xbcf6e093	-0.030136382
25	0x3cd6a8ce	0.02620354
26	0x3d5640fc	0.052308068
27	0xbd7dd72a	-0.061972775
28	0xbc8246bd	-0.015902871
29	0x3ce032f6	0.02736805
30	0x3b8a8c95	0.0042281845
31	0x3bf27a1d	0.007399811
32	0xbd7b4c99	-0.061352346
33	0x3c9b9414	0.018991508
34	0xbd934b4a	-0.071920946
35	0xbd023d49	-0.031796727
36	0xbcdb1f4d	-0.026748324
37	0xbd3d4506	-0.046208404
38	0xbbf80aac	-0.0075696316
39	0xbc0214d6	-0.007939538
40	0xbc279f19	-0.010230803
41	0xbd1aeb76	-0.03782221
42	0xbd3fcb3a	-0.04682467
43	0x3a4bd8a6	0.00077761186
44	0xbd60cdfa	-0.054883935
45	0x3cf2caeb	0.029637774
46	0xbd1c8ced	-0.038220335
47	0x3b543a34	0.0032383325
48	0xbcf1f702	-0.029536728
49	0xbcab75f1	-0.020930262
50	0xbae25cbf	-0.0017270072
51	0xbc7d058b	-0.015443216
52	0xbd34f5bd	-0.044179667
53	0x3c1125ac	0.008859079
54	0xbcb3ef4e	-0.021964695
55	0xbc839e55	-0.01606671
56	0xbc87ef12	-0.01659349
57	0xbcfff96f	-0.031246869
58	0xbd500312	-0.050784178
59	0x3c8e0ead	0.017340982
60	0xbd886a58	-0.066609085
61	0x3c2b91e6	0.010471797
62	0x3d22c607	0.039739635
63	0xbc8a9dca	-0.016920943
64	0x3d0b6c80	0.03403902
65	0xbda9196f	-0.08256804
66	0xbcc8c3a8	-0.024507359
67	0x3b2de6e6	0.0026535331
68	0xbdca72c7	-0.09885173
69	0xbbd8eb90	-0.006619878
70	0xbc49ae87	-0.012309677
71	0xbd9211e3	-0.07132318
72	0xbc3e801f	-0.011627226
73	0xbda07a0f	-0.07835781
74	0x3cb7f037	0.02245341
75	0xbd84e9d4	-0.06489912
76	0xbc967425	-0.018365929
77	0xbcfade0f	-0.030623464
78	0xbbecb00f	-0.0072231363
79	0xbd7662a2	-0.060152657
80	0xbd739f5f	-0.05947816
81	0x3b1c59c3	0.0023857213
82	0xbd44c536	-0.048039638
83	0xbd16bf4d	-0.036803532
84	0xbd246848	-0.040138513
85	0xbc83c440	-0.01608479
86	0xbd7f4a24	-0.062326565
87	0xbbd1237b	-0.0063824034
88	0xbd46fda0	-0.04858172
89	0xbd3bc0cc	-0.045838162
90	0xbc36a11e	-0.011146812
91	0xbbc9b916	-0.006156097
92	0xbc2d2901	-0.010568858
93	0xbd6df2ed	-0.058093
94	0x3d164971	0.036691133
95	0x3c8ba6db	0.017047336
96	0xbd0e2908	-0.0347071
97	0xbd4a75d6	-0.049428783
98	0xbca9a75b	-0.020709684
99	0x3bc89148	0.0061208345
100	0xbc38e010	-0.011283889
101	0xbd86ebb2	-0.06587924
102	0xbcbea2df	-0.023271022
103	0x3c90e880	0.01768899
104	0xbd154b83	-0.036448967
105	0x3bca4741	0.006173045
106	0x3c48733f	0.012234508
107	0xbcc68ebb	-0.024237981
108	0xbd479bdc	-0.048732623
109	0xbd467823	-0.048454415
110	0xbddc6b0f	-0.10762607
111	0xbbac10a1	-0.0052510058
112	0xbbc70bf5	-0.0060744234
113	0x3d2a3836	0.041557513
114	0xbd146204	-0.036226287
115	0xbd2a4fc8	-0.04157999
116	0x3ccf042e	0.025270548
117	0xbd919469	-0.07108385
118	0x3aae0ffa	0.0013279908
119	0xbce9db6b	-0.02854701
120	0xbd9b6906	-0.07588391
121	0xbc38ae8d	-0.011272085
122	0xbd9ac03f	-0.07556199
123	0xbcbfefc0	-0.023429751
124	0xbd35817e	-0.044312946
125	0xbd013869	-0.031547938
126	0x3c8761f9	0.01652621
127	0x3c94a562	0.018145267
128	0xbd1a2ec5	-0.03764226
129	0xbd10bc07	-0.035335567
130	0xbcc196b3	-0.02363143
131	0xbb33904b	-0.0027399238
132	0xbadbc704	-0.0016767685
133	0xbc8b8e53	-0.017035639
134	0xbcb408f3	-0.021976924
135	0xbc661d41	-0.014045061
136	0x3b386526	0.002813646
137	0xbd9b883a	-0.075943425
138	0x3cbfea15	0.023427049
139	0x3d463a3c	0.04839538
140	0xbc88dcd6	-0.016706865
141	0xbd8dd767	-0.0692585
142	0xbd09db5a	-0.033656456
143	0xbc5cb73c	-0.013471421
144	0xbd8971dd	-0.06711171
145	0x3a51d3d9	0.0008004285
146	0xbd8fcab9	-0.07021088
147	0xbd39d431	-0.045368377
148	0xbd2a8713	-0.041632723
149	0xbd3e6d54	-0.046490982
150	0xbd5267c0	-0.051368475
151	0x3ca948ea	0.020664651
152	0xbcb3128b	-0.021859428
153	0xbcd45b5c	-0.02592247
154	0xbda07a43	-0.078358196
155	0xbdc8d3a5	-0.09805993
156	0xbd64ef9c	-0.05589257
157	0xbb1c7f45	-0.002387957
158	0xbd86311f	-0.06552338
159	0xbcd99e61	-0.026564779
160	0xbc72da6e	-0.0148225855
161	0x3c806d66	0.015677165
162	0xbd2f881e	-0.04285442
163	0x3c05d357	0.008168063
164	0xbc0ca1b4	-0.008583475
165	0x3c01ac66	0.007914638
166	0xbba2bbf8	-0.0049662553
167	0xbd451aa2	-0.048121102
168	0xbd56d42d	-0.05244844
169	0x3d345780	0.04402876
170	0xbd1656cd	-0.036703873
171	0x3c9d99dd	0.019238407
172	0xbcd40017	-0.02587895
173	0x3c9b4c7d	0.01895737
174	0xbcb58234	-0.022156812
175	0xbd5cc5e5	-0.053899664
176	0xbdbd85c8	-0.092540324
177	0xbd8974fa	-0.06711765
178	0xbc9f579d	-0.019450957
179	0xbd5c3390	-0.05376011
180	0xbca3c359	-0.01999061
181	0xbc9b3b0d	-0.018949056
182	0xbc1c83b1	-0.009552882
183	0xbc812df8	-0.01576899
184	0xbd383278	-0.044970006
185	0xbd80b380	-0.06284237
186	0x3c0e0ec9	0.008670517
187	0x3ca670b4	0.020317413
188	0xbd4d41f6	-0.050111733
189	0x3c0c22e2	0.008553239
190	0xba38aa20	-0.00070443936
191	0xbd84e587	-0.06489091
192	0xbb7e247c	-0.003877907
193	0xbcaf63ab	-0.02140983
194	0xbbd725c8	-0.006565783
195	0xbd0f436e	-0.034976415
196	0xbd329403	-0.043598186
197	0xbc0a0c23	-0.008425745
198	0xbded5101	-0.11587716
199	0x3c6d4110	0.014480844
200	0xbd39558d	-0.045247603
201	0xbd6c529e	-0.057695977
202	0xbd79acff	-0.060955998
203	0xbb23b304	-0.0024978528
204	0x3ca4a31e	0.020097312
205	0x3cbc011d	0.02294975
206	0xbd1afd8a	-0.03783945
207	0xbcab6f47	-0.020927085
208	0xbc64aec4	-0.013957683
209	0x3b24ea33	0.0025164008
210	0xbda2e973	-0.07954683
211	0xbd7b5a2f	-0.061365303
212	0xbca79de0	-0.020461023
213	0xba8109f2	-0.0009844883
214	0x3cb669d9	0.022267269
215	0x3d052c43	0.032512914
