Project/results/VPlayer-FirstButCorrected/VPlayer/VPlayer-8443610.onnx (onnx, 681794 bytes, 15 tensors)

action_model._continuous_distribution.mu.weight f4 [1, 216]
00000000: fd3c 2abd f431 263d cd85 633d 16f7 efbb
00000010: ebd9 603d 49b6 643d c856 563c dac9 d13d
00000020: 105d ff3c 1f64 5a39 3177 17be 7f4d 643d
00000030: 33ae 0cbd f17b 19bc 70a7 eb3d 6daa c7ba
00000040: 0d41 823d aefc 17bd ecf4 f23d 8f3a a2bd
00000050: c3ef 07bd f3c2 da3c 0837 3dbd aa2e b73b
00000060: c10a c73d a4a0 453d b422 9bbd 32a5 a43d
00000070: c241 3abc e35e b3bc 7edf 213d 0ff0 10bd
00000080: 7508 bb3c 0dcf 48bc 1dcf 433c d1d1 c63c
00000090: 329c 0dbd af4d bf3c 7656 e4bc b47d 0ebd
000000a0: 3f96 2c3c 9d33 82bd 635d c0bc dbf7 9bbc
000000b0: 5d0c 60bd de95 f9bc d776 54bd 81db 763d
000000c0: a404 4cbd 08bf bbbc b4d2 0e3d 71ff ec3b
000000d0: f3d9 79bc 9607 2ebd efbd 4abd cbbd 0bbd
000000e0: 50d7 843b f9ac 4dbc 6dc4 35bd 1495 ac3c
000000f0: 0c26 083d 423c ef3c 7a43 303d 396a 2a3d
00000100: 96f4 acbd 4b4b ef3c 9d46 e73c ce5c 7f3d
00000110: e560 e9bc 48a4 09be 8216 ae3c b724 7fbd
00000120: c221 a63c a131 793c 5da2 d73c 385e d23d
00000130: 4225 f3bb e881 d1bd cead 8abd 9b7f ba3d
00000140: 5e31 d3bd 2b5c c0bd 53a7 9abd caa9 ed3c
00000150: edb7 cf3d afc6 c4bc e925 f73b 169a b3bd
00000160: d214 1abd 104b 253d 4d11 703d ed9d 1abd
00000170: ce53 793c f70c 1d3d d6b0 a93c 175c 5fbd
00000180: 827c 39bd d1d7 b83d f79d d8bd 7b67 2f3e
00000190: 9325 a83d a25f a23d e547 33bd e72b a2bd
000001a0: 1913 00be 28bb 4dbc aebe 6bbd b562 123d
000001b0: 38de eb3c 96c0 31bc 6655 efbc 1252 1a3d
000001c0: 1ca1 423d 65d1 c63d f715 9e3c 2fe9 e0bd
000001d0: 3e83 25bc 20af 943c b47c 163d f253 6cbc
000001e0: 6d0d c8bc fa81 d93c 6b03 90bc 8e4d 1dbe
000001f0: 837c 08bc 23ce 9cbc 2e04 c9bd d537 01bd
00000200: bc38 26bd 8142 af3d 200c fd3d af50 a7bd
00000210: 8827 aebd b879 0cbd 5782 ddbc ccee fb3c
00000220: f977 8b3d c94a f9bc cf8e 4c3d 099c 2fbd
00000230: 18da 973d f567 ae3d c215 5c3d 37ca a3bc
00000240: 2257 313c 4053 c53d dec8 9bbd cd4d 7c3d
00000250: ee29 f9bc 27eb 51bd a060 613d 771e 903d
00000260: c4e6 1e3d 1c64 723d 7d20 ae3c c194 a83d
00000270: a3a6 20bd b812 6b39 f438 2c3c 728e dcbb
00000280: de1d 78bd d395 7fbd 5bff 783d 5ad4 8abd
00000290: 5525 873c 6ac1 6fbc 8519 be3d a5ac 13bd
000002a0: 6f65 6b3c fc2d 11bd 3621 a9bd 79f0 933d
000002b0: eb19 e6bc 8ee8 1fbd dd05 073d ef61 083c
000002c0: c208 20bd 492f a7bd 14f9 5e3d ac41 23bc
000002d0: 8193 01be 1a07 13bc 6057 d83d bb38 a8bd
000002e0: 8d24 a43d aa63 b3bc 619e 1bbe e782 1d3d
000002f0: 011b cd3d de53 31bd ee22 04bd 5b73 e4bc
00000300: 7e1d 8abc 86d6 7c3d d4fb 2c3d 0559 b7bd
00000310: 4f7f d5bd 3add 80bd 7e6a cb3c 8ca3 b4bb
00000320: 5788 b83c 16e6 61bd c277 143d fc50 db3c
00000330: 4608 783d 47e2 9fbc 6dbd ea3c 48f7 b1bd
00000340: 88fb e3bb aa5e ac3c d5a8 00bd 1ea8 52bd
00000350: a923 c7ba 3464 7c3d 892f 313d d7eb 00bc
-0.04156207 0.040574983 0.055547524 -0.007323156 0.054895323 0.055837903 0.013082214 0.10243578
0.031172305 0.00020827398 -0.14791562 0.05573797 -0.034345817 -0.009367929 0.115065455 -0.0015233286
0.06360064 -0.03710621 0.118631214 -0.079213254 -0.03318764 0.026704287 -0.04619506 0.0055902796
0.09718848 0.048248902 -0.075749785 0.08039321 -0.011368217 -0.021895831 0.03951978 -0.035385188
0.022831181 -0.012256396 0.011951235 0.02426997 -0.034572788 0.023352472 -0.027873259 -0.03478785
0.010533868 -0.06357501 -0.02348203 -0.019039085 -0.05469929 -0.03046697 -0.051871147 0.06026793
-0.049809113 -0.02291824 0.03486891 0.0072325994 -0.015249717 -0.042487703 -0.04949754 -0.034116548
0.0040539876 -0.012553447 -0.04437678 0.02106718 0.03323941 0.029203538 0.0430331 0.041605208
-0.084450886 0.029210707 0.028231913 0.062344365 -0.028488586 -0.13441575 0.021250967 -0.062290873
0.020279769 0.015209586 0.026322538 0.10271877 -0.007420213 -0.10229856 -0.06771432 0.0910637
-0.103121504 -0.0939258 -0.07551446 0.029011626 0.10142503 -0.024020521 0.007542361 -0.08769624
-0.037617512 0.04035479 0.05861025 -0.037748266 0.0152177345 0.038342442 0.020714205 -0.054531183
-0.045284756 0.09025539 -0.105770044 0.17129318 0.08210292 0.07928397 -0.043769736 -0.0791853
-0.12507285 -0.012556829 -0.057554893 0.035738666 0.028792486 -0.010849139 -0.029215526 0.037675925
0.047516927 0.097079076 0.019297583 -0.10981976 -0.010102091 0.018149912 0.03674002 -0.014424311
-0.024420464 0.026551235 -0.017579755 -0.15361616 -0.008330467 -0.019141262 -0.0981525 -0.031547386
-0.04058145 0.085576065 0.12355828 -0.08169686 -0.08503634 -0.034295768 -0.02703969 0.030753516
0.06809992 -0.030431168 0.04994088 -0.042873416 0.07414645 0.08515922 0.053731687 -0.019993884
0.010823997 0.09635019 -0.07606672 0.061597634 -0.030415501 -0.05124965 0.05502379 0.07037061
0.038794294 0.059177503 0.021255726 0.082314976 -0.039221417 0.0002241832 0.010511626 -0.006730848
-0.06057536 -0.062398743 0.0607904 -0.06778784 0.016497293 -0.014633516 0.09282211 -0.03605332
0.014367445 -0.035444245 -0.082582876 0.07223601 -0.02808853 -0.03904014 0.032964576 0.00832413
-0.039070852 -0.08163316 0.05443676 -0.009964388 -0.12653925 -0.008973861 0.105635405 -0.082139455
0.08014784 -0.02189811 -0.15197136 0.038454916 0.10014916 -0.043292873 -0.032259874 -0.027887037
-0.016859766 0.061728023 0.04223235 -0.08952526 -0.10424673 -0.062921956 0.024831053 -0.0055126604
0.02252595 -0.055151068 0.036247022 0.026772015 0.060554765 -0.019517077 0.028654778 -0.08689743
-0.006957475 0.021041233 -0.03141101 -0.05142986 -0.0015193123 0.061619 0.043258224 -0.007868729

action_model._discrete_distribution.branches.0.bias f4 [3]
00000000: 5170 b53d 48a8 3dbe 1faf a13d
0.08859313 -0.18521225 0.0789473

action_model._discrete_distribution.branches.0.weight f4 [3, 216]
00000000: 2819 0e3d e7ba 46bc 26ec 5dbd bd95 b53c
00000010: ef60 bc3d 1c04 57bd 0c61 233d ea4f 803d
00000020: 7f6a c93c ef3b cd3d 1b73 083e e628 593d
00000030: f1ec ac3d 001c be3d 2348 543c 798e 0ebe
00000040: 88db a03d 0522 49be cd33 3b3d 79c6 6dbd
00000050: affd 14be df9d 1a3d 7fdc 6dbd 3dfd 55bd
00000060: 6b6f 6b3d 3cf5 5dbe 59a7 4b3c 3d51 e7bd
00000070: 9862 4d3e 6af4 b9bd ed01 20be cf7f 9ebd
00000080: 2bba 2bbb 8b87 773d 7569 af3d 0612 363d
00000090: 7f23 703d 26b4 40bc 1979 18be 5852 293d
000000a0: cfc9 813d 1d22 013e 6426 febd 8afd 573e
000000b0: 4d37 28be b252 ae3d 0df8 dbbd 7ddb a8bd
000000c0: e2c9 373e 45a5 b9bd 8863 2abe 790c 20bc
000000d0: b1f8 67be 8b50 0a3d 2663 92bd 6c80 8e3c
000000e0: d187 10be bfb8 6a3d 03b2 b03b 9cb5 9c3d
000000f0: ef9a 753d 7a37 e13b d7c8 3a3c d3db c0bb
00000100: ae20 823e d9a3 1bbd cae9 f53d 45ca 32bc
00000110: a59e 8dbd 87ae c03d dafa f23d d947 0bbe
00000120: 6767 4c3d 3612 86bd f9bb 603d 5b39 523d
00000130: ba4e 233d 9369 8f3b 3306 01be 7f15 afbd
00000140: c080 f93a 5e21 043e 5759 743d e013 563d
00000150: 4526 03bd a356 a63d aa12 af3c 9391 96bc
00000160: fb4d f8bd 978b f5bc 060b 39bd 92e9 6fbe
00000170: 66d5 af3d 3a0d 963c a615 21be 86e3 7dbd
00000180: 7022 42bb 9aec 9ebd b500 9bbd 6575 4bbd
00000190: 0f57 98bd 5fe7 203c 9758 903d b2f7 cf3b
000001a0: cec2 50be 90e2 20be e581 42be e5f3 f13d
000001b0: 1fbd 3a3d 2180 093e 80d1 1abd 9d9f 65bd
000001c0: 13c5 37bc fcfc eebc 0820 bd3d 09e9 1e3e
000001d0: 1330 cebd 211f 1fbe 7f1f 003b e895 cebc
000001e0: ccc3 1bbd c68b eb3b 1e76 abbd 312b a6bd
000001f0: e098 873d 2232 99be be93 e6bd e03a 5fbc
00000200: 6f8e 843d 91f7 32be 5e16 f63b 1ad7 9fbd
00000210: 1431 f13c 0639 e3bc 9310 bbbd 5cbb c7bd
00000220: 3186 47be 26b2 07be 6c66 26be 8079 50be
00000230: 3a86 cd3d 4d0b aabd d23e 6fbc c19d 16bc
00000240: a5e9 97bd 8a68 953d fadc 283c 51b3 c73d
00000250: 0f21 59b9 97ac 60bc 1c07 953e b75e 39bd
00000260: c4e3 a93c d0b6 17be 8298 683d 296b 803d
00000270: ec89 24be f118 11be 8e66 51be 1d96 31be
00000280: 936a 8f3d d386 63bd 4aee b03c b126 f1bd
00000290: 6b5c d2bd 186a c1bc eef3 b8bb a83b 223d
000002a0: c92a dcbd 1d3b 013e 50a9 453d cef3 26bd
000002b0: 4f47 b7bd fc98 acbb ae30 02bd bffb 27bd
000002c0: 95a3 38bd acb9 ea3d 8a73 d53c d8e8 da3c
000002d0: 67a7 13be 6071 d23d 2ed4 84bd e70c 19be
000002e0: ab7e c03b 7d34 0fbe bb0f e7bb 4bbf fbbb
000002f0: 587d 233c 5d0e 58bd 5c7e 3e3d e160 693d
00000300: 0818 24bd 0d1a bf3c 7edb 16be 2280 00be
00000310: cb9d 813c cb24 3fbd 4fd1 73bd 2657 9e3d
00000320: 82a2 603e cd00 083e 36aa 8bbc 8417 1dbe
00000330: 8013 ebbc 584b b23c e2d3 323e ff8b 1dbc
00000340: 1438 6ebe e5dd 8bbe a5dc c33d b506 1c3e
00000350: 0cca b1bd a065 87be 70ac 97bd df36 5bbd
00000360: 579b 053d dbed 433e 191e f93c 9be9 763a
00000370: e422 ac3c d697 213d d47a b13d 0752 8d3d
00000380: 4083 f53d 1857 23bd 78e9 41bd 9f34 a43d
00000390: f19c 9f3c 33c7 fe39 8571 6e3e efb1 903e
000003a0: eb13 9cbc 3667 08bd 4154 293d 0f29 e5bc
000003b0: cd8a ab3b bb29 a13d c34b 09bc d62a 87be
000003c0: cd29 fabb b21c 743d dfc3 0d3d cc40 22bd
000003d0: 407e 8dbc e5d9 0dbd 06e2 d9bc 085f b0bd
000003e0: eee4 923d 581d 1c3c 9f9b b3bd 7f1f a7bd
000003f0: 70ff c7bd a176 8b3d b004 f43c 244e 2f3d
0.03469196 -0.012129522 -0.054180287 0.022166127 0.09198176 -0.052494153 0.039887473 0.062652424
0.024586914 0.10021197 0.13325159 0.05301752 0.084436305 0.09282684 0.012956652 -0.13921537
0.07854372 -0.19641884 0.045703698 -0.058050606 -0.14549898 0.037748214 -0.05807161 -0.05224346
0.057479303 -0.2167558 0.0124300355 -0.11294792 0.20057142 -0.090798214 -0.15625735 -0.07739221
-0.0026203494 0.060432 0.08565036 0.044450782 0.0586276 -0.011761701 -0.14889945 0.041338295
0.0633732 0.1261067 -0.12409666 0.21092811 -0.16427346 0.08511867 -0.10740671 -0.08244989
0.17948106 -0.09064726 -0.1663953 -0.009768599 -0.22653462 0.033768218 -0.07147817 0.01739522
-0.1411431 0.057305094 0.0053923144 0.07651827 0.05996221 0.0068730684 0.011400423 -0.00588558
0.25415558 -0.037998054 0.12007482 -0.010912483 -0.06915025 0.094082884 0.118642524 -0.13601626
0.0499033 -0.06546442 0.054866765 0.05132423 0.03987 0.004376599 -0.12600021 -0.08549022
0.0019035563 0.12903354 0.059655514 0.052265048 -0.03201892 0.081219934 0.021371204 -0.018379962
-0.121242486 -0.029973788 -0.04517653 -0.23428944 0.085856244 0.018316854 -0.15730914 -0.06198456
-0.0029622577 -0.07759972 -0.07568494 -0.049672503 -0.0743848 0.009820788 0.07048147 0.0063466663
-0.20386812 -0.15711427 -0.18994863 0.11814097 0.045590516 0.13427784 -0.03779745 -0.056060422
-0.01121642 -0.029173367 0.09234625 0.15518583 -0.10067763 -0.15539218 0.0019550023 -0.025217965
-0.038028523 0.007188293 -0.083721384 -0.08113707 0.066209555 -0.2992106 -0.11258648 -0.013624877
0.064724796 -0.17477252 0.0075099906 -0.07804699 0.029442348 -0.027737152 -0.09134021 -0.09752533
-0.19484784 -0.13251552 -0.16250008 -0.20358849 0.10035367 -0.08302937 -0.01460238 -0.009192885
-0.07417611 0.0729533 0.010306591 0.09750999 -0.00020707048 -0.013713024 0.29106987 -0.045256343
0.02073849 -0.14815831 0.056786068 0.06270439 -0.16068238 -0.1416967 -0.20449278 -0.1734242
0.07002749 -0.0555485 0.021598 -0.11774958 -0.102715336 -0.02361016 -0.005644313 0.039607674
-0.10750348 0.12620206 0.048257172 -0.040759854 -0.08949148 -0.0052672606 -0.031784706 -0.04101157
-0.04507788 0.11461195 0.02605607 0.026722357 -0.14419328 0.10275531 -0.064857826 -0.14946328
0.005874475 -0.13984866 -0.0070514358 -0.007682716 0.009978615 -0.052748073 0.046507224 0.056977157
-0.04006198 0.023327852 -0.14732167 -0.12548879 0.015822312 -0.046665948 -0.059525784 0.07731466
0.21936992 0.13281555 -0.017048936 -0.15341002 -0.028695822 0.021764442 0.1746364 -0.009615897
-0.2326358 -0.2731773 0.09563569 0.15236934 -0.086811155 -0.2644472 -0.07405937 -0.053519126
0.032618847 0.19133703 0.03040986 0.0009418965 0.02101273 0.039451443 0.08666006 0.06900411
0.119879246 -0.03987798 -0.047341794 0.08017849 0.019484015 0.0004859507 0.23285492 0.28260753
-0.019052466 -0.033301555 0.041340116 -0.02797368 0.005235052 0.078692876 -0.008379879 -0.2639987
-0.0076343776 0.05959768 0.034610625 -0.039612576 -0.017272115 -0.03463163 -0.026597034 -0.08611876
0.07172571 0.0095284805 -0.08769917 -0.08160304 -0.09765518 0.06809736 0.029787391 0.04279913

action_model._discrete_distribution.branches.1.bias f4 [3]
00000000: e0b9 8fbc b657 ed3d ba7c d1bd
-0.017544687 0.11588995 -0.10228868

action_model._discrete_distribution.branches.1.weight f4 [3, 216]
00000000: ba8f 61bd 2ea3 443e 3cd7 f5bd 1fc5 3bbe
00000010: abc9 0bbe 0c85 20bd 7176 47be 668b ed3c
00000020: b7df 953d e7a1 8fbe 241f bebd 1235 863d
00000030: d764 9b3d 8e19 1bbe 9c91 883d aa9b 7cbd
00000040: 34ca bebd 4ac2 273d d01f 983b 4662 17be
00000050: 3fec f53c dfdd 033e eb5b 923d 14e9 e43c
00000060: 5f10 8f3c 23e5 f63d ccc9 a1bc a617 e33d
00000070: 3355 babc aead a73d 0ffb 8e3c 39b5 f13b
00000080: 61d2 26be 6490 fc3d 1233 c4bd 7b14 d73d
00000090: 93a6 eabd 9ceb 14bd 1e65 06be 6d88 4cbe
000000a0: 85ac 473e aa75 90bc c21c b63d ff34 da3d
000000b0: beff 043e 0f8d 73bc 8809 d3bc d049 c6bd
000000c0: 4e6e 413e aba2 3f3d a034 69be c35e 6e3e
000000d0: 22dc 5a3d 17f7 4f3d f1c7 733d d353 453e
000000e0: 6e61 e2bd 58d2 15be 7a8d 27be 62dd 91be
000000f0: 9451 273d 5f05 93bd c598 68be 6050 143d
00000100: 7b7d af3d 0d09 913c 3e68 60be a055 1d3d
00000110: 8199 22be f23d 28be af5d 89bd 16f4 e9bd
00000120: d3e3 453e efd3 f03c 8123 863e 2a1d 493d
00000130: 11cc 87be 9680 b6bd 4202 8fbc 0859 083d
00000140: fb4b d3bd ea44 873d 6d88 41bd 6bee 163d
00000150: 9c63 f5bd 3f29 2e3e ac45 3bbe 9e37 8c3c
00000160: fd73 983e 68f6 dabd 50f3 9b3c afc8 483d
00000170: 86e5 dfbd 212e ee3d a86e 333d 3eb0 9f3d
00000180: 62c6 803e d630 debb 4a3f e73b e2f1 213e
00000190: 1603 203d 3496 84bd 8fb6 7c3b 3c72 2bbe
000001a0: 17e4 383d 16e1 0f3e 6609 14bd b812 603d
000001b0: a756 9a3c 5ea1 4f3d f092 3b3d 11c2 a4bc
000001c0: 7a43 313d 6da5 87bd e784 fe3d 1840 04be
000001d0: 22b3 8cbd a051 b63d d55a 7e3c b7c6 40be
000001e0: 543d 533d 6269 8f3d 862e 053e 24ba ba3d
000001f0: ee2a 3b3d 67a5 b13d 6c1d a5bc 38f4 3b3e
00000200: ff3c f83c 4617 71bc de64 3fbd e546 5f3d
00000210: 9130 cdbc f282 cfbd 0051 39bd 3d33 19be
00000220: ec1e a83d 9dc8 3fbc 3e15 f53d cadb 533d
00000230: 5699 30be a68a cd3d 5aac 87bd 346e 0b3e
00000240: 3ddc a43d 54c1 923d 35d5 933c e94e 66bd
00000250: 3e79 993c bfe2 67b9 38bc 4d3d f1ec bcbc
00000260: 2bfc adbc 71b2 e7bb 1fd0 ad3d 48ad 963d
00000270: 6dc1 aa3b 7a32 d9bc 307f 2fbb 3353 3ebe
00000280: 326a 97bc 54fe 41bd 37cc 643d 6032 41bd
00000290: f9cc 57bc c008 9ebd aac2 00be efd4 d7bd
000002a0: a127 15be f814 be3d e75b 2ebe 81a4 98bd
000002b0: 2731 863d 2a4b 033e 08b2 3b3e 8de2 35be
000002c0: 116a 5d3d dca7 0cbe c7f3 12be 46cf 17be
000002d0: 808f c13d 8407 d43d 6fa6 f73d 88ec bcbc
000002e0: 4e18 0c3d 4d78 08bd 155f dabc 7a31 6d3d
000002f0: b0f4 a73d 0860 f6bb 5779 f23d d822 3bbc
00000300: 1f36 8dbd 7053 e23d be39 913d b125 ee3c
00000310: 7bd7 873d b514 893d 7e0a 1d3e 0b3b 3a3e
00000320: 76d8 443e d75f db3d 71dd 043e d30d 203d
00000330: 0390 e83d 6e32 303d 4576 e73d 57c9 a7bd
00000340: c9dc 0abe 0673 0f3e 3760 45bc 9b39 193e
00000350: 251f 6f3d d706 003e c38e 183e 5749 7c3d
00000360: 6737 69bd a2a1 4cbe b682 173b ab4c bd3d
00000370: a835 563e ce00 9e3d c502 e73d dae9 403e
00000380: 08d8 6a3c c885 e43e d309 963d 544c 8fbd
00000390: 565e f7bc 594d 613e dc00 5cbe a1c0 54bd
000003a0: 370d 2d3d b3aa 17bc 812e 023d c1b1 af3d
000003b0: 8542 0bbe 5691 babd 88d8 0ebc 2bfb 553d
000003c0: 2a70 21bc 9652 2bbe c5c9 81bc d3fb c1bd
000003d0: 2fc5 9bbb e954 2dbe f78f 6bbe 195e 483d
000003e0: 0b39 4e3e 7738 2ebd eafe 4dbe a61e 943d
000003f0: 66ec 103d c5ea 483c bfd5 173e 4461 e33b
-0.05506871 0.19202873 -0.12003943 -0.18336914 -0.13651149 -0.039189383 -0.19478776 0.028997134
0.07318061 -0.2805321 -0.09283283 0.06553091 0.07587593 -0.15146467 0.06668398 -0.06167189
-0.09315911 0.040956773 0.004642464 -0.14783582 0.030019877 0.12877606 0.07146438 0.027943172
0.017463861 0.12055423 -0.019749545 0.11088495 -0.022745704 0.08187424 0.017453698 0.0073763398
-0.1629119 0.12332228 -0.095800534 0.10501953 -0.11457553 -0.036357507 -0.1312451 -0.19973917
0.19499405 -0.017634232 0.08892204 0.106546395 0.12988183 -0.014865174 -0.02576138 -0.09682047
0.18889734 0.04678599 -0.22773981 0.23278336 0.05343259 0.050772753 0.05951685 0.19270258
-0.110537395 -0.14631021 -0.16362563 -0.28489214 0.040849283 -0.07178759 -0.22714527 0.036209464
0.085688554 0.017704511 -0.21914765 0.038411736 -0.1587887 -0.1642988 -0.06707322 -0.11423509
0.1932519 0.029397933 0.26198962 0.04910008 -0.26522878 -0.089112446 -0.017457131 0.03328803
-0.103172265 0.06604941 -0.047249246 0.036848467 -0.119818896 0.17007922 -0.18288296 0.017116364
0.29775992 -0.106915295 0.019036919 0.04901951 -0.1093245 0.11629892 0.043806702 0.077972874
0.25151354 -0.006780724 0.007057105 0.15814927 0.039065443 -0.064739615 0.0038560962 -0.16742796
0.0451394 0.14050707 -0.036141776 0.05470535 0.018840147 0.050691 0.045794427 -0.02011207
0.04327724 -0.06623349 0.12427693 -0.12915075 -0.06870104 0.089022875 0.015524586 -0.18825804
0.05157216 0.07002522 0.13006029 0.09117535 0.045695238 0.08674126 -0.020155631 0.18354881
0.030302523 -0.0147150215 -0.046727054 0.05451097 -0.025047572 -0.10132398 -0.045243263 -0.14960952
0.08209023 -0.011705545 0.11966942 0.05172328 -0.17245993 0.10036211 -0.0662467 0.13616258
0.080498196 0.07165781 0.018046001 -0.0562276 0.01873457 -0.00022114346 0.050228328 -0.023062201
-0.021238407 -0.0070708324 0.084869616 0.073572695 0.0052110464 -0.026513327 -0.002677869 -0.18586425
-0.018483255 -0.047361687 0.055858817 -0.047167182 -0.013171428 -0.07716513 -0.12574258 -0.10538661
-0.14565898 0.09281343 -0.17027245 -0.07453252 0.06552344 0.12821642 0.18329632 -0.17762204
0.05405623 -0.13735908 -0.14350806 -0.14825162 0.094511986 0.10352996 0.120922916 -0.023062006
0.034202866 -0.033317853 -0.026656667 0.057908513 0.08200967 -0.007518772 0.1183955 -0.011421882
-0.068950884 0.11051071 0.070910916 0.029070707 0.066328965 0.06693403 0.15336034 0.18186586
0.19223198 0.107116394 0.12975098 0.039075684 0.11355593 0.043016843 0.11301855 -0.081926994
-0.13560785 0.14008722 -0.012046865 0.14963381 0.05837931 0.12502609 0.1489821 0.06159338
-0.0569376 -0.19983533 0.0023118681 0.09243139 0.20918906 0.07714997 0.11279825 0.18839207
0.014333732 0.44633317 0.073260926 -0.0699698 -0.03019635 0.22002162 -0.21484703 -0.051941518
0.04224893 -0.009257006 0.03178263 0.08578826 -0.13599594 -0.09109752 -0.008718617 0.052241486
-0.009853402 -0.16730723 -0.015843282 -0.0947186 -0.0047537307 -0.16926922 -0.23004137 0.048917864
0.20138948 -0.042534318 -0.20116773 0.07232408 0.035381697 0.012263005 0.14827631 0.006939085

action_model._discrete_distribution.branches.2.bias f4 [3]
00000000: 74cd 813c 4c20 2bbd a2d0 e33c
0.015845038 -0.041778848 0.027809445

action_model._discrete_distribution.branches.2.weight f4 [3, 216]
00000000: 2212 ad3c 8c46 f2bc b641 c6bd 7645 ce3d
00000010: 6661 14bd 0ac4 bc3d 1835 ad3d fa82 3e3d
00000020: 3595 183d d2a7 d9bc fb56 acbd 4c10 c0bb
00000030: a812 16be 9dea 523d bde5 54be 53d6 18bc
00000040: 19e7 db3c 1221 9e3c 0b1d 823c f39d a0bc
00000050: 77a3 1c3e fa3c 36be bee7 d8bd 546e 8cbd
00000060: f428 ac3d 3710 28be 698b 0c3e 1f82 cbbc
00000070: 4c2b 813e 217e 163d cd5c 45bd 8fec 163d
00000080: b59d a93b 6c5f 70bc e0c1 ce3d 6763 a43d
00000090: 823b 623b 3d75 e63b e85f 033d 6feb 643c
000000a0: ba19 87bc 1481 a7bc f87e 5fbd af8e 16bd
000000b0: bc95 eebb d97f 44bd 0cd2 a53b cc91 bd3d
000000c0: 62e9 ed3c b386 dd3d 9d26 2b3d 0165 8c3e
000000d0: 2829 05bd a9cb 333e 194c 16bd 7573 56bd
000000e0: dd24 27bd 5d56 ed3c 998a cfbb 62a7 2e3e
000000f0: e6ca 18bd 61e7 0b3c 7348 053d bc9a 443d
00000100: bddf d43d 72b2 d3bd c663 60bd 6a18 223d
00000110: 3fb6 84be b78d 2abd 58de 2e3e d140 bcbd
00000120: 88d4 9a3d edfb 4abc 1c9a 313e 9d53 9fbd
00000130: b541 edbd d92e 1b3e 51c1 563d 22f5 28bd
00000140: 86c6 2fbd 102d d5bd f8b1 83be 8e6b 6dbd
00000150: 8751 f5bd d75c 04be fd04 533e 8724 433d
00000160: 172e 333d 5f6c 443b 270a 2c3d 677c b0bd
00000170: d387 cc3d f9fc 293d bf40 493e bfa4 bd3d
00000180: 5d70 ce3d a056 6e3c 318b db3b 1b21 733c
00000190: 2cae 933c cfd2 23bb edf2 463b c078 64bc
000001a0: a685 b7bd 0ff7 c13d 9f45 d7bd 8b1b 173e
000001b0: 53bc 08bd d9b8 093d 0275 553c bbc0 3c3e
000001c0: 20d5 62bb a335 453d 07e6 843d cbf5 f8bc
000001d0: a206 abbd 71d1 a2bc b83c 3dbe 9206 d2bd
000001e0: 79e1 bd3d 5274 b8bd dc2c 0bbd e2b3 bbbd
000001f0: 2825 2d3e 29cc efbb 971b 8d3d cbe1 0bbd
00000200: e139 bdbc a97c 6e3d 7375 b33c 9cb2 023e
00000210: 402d 2f3d 86c3 debc bbcb 783d f36d 7dbd
00000220: 57fb ec3d 76f9 43bb 4352 9d3d 62b1 233e
00000230: bc4b ac3c ebea a2bd 16c4 293e 9fd2 b0bc
00000240: 72b9 0d3e 72bf 1c3c c90b d83d 3b9b 17bd
00000250: f838 2fbd 3521 66bc f45a 41bc 94ba 7f3d
00000260: 300e a93d d27a 49bc 55a6 093e 24f1 443d
00000270: 21d6 d7bc 5cd5 f6bc cf64 f8bd e7e7 d13d
00000280: 84c2 223e 84e0 9f3b ef8b 1c3d 27da d4bd
00000290: ebf4 8f3c cf23 943d 98dd d7bb 41e4 e7bb
000002a0: 1ea4 84bd f25b 413b ee8a 81bd dc85 003d
000002b0: 43e4 78bc e7a3 683d 93c9 17be bc81 52be
000002c0: 443d d53c a762 f63c 4416 58be a6df 793d
000002d0: 1464 53be 9c4f e1bd 0d28 fcbd ce75 ff3d
000002e0: 562a ebbd d64c 23bc b46a 9abc a466 afbd
000002f0: 1d85 28bd 7c23 f13c 9d7e 843e 4e83 08be
00000300: 320c 4fbe b31f 913d 9db5 1d3e 85a9 b53d
00000310: dbad 87bb cb35 59be a105 583e 10c2 26bd
00000320: 263b 9abc 536c bb3d e1b6 d83d 1909 70be
00000330: 445d 1bbd 25d5 8dbe 9282 7c3d 64dc 07be
00000340: bd46 c2bd fd43 15bd d771 b23d 91b0 bdbd
00000350: 4ea1 17bd 325e 493e 60dd 05bd f91e f4bc
00000360: 5cbd 9d3c 547b d1bd 0395 a13d 2072 a8bc
00000370: ffac 67bd 56ca 4e3c 9f31 e13c aba9 e7bc
00000380: 948e aabd 1862 b33d bc06 853c dc73 d2bb
00000390: 65d5 403d 0002 4c3d 02b7 433e d04e 603d
000003a0: 38e5 debd d886 74bd 23b4 223d 098d 0dbe
000003b0: a306 a53c 1823 1ebd c713 12be b411 153e
000003c0: af61 87bd 6d0e 013e 9377 01be c3d9 723d
000003d0: d18a 3dbe 84cc 773b f475 913d 66d0 263d
000003e0: c811 3fbc dbb1 3bbe 3b0b 993d ffe2 833d
000003f0: b6fb ffbb f42b dabd 052d 9ebc e1db 56bc
0.02112681 -0.029574655 -0.09680502 0.10071842 -0.0362257 0.09217079 0.084573925 0.046511628
0.03725167 -0.02656928 -0.08415028 -0.0058613177 -0.14655554 0.051493276 -0.20790763 -0.009328443
0.026843594 0.019302879 0.01588299 -0.019606566 0.15296732 -0.17796698 -0.10591076 -0.06856981
0.08406249 -0.16412435 0.13725056 -0.02484232 0.25228345 0.03674138 -0.048184205 0.036846694
0.005176271 -0.014671188 0.100955725 0.08026772 0.0034520333 0.007033019 0.032073885 0.013972147
-0.01649176 -0.020447291 -0.054564446 -0.036757167 -0.0072810333 -0.047973488 0.00506044 0.09256324
0.02904195 0.108167075 0.04178487 0.2742081 -0.032509953 0.17558159 -0.036693666 -0.052356202
-0.04080664 0.028971845 -0.006333661 0.17056039 -0.037302874 0.008539052 0.032539796 0.04799913
0.10394237 -0.1033677 -0.05478265 0.039574064 -0.25920293 -0.041639056 0.17077005 -0.0919205
0.07560068 -0.012389165 0.17343944 -0.0777962 -0.11584798 0.1515459 0.052430455 -0.041249402
-0.042913936 -0.104089856 -0.25721717 -0.0579639 -0.11978441 -0.1292604 0.20607372 0.047642257
0.043745127 0.002997182 0.04200187 -0.08617478 0.09986844 0.04150102 0.19653605 0.092599384
0.10080025 0.01454702 0.0066999425 0.014839436 0.018027388 -0.0024997478 0.0030357197 -0.013944805
-0.08961038 0.09470951 -0.10511326 0.147566 -0.033382725 0.03362355 0.013028385 0.18432896
-0.0034611896 0.048146855 0.06489187 -0.03039064 -0.083508745 -0.01987526 -0.18480194 -0.102551594
0.09271521 -0.09006561 -0.033978328 -0.09165169 0.16908705 -0.007318039 0.06890028 -0.03415088
-0.023098888 0.058224354 0.02190659 0.12763447 0.042767763 -0.027192842 0.060741168 -0.061872434
0.11571377 -0.002990333 0.07681706 0.15985635 0.021032207 -0.07954963 0.16578707 -0.021584807
0.13840273 0.0095671285 0.10549123 -0.037013274 -0.04277894 -0.014046003 -0.01180147 0.062433794
0.08254659 -0.012297349 0.13442357 0.048081532 -0.026347222 -0.030131035 -0.12128603 0.1024931
0.15894514 0.0048790593 0.03821939 -0.10393172 0.01757284 0.072333924 -0.0065876953 -0.0070767705
-0.06476615 0.0029504267 -0.06325327 0.03137766 -0.015191141 0.056796934 -0.14822988 -0.20557302
0.02603019 0.030076338 -0.21102244 0.061004303 -0.20643646 -0.110015124 -0.123123266 0.12473641
-0.11482684 -0.00996705 -0.018849708 -0.08564499 -0.04114257 0.029435866 0.25877848 -0.13331339
-0.20219496 0.07086124 0.15401311 0.08870224 -0.0041405982 -0.21211927 0.21095897 -0.040712416
-0.018827032 0.091515206 0.105817564 -0.2344097 -0.037930742 -0.2770168 0.06164796 -0.13267666
-0.094861485 -0.03644179 0.087131195 -0.09262193 -0.037019067 0.19664839 -0.032681823 -0.029799925
0.019255333 -0.10228601 0.0788975 -0.020562232 -0.056561466 0.012621483 0.027489481 -0.028279146
-0.08327976 0.08758944 0.016238563 -0.006422503 0.04707851 0.049806595 0.1911278 0.05476266
-0.10883564 -0.05969891 0.039722573 -0.13823332 0.020144766 -0.038607687 -0.14265357 0.14557534
-0.066104285 0.12603159 -0.1264327 0.059289705 -0.18509986 0.003781111 0.07102576 0.040726088
-0.011661954 -0.18329565 0.07472845 0.064397804 -0.0078119887 -0.10652915 -0.019308576 -0.013113947

network_body.linear_encoder.seq_layers.0.bias f4 [216]
00000000: c0dd 24bc 1dd8 833c e2a7 f63b 951f 183d
00000010: bc7d 4f3d 4d15 9bbd 6657 b43c 2d26 fc38
00000020: 8ad9 5bbd 86a6 d2ba 104f 02bd b83e 36bd
00000030: df4e 7b3a e84f 2ebd 44cd 23bd c6e8 03bc
00000040: a047 97bc 4a2b 95bc 5bd6 0ebd c4e9 8b3d
00000050: 53f8 52bc a1ae 5f3c c038 223d 8c05 32bd
00000060: 262e 56bd 57f4 0fbd 3cf2 c7bd ba71 263d
00000070: 15e2 10bd 6a0c 983c d81b fa3d 4ec9 923b
00000080: 0e1a 2fbd ceea 56bd a2b9 623d 535d c138
00000090: 5749 79bc 20b3 bcbd df81 92bd 0b1d 6dbd
000000a0: 18af 0c3d 8851 b73c 8483 e1bc 167e bdbc
000000b0: a894 bebc e4f8 f6bc d44d c9bd c299 8c3c
000000c0: d716 c3bc b1a1 d5bc 74fe b53a 2979 d13d
000000d0: aa89 773d d888 8abc 7e2f 7cbc 3fd4 e43c
000000e0: 3a19 76bd 988b a3bd 66aa 5abb bfc2 9dbc
000000f0: 5a66 35bc 949b 723b 7e9e 35bd bb48 3ebb
00000100: 651d 50bd 5a44 19bc dfe0 a9bc 7fb8 58bb
00000110: 19da b6bc b189 ba3b 059c 35bd 571e 953b
00000120: 6f77 80bd 90d0 19bd da72 33bd 0c0c 573a
00000130: f1d4 213d 8b8c b83c f08d 333d db93 a4bc
00000140: f712 b53c 1cbe 3e3d 2da8 64bb 17c2 1db9
00000150: 11f4 ff3c 470d c23c 686e 003c ed80 52bc
00000160: 42ee 5d3d b8fc 76bc 1215 1f3c f296 6a3d
00000170: 748c f03c ca89 8fbd d768 63bb e9e1 8fbc
00000180: 0c44 c5ba b206 a73d 15ac ee3b 20e2 713d
00000190: 94ca 95bc 3121 5b3c e158 45bd f255 0ebb
000001a0: a828 d4bc 391a 20bc f2fd a8bd c440 1ebd
000001b0: 9f0a c03c 370e 9f3d 6726 54bb 8bb4 8d3c
000001c0: 9229 65bd 908e 4b3b f5b8 6ebb 5248 09bd
000001d0: ff3c baba b48d c73c 443c a3bc b01f d0bc
000001e0: 1d16 623d 4dc4 ecbb 7366 3abd f241 bebc
000001f0: 8f6a 063c afe0 42bd ca04 0d3c 4669 38bc
00000200: fc17 fcbc a632 2ebd c870 26bc 8bb6 babc
00000210: e9d7 4cbc 12e3 813c a658 89bd 9b17 aebd
00000220: 98fb 8ebd aa07 9e3c e794 46bd f280 96bc
00000230: cd83 93bc b0c5 8d3d 0444 96bc ae76 71bd
00000240: 2528 d3bc 91d1 95bd 8bd9 75bd 37ab 51bd
00000250: db55 413c 4b71 69bd 5609 76bd 9ed7 883c
00000260: 59ee 4fbd 724a 47bd 45ce 4cbd e6b5 d7bd
00000270: 3cad e03c a4df aa3d 9508 dd3a efc2 2bbb
00000280: fd69 46bd 1b8f 893c 6262 5a3d 0753 073c
00000290: 1e30 183d c9d7 863b d917 e4bc 2e83 20bd
000002a0: 7cb9 85bc 3755 11bd 1f82 c73b ea98 9e3d
000002b0: 27f5 6dbd 7cea 583d f800 80bd fbf5 0f3d
000002c0: 6ebf b6bd 47b8 5cbc e955 933d 22a0 3ebb
000002d0: 744d a93c 7538 87bd 62a3 1cbc 1865 463d
000002e0: 50ab 6c3d 297a 24bd 0675 96bd 5c3d 5cbd
000002f0: 4948 14bc 4bee a73b 6925 d4bd 064a 00bd
00000300: 0c29 67bd 7fa3 3ebb 0bcd ff3b 96c7 2ebd
00000310: 4540 3abd 6480 793d f7af f5bc fee7 1d3b
00000320: 8f75 573d 7f41 2f3d 1f1e 933c e80b 833b
00000330: 78d8 c8bd 636f 2fbd c6f4 85bd 7fc9 5d3d
00000340: 48e2 063d 6b4d adbd 97d4 6fbb 3a5c a43c
00000350: 9a87 7bbd a711 593a 0bb4 eabc 16b7 e9bc
-0.010062635 0.016094262 0.0075273374 0.037139494 0.05065702 -0.07572422 0.022014331 0.00012023407
-0.05367426 -0.0016071356 -0.03181368 -0.044493407 0.0009586643 -0.042556673 -0.03999068 -0.008051103
-0.01846677 -0.018209118 -0.034872394 0.06831697 -0.012876588 0.013652475 0.039604902 -0.04346232
-0.052290104 -0.03514513 -0.097629994 0.0406358 -0.03537186 0.018560607 0.12212342 0.004479564
-0.042749457 -0.05247002 0.055352814 9.22034e-05 -0.0152152395 -0.09213853 -0.07153677 -0.057889026
0.03434667 0.022377744 -0.027528532 -0.023131412 -0.023264244 -0.030147977 -0.09829298 0.017163161
-0.023814602 -0.026078077 0.0013885037 0.102281876 0.06043402 -0.016910955 -0.015392182 0.027933238
-0.06008265 -0.0798561 -0.0033365726 -0.019257901 -0.011071766 0.0037019001 -0.044340603 -0.002903505
-0.050809283 -0.009354675 -0.02073711 -0.0033068953 -0.022320794 0.0056926836 -0.044338245 0.004550736
-0.0627278 -0.037552416 -0.043810703 0.0008203394 0.039509717 0.022527954 0.043836534 -0.020090034
0.02210377 0.04656802 -0.003489028 -0.00015044991 0.03124431 0.023687972 0.007838823 -0.012848121
0.0541823 -0.015074901 0.009709613 0.05727286 0.029363848 -0.07008703 -0.003469994 -0.017563777
-0.0015050187 0.08155574 0.0072836974 0.05905354 -0.018285073 0.013374613 -0.048180465 -0.0021718708
-0.025898293 -0.009771877 -0.08251561 -0.038635984 0.023442565 0.07766383 -0.0032371522 0.017298004
-0.055947848 0.0031060316 -0.003642616 -0.033516236 -0.0014208852 0.024359562 -0.019926198 -0.025405735
0.05519687 -0.0072255493 -0.04550786 -0.023224805 0.0082041165 -0.047577556 0.008607099 -0.011255568
-0.030773155 -0.04252877 -0.010158725 -0.022792121 -0.012502649 0.015855346 -0.067063615 -0.08500596
-0.069815814 0.019290764 -0.048481848 -0.018372033 -0.018007183 0.069224715 -0.01834298 -0.058951072
-0.025775978 -0.07315362 -0.06002192 -0.051188674 0.011800255 -0.05699281 -0.060067497 0.016704377
-0.050764415 -0.04865498 -0.0500014 -0.10532741 0.027426355 0.08343437 0.001686352 -0.0026208719
-0.048440922 0.01679187 0.05331648 0.008259541 0.037155263 0.004115079 -0.027843403 -0.039187603
-0.016323797 -0.035481658 0.0060885097 0.0774401 -0.058095124 0.052957997 -0.06250185 0.035146695
-0.08923231 -0.0134716695 0.071941204 -0.0029087146 0.020666815 -0.06602565 -0.009560438 0.048436254
0.057780564 -0.040155564 -0.07346539 -0.053769454 -0.009050437 0.0051248423 -0.10358698 -0.031320594
-0.05643563 -0.002908915 0.0078064254 -0.04267081 -0.04547145 0.06091346 -0.029991133 0.0024094577
0.052602347 0.04278707 0.017958699 0.003999222 -0.09806913 -0.042830836 -0.065408275 0.05414724
0.032930642 -0.08462032 -0.003659522 0.020063508 -0.061408617 0.00082805235 -0.028650304 -0.028529685

network_body.linear_encoder.seq_layers.0.weight f4 [216, 121]
00000000: edb1 b43d 4cf1 67bc 4de1 b23d a985 c83c
00000010: 765d 0a3e 519b edbd 32f3 31be a53f 2d3c
00000020: 864d 403e a6af 9e3e 6a0f 2dbd 4b90 d0bd
00000030: 60b9 9f3d 0ad8 273c 1104 6dbc 050c 82be
00000040: 174b fcbd 196f 72b9 3a49 3f3d b9b2 e9bd
00000050: cf87 903e e714 88be cd14 51bd 124d a63d
00000060: d82c f6bd cb03 b9be 8251 c1bc 2016 ffbd
00000070: 073a fe3c b2eb c83e 3580 1bbd e386 6ebe
00000080: d81c 13be a4f0 cdbd 2ffd 3cbe 7645 6f3d
00000090: 5f5d 51be 1494 d1bb 6d26 283d 91ef 7a3d
000000a0: 0c30 60bd afb2 80bc 7508 a7bd b8d4 51be
000000b0: 03ce 6a3d 5b31 3d3e d8f1 183d b2df f5bd
000000c0: 9852 debb cb50 2ebe 33b3 d03d 2627 df3d
000000d0: ed98 73be a88b 11be 25b5 cf3d dae8 05bd
000000e0: 4ea9 853d 01fa 9cbe de3a cdbd 86a5 edbd
000000f0: 1800 64bd e9c2 cb3c fcc2 c0bb 6eb2 553e
00000100: 1fb6 0fbe 25fa 2cbe ebc6 73be e9cd 9ebd
00000110: cd6e b6bd 543c 9e3c 926c 4b3e e0f5 793c
00000120: 6d06 893e 8eb6 0fbd 4178 8dbd e214 49be
00000130: 076e 223e 5009 e23d 9826 3ebe f8eb 0dbe
00000140: a587 583e 5e6f 02be 808b 763e dbe8 ec3b
00000150: 45ba c63d 469d 97bc d285 203e 8d5d 153e
00000160: 1656 6abe 6aea 2c3e 9682 8e3d 097f 8f3d
00000170: 6d24 0cbe 7da6 c03d 9607 db3b 475c f9bd
00000180: fcf1 a23c c04f c63c b81b 22be 47ad a73d
00000190: d806 d33d 742c bf3d ba86 953d dc26 0fbe
000001a0: 4696 d33d 2b58 243c 982c 283e 3676 f63d
000001b0: bbb5 383e a831 883c 7986 00be 0b2f 0b3e
000001c0: 186d 003e ef1a 42bc 78e8 01be c654 c93d
000001d0: c2d6 64bb 94b2 113e b80a 583e 0054 27be
000001e0: e1f0 aa3d 27b5 c1bd c1eb b3bd d0f8 0cbe
000001f0: a864 0bbd e280 23be d065 f73d b49d 1f3e
00000200: 7c8d a3bd afac 77bd 7a9a 243d 71c6 a1bd
00000210: af49 7cbd 8184 a4be db1b fd3c 8e5e 153c
00000220: de4d 66bd 7a97 6bbe da65 d6bc dea0 a5be
00000230: 4291 183e cd2d 153e 5d65 9bbc d323 e2bc
00000240: e2dd 003e 7807 ec3d 5a9c 3ebe d22d 84bd
00000250: bb5f ce3a 04a2 cb3e d1d7 483e 2fa0 793a
00000260: a787 3ebd 3738 533e e841 8bbc 8ef0 34bd
00000270: 988c 50bd 5e77 253e cf1e 1cbe c98b 893e
00000280: b271 95bd dbf2 d7bd 875e 253e f911 17be
00000290: 5b6e 4abc db42 703d 88da 083d ca79 273e
000002a0: c417 08bd 24f4 8abd f1be b1bd 718c 04be
000002b0: 4832 d13c f7f3 f5bd c37b 953e e93c 1e3e
000002c0: 939f 523d 5a2e 36bd 53df 0dbe 365c 1ebe
000002d0: b576 9d3d 0c80 68be ea22 403d 429b 5e3e
000002e0: 7293 d53d 87ba e63b b812 cebd e6d2 0dbe
000002f0: ae58 30be 1ac7 9cbe 24c2 58be e6a6 923e
00000300: 65db 093c e50a 23be ea2c 033e a2fc 5a3d
00000310: eabc 28bc 9482 cbbe c3c1 21bb 1555 0cbe
00000320: c3f3 78bc 57fe c3be 2581 233e 04b7 493e
00000330: bbcc a93c 8e78 21be 14e7 403e a8ca 8ebc
00000340: e18c db3d b927 c8bc 1ee7 ba3e 8a7a bcbd
00000350: 3752 523d be2d 8f3e 8686 71be a843 0abd
00000360: e012 ea3b 00e1 4dbe 1dec 1bbd b167 9a3d
00000370: c7e8 c7bd 4676 8abe b2ff 46be 4024 1abe
00000380: e15a 143d 88a1 b83d f572 123e e1d1 09bd
00000390: 2381 9bbc 9551 e6bc 64c3 7e39 de81 7bbd
000003a0: 0238 a83d 0aaf 2c3d c5be e93d 06f8 33be
000003b0: fc40 be3d c936 723c 858a c0be 80d7 bbbd
000003c0: 0a37 14bd 8f51 38bb 80cd 4a3d 91d6 babd
000003d0: fa54 8abe 0348 38bd 289c 993c cbc2 1d3e
000003e0: d0c0 1b3c 8e10 263e f708 fbbc 73da 983e
000003f0: 635b 683e 69b7 043d 3893 d6bd f668 cd3b
0.08822999 -0.014156651 0.08734379 0.024477797 0.13512215 -0.1160189 -0.17377928 0.010574256
0.18779573 0.30993384 -0.042251028 -0.10183772 0.07799029 0.010244379 -0.014466302 -0.25399795
-0.1231901 -0.00023120306 0.046700694 -0.11411042 0.28228614 -0.26578447 -0.051045228 0.08120169
-0.12020272 -0.36135706 -0.023598436 -0.12455392 0.031033529 0.3924232 -0.037964065 -0.23293643
-0.14366472 -0.10055664 -0.18455957 0.058415852 -0.20445774 -0.006395826 0.04105227 0.061263625
-0.05473332 -0.015710203 -0.0815591 -0.20491302 0.057325374 0.18475859 0.037340015 -0.12005557
-0.0067847483 -0.17023008 0.101904295 0.10896139 -0.23788805 -0.14213431 0.101419725 -0.032692768
0.06526433 -0.30659488 -0.10020994 -0.11603837 -0.055664152 0.024873214 -0.005882619 0.20868847
-0.14034317 -0.16892298 -0.2380635 -0.07754118 -0.08907852 0.019315876 0.19865635 0.015256375
0.26762715 -0.035086207 -0.06907702 -0.19636872 0.15862285 0.110369325 -0.1856941 -0.13859546
0.21145494 -0.12737796 0.24076653 0.007229907 0.09703497 -0.018507611 0.15676048 0.14586468
-0.22884402 0.16886297 0.06958501 0.07006652 -0.1368577 0.09406755 0.006684254 -0.12175804
0.019890778 0.02420795 -0.15830886 0.08187347 0.1030404 0.09334651 0.07301088 -0.13979667
0.10331397 0.0100307865 0.16423261 0.12034266 0.18038075 0.01662524 -0.12551297 0.13592164
0.12541616 -0.011847242 -0.12686336 0.098306224 -0.0034918045 0.14228278 0.21097839 -0.16340637
0.08346725 -0.0945838 -0.08785201 -0.1376679 -0.03403154 -0.15967134 0.12079966 0.15587503
-0.079859704 -0.06046742 0.040186383 -0.07899178 -0.061593708 -0.32132342 0.030897072 0.009116782
-0.056226604 -0.23007002 -0.026171613 -0.32349294 0.14899161 0.14568253 -0.018969232 -0.027604973
0.12584642 0.11524862 -0.18614331 -0.06454052 0.0015745083 0.39772046 0.19613577 0.00095224654
-0.046516087 0.20626913 -0.0169992 -0.044174723 -0.05091533 0.16158816 -0.15246128 0.2686446
-0.07297076 -0.10544368 0.1614934 -0.1475295 -0.012355412 0.05865751 0.033411533 0.16355053
-0.03322579 -0.067848474 -0.08678997 -0.12944199 0.025536671 -0.12009423 0.29195985 0.15452923
0.051421713 -0.044477798 -0.13854723 -0.15464863 0.07688657 -0.22705096 0.046908297 0.21738914
0.104285136 0.0070412788 -0.10062164 -0.13849983 -0.17221329 -0.30620652 -0.21167809 0.28642958
0.008414124 -0.15922125 0.12810102 0.053463586 -0.010298947 -0.3974806 -0.0024682141 -0.13704331
-0.015194836 -0.38279983 0.15967233 0.19698721 0.020727506 -0.15768644 0.1883815 -0.017430618
0.1072023 -0.024433004 0.36504453 -0.0920306 0.051347937 0.27964586 -0.23586473 -0.03375593
0.0071433634 -0.20105362 -0.038066972 0.07539309 -0.09761196 -0.2704336 -0.19433478 -0.15052891
0.03621948 0.09015185 0.14301665 -0.03364742 -0.018982476 -0.028115073 0.00024296116 -0.061403148
0.08213808 0.042159118 0.114133395 -0.17575082 0.092897385 0.01478357 -0.37605682 -0.09171963
-0.0361853 -0.0028124785 0.049512386 -0.091229565 -0.27017957 -0.04499055 0.018751219 0.15406339
0.009506419 0.16217253 -0.030643923 0.29854164 0.22691111 0.032401476 -0.104772985 0.006268616

network_body.linear_encoder.seq_layers.2.bias f4 [216]
00000000: 2170 b3bd 8628 03be 2d58 06bc 96a5 50bd
00000010: abde e6bd f124 0e3d f72b 7abd 5c6f 8ebc
00000020: 66c3 9cbd 83d8 a9bd 067a 2c3c c2f5 653c
00000030: f14d 8ebd 9edf 1fbd c1db 51bd 50b5 7abc
00000040: dafc 403d 0806 cdbc c4da c5bd 8234 183d
00000050: ccfb d13d 6898 233d 8324 aabd 5324 783c
00000060: 9d04 5dbc b7f0 04bd 6c75 30bc 4898 e4bc
00000070: db80 55bd 4e84 3b3d ab13 ddbc 1a26 af3d
00000080: 74de 72bd 194a 14bd d2db e4bd 15a1 6dbd
00000090: 99bc fabc eb79 0ebc d49d bfbc d87c 9dbc
000000a0: 9edb a3ba 265a ac3a 82a0 5fbd d940 9a3c
000000b0: 3f8e c8bd ffd8 3f3d 20fc 13bd f69d 38bd
000000c0: adec cebd ff9a 1f3c 4a27 6dbd 262e 843d
000000d0: 320d 89bc df25 1dbd 40d8 d5bd 9755 20bd
000000e0: 2df9 2c3d d55e 973d a1ff 17be 1bde 2d3d
000000f0: b570 74bd b47b 413d 72a9 813d 63ce 0b3b
00000100: 990c 583d b12c adbd da83 bebd e1f6 093d
00000110: 7ced 08be 169d d7bc 0fef 4abd 101e cbbd
00000120: 6e8a 2abd dfa5 8ebd 130c 8abc d8fc 5f3c
00000130: 9ddd b53a bcf7 7abd 3efb b1bc bc46 f3bd
00000140: d613 8abd 1a9d 5d3d 9b9e afbd 7fa5 f4bb
00000150: c4ac abbd ac18 03be 2028 82bd 6406 d9b9
00000160: 499f 79bd a750 e2bc 8f7c c4bd baa1 873c
00000170: 3839 2ebd d6fc c0bb c115 a33d 50b3 e03d
00000180: 4b8a a23b b7f9 80bd 5372 40bd 7c7f 82bd
00000190: 8db8 6d3d 1ab7 02be f12e e938 011c dfbb
000001a0: 6c29 12be c5b8 25bd 22c3 26bc c6c6 93bd
000001b0: 327f 97bd 05e5 babd 4db4 babd 2d19 cc3c
000001c0: b173 4bbd 8c44 2c3d 9799 28bd 2938 a6bd
000001d0: 252b ef3c 2a23 d9bd a25f 88bc 80a2 cabd
000001e0: c58b bcbd 285c c9bc e5f4 b1bd 8eaf 72bc
000001f0: 53f4 203d d0ad 26bd 4a9a 1c3d d807 813a
00000200: a5cd 0fbd a75a 27bc 31b3 35bd 4cee 3d3d
00000210: 3e75 e53c 14a0 be3a bb22 093c f4fa c93c
00000220: e001 d7bc 3a95 38bd b7e5 863d 6b93 973d
00000230: 544f 61bd 4930 14be 66b0 9cbd c1be 66bd
00000240: f65f cdbd c8a2 d53d 0dfe 7fbd 7d98 8fbd
00000250: d051 d2bd 268f 01bd a399 b7bd 8e2f 533d
00000260: 8283 d9bc 6cf2 2abd e7e2 84bd 802a eb3c
00000270: f5d5 bebd 251e d43c ab2a e1bd eb24 30bd
00000280: 9402 21bd b56a 473d 0504 5d3c 5dd1 dcbc
00000290: b7a3 903c bb52 ca3c 865d 76bc 939b 353d
000002a0: 48c4 85bd e75c 833d bb7c 8ebc 0804 a2bc
000002b0: 8e8b 7cbd 83f4 643c 9d7e 823d 8bfc 82bd
000002c0: f774 0bbe 4df6 a9bd 2ddd 9c3c c676 b3bd
000002d0: 963d 16bd 117b 22bd a253 50bd cbd4 47bc
000002e0: 3ba1 11bd 83f0 80bd a7d1 053d 8a58 2dbd
000002f0: b76c b4bd 9fba 193b 3b5e d23c 9813 e6bd
00000300: e017 123d 779a 883d 7a16 093d 9dba 94bd
00000310: ec2d 293d b1e7 f8bc 0aca 0ebe dfc9 173d
00000320: 242e 02bd f54f f2bd 59a0 1dbe b77d 393d
00000330: ff0b 9c3d 7282 aebc 1b6a cfbd 5908 16bd
00000340: b9c5 863c 0efa adbc 16a4 66bd b7e8 d4bc
00000350: 0e54 9f3d d2d5 da3a c3f9 733c 09d5 913c
-0.08761621 -0.12808427 -0.008199734 -0.050939165 -0.11272939 0.0347032 -0.061077084 -0.017387085
-0.07654457 -0.082932495 0.0105271395 0.014035644 -0.0694846 -0.039031617 -0.051234964 -0.015302017
0.047116138 -0.02502729 -0.09660867 0.03715945 0.102531046 0.039940268 -0.08307745 0.015145379
-0.013489869 -0.032456126 -0.010770183 -0.027904645 -0.05212484 0.045780472 -0.026986917 0.08552189
-0.05929418 -0.036203478 -0.1117474 -0.058014948 -0.030607508 -0.00869606 -0.023390688 -0.01922457
-0.0012501364 0.0013149425 -0.05459643 0.01882975 -0.09792756 0.046837803 -0.036129117 -0.04507252
-0.10103736 0.009741544 -0.057898797 0.064541146 -0.016729925 -0.038366195 -0.10441637 -0.039144125
0.04222982 0.07391135 -0.14843608 0.042448144 -0.0596778 0.047237113 0.06331147 0.0021332733
0.05274639 -0.0845579 -0.093024924 0.033682708 -0.13371843 -0.026320022 -0.04954439 -0.09917843
-0.041635923 -0.06965231 -0.01685146 0.0136711225 0.001387525 -0.061271414 -0.021726247 -0.11878726
-0.06742065 0.0541049 -0.085751735 -0.0074660177 -0.08382562 -0.1280238 -0.063553095 -0.00041394227
-0.06094292 -0.027626349 -0.0959407 0.01655661 -0.042535037 -0.0058895154 0.079631336 0.10971701
0.0049603335 -0.06297629 -0.046984028 -0.06371972 0.05803733 -0.1276516 0.00011119049 -0.0068087582
-0.14273614 -0.040459413 -0.010178359 -0.072156474 -0.073973075 -0.09125713 -0.09116421 0.024914348
-0.04967088 0.04205756 -0.0411621 -0.081161804 0.029195378 -0.1060241 -0.016647164 -0.09894276
-0.092063464 -0.024580076 -0.08689288 -0.014812363 0.039295506 -0.040693104 0.03823308 0.0009844257
-0.035108227 -0.010214484 -0.044360343 0.046369836 0.028010007 0.0014543557 0.008370097 0.024655797
-0.026246011 -0.04506419 0.065867834 0.074011646 -0.055007294 -0.14471544 -0.07650833 -0.05633426
-0.10028069 0.10431439 -0.06249814 -0.07011507 -0.10269511 -0.031630658 -0.08964851 0.051559024
-0.026551966 -0.041735098 -0.06488591 0.028706789 -0.09318153 0.02589328 -0.109944664 -0.043003958
-0.0393091 0.048685748 0.013489728 -0.026955301 0.01765619 0.024697652 -0.015036946 0.04433782
-0.06531578 0.06414204 -0.01739346 -0.019777313 -0.061656527 0.013974312 0.06371806 -0.06395825
-0.13618837 -0.08298931 0.019148434 -0.087628886 -0.036679827 -0.039668147 -0.05086101 -0.01219673
-0.035554152 -0.06295874 0.032670643 -0.042320766 -0.08809798 0.0023457182 0.025679698 -0.11234206
0.0356673 0.06670087 0.0334687 -0.07262156 0.04130356 -0.030383917 -0.1394426 0.037057754
-0.031782284 -0.11831657 -0.15393199 0.045285907 0.076194756 -0.021302436 -0.1012766 -0.036629055
0.016451703 -0.0212374 -0.05630883 -0.025989873 0.07779704 0.0016695803 0.014891091 0.017801778

network_body.linear_encoder.seq_layers.2.weight f4 [216, 216]
00000000: 51db 13be d011 933d bef0 123e a25c 42bc
00000010: 5588 823d 58af 193d b1db 493e ed13 6cbd
00000020: 0f4c 43be 40be dfbc df5d aabd fa10 bcbd
00000030: 2a62 fcbc 67a1 c73c d8d5 f83d bf62 403d
00000040: f5d2 ebbc abab e13d 69cf ab3d 5502 a0bd
00000050: 8280 cd3d b249 673e 0aab c1bc 5f16 4abe
00000060: c4f3 cfbd 0670 99bc f724 2bbe e8e4 e1bd
00000070: 77b3 f4bc 75e9 94bd 0607 25bd c6ab 3ebd
00000080: 0907 d03d bd7b 88bd c08f 013d 97a7 e9bc
00000090: cc4e 213d 92c8 a8bb fbc7 71bd a545 143d
000000a0: fa1f 163e b8ba 5bbd dd23 e2bd 8f8f d83d
000000b0: d6ee 93bc 9e1f d2bc dfca 71bc 4bc7 1ebd
000000c0: eb43 453d 356e e5bd a8d6 b63e d667 1e3e
000000d0: cb92 e5bb b1ca cb3d 4c4f a2bb c85e cebd
000000e0: 5e48 c7bd 0e95 f3bd 9065 11be d53f 28be
000000f0: 05ef 22bd 7fa0 c33d f508 b2bd b72b 803d
00000100: bf60 c9bc 2965 a7bc 8ea7 eb3c e330 0cbb
00000110: f3ae 813e 0997 afbd 159f 1ebe daf6 16bc
00000120: d941 f93d 5b4b 20be 8c08 38be 2c51 193e
00000130: c061 e33d ee6a 38bd 6694 17be 57a3 e3bd
00000140: f2a0 813d 2f63 21be 05b7 d33c 8635 c33d
00000150: 6be0 203e 3417 02bf 61b4 01be 0940 ebbd
00000160: 8c49 13be 298f be3a 275c 8a3d e10d 553d
00000170: 9db2 833d de91 ecbc 6ffc 0ebe 779a 0dbd
00000180: 90d9 683d a60c 20bd 17b2 edbd 9811 e2bd
00000190: 4646 83be a2ed 4f3c 963a 0fbe 3035 22be
000001a0: b23f 3cbd f3d2 3bbe db85 c03a 2fdf 2a3e
000001b0: bea7 28bd 72e6 0cbe b079 debc 347f 57bc
000001c0: c276 943d bb0f f3bd d074 55be ebbf b23d
000001d0: d1e8 fcbd 3d74 c7be 5330 a6bd 6ff5 67be
000001e0: 73e8 543e 482d 1f3e 88df dc3d b19a efbc
000001f0: 384c 95bb 6d52 b0bc 42d1 b8bd 1262 7e3d
00000200: ca13 1f3e 3536 bfbd 777a f93d 41fa b83d
00000210: 769c 07be 92d8 183e fabb f1bd fd70 193d
00000220: 9e4f 26be 00ad 0e3d 1dbe a6be 591f 983d
00000230: 8b5b 1d3e fe2c f0ba 6c8a 243d df24 57bd
00000240: e94a 1d3c dd41 e73b 53bf be3d f70c d23d
00000250: 85b7 883c c165 1a3c 1eb3 93bb 61ea dcbd
00000260: eabf 0cbe 9b72 593e fa93 5bbc b192 393d
00000270: 5675 70be 76ea 19be db2b 053e fbcc c4bd
00000280: 01a2 003e cf37 08be 642d e43d f598 933c
00000290: c42b fe3c 6c23 2e3d d23d 803c c41f cabd
000002a0: 6624 47bd 7a4c 54bd bb47 a9bd ca3f 003e
000002b0: df63 bbbd 8144 bcbd 3642 61bc d0b1 9dbd
000002c0: 0c3b 41bc fa8e f43d 265f 90bc 72c4 2c3e
000002d0: e9ab b93d 4e81 463d e341 5c3e 16f6 093d
000002e0: b978 e5bd ec17 1dbc 5e97 afbd 2a44 cfbd
000002f0: cbad 27bc 1be4 a5bd 65f4 8cbd 2d8b 8abe
00000300: 30dc 18bd 4bf0 aa3d ccd6 a3bd a99e 113e
00000310: a323 90bb 01d0 383d cbf1 663c 66ca 1bbe
00000320: 094e c83d 740b 5c3d c694 0e3e b115 923d
00000330: be68 d6bd f5f5 753d c8d3 f9bc 1afa 05bd
00000340: 99a8 c9bd 9596 813d c142 f13d 0dbd 8cbe
00000350: 693e 4cbe b271 bc3d 7667 87bc e5ad df3c
00000360: e528 47be 54eb d2bd 5452 853d a652 433e
00000370: b4d9 843c 84db 4fbe de7a 4cbe 4e26 893d
00000380: 4dcf 75bd 200c 733e a793 3e3d 479b 1cbe
00000390: e4ac 903e 21c0 37be 4a91 7dbe 97c9 203e
000003a0: 8b7f 893d 1d7b 39be 2c45 a1be 2d23 493e
000003b0: f3d1 abbc 1aa3 923e 5fed 74bc 2ba7 573e
000003c0: 8af7 5b3c 58e6 be3d 4c68 333e af77 7d3e
000003d0: 07d5 f9bd cdee 693d d8b5 823c 92fe a93d
000003e0: 8976 013e 86dd 25be fe74 47bd 91da 3bbe
000003f0: aded 8ebd 495f f23d 5c27 093e 993b 8fbc
-0.14439131 0.07181132 0.14349648 -0.011862906 0.063736595 0.037520736 0.19712712 -0.05763619
-0.19071983 -0.027312398 -0.08318686 -0.091829255 -0.030808527 0.024368955 0.121501625 0.04696917
-0.028787116 0.11019071 0.0838917 -0.07812945 0.100342765 0.22586706 -0.023641128 -0.19735096
-0.101539165 -0.018730175 -0.1671332 -0.110299885 -0.029870732 -0.07271091 -0.0402899 -0.046550535
0.10157592 -0.06664226 0.03163123 -0.028522296 0.039381787 -0.005150863 -0.059028607 0.03619923
0.14660636 -0.053644866 -0.11041997 0.10574257 -0.018058222 -0.025649842 -0.014757841 -0.03876428
0.048160475 -0.11202661 0.35710645 0.15469298 -0.0070060245 0.0995077 -0.0049533006 -0.10076672
-0.097306 -0.11893664 -0.141989 -0.164306 -0.039778728 0.095520966 -0.08693115 0.06258338
-0.024582265 -0.02043398 0.02876642 -0.0021391443 0.25328788 -0.085737295 -0.15490372 -0.009214127
0.121707626 -0.15653746 -0.1797201 0.14972371 0.11102629 -0.04502385 -0.14802703 -0.11115139
0.06329526 -0.15760492 0.025844106 0.09531693 0.15710609 -0.50816655 -0.12666465 -0.11486823
-0.14383525 0.0014538515 0.06755858 0.05201519 0.06430552 -0.028878149 -0.13963483 -0.034571137
0.05684811 -0.039074562 -0.116062336 -0.11038512 -0.25639552 0.012690933 -0.13987193 -0.15840602
-0.045959182 -0.1834219 0.001468833 0.166867 -0.041175596 -0.13759783 -0.027157634 -0.013152886
0.07249214 -0.11868235 -0.20845342 0.08728012 -0.12349094 -0.3895587 -0.08114686 -0.22652219
0.20791797 0.15544617 0.10784823 -0.029248567 -0.004556205 -0.021523679 -0.09024288 0.062105246
0.15534893 -0.09336511 0.121815614 0.09032107 -0.13243279 0.14926365 -0.11803432 0.03746127
-0.16241309 0.034832954 -0.3256692 0.07427854 0.15366952 -0.0018323956 0.040171072 -0.052525397
0.0096003795 0.007057412 0.09313836 0.10256379 0.016689071 0.009423674 -0.0045074364 -0.10786892
-0.13745084 0.21235125 -0.01340198 0.04530591 -0.2348226 -0.15030846 0.13005011 -0.096094094
0.125618 -0.1330254 0.1114147 0.018017272 0.031026728 0.04251425 0.015654478 -0.0986934
-0.048618697 -0.051830746 -0.082656346 0.12524334 -0.09149908 -0.091927536 -0.013748696 -0.07699931
-0.011793863 0.11941333 -0.017623495 0.16871813 0.090659924 0.04846316 0.21509509 0.03368195
-0.11204667 -0.009588223 -0.08573793 -0.10120423 -0.010234307 -0.08100148 -0.06882552 -0.27059308
-0.037319362 0.083466135 -0.07999954 0.1422068 -0.0043987795 0.045120243 0.014095734 -0.15213928
0.09780509 0.05372186 0.1392394 0.071330436 -0.10469197 0.060049016 -0.030496493 -0.03270922
-0.098466106 0.06327549 0.117803104 -0.27487984 -0.19945683 0.09201373 -0.016528826 0.027304599
-0.19449194 -0.102987915 0.065098435 0.19074497 0.01621709 -0.20298582 -0.19968745 0.06696759
-0.06001215 0.23735094 0.04652753 -0.15293609 0.28256905 -0.17944385 -0.24762455 0.157019
0.0671378 -0.1811337 -0.31498086 0.19642325 -0.020974135 0.28640062 -0.014949172 0.21059863
0.013425717 0.09321278 0.17520255 0.24752687 -0.12198835 0.057112504 0.01595585 0.083005086
0.12642874 -0.16197786 -0.048695557 -0.18345095 -0.06978927 0.118345805 0.1339392 -0.017484473
