Project/results/VPlayer-OneMinusOne/VPlayer/VPlayer-2999998.onnx (onnx, 338453 bytes, 19 tensors)

action_model._continuous_distribution.log_sigma f4 [1, 2]
000000 3e cd e1 3d f7 f2 be 3d
       0.11025475 0.093236856

action_model._continuous_distribution.mu.bias f4 [2]
000000 57 af 23 3c 96 f4 a9 bc
       0.009990535 -0.02074651

action_model._continuous_distribution.mu.weight f4 [2, 128]
000000 52 23 20 bd b9 d7 42 3d e9 7c c3 bc 76 92 b1 3c
       -0.039096184 0.04756901 -0.023863273 0.021676283
000010 31 86 87 bc cc a9 2c 3c 8f c0 32 bd 61 4c 1d bd
       -0.01654348 0.01053853 -0.04364067 -0.03840292
000020 ae 40 8c bc b9 88 08 3d 0f 21 53 39 e9 2a 01 3d
       -0.017120685 0.033333514 0.00020134843 0.031535063
000030 09 28 63 bd d1 59 6d 3c a6 dc e8 bc 9f 75 23 3d
       -0.055458102 0.014486746 -0.028425526 0.039907094
000040 9f 32 47 bd ca ef 98 bb a0 b5 4c bc c3 1e 0b bd
       -0.04863226 -0.004667257 -0.012494475 -0.033964884
000050 b6 d4 ff bc 97 97 36 3d c2 dc 41 3d 87 da 98 3b
       -0.031229358 0.04457816 0.04732967 0.0046647224
000060 90 71 0c 3d 13 7a fa 3c 99 86 af 3c 18 c1 84 bc
       0.03428799 0.030575788 0.021426486 -0.016205356
000070 a0 b0 36 3d 6b 13 f9 bc be 65 6b bc 12 b3 3c 3b
       0.044602036 -0.030404767 -0.014367519 0.0028793258
000080 e5 00 f1 3c 5a 8e 5b bd 5e f4 03 bd e1 22 2a 3d
       0.029419372 -0.053602554 -0.03221547 0.04153717
000090 38 10 5a bb b7 44 d4 3b 32 08 33 3c f7 ea 82 bd
       -0.0033273827 0.006477918 0.010927247 -0.06392472
0000a0 3e 31 5a 3c 97 8b a6 3c 50 0f 34 bd 1a ac 88 bc
       0.013317404 0.020330233 -0.043959916 -0.016683627
0000b0 04 b7 03 3d 35 bf d7 bc 58 b7 7b 3b 59 84 ff bc
       0.03215696 -0.026336292 0.0038408842 -0.031191038
0000c0 a8 72 1f bc b4 dd 75 3c ba 41 04 bd 93 ac fb bc
       -0.009731926 0.015006471 -0.032289244 -0.030721938
0000d0 e3 66 6d bd 2e f3 65 3c 91 9d ed bc 67 48 8a bc
       -0.05795945 0.014035029 -0.029005798 -0.016880227
0000e0 20 1d b1 3c 6e 72 b9 bc 58 39 2c 3d b4 6a 8b 3d
       0.021620333 -0.022637572 0.042046875 0.068074614
0000f0 2f cf 20 bd 42 1d 19 3d 53 f8 5a 3a 2c f9 8f bd
       -0.039260086 0.037381418 0.0008353043 -0.07029948
000100 fa 17 56 3c d3 e6 88 bd 8f d8 3f bd e6 f1 2d bd
       0.01306724 -0.06684651 -0.046837386 -0.04246702
000110 46 e1 06 3d 57 43 29 3d 71 25 2a 3c f9 61 b2 bc
       0.03292968 0.041323986 0.010384903 -0.021775233
000120 ca 8a 2b bc ee ab da 3c 13 ec 05 3d ac b2 6d bc
       -0.010470102 0.02669331 0.03269584 -0.014507931
000130 ea 4b 38 3d e6 06 53 bd 19 4b bf 3c 21 bc b7 bc
       0.044994272 -0.05152025 0.023351239 -0.022428574
000140 32 3e 5e bc 15 96 31 3b 02 38 c5 3c 2e 75 07 3d
       -0.013564633 0.0027097513 0.024074558 0.033070736
000150 64 ea a3 3b 44 87 2c 3d d5 c9 d6 bc 1d 63 52 3c
       0.005002307 0.042121187 -0.026219288 0.012841013
000160 90 0e bb bc 65 f6 a0 bc f2 10 d8 bc 7a cd 87 bd
       -0.022834092 -0.01964874 -0.026375268 -0.066309884
000170 5f d2 9a bc 3a e3 14 bd 0d 7b ab 3c eb a7 85 bd
       -0.01889914 -0.036349513 0.020932699 -0.065261684
000180 ee 54 97 bb 76 1f 78 bd 5f 9e 5f 3b 00 63 cc bc
       -0.0046182787 -0.06057688 0.0034121496 -0.02494955
000190 f8 ba cd bc fa a4 0e bd fe 03 20 3c 89 4f 35 bd
       -0.025113568 -0.034825303 0.009766577 -0.044265304
0001a0 83 8a e0 3c da ab 40 bd 38 78 e0 3c dd 08 52 3b
       0.027409798 -0.04703889 0.027401075 0.003204874
0001b0 dd 60 0c bd 17 59 3d bd df 33 65 3c ea c8 64 bc
       -0.034272064 -0.04622754 0.013989418 -0.013963917
0001c0 88 3e 78 bd ed 93 82 bd fc f3 0d 3a cf fc 9e bc
       -0.06060651 -0.06375871 0.00054150796 -0.019407658
0001d0 dd 94 03 3c 45 a8 1c bd dc 5f 27 bd 91 fb 96 3c
       0.008031097 -0.03824641 -0.040862903 0.018430503
0001e0 59 00 64 3c d6 43 0d 3d bb 84 25 bc 97 c9 bc bc
       0.0139160985 0.03448852 -0.010102446 -0.023045344
0001f0 ac 13 86 3c ef 74 4b 3c 09 82 71 3c 44 06 40 3c
       0.016366802 0.012418016 0.014740475 0.011720244
000200 dd 56 0e bd ac 7c ae 3b dd 33 a7 3c ce 5a 6b bd
       -0.034750808 0.0053249206 0.020410473 -0.057459645
000210 67 83 0b bc 1b 0d 72 bc 42 ec e4 bb 83 f9 3f bd
       -0.0085152155 -0.014773632 -0.006986172 -0.046868812
000220 bc 44 16 3c 57 0b a7 3c 51 bd 70 bd 59 cb 55 3c
       0.009171661 0.02039115 -0.058774296 0.01304897
000230 e7 2d c6 ba 68 78 e6 bc b4 20 23 3d 56 e3 e1 bc
       -0.0015119881 -0.028133586 0.03982611 -0.027574223
000240 6f 7d 92 3c a4 17 0a bc d8 ba f5 bb 5b 84 49 bd
       0.017882077 -0.008428488 -0.00749908 -0.04919849
000250 6a 51 3c bc e1 10 76 3d a0 ee 72 3d 31 00 43 bd
       -0.01149402 0.06007469 0.0593096 -0.047607604
000260 e8 7d 66 3c ed ac 79 bd 13 db 35 bb 3d 53 e9 3c
       0.014068104 -0.06095593 -0.0027748987 0.028482074
000270 01 9d 8d ba e0 5b 11 39 ea 16 10 bd bc 57 62 bd
       -0.0010804237 0.00013862504 -0.035178103 -0.05525945
000280 ba 44 cc bc 20 58 c4 bc b1 08 5e bc d5 93 d9 3c
       -0.024935115 -0.023967803 -0.013551877 0.02655975
000290 31 17 2a 3d 4c 58 ac bc 79 4e 25 3d 18 05 9e 3d
       0.041526023 -0.021038197 0.04035804 0.07715815
0002a0 05 7c 53 3c 92 c7 ac 3d 34 a7 69 bc 54 85 11 3d
       0.0129079865 0.084365025 -0.014261056 0.035527542
0002b0 e1 92 26 3d b7 90 26 3c 54 c6 2f bd 9b 2a e4 bb
       0.04066742 0.010166339 -0.04291375 -0.006963087
0002c0 a3 a4 02 bd d4 66 a8 bb b0 8c 9a bc 80 99 4f bd
       -0.03189529 -0.005139211 -0.018865913 -0.0506835
0002d0 7e 01 62 bd e3 93 1d bd f4 dd b8 bc 07 d8 27 bc
       -0.055177204 -0.038471114 -0.022566773 -0.010244376
0002e0 8e 5a 49 bd cf ae a8 bc c3 99 98 bc 90 ca db 3c
       -0.049158625 -0.020591168 -0.018628007 0.026829988
0002f0 09 df 5a 3d 30 26 12 bd 59 be ea bc 90 e8 56 3d
       0.05343536 -0.03568095 -0.028655218 0.052467883
000300 e9 fd 5b 3d e3 8a 36 bc db 38 85 3c 68 b4 95 3b
       0.053708944 -0.011141512 0.016262462 0.0045686252
000310 22 bb 69 bd de 6b 44 3d ba ee 02 bd 50 e0 51 3d
       -0.05706323 0.047954433 -0.03196595 0.05123931
000320 85 f4 25 bd 45 ab 1c bc 38 79 4c 3d 9b 81 3a bb
       -0.040516395 -0.009562318 0.04992029 -0.0028458599
000330 21 c4 97 bc d3 53 f0 3c a2 74 ee bc 18 e1 11 bd
       -0.018526139 0.029336846 -0.02910835 -0.035615057
000340 ff 07 2d 3c 01 2b 0f bd c5 8c 17 bd cf ea 2a bd
       0.010560988 -0.03495312 -0.036999483 -0.041727837
000350 9a c6 21 bd ad 9a 95 bd 7c 62 26 bd f1 5c 81 3c
       -0.03949604 -0.07304893 -0.040621266 0.015791388
000360 c6 bf 2e bd 70 a7 21 3d 94 86 b2 3c 0c 3d 85 3b
       -0.04266336 0.03946632 0.021792687 0.0040661152
000370 2a 2c c3 bc 78 73 2a 3d 90 24 3a 3d ab 02 77 bc
       -0.02382477 0.041614026 0.045445025 -0.01507632
000380 ae 20 cb bb c2 c2 72 3d 23 65 fe 3b 68 37 0c 3c
       -0.006198964 0.059267767 0.0077635213 0.008558132
000390 56 07 ef 3c 6d 7e 0c bd a9 70 60 3c 57 0c f5 3c
       0.029178303 -0.034300257 0.013698735 0.02991311
0003a0 b0 fd cc 3c 95 29 12 bb 1b ac 01 bd fc d8 5b bc
       0.025023311 -0.0022302617 -0.031658273 -0.013418432
0003b0 07 0d 67 38 e0 e7 4f 3c 89 11 76 bc 7d 71 1c bd
       5.5086824e-05 0.012689561 -0.015018829 -0.03819417
0003c0 08 28 08 3c 29 63 9b 3d b3 dd b1 bc f7 bf 3e bd
       0.008310325 0.07587273 -0.02171216 -0.04656979
0003d0 bb 3d 1a 3d 83 4c 18 3c 79 85 a6 bc 71 e7 d5 3c
       0.037656527 0.009295586 -0.020327317 0.026111336
0003e0 08 e4 a4 ba 1a f0 84 3d b3 5e 17 bc 6e 2e 3e bb
       -0.0012580166 0.06491108 -0.009238887 -0.0029019373
0003f0 35 fe cc bb 6a 49 c2 bc dd 7a 1e 3d 46 64 64 bb
       -0.00625589 -0.023716647 0.03869139 -0.0034849807

action_model._discrete_distribution.branches.0.bias f4 [3]
000000 c0 a9 f6 3b a8 a3 0f bd 25 97 ec 3c
       0.00752756 -0.035068184 0.028880665

action_model._discrete_distribution.branches.0.weight f4 [3, 128]
000000 ab b9 d3 b9 5d 15 3d 3c 22 18 0e 3b 9f 1d 1b 3c
       -0.0004038339 0.011540738 0.0021681865 0.009467511
000010 b6 17 31 bc 13 fe c5 3b 69 63 b8 bc 0e 56 7c 3b
       -0.010808876 0.006042251 -0.02250834 0.003850344
000020 a4 83 a1 3a e7 76 86 bb f5 e7 15 3d 5e a1 89 3c
       0.0012322557 -0.0041035297 0.036598165 0.016800579
000030 67 05 f4 bc 72 80 3b bc ba d7 fd bb ce 53 a2 3c
       -0.029787732 -0.011444198 -0.007746664 0.019815352
000040 d5 79 af 3a 17 41 48 bb ec c7 8b bc ed c8 d0 3c
       0.0013387749 -0.0030556375 -0.017063104 0.025486434
000050 61 35 21 bd 67 b9 6e 3c f0 33 02 3d 41 a8 08 3b
       -0.039357547 0.014570571 0.031787813 0.002085224
000060 86 cd f3 3c 1e 0b db 3c 24 15 58 bc a8 fd f8 3b
       0.029761087 0.0267387 -0.013188634 0.0075985976
000070 ec 28 30 bb db 5e f0 3c 64 cc 62 3c 5e 13 02 3d
       -0.002687986 0.029342106 0.013842676 0.03175675
000080 38 a5 c8 3c c5 68 1e bc 12 dc 9a bc 55 ac 20 3d
       0.024492845 -0.009668534 -0.018903766 0.03922685
000090 6e f5 12 bd 31 37 ea ba 28 8a 2e 3d fc 06 16 3b
       -0.03587859 -0.0017869232 0.042612225 0.0022892347
0000a0 01 17 6b 3c bd 50 87 ba 15 e5 e6 3c 7d 05 35 bd
       0.014348746 -0.0010323745 0.028185407 -0.044194687
0000b0 d0 2f 9a 3b 73 a7 b8 ba 02 71 fb ba 32 93 d0 bc
       0.0047054067 -0.001408799 -0.0019183459 -0.025460813
0000c0 24 42 4e bc 1c d1 a2 bb c9 f2 77 3a b0 2c 96 bc
       -0.012589011 -0.0049687754 0.000945848 -0.018331856
0000d0 e0 38 b6 bb 90 92 22 3d 76 ed fa bb 17 a8 f0 3b
       -0.0055609792 0.039690554 -0.007657702 0.0073442566
0000e0 70 27 e5 3b 1f f6 bd 3b c5 5c 1d 3c 68 41 cf 3c
       0.0069932267 0.005797162 0.0096046375 0.025299743
0000f0 64 73 e8 3c ab eb a3 3c b6 cd 65 bb 3a 9a 0a 3d
       0.028375335 0.020009836 -0.003506524 0.03383849
000100 41 bc 03 3c 54 18 9e bc d4 77 dd bb 0d ff 41 bd
       0.008040489 -0.01929871 -0.0067586694 -0.047362376
000110 c0 6c 85 bb d6 ae c6 3c a7 c1 b5 bb e6 1e d3 bc
       -0.004071802 0.02425329 -0.005546767 -0.02577157
000120 d7 27 70 3c ff 2c 85 3c f3 da b9 3b 6a bc ec bb
       0.014657936 0.016256807 0.0056718527 -0.007224609
000130 af e4 f7 3c 5c 0f 97 3c 6e 2e 57 bc 2f 8c 80 bc
       0.030260412 0.018439941 -0.013133628 -0.015691845
000140 c5 d1 cf bc 8e 58 04 bd 74 b1 77 3c 9b c0 7e 3c
       -0.02536858 -0.032311015 0.015117992 0.01554885
000150 33 ff ff 3b 5b 8a 98 3c 6c c8 d3 bb 77 10 07 bc
       0.0078124045 0.01862066 -0.006463101 -0.008243672
000160 2a b6 f8 ba c8 b3 c7 3b 0a b8 0e bd 04 37 08 bd
       -0.0018975188 0.0060944296 -0.034843482 -0.033255592
000170 83 16 ef 3b 65 52 cd 39 76 b1 98 3c 24 90 a3 bb
       0.007296385 0.00039162036 0.018639307 -0.004991548
000180 49 e3 59 3c b0 86 2c bb 53 56 8f bc b0 eb 60 bb
       0.013298818 -0.0026325397 -0.017497217 -0.0034320168
000190 cc 12 a5 bc 9b 6b dc bb c2 25 13 3d 74 c7 84 bc
       -0.020150565 -0.0067266948 0.03592468 -0.016208388
0001a0 88 94 26 bc a6 7d e6 3c 7c b2 0b 3d 43 6e 6f bb
       -0.010167249 0.028136086 0.034105763 -0.0036534227
0001b0 3a 4e b6 bc 22 af 7b bb 63 9c 22 3c 78 51 13 3a
       -0.022254098 -0.0038403948 0.009924981 0.0005619745
0001c0 c4 4d 2a bd 57 45 d9 bb 3f 88 2c 3c 04 af 07 3d
       -0.04157807 -0.0066305804 0.0105305305 0.033125892
0001d0 e2 1a f3 3c 46 86 c0 3c 35 b2 25 3c 97 5d c6 3b
       0.029675905 0.023501527 0.010113289 0.0060536372
0001e0 63 f7 20 3d 67 73 aa bc 19 83 67 3c 0b 11 01 3c
       0.039298426 -0.020806981 0.014130377 0.0078775985
0001f0 45 15 ed bb e0 f3 c1 bc be 66 bd 3c 5a 6c 62 3a
       -0.0072352015 -0.023675859 0.02312028 0.00086373615
000200 f4 2c 19 bc 26 21 9f 3a 8d a5 b5 bb bb 98 17 3b
       -0.009349097 0.0012140616 -0.005543417 0.0023131806
000210 eb 79 fa bc 9a 59 fb 3a 41 2b 92 3b fc 7b b6 bc
       -0.030575713 0.0019176484 0.0044607227 -0.022275917
000220 b3 ed 11 3c d1 8c 23 bd d2 32 0e bd fe 1f dc bc
       0.00890677 -0.039929215 -0.034716435 -0.026870724
000230 71 a9 0c 3c bc 9a f6 bb 48 24 85 3c 72 8f d3 3c
       0.00858532 -0.00752577 0.016252652 0.025825236
000240 00 23 95 bb 4d 40 a5 3c 32 27 09 bc 9e 4b 5a bd
       -0.0045512915 0.020172263 -0.008371161 -0.05329477
000250 f6 37 4f bc 29 4c 0c bd 73 54 ad 39 4a c2 d7 3c
       -0.0126476195 -0.03425232 0.0003306005 0.026337761
000260 20 79 2d 3c 0a ec 37 3c ff 5a 26 3d ca be 29 bc
       0.0105879605 0.01122571 0.040614124 -0.010360429
000270 36 fb a0 ba 1b e9 60 bc dc c9 23 3c 99 fa 01 bb
       -0.0012281898 -0.013727452 0.0099968575 -0.0019833206
000280 65 b2 0d 3d 98 4c 0b bc 90 3a b3 bc 82 85 67 bb
       0.03459396 -0.008502148 -0.02187851 -0.003532738
000290 93 12 84 3c 39 be ad 3c 4a 96 57 3c b9 b2 66 3c
       0.016122138 0.02120887 0.01315839 0.014080697
0002a0 23 5a 59 3b a9 5d 4f bc f5 f5 02 3b a6 86 77 3b
       0.0033165298 -0.012656608 0.0019983028 0.0037769466
0002b0 67 31 3d 3d 2b 4b d3 bc 7c 2a cd bb 30 96 25 bb
       0.046189692 -0.025792679 -0.006261168 -0.002526652
0002c0 83 69 b4 3b f7 ea 2f bc 3a 14 8d 3b 87 6a 7d bc
       0.005505742 -0.010737172 0.0043053897 -0.015467293
0002d0 ca 16 ce bc 20 2b 18 bc fb 60 aa 3a 69 2d 27 bd
       -0.025157351 -0.009287626 0.0012998873 -0.04081479
0002e0 de 92 51 bc 87 c3 2e bc 3b 64 2d 3d e8 f7 77 3c
       -0.0127913635 -0.010666735 0.042331915 0.015134789
0002f0 f1 16 7c 3c ce 9d 9d bb 07 93 f4 ba d5 83 ee 3b
       0.015386329 -0.0048100716 -0.001865954 0.007278899
000300 f2 21 a5 ba a2 10 46 3c de e7 5b 3c 4e 34 bc 3c
       -0.0012598617 0.0120889265 0.013421981 0.02297416
000310 f0 a7 b7 3c 87 a6 84 bc 7e 83 c1 3c 57 73 c0 3b
       0.022418946 -0.016192688 0.02362227 0.0058731246
000320 bc 16 b3 bc 76 ff f7 bb cb 98 b6 bc 67 01 09 bc
       -0.021861427 -0.007568295 -0.022289654 -0.008362151
000330 74 40 97 3a 46 8f bd 3b 6f 7a e0 3c 6e 17 f6 ba
       0.0011539594 0.005784902 0.02740213 -0.0018775293
000340 69 d6 b2 3c 94 f7 21 3c 81 1e 7d 3c 4a bc f4 bb
       0.021830754 0.009885687 0.015449167 -0.007468735
000350 0e 99 c9 3c ad 9a 27 bb d2 a1 a3 bc 11 a9 4a bc
       0.024609115 -0.0025574372 -0.019974623 -0.01236941
000360 2e fe 1a bd 9c bd 24 3c ea 18 b7 3b d8 d5 aa 3c
       -0.03784006 0.010054972 0.005587687 0.020853922
000370 fd 09 69 bc b9 7b 2c bd 2d f5 0d 3c c0 d4 8f bc
       -0.014223573 -0.04211018 0.0086644115 -0.017557502
000380 bd 11 c3 3b 72 9e 9e bc a4 f8 6a bc 35 1d 92 bb
       0.0059530423 -0.019362662 -0.014341507 -0.004459048
000390 33 47 f4 bc e5 b1 95 3b 45 1f 82 3c 02 2a a7 3c
       -0.029819107 0.004568326 0.015884051 0.020405773
0003a0 f5 0e d2 3b dd 5c 9f bc 15 0d 46 3b a1 c9 2f 3a
       0.0064104744 -0.01945346 0.00302202 0.0006705765
0003b0 98 40 13 bb 88 3f 45 3b 06 a6 a5 3c 27 87 85 bb
       -0.002246892 0.0030097682 0.020220768 -0.0040749493
0003c0 d8 4b 6d bc ef e9 89 3c 7a d5 90 3c e2 f4 27 bd
       -0.014483415 0.016835181 0.017679919 -0.041005023
0003d0 b8 28 63 bc b0 f8 9e bc 47 74 ac bc 9c 38 40 bc
       -0.013864689 -0.019405693 -0.02105154 -0.011732247
0003e0 6c 32 45 bc fd 26 de bb 85 bb 44 bb 3f cc ee bc
       -0.012035947 -0.00677955 -0.0030018997 -0.029150127
0003f0 c3 40 b6 3c 74 18 aa bb a0 5a 2a 3c 14 35 9d 3c
       0.022247678 -0.0051909033 0.010397583 0.019190349

action_model._discrete_distribution.branches.1.bias f4 [3]
000000 96 fd e5 3b f1 28 f7 bb eb 63 1d 3b
       0.007018755 -0.0075427224 0.0024015855

action_model._discrete_distribution.branches.1.weight f4 [3, 128]
000000 b5 70 4a bc d9 d2 25 3c 31 89 d2 3b d0 3d fa bb
       -0.012355973 0.010121071 0.006425046 -0.007636763
000010 d4 c0 e9 bc 42 65 af bb dd 09 80 3c 30 cf 90 bc
       -0.02853433 -0.005352647 0.015629703 -0.01767692
000020 d9 82 6e bc ff 37 47 bc 17 3b dd bc 13 b7 28 bc
       -0.014557564 -0.012159347 -0.027005715 -0.010297555
000030 9a 56 c7 bb 55 ee 0f bc 81 c7 c1 3c ef 9a 07 bc
       -0.0060833218 -0.00878485 0.023654701 -0.008276685
000040 2e d9 d9 3b d6 00 09 bb 05 3c cd ba 6d 3c c1 bc
       0.0066482043 -0.002090504 -0.0015658146 -0.023588384
000050 d6 e0 e1 3c a5 d2 02 bd 39 0a 09 bd 27 5f 35 bc
       0.02757303 -0.031939168 -0.033457015 -0.011070049
000060 f3 76 35 bc 18 4d 88 bc ab d2 9b bc 76 0f 43 bc
       -0.011075723 -0.016638324 -0.019021353 -0.011905542
000070 52 03 7c 3c e6 97 34 bc 9b 17 3c bc 24 3a a6 bc
       0.015381651 -0.011022544 -0.011480237 -0.020291395
000080 86 5a 5d 3c db 77 22 3c 63 d6 c1 bb b2 3f 6a bb
       0.013510352 0.009916271 -0.0059154495 -0.0035743532
000090 21 40 8b 3c 48 52 52 bc 24 30 11 bd a2 db 8e 3c
       0.016998352 -0.012837 -0.0354463 0.017438713
0000a0 6b de b8 bc 87 7f 0b bc fb b8 88 3b 0c 84 bf 3b
       -0.022566995 -0.008514292 0.004172442 0.0058445986
0000b0 05 06 e4 bb cc 35 d9 39 75 12 57 bc 58 66 4c bc
       -0.0069587254 0.00041429547 -0.013126959 -0.0124755725
0000c0 aa ca 15 3c e1 10 0c 3b 48 00 88 bc f4 66 1d bc
       0.009142557 0.0021372365 -0.016601697 -0.0096070655
0000d0 5a be 1d bc 00 8f 06 bc 66 0d 59 3b e1 d5 24 bb
       -0.009627903 -0.008212805 0.0033119558 -0.0025151896
0000e0 e7 52 7a bc 2f 78 a8 bc bc 49 8e 3c e7 72 30 3c
       -0.0152785545 -0.02056512 0.017369144 0.010769582
0000f0 72 82 c7 b8 0b 68 bc 3c a3 10 86 3b 1b 72 03 ba
       -9.513357e-05 0.02299883 0.0040913387 -0.00050142565
000100 7b 95 ed bc f2 b0 a0 3c 48 93 f5 3a c0 de 84 3c
       -0.029001942 0.019615624 0.001873591 0.016219497
000110 54 1a 7f bc 1d a6 bc bc ec 46 a9 bc 3f 90 a3 3c
       -0.015570242 -0.023028428 -0.020663701 0.019966243
000120 6f d5 1a bd 75 15 63 bc ce b3 c4 bc 33 fe ae bb
       -0.037801202 -0.013860096 -0.024011519 -0.0053403615
000130 52 06 36 bb 60 76 62 3c 8c 5c 87 3c 5d ed 17 bc
       -0.0027774763 0.013822168 0.016523622 -0.0092729
000140 c4 a1 f0 3b 72 05 83 bc 93 f0 a9 bb 74 8c ca bc
       0.0073435027 -0.015993807 -0.0051861494 -0.024725176
000150 43 b3 1f bc bd 94 cd bc 40 e0 3f bc 72 3a d5 bc
       -0.009747329 -0.025095338 -0.01171118 -0.026028845
000160 cf 8e c8 bc 9b ab 6b 3c 05 1f ae ba 66 6e 02 3d
       -0.024482159 0.014384176 -0.0013284391 0.031843565
000170 35 3f be 3b 40 2c 45 3c b6 54 a0 bb 48 61 27 3a
       0.0058058747 0.012034476 -0.004892911 0.00063850405
000180 8c 14 a7 3c 4f 13 f8 3b 03 86 d6 bc 78 7e de bb
       0.02039554 0.007570661 -0.026186949 -0.0067899786
000190 e3 c6 aa bb 61 d3 1d bd d5 85 5c bb d4 b8 ee b9
       -0.0052116974 -0.038531665 -0.0033649106 -0.00045532605
0001a0 2f 92 37 bc 61 c6 a6 bb 99 50 be bc 7c 61 ea bc
       -0.0112042865 -0.0050895666 -0.023231791 -0.028610937
0001b0 23 b5 a1 3c 0d c5 17 b9 7f 74 e6 b8 e9 7c 26 bc
       0.019739693 -0.0001447389 -0.00010988954 -0.010161617
0001c0 38 7f 2e 3c be 4b d7 bb 8e 9c d4 bc 42 35 05 bd
       0.0106504485 -0.0065703085 -0.025953557 -0.032521494
0001d0 d2 d5 b3 3c 8c 25 ce bb ac 99 2f bc fb f7 d8 bc
       0.021952543 -0.006291097 -0.010717791 -0.026485434
0001e0 00 b4 79 bc 1c c0 c3 bc 4f 44 fe bc 91 a3 81 bc
       -0.015240669 -0.023895316 -0.031038431 -0.015825065
0001f0 91 bb af 3b 11 44 1f 3c 55 c2 ae 3a 2a e5 c6 bc
       0.005362936 0.009720818 0.0013333062 -0.024279196
000200 28 5e 44 3d a2 b6 e7 3c bf 03 f6 3c cb f7 06 bd
       0.047941357 0.028285328 0.030031083 -0.032951158
000210 bc bc 80 bc 6f 9b 00 3d 85 bc 00 3d 4d 01 00 bc
       -0.015714996 0.031398233 0.031429786 -0.00781281
000220 ea 2a 9c bb 30 f1 65 bd e7 6f 88 ba ea f9 d2 bc
       -0.004765858 -0.056138217 -0.0010409326 -0.025753934
000230 58 80 26 3d eb 4f 0c 3d 84 38 cd 3c 83 00 db bb
       0.040649742 0.034255903 0.025051363 -0.0066834106
000240 0c b6 04 3d 96 60 6d 3d a0 e3 2f 3d c7 26 bd 3b
       0.032400176 0.05795344 0.04294169 0.005772445
000250 73 ba 80 bc ae 7f 04 3c 39 81 14 3d a8 b9 87 bc
       -0.015713906 0.008087082 0.03625605 -0.01656802
000260 a9 ac 40 bc df c4 cc bc 96 41 a0 bd bf fd 7a 3d
       -0.011759915 -0.02499622 -0.078250095 0.061277147
000270 49 60 27 3d 2e f6 10 3d 4b d3 4e 3b f6 44 13 3d
       0.04086331 0.035391025 0.0031559046 0.03595444
000280 85 e9 02 3b 90 24 80 3c 1b cf 65 3d 7b 03 df bb
       0.0019975614 0.015642434 0.056105714 -0.006805835
000290 69 8f 25 bc 3b fc 58 bd ea 18 2a 3c 6e 33 95 bc
       -0.010104992 -0.05297492 0.010381917 -0.018213
0002a0 7b f9 d9 bc e4 47 ed 3c 15 8b 1d 3c 62 3e fa 3c
       -0.02660822 0.028964944 0.009615679 0.030547325
0002b0 2c 5f 42 bc 1e cd e9 3c 49 31 55 bc 13 f2 4f bd
       -0.011863511 0.02854019 -0.013012239 -0.05076797
0002c0 96 f8 5e bd 47 cd 38 bd 5e c1 06 bd d3 bd be bc
       -0.05443629 -0.045117643 -0.032899253 -0.023283875
0002d0 ce 02 8f bb 95 f0 11 bc 58 36 45 3c d3 67 8e 3d
       -0.004364348 -0.008907457 0.012036882 0.06953397
0002e0 b3 9d f0 3c 48 9d 7c bd f0 5e 81 bc fb 3e ca bc
       0.029372072 -0.061673433 -0.01579234 -0.024688235
0002f0 f2 98 07 3a c6 9d 45 bd cf 06 cb 3c 9f 55 13 3d
       0.0005172632 -0.048246168 0.02478352 0.035970327
000300 5b 97 c3 3a a4 2d 92 bb fe da 2a 3d a7 38 39 39
       0.0014922427 -0.004461007 0.041712753 0.0001766408
000310 d9 5e ed 3c 0c 11 11 3c 39 63 8f 3d 3a fc f7 3c
       0.028975891 0.008854162 0.07001347 0.030271638
000320 87 79 2f 3d 90 f0 50 bd 56 03 0c bc c6 16 30 bc
       0.042840507 -0.05101067 -0.008545717 -0.010747617
000330 29 4a 51 bd 26 a6 36 bc 70 9d eb 3c ee f6 0c bd
       -0.051096115 -0.011148011 0.028761595 -0.034415178
000340 63 30 88 3d 55 2b 41 3d 45 7a 34 3d 29 bd ea 3c
       0.06649854 0.047160465 0.044061918 0.028654652
000350 fb 16 45 3d 9f 3c 2f bb 26 e1 12 3d 88 14 25 bd
       0.04811762 -0.0026739014 0.03585925 -0.040302783
000360 42 cd 3e 3d 02 2e 0e 3d 64 5f cb 3c e1 92 15 bc
       0.046582468 0.034711845 0.02482576 -0.009129257
000370 3d 20 77 bc a3 01 21 bd 26 6a bc bc 0a 30 af bc
       -0.01508337 -0.0393082 -0.022999834 -0.021385211
000380 d7 2e bc bb 2d 03 a8 bc 00 cb 1e bd 09 75 b5 3d
       -0.0057428884 -0.020509327 -0.038767815 0.08860213
000390 27 fe db bc 48 37 8e bc 67 87 bb bc 1b d6 1c 3d
       -0.026854588 -0.017360345 -0.022891713 0.038290124
0003a0 b6 67 b8 3b 9d 31 6a 3c 79 dd 3b 3d 8e 76 58 3d
       0.0056275977 0.014294055 0.04586551 0.052847438
0003b0 d7 cb 21 3d c2 ba 09 3d 40 83 36 bd 17 b2 8d 3d
       0.039501037 0.03362537 -0.044558764 0.069187336
0003c0 6f bc 6a 3c db 90 f6 3c 30 1b 1a 3d f5 1f 33 3d
       0.014327153 0.03009837 0.037623584 0.04373165
0003d0 7f a5 fd 3c 29 3d c0 3c 4e c3 ab bc 52 36 1d bc
       0.030962704 0.023466663 -0.020967152 -0.0095954705
0003e0 c9 01 0f 3d cc ed 92 bc d0 e6 1a 3c 54 3d 03 bd
       0.03491381 -0.017935656 0.009454444 -0.03204091
0003f0 01 a1 9d 3d a8 e4 4f 3d 7b 58 3d bc da 9c 33 bd
       0.07696725 0.050755173 -0.01155674 -0.043850757

action_model._discrete_distribution.branches.2.bias f4 [3]
000000 47 f5 18 3c 7a 98 58 bc 98 f0 80 3b
       0.009335822 -0.013219947 0.003934931

action_model._discrete_distribution.branches.2.weight f4 [3, 128]
000000 e4 49 0a bc 19 47 d3 3a c9 48 94 bc ae 37 c1 3c
       -0.008440468 0.0016119211 -0.018101113 0.02358612
000010 41 85 c1 bc 05 68 91 bc 23 e8 83 bc ac 4a d6 3c
       -0.02362311 -0.017749796 -0.016101902 0.026158653
000020 d3 1b 9c 3c 55 8a 20 3c 15 56 ed bb 73 09 dc 3c
       0.019056236 0.009798606 -0.007242928 0.026859974
000030 0d 03 d1 3b f0 4b 19 3a 6e 10 91 bb 00 d8 64 bc
       0.0063785375 0.00058478024 -0.0044270074 -0.013967514
000040 b2 a8 90 bc 8c 3a fb bb 81 df 31 bb 0a 87 c4 3c
       -0.017658565 -0.0076668914 -0.0027141275 0.023990173
000050 25 32 5f bc 6f 12 24 bc da 0b 4a bc d9 1e c9 3c
       -0.013622795 -0.010014161 -0.012331927 0.024550842
000060 67 78 b6 3c 9b ae 9f 3c 36 e5 ee ba 9d 4a 99 bc
       0.02227421 0.019492438 -0.0018226269 -0.018712336
000070 80 0a 54 bb 5f fd ce bc 91 67 04 3c e4 6e 1d 3d
       -0.0032354891 -0.025267301 0.008081333 0.03843583
000080 18 fa d6 3c b3 cb a6 bc ff 8a 31 3c fa 3e 4e 3c
       0.0262423 -0.020360803 0.010836362 0.012588257
000090 03 81 8a bc 78 15 be 3b 43 a2 95 3b 1e 71 53 ba
       -0.01690722 0.005800899 0.0045664622 -0.0008065867
0000a0 f9 6d 06 3d de e8 28 3c 74 a5 cc ba 04 e0 5c 3b
       0.03281972 0.010309426 -0.0015613274 0.003370286
0000b0 8e b2 b0 b9 67 28 43 3c a3 ac 88 3c c9 fc 4d 3b
       -0.0003370237 0.011911488 0.016683882 0.003143119
0000c0 01 2e 16 3d b2 ed df 3c f2 75 e8 3b b2 e2 b8 3c
       0.036664966 0.027335022 0.0070941383 0.022569034
0000d0 58 dd db 3c 47 b9 73 bb c2 d4 9f 3c 0b ca 56 bc
       0.026838943 -0.0037189291 0.01951063 -0.013109694
0000e0 fe de 07 3c 3b 74 0e 3c 0e 87 70 3c 71 a9 81 3c
       0.008292912 0.008694704 0.014680637 0.015827866
0000f0 b2 4f 68 bc 7f cf 09 3c 59 e5 ab 3c c0 67 8a bc
       -0.014179157 0.008411287 0.020983385 -0.016895175
000100 96 83 ca 3b 9a 76 5b bc 9c 52 16 3c 40 8d e1 ba
       0.006180237 -0.013394976 0.009174969 -0.0017208233
000110 bd 9c 3f 3c b3 05 9b bc d5 39 ae 3c 71 dc cf bb
       0.011695084 -0.018923616 0.02126781 -0.0063434173
000120 93 a5 95 bc 29 ae f6 3c a7 3b 0a 3c de 52 84 ba
       -0.018267429 0.030112343 0.008437074 -0.0010095497
000130 5b 51 a1 3c 22 a6 9d bc 46 c4 e3 3b 97 30 8f bc
       0.019692114 -0.019244257 0.006950888 -0.017479224
000140 75 ed 72 bc 35 a6 81 3c 42 69 90 3c 7f f7 40 3a
       -0.014827122 0.015826324 0.017628316 0.00073610985
000150 21 6f 2c bb bf 95 4a 3d 36 7b 15 3d 77 31 0a 3d
       -0.0026311355 0.049459215 0.036494456 0.03373858
000160 8f 22 17 3c f2 07 c2 bc e1 33 09 bc ec ba fd 3b
       0.009224548 -0.02368543 -0.008374185 0.00774323
000170 d3 c7 8e 3c 41 9c 58 bc 3e 89 56 3d 40 b9 03 3c
       0.017429268 -0.013220848 0.052376978 0.0080397725
000180 bd 8c 3d 3a 6b b1 b5 3b 33 22 9b 3c 8c 89 3e bc
       0.00072307495 0.0055448315 0.018937206 -0.011629473
000190 ec 18 3f 3c 23 3c 57 3c ac d5 e9 3b c7 19 e3 bc
       0.011663657 0.013136896 0.0071360674 -0.027722253
0001a0 c3 d0 2f 3c 0a da 06 bd 5b a7 99 3c 83 5a 84 3c
       0.010730925 -0.032922782 0.01875656 0.01615644
0001b0 ed ad 03 bc dd 53 9e bb 7d a7 c6 3b 4b 01 63 3c
       -0.008037073 -0.0048317746 0.0060624466 0.013855289
0001c0 c3 f1 7d 3c 8b a1 2a bc 32 9e 39 3d 60 1c c0 3a
       0.015499535 -0.010414491 0.045316882 0.0014656894
0001d0 d2 cf cb bb fb 75 b8 bc c3 48 5d 3c 7e c1 1c 3d
       -0.0062198425 -0.022517195 0.013506117 0.038270466
0001e0 40 3b 09 3d dc 58 d9 3b 4c 73 15 3c e8 55 fd 3b
       0.03350377 0.0066329073 0.009121727 0.007731188
0001f0 86 ce 17 bb 8e c3 e8 3b f1 c4 1a bc b1 cd 55 3c
       -0.002316387 0.00710339 -0.009446369 0.013049529
000200 95 d9 84 bc fb be ce bc a5 45 d5 bc 16 c0 56 bb
       -0.016217032 -0.025237551 -0.026034186 -0.00327683
000210 a8 1a 51 3b 6b b1 48 bc af 3a f9 3c 9e 83 46 bb
       0.0031906758 -0.012249331 0.03042349 -0.0030290852
000220 82 d7 06 3d 95 70 38 bc df 8c 98 3c 5b 74 6b 3b
       0.032920368 -0.01125731 0.01862186 0.0035927508
000230 f6 91 39 bc 97 0d d3 bc a5 70 27 3c e5 40 ce 3c
       -0.011326304 -0.025763316 0.010219728 0.025177428
000240 57 d2 ab bc c6 61 5e bc 62 56 bd bb b8 2d 8e bb
       -0.020974321 -0.013573116 -0.00577812 -0.004338946
000250 51 d4 89 3c b0 b2 e6 3c 99 ea a9 3c 69 f2 80 ba
       0.016824873 0.028161377 0.020741748 -0.0009837869
000260 79 e9 8a 3a b8 13 03 bc 9e d1 3e 3c 39 af 4e 3b
       0.0010598145 -0.008000307 0.011646656 0.0031537546
000270 9c c6 4b bc 66 6d 84 bc 37 9f 03 3c 6b 5d 64 bc
       -0.012437489 -0.016165446 0.008033565 -0.013938288
000280 34 f2 b0 bc a3 44 9c bc 38 f9 78 3a bf f4 68 37
       -0.021599866 -0.019075697 0.00094975857 1.3885262e-05
000290 90 ce 28 bc f7 a9 7f bc b6 db 6d 3a 3b 80 be bb
       -0.010303155 -0.015604488 0.0009073572 -0.005813626
0002a0 eb 77 05 3c c1 63 fe 3c 7e 3d c8 3c 04 14 92 bb
       0.008146266 0.031053426 0.024443384 -0.0044579525
0002b0 7e ed 22 3c 73 4d 88 3c 4e 93 f5 bb 03 d7 84 bc
       0.009944318 0.016638493 -0.0074943667 -0.016215807
0002c0 37 92 20 3c 11 fb 6d 3b 59 97 53 3c 4d ca 78 3b
       0.009800485 0.0036312977 0.012914502 0.0037962378
0002d0 61 1f 90 3a 4a 3b 06 bc 93 15 5b bb 24 8a fc bb
       0.001099568 -0.008192847 -0.0033429607 -0.0077068973
0002e0 c9 f0 a2 bc 84 bd 4e bc 9f f4 33 3c 1c 05 57 3c
       -0.019890206 -0.012618426 0.010983615 0.013123777
0002f0 be ca ce 3b 62 98 e7 3c e3 16 ed bb 82 a2 a7 bc
       0.00631079 0.028270904 -0.0072353943 -0.020463232
000300 15 0a 0b 3d c2 e5 02 bd 8d 30 90 bc c8 00 39 bd
       0.03394516 -0.031957395 -0.017601276 -0.04516676
000310 69 ab 54 bc 6f 4a 61 3c 55 13 bc bc 84 02 82 bc
       -0.0129803205 0.0137506565 -0.022958437 -0.01587034
000320 67 41 25 bc e6 f2 a9 3b 02 85 ad 3c 32 e5 a6 3c
       -0.010086394 0.0051864265 0.021181587 0.02037296
000330 8a 01 01 3a 1b ec 86 bc dc ae ae bc 5c 8b 5d 3c
       0.0004921189 -0.016470006 -0.021323614 0.013521995
000340 61 68 c3 bc 10 59 45 bd a5 a0 d6 bc e8 45 09 bc
       -0.023853483 -0.04818064 -0.026199648 -0.008378483
000350 59 70 be 3a 28 fd 50 bd c8 2c af bb 81 da d8 3b
       0.0014529332 -0.05102268 -0.0053459145 0.0066178446
000360 23 35 ae bc 67 90 83 bb e7 2f 49 bc 9f a0 bb bc
       -0.021265572 -0.004015017 -0.012279487 -0.022903739
000370 bc ff 46 bd e1 60 b4 3c a6 b5 b6 3c 72 1b 38 bb
       -0.04858373 0.022018852 0.022303414 -0.002809253
000380 a7 a2 d0 bc b3 16 bb 3b 7c 4a 23 3c 64 12 c6 bc
       -0.025468184 0.005709493 0.009966489 -0.024178691
000390 48 44 cd 3c 33 05 f0 bc 96 c2 83 3c 7a 0e 6e bc
       0.025056973 -0.029299354 0.016083997 -0.014529819
0003a0 2d 7b 8f 3c 42 a0 9f bc 46 6b cd bb 0e e1 45 bc
       0.01751479 -0.019485597 -0.0062688915 -0.012077583
0003b0 1f 7d 52 ba b6 cc 2b 3b 57 8f 46 bb ab cd ea bc
       -0.0008029509 0.0026214547 -0.003029784 -0.028662523
0003c0 18 5c 7f bb 05 71 8c bc 17 d0 da bc 92 a7 77 bc
       -0.0038964804 -0.017143736 -0.026710553 -0.0151156355
0003d0 90 dc 58 3c b9 a9 09 bc ea b0 68 bc 55 2e 06 3c
       0.01323618 -0.008402281 -0.014202336 0.008189757
0003e0 cb d4 6d bc 4e 1d df 3b d1 ab 67 3a d9 71 12 bb
       -0.014516066 0.0068089133 0.00088375533 -0.002234569
0003f0 be 95 ae bc 61 c2 0c bc 2a 4c b0 3b 1c a0 bd 3b
       -0.021311637 -0.008591265 0.005380173 0.005786909

network_body.linear_encoder.seq_layers.0.bias f4 [128]
000000 1e 31 fa ba a7 53 21 bd 5b a8 32 3b 6f 20 96 bc
       -0.0019088124 -0.039386418 0.0027260992 -0.018326012
000010 f9 bd 71 bb d3 ca be 3c 00 c7 18 ba c1 68 48 3b
       -0.0036886914 0.023290073 -0.0005827993 0.0030580016
000020 fe 46 2a 3c 11 17 57 3b d2 9f 89 bc 3b 23 6a bc
       0.010392902 0.0032820145 -0.016799841 -0.014290626
000030 58 9b 11 3c 58 0d a9 bb 1e e9 97 3c 2d 1b 66 3a
       0.0088871345 -0.0051590614 0.018543776 0.0008777853
000040 1d 61 bd 3c 08 d8 85 3c 39 04 84 3c 06 f1 22 bc
       0.023117596 0.016338363 0.016115295 -0.00994516
000050 fc 85 df 3c b0 f9 bb bb db b6 18 3c 83 0c bd 3a
       0.027285568 -0.005736552 0.00932094 0.0014423284
000060 61 ff 66 bc 0f fc 9f bb 7a ac 0f 3b 59 75 03 bc
       -0.014098973 -0.0048823426 0.0021922872 -0.008023583
000070 ad 73 4f bc 21 3e ac 3b 13 58 9e 3c fd 8b 83 3b
       -0.012661857 0.00525643 0.019329106 0.0040144906
000080 13 b2 5f 3c ed 20 e6 ba 77 34 1d bb 46 6f 87 3a
       0.013653296 -0.001755742 -0.002398757 0.0010332845
000090 50 ff 58 3c f8 9f 10 3c 8e 62 9b 3a 49 bc da bc
       0.013244465 0.008827202 0.0011854933 -0.02670111
0000a0 7f 43 d9 3b 9f 31 b2 ba 66 d1 61 3b 14 04 81 ba
       0.0066303606 -0.001359511 0.0034457087 -0.0009843134
0000b0 65 78 c8 bb 2a 62 65 3c 1f 64 37 3c 65 9b cb bb
       -0.006117868 0.014000455 0.011193304 -0.006213593
0000c0 66 05 ee 3b 35 97 07 3c 3c 2b 1e 3b 9d 46 e5 3a
       0.007263827 0.008275797 0.0024134656 0.0017492358
0000d0 4c d7 1e 3c 34 02 57 bb 6d 3a f5 bb 82 36 6a bc
       0.009694885 -0.003280771 -0.0074837715 -0.014295222
0000e0 c3 18 d9 3c 96 be 94 bc 69 87 88 3c 7c 8c 9e ba
       0.026501065 -0.018157285 0.016666131 -0.0012096311
0000f0 72 b8 9c ba 1b 93 ce b8 c6 d7 7b 3b 0a f9 b5 3c
       -0.0011956824 -9.850246e-05 0.0038428172 0.022213478
000100 ea 08 84 bc 0c 67 84 3c a7 2f 89 bb 0b bd 0a b9
       -0.016117532 0.016162418 -0.004186589 -0.0001323113
000110 5b b2 5c 3c 6c db 46 3a 38 67 46 bc d9 b0 e9 bb
       0.013470258 0.0007585797 -0.01210957 -0.0071316776
000120 b6 88 9c 3b 6e 41 c0 3c b9 49 02 3d 04 22 5e bc
       0.0047770394 0.0234687 0.03180859 -0.013557915
000130 20 6d 7a ba 8e 9c 4b 3c f3 14 42 3c a7 ba dc bb
       -0.0009553004 0.012427462 0.011845815 -0.006736118
000140 d6 90 ff 3a 4d d3 91 bc 38 69 84 3c 83 65 7d 3c
       0.001949812 -0.017800951 0.016163453 0.015466097
000150 a7 9e 53 3b dc ce 0d bb 38 12 79 3c 53 53 a6 bc
       0.003229061 -0.002163819 0.015202098 -0.020303404
000160 1b 12 c2 bb 70 83 23 bc 12 d4 00 3c f1 01 17 bc
       -0.0059225685 -0.009980068 0.0078630615 -0.009216771
000170 f8 0e 1f 3d 8e cb 96 3b 9c 69 86 bc 62 b0 28 bb
       0.038832635 0.0046019023 -0.01640778 -0.0025739898
000180 aa 4b 92 3c d1 4a b5 3c 88 91 bc 3a 55 c4 0d 3d
       0.017858345 0.022130402 0.0014386633 0.034611065
000190 9b a8 ab bc ae 6a 3b 3c 9e 2b 97 3b 92 8e 5c bb
       -0.02095442 0.011439009 0.004613354 -0.0033654314
0001a0 d3 c0 e6 3b fa d4 9b 3a a8 20 80 bb df dc 33 3c
       0.0070420294 0.0011889033 -0.003910143 0.010977953
0001b0 37 4c a1 3b d9 23 28 3c 74 76 5b 3c 4b 20 b8 bc
       0.0049224156 0.010262453 0.013394941 -0.022476336
0001c0 c0 cb 7b 3a 62 54 7f bc 58 ea f9 3a c9 47 61 bc
       0.0009605251 -0.015584083 0.0019067032 -0.013750025
0001d0 13 a8 3d bc c4 06 0b bc 59 be 58 3c b5 f3 a6 3b
       -0.011575717 -0.0084855 0.013228976 0.00509497
0001e0 ed 39 0a bb 5b 3b 46 bb 72 e0 d2 3a 30 b8 98 bb
       -0.0021091655 -0.003024778 0.0016088618 -0.0046606287
0001f0 75 13 66 3c 0c 35 d9 3c 67 f0 ac bb 32 b1 37 ba
       0.014042725 0.026514553 -0.0052776816 -0.00070073

network_body.linear_encoder.seq_layers.0.weight f4 [128, 122]
000000 15 18 36 3d 84 a5 ed bd d7 5d 68 bd b5 3d f6 bd
       0.04445656 -0.11603835 -0.056730118 -0.120234884
000010 0f 28 ad bc 81 97 8f bc a0 24 ff 3d 1f b7 1a 3e
       -0.021137265 -0.017528297 0.124581575 0.15108918
000020 60 5e a9 3d b5 83 c2 3d cb c8 02 bd 84 0a 06 bd
       0.08269954 0.094977774 -0.031929772 -0.032724872
000030 4d b1 45 3d 97 7a 0b be c5 ec 62 3d c3 36 da 3c
       0.04826479 -0.13620983 0.055401582 0.02663744
000040 2a 9c 9f 3d a1 78 83 3d a3 91 ca 3b 09 a8 bb 3c
       0.07793458 0.064194925 0.006181912 0.022907274
000050 9d 42 f2 3d ea 52 13 3d 11 49 25 bc b6 21 23 3e
       0.11829112 0.035967745 -0.010088221 0.15930828
000060 cc e7 1f bc 67 41 9a bd 72 eb 6c 3a ba 0a 79 3d
       -0.0097598545 -0.07532006 0.00090377696 0.060801245
000070 fe 5c 82 bd 7f 45 20 3b 0b f0 2f bc 84 a7 96 3c
       -0.06365393 0.0024455485 -0.010738383 0.018390425
000080 e7 eb e5 3d 70 29 b2 bd e6 c2 db 3d 69 3b ea 3d
       0.112266354 -0.0869931 0.10730533 0.11437113
000090 58 ba 0f 3d 86 2e a4 3d 8c 5f d2 bc d4 8e fa bc
       0.03508982 0.08016686 -0.025680326 -0.030585684
0000a0 80 17 c3 bc d3 5f 6b bd 84 4f 51 3e 8b 1c d6 3d
       -0.023814917 -0.057464432 0.20440489 0.10454663
0000b0 b4 29 68 3e 0b 08 7d 3c f2 91 f3 3d 67 8f a2 bb
       0.22672158 0.015443812 0.11893071 -0.0049609425
0000c0 d4 63 6a 3d a3 9e 7a bd 54 8c e8 3b 62 c7 4b be
       0.05722411 -0.061186444 0.0070968065 -0.19900277
0000d0 37 45 b7 bc 22 a4 be bd ac 94 0d 3e 18 65 44 be
       -0.022371871 -0.093086496 0.13826245 -0.19179189
0000e0 34 4f 72 3c a4 a3 75 bd 7b 28 a2 ba 95 3e 8a 3d
       0.014789391 -0.059970513 -0.0012371683 0.06750218
0000f0 89 c1 e1 3d e3 ac c0 bd a5 f5 cb bc c7 2b be bd
       0.11023242 -0.094079755 -0.024897406 -0.092856936
000100 af 0f f7 bc 26 d3 72 3d 0f 12 8e 3c 27 2a 11 3e
       -0.030158846 0.059283398 0.017342595 0.14176236
000110 ce d2 7c bb 6a 1b 52 3b 89 f5 95 bd 01 61 d9 bd
       -0.0038577798 0.0032059797 -0.07322223 -0.10614205
000120 34 37 58 bd dd 0a b6 bd 33 81 7c 3d 5a 3c d0 bc
       -0.05278702 -0.08888791 0.06164665 -0.025419403
000130 a0 79 01 be 62 04 26 bd ed f5 b9 bd aa 20 91 3d
       -0.12644053 -0.040531524 -0.0908011 0.07086308
000140 8c c7 45 bd 78 55 ef bb 24 36 33 3e db 2f 1b 3d
       -0.048286006 -0.00730389 0.17501122 0.037887435
000150 c8 41 63 bd 51 1a 1f be f8 56 a0 3c 64 3c 02 3d
       -0.055482656 -0.15537383 0.01957272 0.031795874
000160 ed d9 1a bd 81 c4 80 bd 6c bb a2 3d 17 03 78 bd
       -0.037805486 -0.0628748 0.07945904 -0.06054982
000170 1e 22 18 3e f4 60 74 bd 80 ae b9 bc 21 50 c8 bd
       0.14856765 -0.059662774 -0.022666216 -0.097809084
000180 50 23 dd bc fe 3b 93 bd 31 98 a0 3c 0c a5 9e bd
       -0.026994377 -0.07189177 0.01960382 -0.07746324
000190 f9 8f 18 bc 51 a6 c4 3d 6a 1e a1 3d 96 15 78 bd
       -0.0093116695 0.09602035 0.07867129 -0.06056746
0001a0 08 2c 53 be 04 28 83 3d d3 28 49 bd 07 03 e6 3c
       -0.20622265 0.06404117 -0.0491112 0.028077615
0001b0 8d 5d 1d 3e 1b 04 1b 3e 67 f6 b0 39 4f 6b e6 3d
       0.15367718 0.15138285 0.0003375292 0.11250936
0001c0 0a 2a be bc e3 06 e9 3d 72 1a 1c be ef 73 6c 3e
       -0.023213405 0.11378267 -0.15244463 0.230911
0001d0 25 20 8f bd 75 9e 4d bd 80 9f d4 bd 04 4e 95 3d
       -0.06988553 -0.050199945 -0.10381985 0.07290271
0001e0 67 21 38 3d 84 94 52 bd 22 3d b0 3b fb e6 8b bb
       0.04495373 -0.051411167 0.0053783813 -0.0042694784
0001f0 f8 47 28 3d b8 d3 9c 3d e2 28 d7 bc 45 89 09 3e
       0.04108426 0.0765757 -0.026264612 0.1343127
000200 1b 9b 7a 3d 83 1a 24 bd 72 14 ac bb c1 b0 58 3b
       0.061183076 -0.040064346 -0.0052514607 0.0033064338
000210 6d 3c 40 be ba d1 76 bd 2b 17 84 3c ac e9 fa bd
       -0.1877305 -0.060258605 0.016124329 -0.122516006
000220 3d a2 d9 bc b7 c4 50 3d 2a 98 56 3e e8 9c 94 3d
       -0.026566619 0.050968852 0.20956483 0.0725649
000230 64 58 50 3d 3b 5d 0a be 50 b5 f6 3d 46 7c 9e 3c
       0.050865546 -0.13512127 0.12046301 0.019346368
000240 3d 37 48 bd f2 50 d6 bd 90 67 de 3d 0f 96 51 3d
       -0.048880804 -0.10464658 0.10859597 0.051168498
000250 f2 f6 3e 3e 92 8f 64 bd 97 8d 21 be ac d0 5f 3d
       0.1864889 -0.05580098 -0.15776668 0.054642364
000260 88 6e cd bd a1 04 a6 bd 44 36 22 be bc 5f 4c be
       -0.10030848 -0.08106352 -0.15841013 -0.19958395
000270 10 a3 0d 3c c8 8f a2 bd 4c 3b 63 bd 29 07 af bd
       0.008644834 -0.0793758 -0.05547647 -0.085462876
000280 22 10 81 3d 17 ca 1e be 24 64 22 3e bf a4 fa bd
       0.06301905 -0.15506779 0.15858513 -0.12238454
000290 84 5a 7e be f4 8c fa 3c bf f6 f6 bc be ef 61 3d
       -0.24839216 0.03058479 -0.030146955 0.055160277
0002a0 04 69 38 3e 49 3c b1 3d d1 d1 dc bd ad cf c9 bd
       0.1800881 0.086540766 -0.10782207 -0.09854064
0002b0 fa 27 4e be 31 8a a8 bd b7 66 21 3c e6 4a c7 3c
       -0.20132437 -0.08229483 0.009851149 0.024327707
0002c0 11 59 84 bd a1 de 13 3e 55 d0 b5 bc 49 cd da 3d
       -0.064623006 0.14440395 -0.022194067 0.10683686
0002d0 44 da 01 3c 81 ff 84 bd 8f 25 c4 bd 8a 18 de 3d
       0.007925574 -0.06494046 -0.09577476 0.10844524
0002e0 c5 b3 ff 3d e9 bf e4 3c 9c 08 0d be e1 0b f4 3d
       0.1248546 0.027923541 -0.13772815 0.11916328
0002f0 2e 1c eb bd a0 b8 78 bc af fd c3 3b 00 b0 0e be
       -0.11479984 -0.015180737 0.005981169 -0.13934326
000300 74 71 e0 3b 77 92 ac 3c 66 75 d4 bd e5 54 90 bc
       0.006849462 0.021065934 -0.103739545 -0.017618606
000310 10 c5 08 be 3c 3f 58 bc a2 78 ab bd c7 07 9f 3c
       -0.13356423 -0.01319867 -0.08372618 0.019412888
000320 a1 83 ad 3d d4 c0 3a 3d 29 80 e6 3c de 16 f7 bd
       0.08472372 0.04559405 0.028137283 -0.120649084
000330 02 6e 32 be 82 19 10 bc a1 3e 83 b7 d1 06 72 bd
       -0.17424777 -0.008795144 -1.564558e-05 -0.059088532
000340 c4 9f fb 3d a0 7d 86 bd f5 0b 9a 3c 3a 8c b3 bd
       0.12286332 -0.0656693 0.01880453 -0.087669805
000350 5e 7f 4d 3d f9 d4 2a 3d 9b 9d 46 bd af 0f 15 3b
       0.050170295 0.041707013 -0.048490148 0.0022744944
000360 7f 07 36 3e 76 d1 2c bd 30 77 27 3d dd 90 d0 bd
       0.17776297 -0.042191945 0.04088515 -0.101838805
000370 d9 02 03 be 19 d0 e5 bd 74 7a dd bd d9 88 a8 3d
       -0.12794055 -0.11221332 -0.10814372 0.082292266
000380 47 1a 32 be 23 11 8b 3b 60 ce 80 bd a8 be 39 bc
       -0.17392837 0.004243986 -0.06289363 -0.01133696
000390 f1 d5 25 3e 56 7e 7b 3d 1c 68 05 be 75 4a 8a bc
       0.16194893 0.06139978 -0.13027996 -0.016881207
0003a0 e8 58 60 bd 8b 00 00 3e 98 b8 23 3e 87 ff 7f 3d
       -0.054772288 0.12500207 0.15988386 0.06249955
0003b0 6e 2d 31 be fa 70 81 bb de 42 b5 bd 81 a3 9e bd
       -0.17302486 -0.0039502354 -0.088506445 -0.0774603
0003c0 d7 e3 a4 3c 98 d5 b4 3c 52 a6 3c 3d 06 6b b6 bd
       0.020128174 0.022074506 0.046057053 -0.08907132
0003d0 b5 c4 d5 3d bc 0b 5f bd 60 34 64 3d 0f 9c 14 3e
       0.104379095 -0.05445455 0.05571401 0.14512657
0003e0 4a 5c 89 bd 92 7e f7 3d c4 0a 06 bd 23 30 59 3d
       -0.06707056 0.12084688 -0.03272511 0.053024422
0003f0 29 b2 6e bd f2 58 ef 3d 83 f9 42 bd 35 74 28 bd
       -0.058275376 0.11686887 -0.047601234 -0.04112645

network_body.linear_encoder.seq_layers.2.bias f4 [128]
000000 14 15 18 3c ca 10 c2 3b 11 58 ad ba f7 5e bc 3b
       0.009282369 0.0059224116 -0.0013225098 0.0057486254
000010 b8 00 f0 3a cf 25 40 3c 84 f1 e7 3c 6b 20 02 3c
       0.0018310761 0.011727764 0.028313406 0.007942299
000020 b0 6e 01 3c 22 d0 fe 3a fc e3 3a 3c 15 4e 53 3a
       0.007899925 0.001944069 0.011406895 0.00080606464
000030 da d5 1d bc 58 64 d5 3b 19 ef 91 bc dd d9 13 bc
       -0.009633506 0.006512206 -0.017814206 -0.009024111
000040 b6 cb 37 3b 5f 87 a9 bb 5a 6b 8d 3b d6 34 0d bc
       0.0028045005 -0.005173608 0.004315776 -0.008618554
000050 cf f8 95 3c 48 de ac 3b e6 03 c8 bb 22 7d ae bb
       0.018307118 0.0052755214 -0.0061039804 -0.0053249756
000060 2d a0 91 3c 39 f6 03 bc af e5 43 3c 5a ef b4 3b
       0.017776573 -0.0080543095 0.011956616 0.005521697
000070 3c 39 a8 3b 6a 44 5f 3c 34 c8 a6 bc eb 37 2a 3c
       0.005133776 0.013627151 -0.020359136 0.010389308
000080 3a c5 95 ba 2a 73 5e 3c f6 fc 7f bb 7f 16 1f bb
       -0.0011426576 0.013577262 -0.0039060689 -0.0024274883
000090 e3 1e 91 bc ff 26 0b 3b bd 4c 2e bc 22 65 9b ba
       -0.017714923 0.002123296 -0.010638413 -0.0011855701
0000a0 cf 3b fd bb 59 5c 1c 3b ee ce 9d 3b 3d 4c 2f bc
       -0.007728077 0.0023858754 0.0048159277 -0.010699329
0000b0 7b 78 5a 3c 54 54 7a bc 08 f3 34 3b de 45 c3 3c
       0.013334389 -0.015278894 0.0027610678 0.023837026
0000c0 02 05 be 3b f0 52 1f 3c 15 09 d4 3b d0 5b 73 bb
       0.005798937 0.009724364 0.006470809 -0.0037133582
0000d0 d8 3d 1b bb f5 c8 53 3c 09 1a 2f bb 21 a7 76 ba
       -0.0023687985 0.01292633 -0.00267184 -0.00094090594
0000e0 6a a9 90 bb 86 b1 76 3c 05 16 a6 3c b4 76 43 3c
       -0.004414727 0.015056973 0.020274172 0.0119301565
0000f0 b6 c4 96 bc 89 74 0c bc a6 6a 11 b8 4e f4 f6 ba
       -0.018404346 -0.008572706 -3.4670018e-05 -0.0018841119
000100 ac 24 d3 bb 2a 63 84 3c a8 c5 61 3c a0 c1 95 bc
       -0.0064435806 0.016160566 0.013780035 -0.018280804
000110 6a 62 11 3c eb 92 d9 38 87 61 72 bc 99 31 e9 3c
       0.008873561 0.00010374732 -0.01479376 0.028466033
000120 9b 79 a7 3b 5f ff 02 3c 2a 15 bc 3b 3f e9 ba bb
       0.005110932 0.0079954555 0.0057398276 -0.0057040746
000130 c6 b3 80 3c f1 7e 91 bb 8b af 45 3b 16 5a 7d 3b
       0.015710723 -0.0044401814 0.0030164446 0.0038658432
000140 5d ed 2d bb 8f 8e 35 ba 85 48 e7 ba 2b 39 86 bb
       -0.0026539185 -0.0006925845 -0.0017645514 -0.0040961704
000150 67 ba a7 3c bf ef 5c bc 41 1e 00 bc 5d 68 78 bc
       0.020474626 -0.013484894 -0.007819713 -0.015161601
000160 c7 e4 f4 ba 38 e5 48 3c 11 6a cb bb 9b 41 01 3c
       -0.0018683904 0.012261681 -0.0062077125 0.007889177
000170 26 d9 25 bb d4 a4 cf bb 07 5b 3f 3c ac 62 5b 3c
       -0.0025306433 -0.0063367877 0.011679417 0.013390224
000180 4f 77 f0 3b 19 5b 00 bb f4 b8 d7 3a 0c 51 73 3c
       0.0073384414 -0.0019585548 0.0016458319 0.014850866
000190 d5 31 a7 b9 89 4e a1 3c 9a b8 c6 3b 81 e8 1d b9
       -0.0003188985 0.019690769 0.0060644867 -0.00015059301
0001a0 7b 33 5c 3c f2 42 be 3b 4d 37 51 bb 30 e5 48 bc
       0.013440008 0.0058063203 -0.003192383 -0.012261674
0001b0 3c bd cc b8 3c 5a 72 3a c0 c3 ab 3b ad 1e 0f bb
       -9.762726e-05 0.00092450134 0.005241841 -0.0021838353
0001c0 74 64 43 bb d8 86 53 3c 2c c1 07 ba 7c 35 11 3b
       -0.0029814513 0.012910567 -0.0005178626 0.0022157123
0001d0 ba c4 e6 3b e2 43 02 3c 9c bd 93 3b cd 28 80 b9
       0.0070424946 0.007950755 0.004508687 -0.0002444446
0001e0 12 bf a8 3c 81 82 49 3b 1c e5 6a 3b 7b df de 39
       0.020598922 0.0030747952 0.0035842126 0.00042509646
0001f0 3a cb d0 bb 99 38 89 bb aa 95 44 3b 39 8d d8 3b
       -0.0063718827 -0.004187655 0.0029996433 0.006608632
