Project/results/VPlayer-OneMinusOne/VPlayer/VPlayer-4999989.onnx (onnx, 338453 bytes, 19 tensors)

action_model._continuous_distribution.log_sigma f4 [1, 2]
0.1138789 0.1283398
00000000: 5739 e93d 826b 033e

action_model._continuous_distribution.mu.bias f4 [2]
0.0009172835 -0.035821002
00000000: db75 703a 0bb9 12bd

action_model._continuous_distribution.mu.weight f4 [2, 128]
-0.04024029 0.042060234 -0.03010397 0.030596867 -0.010626982 0.0072585363 -0.058197375 -0.038473357
-0.03086245 0.0422834 0.0005984044 0.038443375 -0.069509536 0.02176449 -0.052620687 0.03580436
-0.061933268 -0.014157288 0.001970843 -0.029213851 -0.03134346 0.041880224 0.038833298 0.017380008
0.03330212 0.043347877 0.022491552 -0.020316893 0.04368599 -0.039640956 -0.023840351 0.010216361
0.028529068 -0.063538246 -0.032783557 0.033157237 -0.02574787 0.0124054095 0.0021820762 -0.08986782
0.007116867 0.004612348 -0.055547737 -0.030461961 0.026353408 -0.022045987 0.008308206 -0.028479664
-0.009924558 0.021357425 -0.0179323 -0.020742744 -0.05956259 0.025035968 -0.044029396 -0.014391937
0.024078546 -0.017394213 0.035369515 0.05559839 -0.06458989 0.04393046 0.011549219 -0.09201314
0.011388035 -0.0874385 -0.06134097 -0.059021927 0.036700606 0.0357065 0.018028226 -0.039463896
-0.008619951 0.03240669 0.035319604 -0.0050297203 0.054867927 -0.08103731 0.021515237 -0.014121412
-0.014438644 0.0030649349 0.023315258 0.03922344 0.006449775 0.048824817 -0.02011488 0.013885557
-0.019662656 -0.044451233 -0.03367124 -0.094961 -0.01585251 -0.04953988 0.016948598 -0.07762874
-0.01634393 -0.083947785 0.008831423 -0.026391318 -0.03166126 -0.024642518 0.0009138016 -0.06392963
0.025589291 -0.06305833 0.025336636 0.0073275142 -0.043732766 -0.06697308 0.012345308 -0.013828285
-0.07052345 -0.08218272 -0.003470111 -0.018161513 0.015061987 -0.05204787 -0.045119137 0.020828826
0.01634581 0.032395232 -0.009269031 -0.023603437 0.018335225 0.015444149 0.004666267 0.016011547
-0.025495892 0.017066855 0.04658464 -0.067563795 -0.02103777 0.00042000314 0.00018590178 -0.04296745
0.011600985 0.0068360996 -0.0545836 -0.00094723754 0.004838983 -0.03584388 0.038440004 -0.036007557
0.023745999 0.013050104 0.0035937296 -0.04297773 -0.018965418 0.057077844 0.059304804 -0.053815264
0.009076094 -0.071034744 -0.022685483 0.03845052 -0.0078104096 0.014712526 -0.027838327 -0.0539952
-0.028676495 -0.017403077 -0.006066653 0.021398867 0.04832358 -0.038555518 0.039299663 0.07901586
0.00074450875 0.086426295 -0.0051927194 0.04112062 0.038831 0.029027766 -0.043061834 -0.023302134
-0.033824 -0.02276795 -0.02793091 -0.0433424 -0.052477345 -0.051150493 -0.016363626 0.002418309
-0.04203381 -0.033751268 -0.014137424 0.022972262 0.05289408 -0.049650658 -0.026633706 0.062288783
0.04919103 -0.006094528 0.026736537 0.0027589062 -0.054605193 0.03916268 -0.02476134 0.07525478
-0.02882889 -0.022573082 0.040102053 -0.0057895514 -0.034016095 0.031797055 -0.033769984 -0.041492384
0.030880786 -0.037626546 -0.037872072 -0.051180787 -0.03176874 -0.082594134 -0.037872702 -0.0049762796
-0.03570337 0.05352739 0.02218439 0.005652931 -0.01407613 0.040719386 0.03956806 -0.009847039
-0.009407929 0.05661585 -0.010286147 0.0271622 0.026383752 -0.04262576 -0.001197842 0.04223792
0.012979775 0.0058578877 -0.034334403 0.005075923 0.004538105 0.020273138 -0.02490571 -0.028338205
0.014778205 0.08622572 -0.027244866 -0.038521886 0.049107935 0.02638244 -0.025797868 0.0074571273
-0.002710934 0.052286644 -0.010740087 -0.020310974 0.0053086877 -0.018743131 0.047124673 -0.023319542
00000000: 01d3 24bd 5a47 2c3d 9a9c f6bc 48a6 fa3c
00000010: cb1c 2ebc 04d9 ed3b 5f60 6ebd 3d96 1dbd
00000020: 40d3 fcbc 5c31 2d3d 3dde 1c3a cd76 1d3d
00000030: 045b 8ebd 724b b23c ca88 57bd 98a7 123d
00000040: bdad 7dbd f8f3 67bc 4229 013b e351 efbc
00000050: 0062 00bd 998a 2b3d aa0f 1f3d 8560 8e3c
00000060: ce67 083d 8b8d 313d 3440 b83c 9d6f a6bc
00000070: 15f0 323d 8e5e 22bd d74c c3bc 8662 273c
00000080: cbb5 e93c 5720 82bd 0d48 06bd e2cf 073d
00000090: 32ed d2bc 0f40 4b3c 2a01 0f3b 9f0c b8bd
000000a0: 9c34 e93b 2e23 973b 0686 63bd 5d8b f9bc
000000b0: 1ae3 d73c c999 b4bc 241f 083c 2f4e e9bc
000000c0: 9d9a 22bc c4f5 ae3c c2e6 92bc b0ec a9bc
000000d0: e7f7 73bd 3b18 cd3c 2b58 34bd 29cc 6bbc
000000e0: 5f40 c53c 4f7e 8ebc a0df 103d 23bb 633d
000000f0: b447 84bd 6df0 333d ef38 3d3c 6371 bcbd
00000100: e194 3a3c f512 b3bd ab40 7bbd fac0 71bd
00000110: 6053 163d fb40 123d eeaf 933c e5a4 21bd
00000120: b23a 0dbc e1bc 043d 4aab 103d 5ad0 a4bb
00000130: 31bd 603d e4f6 a5bd b940 b03c 7f5d 67bc
00000140: 1090 6cbc 13dd 483b a4ff be3c c2a8 203d
00000150: a258 d33b 88fc 473d f6c7 a4bc 3f80 633c
00000160: 9413 a1bc 7f12 36bd dbea 09bd ea7a c2bd
00000170: 20dd 81bc 54ea 4abd c9d7 8a3c d1fb 9ebd
00000180: b5e3 85bc d1ec abbd acb1 103c 9b32 d8bc
00000190: 3daf 01bd 1bdf c9bc 308c 6f3a 8aed 82bd
000001a0: a2a0 d13c ba24 81bd c78e cf3c a51b f03b
000001b0: 2121 33bd 2f29 89bd fa43 4a3c 0890 62bc
000001c0: 996e 90bd 6a4f a8bd cd6a 63bb 74c7 94bc
000001d0: 8dc6 763c 2630 55bd d8ce 38bd 37a1 aa3c
000001e0: a6e7 853c ddb0 043d 22dd 17bc ff5b c1bc
000001f0: c133 963c 7509 7d3c 7ce7 983b a62a 833c
00000200: c3dc d0bc cacf 8b3c 89cf 3e3d e35e 8abd
00000210: 6757 acbc de33 dc39 a1ee 4239 a3fe 2fbd
00000220: 0f12 3e3c 5c01 e03b 0e93 5fbd 0950 78ba
00000230: 5590 9e3b 08d1 12bd 4473 1d3d a97c 13bd
00000240: f886 c23c 1ad0 553c c784 6b3b 6b09 30bd
00000250: 5d5d 9bbc 75ca 693d 98e9 723d 656d 5cbd
00000260: e6b3 143c aa7a 91bd e8d6 b9bc 4b7e 1d3d
00000270: 77ee ffbb cf0c 713c 340d e4bc 122a 5dbd
00000280: f8ea eabc e690 8ebc c6ca c6bb ad4c af3c
00000290: f2ee 453d 64ec 1dbd aff8 203d 11d3 a13d
000002a0: 232b 433a 4500 b13d b027 aabb 186e 283d
000002b0: 410d 1f3d a3cb ed3c 9b61 30bd 1ee4 bebc
000002c0: 098b 0abd da83 babc 5dcf e4bc cd87 31bd
000002d0: 7cf2 56bd 2e83 51bd 030d 86bc 7e7c 1e3b
000002e0: a52b 2cbd c53e 0abd a7a0 67bc 5330 bc3c
000002f0: 76a7 583d 7d5e 4bbd ee2e dabc 8622 7f3d
00000300: 897c 493d 9bb4 c7bb 9506 db3c c4ce 343b
00000310: b2a9 5fbd 0c69 203d 4bd8 cabc 2e1f 9a3d
00000320: 902a ecbc 2feb b8bc 0d42 243d 47b6 bdbb
00000330: 7654 0bbd a13d 023d 6552 0abd ebf3 29bd
00000340: b4f9 fc3c 4b1e 1abd bf1f 1bbd f2a2 51bd
00000350: f01f 02bd 1d27 a9bd 6820 1bbd 0f10 a3bb
00000360: b23d 12bd 893f 5b3d 0abc b53c 393c b93b
00000370: 929f 66bc 5fc9 263d 1e12 223d 7a55 21bc
00000380: b723 1abc 06e6 673d 3a87 28bc 4383 de3c
00000390: bd22 d83c 5998 2ebd e800 9dba ab01 2d3d
000003a0: 1fa9 543c 86f3 bf3b 3ba2 0cbd ee53 a63b
000003b0: 62b4 943b da13 a63c 0f07 ccbc 8625 e8bc
000003c0: 4920 723c 1c97 b03d a030 dfbc 20c9 1dbd
000003d0: 6725 493d fd1f d83c 0d56 d3bc eb5a f43b
000003e0: eda9 31bb 852a 563d 31f7 2fbc 3363 a6bc
000003f0: 80f4 ad3b 328b 99bc cd05 413d a008 bfbc

action_model._discrete_distribution.branches.0.bias f4 [3]
0.0042965505 -0.037162937 0.034835275
00000000: 14ca 8c3b 2a38 18bd 6faf 0e3d

action_model._discrete_distribution.branches.0.weight f4 [3, 128]
0.00044481095 0.011044907 0.016715243 0.0034792982 0.017088912 0.010100509 -0.023120828 -0.007784906
-0.020821132 0.01932984 0.017133722 0.032787915 -0.036055166 0.008270621 -0.015560444 -0.016237386
-0.01083569 -0.0041533927 0.0062227515 0.017979654 -0.02152905 0.015793448 0.030635986 0.008617142
0.011947102 0.019240735 0.0065079853 0.015252822 0.012746496 0.024411794 0.0036885154 0.017601635
0.005805922 -0.016780145 -0.009196483 0.024789214 -0.026058625 0.011413969 0.031176344 -0.005862621
-0.0012970403 -0.015495584 0.019711545 -0.025470614 0.0015664017 0.010198156 0.0008593559 -0.0055757496
-0.009297203 0.0106517235 0.021378107 -0.014877125 0.0011631591 0.049379036 -0.002354406 0.017665006
0.013276963 0.028187238 -0.008042487 0.029263953 0.0060345866 0.009770991 0.024611736 0.030863915
0.008603287 -0.023076626 -0.010885472 -0.04132656 -0.018477516 0.041691534 -0.00850151 -0.01817176
0.010299184 0.02634301 0.008304192 0.008005557 0.03712419 0.0065560215 -0.00018879402 -0.0031043577
-0.012441899 -0.017580118 0.0062240404 0.012799013 -0.005826453 0.021181365 -0.0043320293 0.005969098
-0.005506413 0.007835311 -0.018194417 -0.030587422 0.041139405 -0.0032289925 0.0067192325 -0.0098440265
0.042035658 -0.014763928 0.0030843853 3.570048e-05 -0.03203556 0.009048022 0.018396765 -0.013455307
-0.010567475 0.022936054 0.018987404 -0.008687752 -0.011906529 -0.0041372827 -0.0017664032 -0.0058693737
-0.033439677 -0.005542015 -0.005784242 0.024975162 0.021442682 0.015753917 0.01136253 0.018931855
0.015021169 -0.0044657066 -0.018881276 0.014524954 -0.009179189 -0.016669914 0.008917423 0.017379574
-0.02962033 0.0052637095 -0.021164833 0.005074276 -0.049513865 -0.012286448 0.0014601259 -0.033164706
0.03183308 -0.062206183 -0.03005503 -0.03514951 0.0071082204 -0.027759876 0.03977345 0.064351596
-0.0037433687 0.031920426 -0.04047632 -0.068129204 -0.023507832 -0.028071713 0.009081943 0.017723842
0.033528015 0.010419122 0.028866747 -0.017098272 -0.009678449 -0.024982389 0.013953009 0.0035535744
0.050062474 -0.01196918 -0.033319548 0.01528386 0.020726921 0.012895829 0.027604064 0.026377682
0.0064139487 0.012061773 0.009200382 -0.0049525797 0.07195595 -0.036295332 -0.019145764 -0.015753958
-0.005150471 -0.023690693 -0.010350329 -0.033945955 -0.041922506 -0.022779904 0.0024739597 -0.063074246
-0.027237754 -0.032482304 0.06844125 0.030537084 0.04832292 0.0050068493 -0.028187724 0.008400278
0.0081623215 0.0022389926 0.0071274494 0.0019320936 0.028324703 -0.01826827 0.015049134 0.00938283
-0.029811988 -0.013818713 -0.016098538 -0.00027006748 -0.009035472 0.010507657 0.0147350915 -0.017226163
0.006121301 -0.016552435 0.007944537 -0.00821779 0.03433678 -0.011127171 -0.024851719 -0.017648244
-0.04687357 0.017979639 -0.020016318 0.010007864 -0.053700257 -0.047867734 0.032892376 -0.034310933
-0.029085746 -0.012757845 -0.02662098 -0.017440582 -0.028084762 -0.0114200525 0.030673144 0.015167539
0.019564895 -0.036204435 0.014091496 0.0012290411 -0.0070799016 -0.008252924 0.021714786 -0.010375261
-0.021167085 0.01422262 0.036355436 -0.053688973 -0.012212132 -0.028925199 -0.031008158 -0.0144588705
0.011724205 -0.012970349 0.021620717 -0.038677294 0.019259019 -0.029478176 0.032785147 0.012675654
00000000: 8435 e939 b3f5 343c 68ee 883c f004 643b
00000010: 0cfe 8b3c 9b7c 253c e467 bdbc 8618 ffbb
00000020: 1491 aabc 9d59 9e3c 055c 8c3c 9f4c 063d
00000030: 95ae 13bd 8081 073c 3cf1 7ebc 4404 85bc
00000040: 2e88 31bc 2f19 88bb 39e8 cb3b 114a 933c
00000050: b15d b0bc 4361 813c 52f8 fa3c ea2e 0d3c
00000060: c7bd 433c bf9e 9d3c f040 d53b f9e6 793c
00000070: aed6 503c 3efb c73c 05bb 713b 4e31 903c
00000080: 9b3f be3b 8476 89bc d8ac 16bc c012 cb3c
00000090: e678 d5bc a801 3b3c 8865 ff3c 3b1b c0bb
000000a0: 7301 aaba 31e1 7dbc 1b7a a13c c0a7 d0bc
000000b0: b84f cd3a 2b16 273c 6646 613a c7b4 b6bb
000000c0: 4c53 18bc 9184 2e3c 2421 af3c 2fbf 73bc
000000d0: 2575 983a ac41 4a3d 614c 1abb 34b6 903c
000000e0: 9e87 593c ece8 e63c a3c4 03bc f5ba ef3c
000000f0: c8bd c53b 8216 203c 8d9e c93c 52d6 fc3c
00000100: cdf4 0c3c 310b bdbc fb58 32bc 0a46 29bd
00000110: 295e 97bc bec4 2a3d eb49 0bbc f1dc 94bc
00000120: e9bd 283c 4ccd d73c 4e0e 083c bd29 033c
00000130: 890f 183d e5d3 d63b 02f7 45b9 7b72 4bbb
00000140: 1bd9 4bbc 2e04 90bc 09f3 cb3b f4b2 513c
00000150: d5eb bebb 8b84 ad3c b2f3 8dbb 6c98 c33b
00000160: 246f b4bb ad5f 003c 750c 95bc 7992 fabc
00000170: cb81 283d 819d 53bb 022d dc3b d748 21bc
00000180: 952d 2c3d 67e4 71bc 6623 4a3b 19bd 1538
00000190: b837 03bd 283e 143c d0b4 963c a673 5cbc
000001a0: 3423 2dbc 64e4 bb3c 798b 9b3c 1357 0ebc
000001b0: 9a13 43bc 0b92 87bb a886 e7ba e053 c0bb
000001c0: 0bf8 08bd cb99 b5bb bd89 bdbb b698 cc3c
000001d0: 90a8 af3c 5c0e 813c e829 3a3c fa16 9b3c
000001e0: 591b 763c 1055 92bb e8ac 9abc 13fa 6d3c
000001f0: 4f64 16bc 588f 88bc 621a 123c 9c5f 8e3c
00000200: 56a6 f2bc 327b ac3b df61 adbc 1d46 a63b
00000210: 0dcf 4abd 194d 49bc b261 bf3a b7d7 07bd
00000220: 6763 023d e9cb 7ebd f735 f6bc eff8 0fbd
00000230: 13ec e83b ae68 e3bc 7ce9 223d c5ca 833d
00000240: 4e53 75bb febe 023d 7fca 25bd 5387 8bbd
00000250: 7f93 c0bc a6f6 e5bc 6ecc 143c 9731 913c
00000260: ac54 093d f7b4 2a3c f579 ec3c ad11 8cbc
00000270: 5b92 1ebc dea7 ccbc 299b 643c 16e3 683b
00000280: 4f0e 4d3d 611a 44bc 147a 08bd 2869 7a3c
00000290: 81cb a93c 0749 533c eb21 e23c 0216 d83c
000002a0: 1a2c d23b be9e 453c 33bd 163c 4049 a2bb
000002b0: a45d 933d 6aaa 14bd 94d7 9cbc 720e 81bc
000002c0: 48c5 a8bb fc12 c2bc 6d94 29bc ea0a 0bbd
000002d0: efb6 2bbd ec9c babc 2822 223b 122d 81bd
000002e0: b621 dfbc 2a0c 05bd ed2a 8c3d e828 fa3c
000002f0: 41ee 453d 7f10 a43b f1e9 e6bc 52a1 093c
00000300: 42bb 053c 10bc 123b 618d e93b 4e3e fd3a
00000310: 3509 e83c 57a7 95bc a590 763c 71ba 193c
00000320: 4538 f4bc e267 62bc 15e1 83bc d897 8db9
00000330: 8409 14bc 4f28 2c3c 746b 713c e21d 8dbc
00000340: 3295 c83b f998 87bc ce29 023c e9a3 06bc
00000350: b9a4 0c3d bd4e 36bc d595 cbbc 0d93 90bc
00000360: 80fe 3fbd 094a 933c 43f9 a3bc 06f8 233c
00000370: cdf4 5bbd f510 44bd 28ba 063d 9f89 0cbd
00000380: 3b45 eebc 4806 51bc 3e14 dabc 8ddf 8ebc
00000390: 0412 e6bc 2c1b 3bbc 3f46 fb3c 4581 783c
000003a0: 8f46 a03c 1a4b 14bd 05e0 663c c717 a13a
000003b0: 85fe e7bb 4637 07bc 35e3 b13c 00fd 29bc
000003c0: 9866 adbc fe05 693c 70e9 143d f8e8 5bbd
000003d0: 6515 48bc 8af4 ecbc d204 febc e6e4 6cbc
000003e0: e116 403c 9681 54bc ee1d b13c 156c 1ebd
000003f0: 17c5 9d3c 377c f1bc b849 063d 8cad 4f3c

action_model._discrete_distribution.branches.1.bias f4 [3]
0.00949441 -0.016793355 0.008693011
00000000: 718e 1b3c 3892 89bc 216d 0e3c

action_model._discrete_distribution.branches.1.weight f4 [3, 128]
-0.0040151253 0.025564132 0.015311803 0.017114494 -0.026231995 0.0066174576 0.009669095 -0.012649971
-0.01742869 -0.012199785 -0.03209457 0.000811371 -0.0070884125 0.0038428495 0.022855474 -0.0106727565
-0.0017690482 -0.0039022663 0.002775414 -0.011086942 0.04278151 -0.041250676 -0.032789893 0.004232878
0.004325788 0.0009238273 0.011794066 -0.012677518 0.041668743 -0.020988427 -0.020003822 0.0020520072
0.04321996 0.0009185373 0.002336423 0.010062279 0.024443723 0.018074991 -0.038491685 0.0048351893
0.026400834 -0.006396724 -0.0078064264 0.019437578 -0.005967491 0.002921024 0.016078997 0.014764008
0.033081383 0.023846015 -0.009423558 -0.010522455 -0.003824351 0.0027563204 0.00039785996 0.003041399
0.001216472 9.0447225e-05 0.029985672 0.014239136 -0.015293308 0.03400654 0.006056457 -0.0022311064
-0.01624504 0.012782399 -0.0040593497 0.012189798 0.0040500187 -0.02079462 0.0023430015 0.029844867
-0.040428918 0.010520836 -0.035092276 -0.016024547 0.029862124 0.0052641025 0.039335806 -0.008471094
0.01523342 0.008740543 0.028439917 -0.01002784 -0.0025274456 0.0019743396 0.005333664 -0.008888295
-0.013101823 0.015865622 0.002389489 0.025654398 0.0038025144 0.0046833022 0.004436878 -0.016824376
0.044879537 -0.00017103027 -0.012387373 -0.0045208405 -0.005326644 -0.017765598 0.010950385 0.0066890265
-0.0009229774 -0.011144813 0.0014222825 -0.0077829394 0.020488655 -0.00065856316 0.013402285 0.007985687
0.023862595 -0.008148126 -0.008740686 -0.02176378 0.022595206 -0.014770656 -0.024417477 -0.02672475
-0.0037160276 -0.014042244 -0.040193044 -0.009469779 0.019121177 0.03164853 -0.011046958 -0.0015541852
0.047387343 0.02379579 0.024661614 -0.03970301 -0.02769129 0.019208891 0.03908866 -0.011052099
-0.0028692542 -0.066457085 0.015285788 -0.03226162 0.044381503 0.028521068 0.026879098 0.010025213
0.029801875 0.069219574 0.027864864 0.005994316 -0.017995087 0.025148187 0.049458332 -0.01906408
-0.0071675065 -0.027402876 -0.108866915 0.07045939 0.022815228 0.039927226 0.0051601296 0.039706033
0.0029408482 0.0072289803 0.06120676 -0.0058386656 -0.02223387 -0.078344405 0.022381302 -0.02267015
-0.03963485 0.038439304 0.021544386 0.031013949 -0.0037577967 0.03557237 -0.028389066 -0.08198955
-0.061638806 -0.059987694 -0.047139157 -0.025348365 -0.007614364 -0.016701637 0.016925193 0.06508735
0.024952091 -0.093566485 -0.01000769 -0.018834224 0.0019384406 -0.0409926 0.02004712 0.03396006
0.004457402 -0.013077949 0.040538747 -0.018759882 0.03020541 0.012433297 0.06742593 0.02963497
0.045818616 -0.067037866 0.006553563 -0.008250507 -0.06776265 -0.017869657 0.012009913 -0.03906445
0.069180004 0.029778369 0.026569054 0.024804942 0.059564847 -0.026598506 0.033288516 -0.045602474
0.05186061 0.044826627 0.0057941605 -0.013666022 -0.047059644 -0.047981575 -0.013714851 -0.03326985
-0.03624442 -0.028424142 -0.046462763 0.09356988 -0.029677901 -0.034046523 -0.019278124 0.03807635
0.0092017455 0.003964172 0.036767866 0.05352883 0.040215224 0.035616916 -0.039058875 0.06651224
0.0053603495 0.0259859 0.042805564 0.045118608 0.043888267 0.017278371 -0.029476015 -0.008839111
0.05104417 -0.0157624 0.029025149 -0.04057839 0.08141754 0.045985032 -0.0056945817 -0.052527275
00000000: 5091 83bb df6b d13c 5bde 7a3c b233 8c3c
00000010: 7be4 d6bc 42d7 d83b 206b 1e3c d341 4fbc
00000020: 9dc6 8ebc 9be1 47bc 9975 03bd 30b2 543a
00000030: ea45 e8bb 51d8 7b3b 673b bb3c c9dc 2ebc
00000040: 68df e7ba 2abd 7fbb b8e3 353b 01a6 35bc
00000050: aa3b 2f3d 78f6 28bd b24e 06bd f4b3 8a3b
00000060: 57bf 8d3b 002d 723a e63b 413c 5db5 4fbc
00000070: d8ac 2a3d ecef abbc 0edf a3bc f87a 063b
00000080: 6a07 313d ffc9 703a ac1e 193b 42dc 243c
00000090: 343e c83c 0112 943c 75a9 1dbd 8270 9e3b
000000a0: 9046 d83c 9c9b d1bb 0dcd ffbb 8e3b 9f3c
000000b0: f18a c3bb a76e 3f3b 1ab8 833c bde4 713c
000000c0: 5880 073d b858 c33c 4465 1abc 6066 2cbc
000000d0: f6a1 7abb 62a3 343b dc97 d039 3552 473b
000000e0: 0772 9f3a 7cae bd38 83a4 f53c 444b 693c
000000f0: c890 7abc 714a 0b3d 3e75 c63b c137 12bb
00000100: 5114 85bc 446d 513c 4b04 85bb b8b7 473c
00000110: 05b6 843b 7b59 aabc 0b8d 193b 397d f43c
00000120: cb98 25bd 965f 2c3c ebbc 0fbd e945 83bc
00000130: 6aa1 f43c 7e7e ac3b 951e 213d 58ca 0abc
00000140: 9895 793c 7f34 0f3c d4fa e83c cf4b 24bc
00000150: 80a3 25bb ec63 013b 04c6 ae3b 36a0 11bc
00000160: 07a9 56bc 9ff8 813c f998 1c3b 2c29 d23c
00000170: 9b33 793b 6376 993b 3b63 913b 46d3 89bc
00000180: 9bd3 373d 9756 33b9 68f4 4abc 8f23 94bb
00000190: 218b aebb 2989 91bc 3e69 333c 9f2f db3b
000001a0: f7f3 71ba bc98 36bc e26b ba3a 0708 ffbb
000001b0: d3d7 a73c 6da3 2cba 4295 5b3c 66d6 023c
000001c0: 7d7b c33c b87f 05bc 1835 0fbc f449 b2bc
000001d0: 9519 b93c 9f00 72bc 2907 c8bc dded dabc
000001e0: 9988 73bb 7111 66bc 76a1 24bd 2227 1bbc
000001f0: 04a4 9c3c e4a1 013d 4dfe 34bc cdb5 cbba
00000200: 3b19 423d 63ef c23c 2707 ca3c a09f 22bd
00000210: d8d8 e2bc f75b 9d3c 6e1b 203d dd13 35bc
00000220: 190a 3cbb a71a 88bd 3e71 7a3c c324 04bd
00000230: 61c9 353d 04a5 e93c 8e31 dc3c ca40 243c
00000240: 1023 f43c fec2 8d3d db44 e43c f86b c43b
00000250: 6f6a 93bc 9203 ce3c d294 4a3d 462c 9cbc
00000260: 67dd eabb ff7b e0bc 9ef5 debd 034d 903d
00000270: 00e7 ba3c bb8a 233d 4e16 a93b cba2 223d
00000280: 3fbb 403b 15e1 ec3b f1b3 7a3d 4752 bfbb
00000290: ce23 b6bc 0873 a0bd fe58 b73c c0b6 b9bc
000002a0: 2758 22bd 8872 1d3d da7d b03c f710 fe3c
000002b0: 5e45 76bb 55b4 113d 3090 e8bc 23ea a7bd
000002c0: f978 7cbd a8b5 75bd fd14 41bd 60a7 cfbc
000002d0: ea81 f9bb dfd1 88bc b4a6 8a3c 844c 853d
000002e0: 5468 cc3c c99f bfbd 4bf7 23bc 3b4a 9abc
000002f0: 4613 fe3a dbe7 27bd dc39 a43c b419 0b3d
00000300: 660f 923b e544 56bc f50b 263d 53ae 99bc
00000310: 5671 f73c 07b5 4b3c 9b16 8a3d 09c5 f23c
00000320: 4dac 3b3d 264b 89bd 45bf d63b 222d 07bc
00000330: 25c7 8abd 6363 92bc 3ac5 443c 0b02 20bd
00000340: 3fae 8d3d c4f1 f33c 58a7 d93c bc33 cb3c
00000350: 45fa 733d 1ce5 d9bc 8a59 083d a9c9 3abd
00000360: ca6b 543d 209c 373d f1dc bd3b 73e7 5fbc
00000370: 9dc1 40bd 5488 44bd 41b4 60bc f745 08bd
00000380: 0775 14bd bfd9 e8bc bd4f 3ebd 91a1 bf3d
00000390: 121f f3bc 5e74 0bbd 28ed 9dbc f2f5 1b3d
000003a0: ebc2 163c e3e5 813b e799 163d 0c41 5b3d
000003b0: b8b8 243d 0be3 113d 33fc 1fbd 9237 883d
000003c0: dfa5 af3b 62e0 d43c e354 2f3d 4ace 383d
000003d0: 2fc4 333d 5f8b 8d3c af77 f1bc ebd1 10bc
000003e0: b113 513d 2620 81bc 26c6 ed3c 8735 26bd
000003f0: 3dbe a63d cd5a 3c3d 9d99 babb d726 57bd

action_model._discrete_distribution.branches.2.bias f4 [3]
0.0036257557 -0.0034325074 -3.0261908e-05
00000000: 169e 6d3b ebf3 60bb f4da fdb7

action_model._discrete_distribution.branches.2.weight f4 [3, 128]
-0.002873404 0.00032710814 -0.0078071984 0.012598232 -0.058382776 -0.012735718 0.0018598767 0.035165057
0.014788236 -0.020724518 -0.0011579553 -0.0034197103 0.0032384824 -0.023819847 0.0062146834 -0.0115648275
-0.0027007123 0.0034421259 -0.0018711785 0.028737843 -0.012338388 -0.013227016 -0.014005495 -0.0011143987
0.015590657 0.00036619848 -0.030083679 -0.018235661 -0.01835707 -0.009135922 0.0082272375 0.036729217
0.029732043 -0.01759939 0.0017670527 0.011223612 -0.010562561 -0.019899324 0.0006486763 0.011069491
0.021960508 0.010880151 0.016767234 0.006773217 -0.0054022097 0.009575284 0.0033406513 -0.027028702
0.03612238 -0.0029461975 -0.034136057 0.018533172 0.02210624 -0.016138595 0.031030757 -0.0157689
-0.0035332749 -0.028961329 0.019278428 0.014276124 -0.00040425226 -0.0065673236 0.0005955028 -0.0067796335
-0.010035672 -0.0024771115 0.0077236313 -0.005261653 0.0141153755 -0.03497714 0.020695662 -0.011928282
-0.005584038 -0.0032980174 -0.0033736199 -0.023506012 -0.0090807555 -0.006547155 -0.011316753 -0.047363926
-0.017144151 0.00030622535 0.0059060142 -0.013375051 0.014294533 0.030296538 0.038016357 0.013991362
0.018529246 -0.012147503 -0.02016379 0.01692574 0.00072031043 -0.0103384685 0.040793795 0.015146335
-0.003717668 0.015940866 -0.0075253653 -0.012035182 0.0098162405 -0.021814728 -0.0016762781 -0.020707551
0.015099114 -0.014551014 0.0046138978 0.022403257 -0.0077964524 0.0056532533 -0.016953114 0.024998797
0.003967453 -0.0070807906 0.03672289 0.0070351097 -0.0017330139 -0.00456548 -0.007942156 0.019666191
0.020995826 -0.005821995 0.005434156 -0.01498629 6.278486e-05 0.0024450037 -0.005521028 -0.018349713
-0.002348066 -0.049180306 -0.03820947 0.0010491784 0.04645164 -0.026808947 0.031118326 0.014685661
0.031808246 0.014705339 0.047472667 0.0337922 0.002747142 -0.009821633 0.0041039865 0.02807346
-0.024208086 -0.01523321 -0.0033833347 0.017236808 0.031246997 0.036882572 0.015851617 0.019997194
0.004582699 0.012336723 0.018604835 0.011186609 -0.036899727 -0.023154048 0.008996803 0.02047702
-0.026512552 -0.025410615 0.029617475 -0.005446709 -0.026163757 -0.00092087867 0.0021330013 -0.013114816
0.004044102 0.024163721 0.030141206 -0.0033274023 -0.0028686726 0.019223416 -0.0034921207 0.0030932168
0.02476461 0.028298821 0.053605862 0.019732457 0.026911454 -0.006101714 -0.0023357358 0.0109077655
0.00011979692 0.02013498 -0.015935373 -0.00876616 -0.002490247 0.040469803 0.014087661 -0.026205726
0.044354916 -0.0397567 -0.008451445 -0.06990954 -0.007597105 0.02505007 -0.015003032 -0.019807408
0.0060789036 0.030253544 0.04424648 0.05111257 -0.0075770672 -0.025866207 -0.046921406 0.04570835
-0.029780768 -0.061083168 -0.025800038 0.009089332 0.019603508 -0.03609087 0.027023558 0.03149566
0.0024484212 -0.010506247 -0.006086409 -0.028918577 -0.052300267 0.026616385 0.024349274 -0.010183242
-0.059648488 -0.0064252065 0.040219728 -0.02101416 0.039204895 0.010985971 0.013046241 -0.010737706
0.017565172 -0.031818572 0.010561665 0.0028154268 -0.00819706 0.0067205615 0.017824188 -0.012236122
0.016289717 -0.0212966 0.023429792 0.005655439 -0.0001309352 -0.026479818 0.013896064 0.030304288
0.014264055 0.032517128 0.037331842 0.030909335 -0.014733062 -0.00466899 -0.019757587 0.030857729
00000000: b84f 3cbb b67f ab39 87d3 ffbb d168 4e3c
00000010: c722 6fbd 79a9 50bc 1bc7 f33a 3c09 103d
00000020: 5b4a 723c 77c6 a9bc 88c6 97ba 381d 60bb
00000030: b83c 543b d721 c3bc 8ba4 cb3b 677a 3dbc
00000040: 6ffe 30bb 4a95 613b 5542 f5ba a06b eb3c
00000050: f326 4abc 20b6 58bc 4e77 65bc 0411 92ba
00000060: f46f 7f3c 54fe bf39 0c72 f6bc f462 95bc
00000070: 9161 96bc d6ae 15bc 89cb 063c 6071 163d
00000080: 9d90 f33c 992c 90bc 739c e73a 3ee3 373c
00000090: 980e 2dbc e803 a3bc ee0b 2a3a cf5c 353c
000000a0: 86e6 b33c a942 323c 705b 893c ddf1 dd3b
000000b0: 0505 b1bb a7e1 1c3c d4ee 5a3b 4c6b ddbc
000000c0: 10f5 133d fe14 41bb 40d2 0bbd e1d2 973c
000000d0: 2518 b53c 1635 84bc 3734 fe3c c82d 81bc
000000e0: 848e 67bb 4f40 edbc cbed 9d3c 67e6 693c
000000f0: d2f1 d3b9 b432 d7bb 841b 1c3a b027 debb
00000100: a96c 24bc 0957 22bb 8416 fd3b f269 acbb
00000110: 2d44 673c 3144 0fbd f389 a93c d76e 43bc
00000120: 4efa b6bb 8d23 58bb f317 5dbb ae8f c0bc
00000130: 73c7 14bc 8489 d6bb e769 39bc ad00 42bd
00000140: e471 8cbc df8c a039 3d87 c13b 0823 5bbc
00000150: 9e33 6a3c 7230 f83c 0ab7 1b3d 073c 653c
00000160: a5ca 973c 5206 47bc 882e a5bc d9a7 8a3c
00000170: 37d3 3c3a ae62 29bc 6517 273d 5528 783c
00000180: 1ea4 73bb 6b96 823c 5797 f6bb 362f 45bc
00000190: 4cd4 203c cdb4 b2bc 8fb6 dbba e2a2 a9bc
000001a0: 4662 773c 6067 6ebc 2e30 973b 0987 b73c
000001b0: 6279 ffbb ed3e b93b 42e1 8abc 47ca cc3c
000001c0: 6801 823b fa05 e8bb be6a 163d c786 e63b
000001d0: 4c26 e3ba 069a 95bb d11f 02bc fe1a a13c
000001e0: 70ff ab3c 6fc6 bebb 0111 b23b 0e89 75bc
000001f0: 5dab 8338 5b3c 203b bde9 b4bb 2352 96bc
00000200: 03e2 19bb 4a71 49bd 8981 1cbd 9684 893a
00000210: 1344 3e3d 709e dbbc dceb fe3c 209c 703c
00000220: 5d49 023d aaee 703c b372 423d b169 0a3d
00000230: 6509 343b eaea 20bc bc7a 863b 50fa e53c
00000240: 0950 c6bc b794 79bc f0ba 5dbb 3534 8d3c
00000250: b4f9 ff3c 2e12 173d 40db 813c 28d1 a33c
00000260: 772a 963b f71f 4a3c 2b69 983c 0a48 373c
00000270: 2b24 17bd 8fad bdbc 5467 133c 6cbf a73c
00000280: da30 d9bc ec29 d0bc 59a0 f23c 4f7a b2bb
00000290: 6055 d6bc 1f67 71ba d3c9 0b3b 86df 56bc
000002a0: 6384 843b fff2 c53c b1ea f63c 8c10 5abb
000002b0: 5700 3cbb 6d7a 9d3c 10dc 64bb 91b7 4a3b
000002c0: 27df ca3c eed2 e73c d291 5b3d f6a5 a13c
000002d0: 6975 dc3c e3f0 c7bb 2513 19bb 7cb6 323c
000002e0: 7b3b fb38 1df2 a43c e68a 82bc f19f 0fbc
000002f0: 6933 23bb aac3 253d efcf 663c 64ad d6bc
00000300: 80ad 353d ecd7 22bd ee77 0abc bc2c 8fbd
00000310: 23f1 f8bb ce35 cd3c 47cf 75bc 2543 a2bc
00000320: 8a31 c73b 48d6 f73c cc3b 353d 6a5b 513d
00000330: 0c49 f8bb 5ee5 d3bc a930 40bd ae38 3b3d
00000340: ccf6 f3bc 5832 7abd 9a5a d3bc 6ceb 143c
00000350: 8997 a03c 05d4 13bd 8260 dd3c 9801 013d
00000360: b175 203b 6522 2cbc 8070 c7bb a7e6 ecbc
00000370: ce38 56bd 9b0a da3c 2178 c73c 9dd7 26bc
00000380: f951 74bd 8a8a d2bb 71bd 243d e325 acbc
00000390: 5095 203d 81fe 333c e7bf 553c 34ed 2fbc
000003a0: d6e4 8f3c 3154 02bd d50a 2d3c 0683 383b
000003b0: f64c 06bc 2838 dc3b 0804 923c 047a 48bc
000003c0: 0372 853c 3576 aebc d6ef bf3c 4351 b93b
000003d0: a64b 09b9 34ec d8bc 51ac 633c b340 f83c
000003e0: c8b3 693c ae30 053d 46e9 183d 9335 fd3c
000003f0: f162 71bc 54fe 98bb aada a1bc 59c9 fc3c

network_body.linear_encoder.seq_layers.0.bias f4 [128]
-0.0022910687 -0.033407707 -0.002963523 -0.011889037 -0.009229269 0.023773916 0.0034163527 0.0027898299
0.017440233 0.0043513556 -0.019263152 -0.010260717 -0.009625689 -0.014113607 0.020773282 0.003821788
0.01636328 0.008276175 0.020580584 -0.010691854 0.019512972 -0.009764379 0.024666352 -0.010129315
-0.025295995 -0.0052624308 -0.0027473709 -0.008174171 -0.011384754 -0.0033418203 0.02541291 -0.00949069
0.015637077 -0.010767094 -0.0074200123 0.006561677 0.009892572 0.005384766 -0.010609241 -0.010628213
0.006545787 0.014071894 0.0044419933 -0.010051048 0.0007415899 0.01432717 0.0015020644 -0.010357887
0.010509827 0.009997222 0.002244827 0.012706582 -0.0023145974 0.011791344 -0.0057649342 -0.014581132
0.026972512 -0.016519884 0.025602316 0.0064966395 0.0024166196 9.9434146e-05 0.00849403 0.021978728
-0.0225622 0.012949365 -0.021441283 0.003151678 0.025966182 0.0044536013 -0.016647154 -0.005777634
0.0089550745 0.026719058 0.02032891 -0.0062487097 -0.0078078443 0.016993849 0.015311133 -0.011959409
-3.7871837e-06 -0.010623279 0.017197601 0.0057383566 0.00096224033 -0.014152337 0.0069834134 -0.021268992
0.00014839822 -0.0028942265 0.001968819 0.0022195873 0.04332833 0.0028064793 -0.014302592 -0.016897127
-0.008479691 0.023403702 -0.0050454005 0.020667948 -0.009724663 0.0055557834 0.003545921 -0.0022200171
0.011209482 -0.001869808 -0.02643947 0.012938959 -0.0009635764 0.0128003545 0.0121531 0.01369575
0.011938141 -0.017524036 -0.0045460565 -0.018945102 -0.007337655 -0.014171546 -0.0020950672 -0.0037112287
0.013113077 -0.02027086 0.0088500045 -0.012639179 0.01243171 0.027304346 0.0062329136 -0.004545277
00000000: c125 16bb 85d6 08bd aa37 42bb 3cca 42bc
00000010: 5c36 17bc 84c1 c23c e3e4 5f3b 94d5 363b
00000020: d2de 8e3c d195 8e3b c2cd 9dbc 911c 28bc
00000030: 11b5 1dbc c23c 67bc bb2c aa3c f676 7a3b
00000040: 490c 863c cb98 073c 9d98 a83c e32c 2fbc
00000050: abd9 9f3c c6fa 1fbc 1711 ca3c 6df5 25bc
00000060: 8c39 cfbc 7870 acbb 3c0d 34bb f5ec 05bc
00000070: 1f87 3abc 7102 5bbb bc2e d03c d77e 1bbc
00000080: 5419 803c 7768 30bc 9323 f3bb 5603 d73b
00000090: 7414 223c b172 b03b 62d2 2dbc f521 2ebc
000000a0: 0b7e d63b cd8d 663c 248e 913b 27ad 24bc
000000b0: 4167 423a 82bc 6a3c ebe0 c43a 20b4 29bc
000000c0: 6931 2c3c 63cb 233c f31d 133b 452f 503c
000000d0: 80b0 17bb 7b30 413c c6e7 bcbb b3e5 6ebc
000000e0: 75f5 dc3c b554 87bc f3bb d13c c3e1 d43b
000000f0: 2660 1e3b 4d87 d038 8b2a 0b3c bc0c b43c
00000100: 5dd4 b8bc 9329 543c a1a5 afbc 628c 4e3b
00000110: 08b7 d43c 84ef 913b 9d5f 88bc 4f52 bdbb
00000120: 4eb8 123c ede1 da3c d088 a63c fac1 ccbb
00000130: f2d8 ffbb af36 8b3c 8cdb 7a3c 66f1 43bc
00000140: 5227 7eb6 430d 2ebc fce1 8c3c d308 bc3b
00000150: db3e 7c3a 34df 67bc 1ed5 e43b 4f3c aebc
00000160: 589b 1b39 10ad 3dbb 4d07 013b 7f76 113b
00000170: 0c79 313d e9ec 373b 6b55 6abc d86b 8abc
00000180: 67ee 0abc 1fb9 bf3c e353 a5bb d44f a93c
00000190: 3154 1fbc 4a0d b63b af62 683b b57d 11bb
000001a0: faa7 373c 5814 f5ba 9697 d8bc edfd 533c
000001b0: 8598 7cba 94b8 513c cc1d 473c 2464 603c
000001c0: 3198 433c 918e 8fbc 16f7 94bb c232 9bbc
000001d0: b670 f0bb c62f 68bc 654d 09bb 1638 73bb
000001e0: 3bd8 563c 130f a6bc 9cff 103c 8f14 4fbc
000001f0: 5fae 4b3c 5dad df3c 783d cc3b 8cf0 94bb

network_body.linear_encoder.seq_layers.0.weight f4 [128, 122]
0.052357335 -0.12401192 -0.10467312 -0.15559998 -0.004867358 -0.03455104 0.0971525 0.133286
0.08316981 0.09496573 -0.067141764 -0.044097148 0.0577808 -0.14700095 0.03798672 0.018731851
0.087450735 0.053404037 -0.011233013 0.015001658 0.11909632 0.035460483 -0.040699244 0.15400195
0.019535266 -0.08382847 0.011957752 0.049885325 -0.08177595 -0.0032659436 0.00519361 0.026694933
0.12705754 -0.093737826 0.12669171 0.12077506 0.025949104 0.09093263 -0.032195237 -0.03803794
-0.035673168 -0.051306684 0.20862314 0.11013798 0.22496943 0.022461256 0.11306113 -0.011492928
0.039969668 -0.072329134 0.010287333 -0.19137636 -0.017373957 -0.06824017 0.12935863 -0.2018277
0.004025045 -0.0786026 0.0020828494 0.07330096 0.110670716 -0.08502412 -0.022149565 -0.09083738
-0.014020332 0.06971974 0.026661783 0.14180069 -0.049751643 0.042829122 -0.0648136 -0.09728687
-0.053989735 -0.108870015 0.048995353 -0.02680977 -0.15872745 -0.034370057 -0.093628004 0.078810215
-0.057500657 -0.0119691035 0.16154699 0.035588462 -0.064697266 -0.16003911 0.0061084656 0.029496897
-0.04324131 -0.06469849 0.09469216 -0.047452107 0.1464816 -0.061585955 -0.025831094 -0.06958723
-0.026345542 -0.072202966 0.018763756 -0.08950423 0.011486349 0.0979109 0.09043348 -0.061605915
-0.21144922 0.050424978 -0.032786068 0.021137275 0.1362391 0.1579733 -0.0007648643 0.12748419
-0.024129208 0.11292655 -0.14803162 0.20760293 -0.06796364 -0.03635608 -0.119048424 0.06920097
0.045144178 -0.06011872 0.007910172 0.008736635 0.044134606 0.075470865 -0.014576701 0.1387637
0.07534145 -0.03467931 0.006354349 0.016825128 -0.1996215 -0.07211862 0.025455095 -0.11969722
-0.045668848 0.036925703 0.21889575 0.07538368 0.031763293 -0.14916389 0.1316876 0.015768848
-0.069920994 -0.114588685 0.101024814 0.06991696 0.22167964 -0.04536855 -0.1516274 0.047914587
-0.08185137 -0.063795015 -0.15172824 -0.15641339 0.033465747 -0.072748944 -0.041606862 -0.10586514
0.067605965 -0.14435476 0.14212844 -0.087034695 -0.22729068 0.048472025 -0.015939256 0.061388418
0.18319888 0.08684029 -0.09795168 -0.07730785 -0.1893952 -0.07166727 0.061907224 0.046108454
-0.06248968 0.1427479 -0.06118694 0.1021212 0.034852352 -0.043804128 -0.087125234 0.104593046
0.13573028 0.041128747 -0.16266286 0.11420065 -0.09116144 -0.0020134854 0.007597752 -0.13669218
0.012971124 0.02934858 -0.09496388 -0.023199722 -0.11500731 -0.008007106 -0.07301251 0.019450538
0.11009411 0.055689767 0.05641774 -0.13318804 -0.16431206 -0.008734239 0.028264763 -0.07162707
0.13279915 -0.06560825 0.031405725 -0.099350736 0.066206515 0.033314664 -0.060973074 0.0044251005
0.1861245 -0.021810709 0.032192525 -0.12555632 -0.122078374 -0.11585936 -0.12940003 0.08407913
-0.18929031 -0.0025926128 -0.05882687 -0.0107480185 0.16914088 0.07549589 -0.15541047 -0.01316221
-0.05352987 0.1256485 0.17093086 0.080487214 -0.17446701 -0.02035763 -0.08723215 -0.078119025
-0.0048154495 -0.007132028 0.04320743 -0.08884415 0.09684766 -0.047299527 0.03221264 0.12584566
-0.07142481 0.117748976 -0.07483269 0.02278308 -0.07252124 0.11247702 -0.056282002 -0.052220542
00000000: a574 563d f6f9 fdbd dc5e d6bd 9a55 1fbe
00000010: 5c7e 9fbb 6485 0dbd e4f7 c63d 207c 083e
00000020: ef54 aa3d 657d c23d 9f81 89bd 369f 34bd
00000030: 8fab 6c3d 6b87 16be f797 1b3d 8a73 993c
00000040: 5f19 b33d 31be 5a3d ac0a 38bc 84c9 753c
00000050: c5e8 f33d 033f 113d 40b4 26bd b0b2 1d3e
00000060: 6c08 a03c 43ae abbd 72ea 433c 8e54 4c3d
00000070: 267a a7bd 7109 56bb 292f aa3b 55af da3c
00000080: 5f1b 023e 9ef9 bfbd 79bb 013e ea58 f73d
00000090: 3793 d43c e33a ba3d 27df 03bd accd 1bbd
000000a0: 071e 12bd f526 52bd 4ea1 553e 0590 e13d
000000b0: 635e 663e ab00 b83c 988c e73d d54c 3cbc
000000c0: 3cb7 233d 4c21 94bd 348c 283c 2af8 43be
000000d0: d453 8ebc 81c1 8bbd 9776 043e ecab 4ebe
000000e0: 86e4 833b 66fa a0bd 6a80 083b d01e 963d
000000f0: 54a7 e23d 2021 aebd 0173 b5bc f308 babd
00000100: 89b5 65bc 39c9 8e3d d069 da3c 3334 113e
00000110: 61c8 4bbd 976d 2f3d febc 84bd 573e c7bd
00000120: 5724 5dbd 3ef7 debd 5aaf 483d 2aa0 dbbc
00000130: 7389 22be 9ec7 0cbd 0ac0 bfbd 4067 a13d
00000140: cf85 6bbd 0f1a 44bc 936c 253e 35c5 113d
00000150: 0080 84bd 4be1 23be 8629 c83b 7aa3 f13c
00000160: cd1d 31bd a480 84bd f7ed c13d 245d 42bd
00000170: 46ff 153e 8e41 7cbd bb9b d3bc c083 8ebd
00000180: 9bd2 d7bc 26df 93bd 73b6 993c fe4d b7bd
00000190: 3d31 3c3c 8385 c83d 3035 b93d 7c56 7cbd
000001a0: 2586 58be 6c8a 4e3d af4a 06bd 1428 ad3c
000001b0: 4382 0b3e c1c3 213e 2d81 48ba 378b 023e
000001c0: 9eaa c5bc 0946 e73d 9a95 17be dd95 543e
000001d0: 8530 8bbd 1dea 14bd a9cf f3bd 3db9 8d3d
000001e0: 1ae9 383d 0c3f 76bd ab99 013c 1a24 0f3c
000001f0: 7dc6 343d 7890 9a3d 1ed3 6ebc 1218 0e3e
00000200: 9e4c 9a3d e40b 0ebd 2538 d03b dad4 893c
00000210: 9469 4cbe edb2 93bd 3487 d03c d123 f5bd
00000220: 420f 3bbd 683f 173d 3526 603e c262 9a3d
00000230: 3a1a 023d 6bbe 18be 1dd9 063e ac2d 813c
00000240: bd32 8fbd 79ad eabd 19e6 ce3d a030 8f3d
00000250: fdff 623e 5fd4 39bd 3744 1bbe 1642 443d
00000260: b1a1 a7bd f6a6 82bd a65e 1bbe d52a 20be
00000270: 6113 093d 66fd 94bd f56b 2abd d3cf d8bd
00000280: ff74 8a3d bcd1 13be 1e8a 113e 3f3f b2bd
00000290: e3be 68be 9a8a 463d 0b93 82bc 6c72 7b3d
000002a0: 7d98 3b3e 52d9 b13d e49a c8bd 9453 9ebd
000002b0: d1f0 41be 4ac6 92bd 6e92 7d3d 38dc 3c3d
000002c0: 2ef5 7fbd 812c 123e 289f 7abd eb24 d13d
000002d0: 57c1 0e3d f56b 33bd b76e b2bd e134 d63d
000002e0: e1fc 0a3e 9e76 283d 1891 26be 08e2 e93d
000002f0: d9b2 babd aef4 03bb 90f6 f83b 09f9 0bbe
00000300: d684 543c 6f6c f03c 6c7c c2bd 580d bebc
00000310: f488 ebbd 3d30 03bc 9587 95bd bc56 9f3c
00000320: 0579 e13d f41a 643d 4a16 673d 7262 08be
00000330: 6c41 28be 0e1a 0fbc 818b e73c 37b1 92bd
00000340: 80fc 073e 9e5d 86bd 4aa3 003d 6678 cbbd
00000350: 4897 873d f574 083d e7be 79bd 6f00 913b
00000360: 6c97 3e3e 5fac b2bc 4fdc 033d d691 00be
00000370: 3a04 fabd ac47 edbd 7181 04be ae31 ac3d
00000380: 52d5 41be d3e8 29bb 72f4 70bd 7518 30bc
00000390: 4433 2d3e 979d 9a3d ec23 1fbe 4fa6 57bc
000003a0: 2342 5bbd 00aa 003e 8008 2f3e 7bd6 a43d
000003b0: 7ba7 32be 0bc5 a6bc c5a6 b2bd defc 9fbd
000003c0: ebca 9dbb cab3 e9bb 46fa 303d ecf3 b5bd
000003d0: 1158 c63d 26bd 41bd 67f1 033d afdd 003e
000003e0: 2c47 92bd 6026 f13d e241 99bd 95a3 ba3c
000003f0: 0486 94bd 5a5a e63d f587 66bd 35e5 55bd

network_body.linear_encoder.seq_layers.2.bias f4 [128]
0.0075906417 -0.0036707094 0.010738007 0.015681904 -0.011168815 0.0020248385 0.03606152 0.0156211695
0.002583382 0.005181176 0.0012369363 -0.0059223427 0.004978591 -0.0035381396 0.0009890355 -0.0065570297
-0.0010612769 -0.0071753915 0.010296657 -0.019864714 0.009330785 0.009787776 -0.014140113 0.013692467
0.0072079212 -0.0068820426 0.017958147 0.003682272 0.0045871753 0.026042363 -0.02030221 -0.007428855
0.007143458 0.02409769 -0.00582682 -0.0037823885 -0.029133486 -0.011199512 -0.00611645 0.0053666914
0.0005091359 0.005854498 0.0072992924 -0.0062155547 0.0023985112 -0.017756378 0.019253131 0.030705988
0.013248716 0.0010578593 -0.009863377 -0.00064588035 0.00017932148 0.012943965 -0.0021659129 0.010226116
-0.0010177778 -0.0044284775 0.023899408 0.018835826 0.005744925 -0.012138129 0.008445711 -0.000493989
-0.007984702 0.017363222 0.021874184 -0.020315863 0.012541455 -0.00892318 -0.011596082 0.027629508
0.014455187 0.0064678113 0.0085843215 -0.003142586 0.01687296 -0.0053822147 0.005519765 0.004962407
-0.012931651 0.0059952233 0.00061177684 -0.0012534979 0.00918504 -0.011628638 -0.02158396 -0.021327464
-0.004021173 0.023479287 0.0021197118 -0.0001037754 0.0013841789 -0.008341646 0.019780463 0.021223783
0.010689289 0.0021340523 -0.0024311373 0.024885314 0.011147336 0.037138388 -0.00055739714 0.0008617251
0.0013844192 -0.010465068 -0.016668677 -0.018886687 -0.0019905702 0.0038811427 -0.004964815 -0.00032752505
-0.0023886282 -0.0009290468 0.0059687993 -0.0012562965 0.008960216 0.008171805 0.0028944027 0.006397165
0.025220195 0.0028443139 0.0179376 0.0034389065 -0.015123577 -0.017586835 0.006065561 0.012475271
00000000: ebba f83b 4990 70bb 77ee 2f3c 5677 803c
00000010: 68fd 36bc 27b3 043b 3fb5 133d efef 7f3c
00000020: f54d 293b dbc6 a93b b220 a23a 3610 c2bb
00000030: 7323 a33b 22e0 67bb 86a2 813a 5adc d6bb
00000040: 8b1a 8bba 8c1f ebbb 4fb3 283c 53bb a2bc
00000050: 26e0 183c e85c 203c efab 67bc 5e56 603c
00000060: 6d30 ec3b c282 e1bb f71c 933c 4652 713b
00000070: 0450 963b cb56 d53c d250 a6bc c16d f3bb
00000080: ab13 ea3b 8568 c53c e9ee bebb f3e1 77bb
00000090: 59a9 eebc 287e 37bc 806c c8bb 12db af3b
000000a0: 8877 053a 17d7 bf3b e72e ef3b daab cbbb
000000b0: 5730 1d3b d375 91bc beb8 9d3c 208b fb3c
000000c0: 2411 593c dea7 8a3a 009a 21bc 4c50 29ba
000000d0: 3e08 3c39 ed12 543c fdf1 0dbb 708b 273c
000000e0: f566 85ba c31c 91bb b1c8 c33c 974d 9a3c
000000f0: ec3f bc3b 01df 46bc e15f 0a3c 0a7f 01ba
00000100: 44d2 02bc 513d 8e3c 7d31 b33c 746d a6bc
00000110: ad7a 4d3c 8832 12bc 7efd 3dbc 4757 e23c
00000120: 73d5 6c3c efef d33b 41a5 0c3c d8f3 4dbb
00000130: 2939 8a3c 4a5d b0bb 25df b43b b09b a23b
00000140: 47df 53bc 9473 c43b a65f 203a 694c a4ba
00000150: da7c 163c 0b86 3ebc d8d0 b0bc efb6 aebc
00000160: 0bc4 83bb a257 c03c ddea 0a3b fea1 d9b8
00000170: 566d b53a 66ab 08bc a30a a23c 80dd ad3c
00000180: 2122 2f3c 75db 0b3b b753 1fbb 49dc cb3c
00000190: 51a3 363c 6c1e 183d 4a1e 12ba 64e5 613a
000001a0: 6675 b53a ad75 2bbc c08c 88bc 41b8 9abc
000001b0: 3a74 02bb c55a 7e3b e3af a2bb abb7 abb9
000001c0: 888a 1cbb 468b 73ba eb95 c33b 51aa a4ba
000001d0: dfcd 123c 09e3 053c 05b0 3d3b 4f9f d13b
000001e0: 959a ce3c ab67 3a3b e0f1 923c 475f 613b
000001f0: e1c8 77bc 4412 90bc 9dc1 c63b 1465 4c3c

network_body.linear_encoder.seq_layers.2.weight f4 [128, 128]
-0.17177232 0.013784566 -0.05538892 -0.05025018 -0.029646127 0.123769045 0.024102429 0.07093902
0.0697411 0.04986422 -0.016945226 0.14720133 -0.07330966 -0.06465246 0.19591983 0.085282356
0.003925947 -0.003333664 -0.016841676 -0.07376543 0.07367543 -0.077074416 0.07632808 0.00022488374
0.18528238 0.1240735 -0.038361363 0.096354604 -0.08744261 -0.053674653 0.07979139 0.0072830063
0.17753273 -0.048439987 0.045901276 0.099112995 -0.008121216 0.017451923 -0.17809014 -0.024045577
-0.0925177 -0.102855325 0.0075468896 -0.14277832 -0.05014944 0.05385196 -0.0022529 -0.037723184
0.03223634 0.14531799 -0.055999476 0.018211866 0.030154118 -0.051857706 0.01954629 -0.016470255
0.07676124 0.08293686 -0.08761388 -0.006555705 -0.03389639 0.007998038 0.06904165 -0.008969394
-0.34217262 -0.03338248 0.09938732 0.050261483 0.0077006742 0.19002035 -0.025337966 0.05639869
0.042002417 0.004424168 -0.012491244 -0.112066954 0.068550505 0.15131532 0.019071754 -0.015718943
-0.047324583 -0.07035139 -0.0015908482 0.010276258 0.06881172 0.10237528 -0.068554945 -0.014840279
0.08615687 -0.065264046 0.042126205 -0.0709123 0.09816321 0.053119313 0.18306002 0.050959054
0.030628648 0.16754183 -0.15451266 -0.13444628 -0.12956786 0.0440213 0.012746024 -0.008720269
-0.034076817 -0.061814636 -0.033711735 -0.058736213 -0.09948475 0.18045993 0.11543056 0.05355747
0.070483744 0.05481229 -0.13975735 -0.11308743 -0.03251807 -0.18378352 -0.18279271 0.041551217
-0.12610996 0.09768802 -0.09387193 0.05383599 0.07532366 0.023749938 -0.0940075 0.04469109
0.05419904 -0.01933154 -0.106956735 -0.0141070755 0.06187225 -0.057475027 -0.084251285 0.063731246
0.061758168 0.10635598 -0.06245299 0.0946972 0.07016019 0.0137062585 0.0416625 -0.00144094
0.0009884882 0.006488088 -0.14991286 -0.07527875 -0.12658471 0.06384023 -0.10480321 0.2638596
0.06189211 0.008195957 0.24521628 -0.119136125 -0.025723865 0.21623932 -0.03314176 0.030236555
-0.08826407 -0.1476742 0.07097306 -0.0935598 0.03212602 -0.11837764 -0.0076064724 -0.074317224
-0.14307158 0.054369368 0.16241145 -0.18964395 -0.028233983 0.1720479 0.06869474 -0.019945512
0.08136477 0.024581159 0.0035244008 -0.022865333 -0.0032684973 -0.057017393 -0.08423024 -0.019162677
-0.06404997 -0.070682086 -0.05610776 -0.10230163 0.05223546 0.042611387 -0.28131694 -0.0075553074
-0.059975702 -0.03765766 0.16855295 0.008903642 -0.08864321 -0.22939663 0.0123155825 -0.054710943
-0.027530435 -0.20387082 0.057861455 -0.035951067 0.08615841 0.017115306 -0.09688922 -0.16694038
-0.027568016 -0.03082874 0.067229204 -0.08150516 0.029260388 -0.01688555 -0.008362305 0.03428377
0.08368141 -0.047342848 0.016467553 -0.010284415 -0.21340215 -0.013475452 -0.15537366 0.10183013
-0.073880024 0.03254755 0.08165196 0.06293583 0.021790812 0.21361025 -0.10152949 -0.04879601
0.031319153 0.018866327 0.07286169 0.005275242 0.0746242 0.11189217 -0.1458318 -0.030066933
-0.14273465 -0.12259547 0.06012454 0.0912334 -0.045850005 0.048411235 0.017808255 -0.029493986
0.046237078 -0.14782247 0.06653854 -0.022036484 -0.018113699 0.027999844 -0.06372842 0.09914272
00000000: 15e5 2fbe a9d8 613c 7edf 62bd 22d3 4dbd
00000010: 6fdc f2bc a07a fd3d 7572 c53c 7a48 913d
00000020: 6cd4 8e3d 6d3e 4c3d b7d0 8abc f2bb 163e
00000030: 6023 96bd 8268 84bd 359f 483e 84a8 ae3d
00000040: 3ba5 803b 9a79 5abb 8ef7 89bc 5412 97bd
00000050: 25e3 963d 31d9 9dbd e551 9c3d c5ce 6b39
00000060: aaba 3d3e 3f1a fe3d ce20 1dbd 9055 c53d
00000070: 1c15 b3bd f4d9 5bbd ab69 a33d 49a6 ee3b
00000080: 24cb 353e 0269 46bd fa02 3c3d c1fb ca3d
00000090: d90e 05bc 56f7 8e3c 435d 36be 3bfb c4bc
000000a0: eb79 bdbd d0a5 d2bd e64b f73b 7b34 12be
000000b0: 8069 4dbd df93 5c3d 64a5 13bb a083 1abd
000000c0: 410a 043d 3dce 143e b55f 65bd 0d31 953c
000000d0: c505 f73c bf68 54bd 8b1f a03c a1ec 86bc
000000e0: ff34 9d3d cdda a93d e86e b3bd 3dd1 d6bb
000000f0: f1d6 0abd 340a 033c b565 8d3d 5df4 12bc
00000100: 4031 afbe 11bc 08bd 948b cb3d fcde 4d3d
00000110: f055 fc3b b294 423e 9191 cfbc 5002 673d
00000120: ba0a 2c3d 9cf8 903b 13a8 4cbc 5c83 e5bd
00000130: 3564 8c3d 67f2 1a3e 5e3c 9c3c 03c5 80bc
00000140: 6cd7 41bd 6414 90bd 0284 d0ba c05d 283c
00000150: 29ed 8c3d 21aa d13d 8966 8cbd a424 73bc
00000160: 0373 b03d 28a9 85bd 878c 2c3d 783a 91bd
00000170: cb09 c93d a393 593d 1674 3b3e 71ba 503d
00000180: eee8 fa3c 1690 2b3e 9138 1ebe 49ac 09be
00000190: 70ad 04be ae4f 343d b3d4 503c 76df 0ebc
000001a0: 2294 0bbd 5831 7dbd 5115 0abd 6295 70bd
000001b0: a9be cbbd 7dca 383e dc66 ec3d 145f 5b3d
000001c0: c859 903d da82 603d 8d1c 0fbe 629a e7bd
000001d0: ab31 05bd bf31 3cbe 032e 3bbe 9c31 2a3d
000001e0: f822 01be a810 c83d ed3f c0bd 2183 5c3d
000001f0: 4b43 9a3d 3b8f c23c 0187 c0bd 010e 373d
00000200: d0ff 5d3d 2e5d 9ebc 220c dbbd 5d21 67bc
00000210: c26d 7d3d ef6a 6bbd f08b acbd 8785 823d
00000220: 22f6 7c3d 2ad1 d93d b5ce 7fbd 9bf0 c13d
00000230: 25b0 8f3d 3790 603c 4ca6 2a3d ecdd bcba
00000240: 2990 813a 079a d43b c282 19be bf2b 9abd
00000250: 6c9f 01be abbe 823d 11a3 d6bd 9b18 873e
00000260: 9582 7d3d 5648 063c fa19 7b3e a4fd f3bd
00000270: dbba d2bc d76d 5d3e a7bf 07bd a7b2 f73c
00000280: cbc3 b4bd e837 17be 535a 913d 489c bfbd
00000290: 9396 033d fa6f f2bd b73f f9bb a133 98bd
000002a0: 5b81 12be 6ab2 5e3d 304f 263e 0632 42be
000002b0: f44a e7bc 532d 303e d4af 8c3d c564 a3bc
000002c0: 93a2 a63d 6d5e c93c a2f9 663b 1450 bbbc
000002d0: 4934 56bb 128b 69bd e780 acbd 0cfb 9cbc
000002e0: a12c 83bd c5c1 90bd 40d1 65bd 8483 d1bd
000002f0: daf4 553d 4789 2e3d c608 90be 8392 f7bb
00000300: 15a9 75bd eb3e 1abd 2599 2c3e 95e0 113c
00000310: 928a b5bd f3e6 6abe 4cc7 493c 9518 60bd
00000320: 8287 e1bc 83c3 50be 2200 6d3d 6d41 13bd
00000330: d273 b03d 6635 8c3c db6d c6bd 6bf2 2abe
00000340: 52d6 e1bc 8e8c fcbc 77af 893d 2dec a6bd
00000350: 7bb3 ef3c 9153 8abc 0d02 09bc 236d 0c3d
00000360: 2961 ab3d 93ea 41bd f6e6 863c f77f 28bc
00000370: 1886 5abe 24c8 5cbc 461a 1fbe 518c d03d
00000380: 694e 97bd 9450 053d 2539 a73d 80e4 803d
00000390: a582 b23c a5bc 5a3e b1ee cfbd 53de 47bd
000003a0: 8348 003d 8e8d 9a3c 8238 953d f0db ac3b
000003b0: 93d4 983d b927 e53d ee54 15be ee4e f6bc
000003c0: 0829 12be 5513 fbbd 2645 763d 94d8 ba3d
000003d0: 37cd 3bbd dc4a 463d 9ee2 913c 5f9d f1bc
000003e0: 1763 3d3d c65e 17be 5c45 883d db85 b4bc
000003f0: 2e63 94bc ee5f e53c 0c84 82bd 570b cb3d

network_body.linear_encoder.seq_layers.4.bias f4 [128]
-0.0064414204 -0.0046412754 -0.017795831 -0.003011067 0.0039600595 0.017617375 0.006579584 0.008866501
-0.0020573072 -0.020564293 -0.0031903426 0.015189302 -0.0037849841 -0.015376684 0.0055705584 0.007157336
-0.029065354 -0.015042123 0.023462938 0.0050901747 0.0022936254 -0.01180485 -0.00482478 -0.014357609
0.019796576 -0.009853031 0.008037581 -0.023978125 0.019028323 -0.02761021 0.00060346076 -0.009513938
0.011306754 0.01882287 0.007995794 0.009679491 -0.012794222 0.029724468 0.0019050421 -0.010021823
-0.006836498 -0.004505171 0.02249393 0.0062123267 -0.007078833 -0.0027480677 -0.0032566236 0.021733012
0.013298921 0.003002518 0.019943802 0.00023700038 -0.0028329229 0.010962263 -0.037099034 0.014686441
0.017826868 0.0032861305 -0.020981714 -0.019655043 -0.006055897 0.011840357 -0.0040166946 0.010534092
-0.0074517387 0.02038707 -0.017610151 0.015506573 -0.009203951 0.022665214 0.0023479776 0.0055198814
0.0010898559 -0.00036085356 0.0013574325 0.0036019278 0.0023105578 -0.008991618 -0.002435529 -0.0035045238
-0.015283422 0.0121606765 0.019727532 0.02200291 0.008711178 -0.0137024 0.016384454 -0.0148739405
0.015970802 -0.029313093 -0.024023788 0.022481365 0.00043513963 -0.011109425 0.022651631 -0.009026476
0.0030244594 -0.007619016 0.00904918 0.0061669834 0.010348418 -0.014942316 0.00074646913 0.020875594
-0.011188577 0.019344848 0.011631084 -0.009608061 -0.013609632 0.014694722 -0.0029295026 -0.010227046
-0.009298218 0.00134974 0.0028947352 -0.011131307 -0.00085519894 0.02074663 0.007135185 0.009121736
0.0008374762 -0.003013681 -0.004127463 0.006449779 0.00086239947 -0.019618776 -0.0061111376 -0.009682926
00000000: 8d12 d3bb d715 98bb 90c8 91bc 5255 45bb
00000010: 63c3 813b 5052 903c 8d99 d73b cd44 113c
00000020: e3d3 06bb 7376 a8bc 1115 51bb 8ddc 783c
00000030: 7f0d 78bb 7dee 7bbc 3b89 b63b 1688 ea3b
00000040: 771a eebc 3d73 76bc 5935 c03c 7bcb a63b
00000050: a650 163b 2169 41bc 3019 9ebb 2d3c 6bbc
00000060: 6e2c a23c 9b6e 21bc 0fb0 033c c66d c4bc
00000070: 49e1 9b3c cf2e e2bc 9131 1e3a 59e0 1bbc
00000080: f73f 393c 6b32 9a3c ca00 033c ba96 1e3c
00000090: db9e 51bc ba80 f33c 9bb2 f93a 9332 24bc
000000a0: b404 e0bb 1da0 93bb 3145 b83c c690 cb3b
000000b0: 8ef5 e7bb ed18 34bb 146d 55bb 6e09 b23c
000000c0: b8e3 593c e5c5 443b 2f61 a33c 4e83 7839
000000d0: 8fa8 39bb 109b 333c 28f5 17bd 669f 703c
000000e0: a709 923c 1f5c 573b d8e1 abbc 9d03 a1bc
000000f0: 8c70 c6bb 0ffe 413c 7a9e 83bb 2f97 2c3c
00000100: b72d f4bb c902 a73c 2a43 90bc 480f 7e3c
00000110: 2bcc 16bc 66ac b93c 87e0 193b 1fe0 b43b
00000120: 7fd9 8e3a f230 bdb9 e0eb b13a 520e 6c3b
00000130: ba6c 173b 9451 13bc 659d 1fbb 27ac 65bb
00000140: 5167 7abc 933d 473c a29b a13c 723f b43c
00000150: 54b9 0e3c 0880 60bc b138 863c d4b1 73bc
00000160: 33d5 823c 0322 f0bc 89cd c4bc d72a b83c
00000170: 7423 e439 4e04 36bc ea8f b93c c9e3 13bc
00000180: 0236 463b f0a8 f9bb 0343 143c 6814 ca3b
00000190: 698c 293c 9ed0 74bc b2ae 433a 4b03 ab3c
000001a0: 4b50 37bc 1679 9e3c 4d90 3e3c 216b 1dbc
000001b0: effa 5ebc 22c2 703c e6fc 3fbb 578f 27bc
000001c0: 8e57 18bc c2e9 b03a 99b5 3d3b 1660 36bc
000001d0: 6e2f 60ba d6f4 a93c 45ce e93b 5573 153c
000001e0: 148a 5b3a 2d81 45bb ab3f 87bb ab58 d33b
000001f0: a612 623a 8eb7 a0bc f03f c8bb 23a5 1ebc
