Project/results/VPlayer-OneMinusOne/VPlayer/VPlayer-1499994.onnx (onnx, 338453 bytes, 19 tensors)

action_model._continuous_distribution.log_sigma f4 [1, 2]
000000 c9 e6 31 3d 60 12 46 3d
       0.043432985 0.048357368

action_model._continuous_distribution.mu.bias f4 [2]
000000 b6 25 4e 3c 09 92 9b bc
       0.012582233 -0.018990533

action_model._continuous_distribution.mu.weight f4 [2, 128]
000000 e2 e9 a8 bc 6c 30 e5 3c d1 b9 a0 bc 5f b1 88 3c
       -0.020619337 0.02797719 -0.019619854 0.01668614
000010 b4 7c 7f 39 b4 ea fd 3b ee 8d ad bc ed 58 21 bc
       0.0002436515 0.007748926 -0.021185841 -0.009847862
000020 a1 02 1c bc bb a1 22 3d ee 0e a8 3c 15 ce 16 3d
       -0.009522111 0.03970502 0.020514932 0.03681763
000030 5e 49 2d bd d1 84 87 3c 21 3a f1 bc 58 e2 cf 3c
       -0.042306297 0.016542824 -0.029446663 0.025376484
000040 d5 ee 05 bd c1 21 0d bc 96 56 81 3b 4e b5 17 bc
       -0.03269847 -0.008614005 0.0039470894 -0.009259535
000050 c9 13 cd bb 9c 32 4c 3c dc b8 27 3c 84 96 2f 3c
       -0.006258462 0.012463238 0.010236945 0.010717038
000060 35 00 2f 3c d0 b4 e4 3c 01 ab 8f 3c 16 8e 17 bc
       0.010681202 0.02791825 0.017537596 -0.0092501845
000070 4a 24 21 3d 0d f6 8f bc 3d 6c a8 bb f1 fc 7c 3b
       0.03934125 -0.01757338 -0.005139856 0.0038602913
000080 a1 96 15 b9 a5 82 ef bc 3f ad b6 bc ae d6 83 3c
       -0.00014265861 -0.0292371 -0.022299407 0.016093578
000090 8b 96 00 bc 06 0c a1 3b b8 65 68 bc a6 36 4d bd
       -0.007848392 0.0049147634 -0.014184408 -0.050100945
0000a0 5c ec 14 bc 15 ee c1 bb 3d fa b7 bc 6a 3b 32 bc
       -0.009089556 -0.005918274 -0.02245819 -0.010878423
0000b0 63 b7 99 ba 40 04 60 bc 25 74 13 3c 34 56 d1 bc
       -0.0011727627 -0.013672888 0.008999859 -0.0255538
0000c0 8f 8d 6c 3c 72 93 b7 3c af 7d c6 bc cc 27 29 3b
       0.014438047 0.022409175 -0.024229852 0.0025811074
0000d0 60 53 c8 bc 7e be bd 3c 02 29 19 bc a5 ce 5e 3a
       -0.024453819 0.023162123 -0.009348156 0.00084994204
0000e0 83 a4 08 3d 5e 72 4f bc fb ab 74 3c 55 f9 2a 3d
       0.033360016 -0.012661545 0.014933581 0.041741688
0000f0 cd ec 1d bd e4 a1 3e 3d 30 97 28 3c 9a 29 7b bd
       -0.03855591 0.04654111 0.010289952 -0.06131897
000100 ec 77 27 bc 43 df 27 bd 8d 7c 04 bd a9 1b ec bc
       -0.010221463 -0.040984403 -0.032345343 -0.028821783
000110 c3 cd d1 3c c1 12 8b 3c 59 64 08 3c 68 ef c2 bc
       0.02561081 0.016976716 0.008324706 -0.023795798
000120 c5 aa 0e 3b 8f 5c c0 3c d5 15 a7 3c ef 66 fd 3a
       0.0021769267 0.023481635 0.020396153 0.0019333045
000130 b0 27 12 3d 43 9e 01 bd fa cf 31 3c 77 db 1d bc
       0.03568238 -0.03164507 0.010852808 -0.009634844
000140 e6 a6 71 bc 52 4f 10 3b da 83 5c 3c a3 11 06 3d
       -0.014749264 0.0022019935 0.01345917 0.032731663
000150 bd 8a 82 b9 77 93 33 3d 27 2f 03 bc 28 51 2b 3c
       -0.000248989 0.043841805 -0.008006847 0.010456361
000160 6a 13 0b bc f3 0e 9c bc be 8e 60 bc 66 fa 2b bd
       -0.008488515 -0.019050097 -0.013705907 -0.041986845
000170 7a 45 79 3b 2d c1 a1 bc 82 82 c9 b9 e2 9e 81 bc
       0.0038035796 -0.019745434 -0.00038434943 -0.015822832
000180 e1 1a 69 bc 79 08 4b bd c7 e7 21 3c 45 f1 c0 bc
       -0.0142276 -0.049568627 0.00988192 -0.023552546
000190 a5 e3 88 bc 5c 59 b9 bc f0 f3 52 bc 26 98 18 bd
       -0.016710112 -0.022625618 -0.012875542 -0.037254475
0001a0 61 32 89 3c d9 85 fe bc 0d c1 37 3c 6f ec c4 bb
       0.016747655 -0.031069683 0.0112154605 -0.0060096304
0001b0 7e 22 f6 bc bb c7 fe bc c7 19 30 3c 99 fd 9f bb
       -0.030045744 -0.031101098 0.010748333 -0.004882526
0001c0 4a 06 1f bd 0b 18 5f bd 9a df e4 3b 01 6a ea bb
       -0.038824357 -0.05446629 0.006984663 -0.00715375
0001d0 9c ef 70 bc eb 40 f6 bc 1b 0a 92 bc 75 08 3c 3c
       -0.014705565 -0.030060252 -0.017827084 0.011476626
0001e0 3d 11 f0 bb f0 8e ca 3c 59 78 39 bc 1a fe 6a bc
       -0.0073262737 0.024726361 -0.011320197 -0.014342809
0001f0 09 1a 69 3c 48 04 b6 3c 6f 5f 04 bc 9a 05 09 3c
       0.014227399 0.022218838 -0.008079394 0.008363152
000200 40 08 62 bc d8 12 3d 3c 2e 73 ca 3c af 17 6e bd
       -0.013795912 0.011540137 0.024713125 -0.058128055
000210 4f 7c 07 bc 56 69 f6 bb c9 ba a6 3b d7 f7 e8 bc
       -0.008269384 -0.0075198812 0.0050881845 -0.028438492
000220 a6 ee b4 bb 7b 5f 90 3c 6f 99 3d bd f9 4c d9 3b
       -0.005521613 0.017623654 -0.046288904 0.0066314903
000230 7a 57 50 3c de 7a 0d bc 48 41 11 3d 4a 2f 21 bd
       0.012716169 -0.008635251 0.035462648 -0.03935174
000240 3e a6 d5 3c ce c2 fe 3b 87 8e c7 3b 33 e6 fb bc
       0.026080247 0.0077746874 0.0060899886 -0.030749416
000250 c3 ab a4 3a 5a 72 dd 3c 56 4c e4 3c bf 07 4d bd
       0.0012563396 0.027032066 0.027868431 -0.050056215
000260 97 64 c9 bb f9 e1 75 bd 24 ad 52 bc 03 35 3e 3d
       -0.0061460244 -0.060029957 -0.012858663 0.046437275
000270 f7 ed 1c 3c 5b 7f 9c 3b 93 1b 04 bd 30 c6 4e bd
       0.00957822 0.004775924 -0.03225286 -0.050481975
000280 eb af 02 bd f0 3a 0c bb 26 1f 8b 3b dc e7 54 3b
       -0.03190605 -0.0021397434 0.0042456565 0.0032486832
000290 ad e7 1e 3d 59 15 d4 bc 4e 09 42 3c af c7 88 3d
       0.038795162 -0.025889086 0.011843039 0.066787116
0002a0 2d 57 e3 3a 04 f1 4e 3d 79 bf 0c bc 8c f2 3e 3d
       0.0017344706 0.05052282 -0.0085905725 0.04661803
0002b0 36 4f 84 3c 91 55 82 3c 3b f7 2d bd b2 bf 59 bc
       0.016151052 0.015909942 -0.042472105 -0.013290333
0002c0 d1 ea eb bc 1a 39 2b bc 32 56 c8 bc 16 c4 12 bd
       -0.028798493 -0.010450626 -0.024455164 -0.035831533
0002d0 ec 9b 28 bd 7b fa c8 bc 17 8a 4d bb ac 95 12 3c
       -0.041164324 -0.0245335 -0.0031362826 0.008946817
0002e0 47 23 13 bd ea 2e cc bc 46 af 0c bd e7 dc 5a 3c
       -0.035922315 -0.024924714 -0.03434684 0.013358331
0002f0 81 23 df 3c 84 9b 1f bd 27 ad 35 bc 48 66 65 3d
       0.02723861 -0.03896667 -0.011088646 0.056005746
000300 d9 b1 d3 3c f4 c2 20 3b d7 04 f5 3c a8 0d a6 3c
       0.02584164 0.0024530264 0.029909534 0.020270184
000310 63 ba 52 bd 91 e9 d8 3c e5 b5 4f bc 37 3f 40 3d
       -0.051447283 0.02647856 -0.012677644 0.046935286
000320 85 e9 bc bc 8a 43 97 bc 41 82 ce 3c cf 35 c2 bb
       -0.02306057 -0.018464822 0.025208594 -0.0059268246
000330 a4 c0 dd bc 19 40 ee 3c 26 71 81 bc 44 5c 1b bd
       -0.027069397 0.029083299 -0.015801024 -0.03792979
000340 c3 85 dc 3c b6 e4 88 bc 48 ec e4 bc d0 b4 02 bd
       0.026919251 -0.01671062 -0.027944699 -0.031910717
000350 d5 e0 d7 bc 26 88 88 bd ae 79 b7 bc 76 5e e9 3b
       -0.026352325 -0.06666593 -0.022396889 0.0071218563
000360 64 50 c4 bc d6 34 3a 3d 17 65 0b 3d 84 21 94 3c
       -0.023964114 0.045460545 0.034031954 0.018082388
000370 02 67 33 bc 77 4b 18 3d 1e 90 b9 3c 8f 71 63 3b
       -0.010949852 0.037181344 0.022651728 0.0034705137
000380 8f 7b ec ba 18 0d 58 3d 62 12 1b 3b fc f5 cf 3c
       -0.0018042194 0.052746862 0.002366208 0.02538585
000390 50 96 9b 3c ce 60 16 bd ec 92 d2 bb e3 44 1a 3d
       0.018992573 -0.036713414 -0.006426206 0.03766335
0003a0 ff 22 79 3c 5f 32 fd 3b 80 1f ea bc d5 bd e5 ba
       0.015206098 0.007726952 -0.028579473 -0.0017527888
0003b0 89 d4 36 3c 7b 4e e1 3c 39 e5 b8 bc d0 25 9b bc
       0.011159071 0.027503243 -0.02257024 -0.018938929
0003c0 1b 1a b6 3c 1d f6 a2 3d 73 e0 94 bc 68 2e e0 bc
       0.022229245 0.07957099 -0.018173432 -0.027365878
0003d0 38 28 bb 3c a4 2a 06 3c 5d 49 8b bc 0d 23 7d 3c
       0.022846326 0.008188877 -0.017002756 0.015450251
0003e0 98 16 33 bb 6d 50 45 3d c4 b3 9d bc 70 bf 45 bc
       -0.00273267 0.048172403 -0.019250758 -0.012069568
0003f0 6a 19 22 3c 81 6b 92 bb 31 4a a2 3c ff f1 67 bc
       0.0098937545 -0.004468382 0.019810768 -0.014156817

action_model._discrete_distribution.branches.0.bias f4 [3]
000000 ff f8 c6 3b 0a a6 b4 bc 40 d6 90 3c
       0.006072163 -0.02205183 0.017680287

action_model._discrete_distribution.branches.0.weight f4 [3, 128]
000000 4c 49 1a 3b 9d 98 4d 3c b6 7d 6c ba e8 f4 1c 3b
       0.0023542223 0.012548593 -0.0009021418 0.0023949686
000010 59 a0 16 3b 10 fb 48 3c 3a 4b dc bc 4f 63 3e 3b
       0.0022983758 0.012266889 -0.02689134 0.0029050892
000020 be 2f a5 bb 19 30 c7 bb 7b 69 19 3d 08 ba 7b 3c
       -0.0050410917 -0.0060787317 0.03745411 0.0153641775
000030 a9 6f 1c bd 1a c5 41 bc a0 7a d9 bc 5d 83 91 3c
       -0.038192425 -0.011826778 -0.02654773 0.017762834
000040 b0 6c bb bb 57 22 79 bb 61 d8 35 bc 4a 10 f2 3c
       -0.0057197437 -0.0038014853 -0.011098952 0.029548783
000050 f3 11 16 bd 37 76 6a 3c 5f c8 50 3c ba 7b aa 3b
       -0.03663821 0.014310411 0.012743085 0.0052027376
000060 60 5b 75 3b 69 fc ba 3c 0c 90 06 bd 18 5c 49 3c
       0.0037438497 0.022825437 -0.032852218 0.012290023
000070 c1 46 6a 3b 8d e9 01 3d 51 70 38 3c ee d8 f0 3c
       0.003574774 0.031716872 0.011257247 0.029400315
000080 d0 99 88 3b fb 67 12 bc fc 88 69 bc 64 80 29 3c
       0.0041687265 -0.008935924 -0.014253851 0.010345552
000090 4d 5e 27 bd 22 56 9a bc 7e 50 8e 3c d4 6c 89 bc
       -0.040861417 -0.0188399 0.017372366 -0.016775526
0000a0 13 92 89 bc 26 0d 9e bc b4 90 a3 3c c9 37 02 bd
       -0.016793286 -0.019293379 0.01996646 -0.031791482
0000b0 e3 5a 9f bc f0 f0 9b ba 57 dc 47 bb 1e 09 16 bd
       -0.019452518 -0.0011897366 -0.0030496323 -0.03662979
0000c0 b7 44 97 bc 3c 89 43 bc 1a d6 bb 3b 58 e7 80 bc
       -0.018465383 -0.011934575 0.00573231 -0.015735313
0000d0 f9 a8 00 3b 6b df 18 3d e8 20 96 bc f1 b7 29 3c
       0.0019631966 0.037322443 -0.018326238 0.010358796
0000e0 98 b6 28 3c 50 33 29 bb 00 45 12 bb 4c e5 df ba
       0.01029744 -0.0025817938 -0.002231896 -0.0017081886
0000f0 33 29 af 3c 3b c6 d0 3c 25 17 8d bc 29 1d c9 3c
       0.02138195 0.025485149 -0.01722295 0.024550037
000100 65 30 38 bc df 0a ff bc ec c4 61 bc ed d5 56 bd
       -0.011242007 -0.031133113 -0.01377986 -0.05245011
000110 99 aa 8c bc 22 b5 53 3b 3e 0c 86 bc 9e 54 12 bd
       -0.017171191 0.0032304008 -0.01636326 -0.03572523
000120 dc f9 67 3c 81 ca 2c bb b9 50 22 38 d6 7f 84 3b
       0.014158692 -0.002636582 3.869899e-05 0.0040435595
000130 7f 42 b0 3c 24 9e e8 3b 26 cb 71 bb 65 43 86 bc
       0.021516083 0.00709893 -0.0036894768 -0.016389558
000140 53 10 d3 bc 1a 8f 0f bd ed cf 84 3a 6a 1c 85 3c
       -0.02576462 -0.03504858 0.0010132767 0.0162489
000150 91 4b 3b 3b 44 36 b1 bb f1 fa f8 bb 92 71 02 bd
       0.0028578977 -0.0054080803 -0.007598274 -0.03184659
000160 dc b8 bc b7 20 2a 03 3c 0d ee 0e bd 28 aa 22 bd
       -2.2497428e-05 0.008005649 -0.03489499 -0.039713055
000170 2f af 01 3d 94 d6 a8 3c 7f 18 ae bb 43 60 da bb
       0.03166121 0.020610131 -0.0053129788 -0.0066643073
000180 6e fb f4 3b 1d 3f 55 bc 67 9c af bc 5a a4 dd bb
       0.007476262 -0.013015536 -0.021436883 -0.006763977
000190 10 3d d2 bc 5e 25 39 bc 8d 39 ad 3c 82 a7 67 bc
       -0.025663882 -0.011300413 0.021145606 -0.014139058
0001a0 62 d9 a3 bc f8 c2 c6 3c 50 6c 30 3c dc e1 05 bc
       -0.020001117 0.02426289 0.010768011 -0.008171525
0001b0 34 b3 bc bc 5a 42 9f bb c2 54 72 3a 09 8d a7 bb
       -0.02303467 -0.0048602046 0.0009244197 -0.0051132482
0001c0 73 f3 53 bd fc da a9 bc 4c 9b be ba 1e ac 0f 3d
       -0.051745843 -0.020734303 -0.0014542132 0.035076253
0001d0 8f ca ef 3b 65 d2 a2 3c 87 6c ac 3c c9 7d 93 bc
       0.007317848 0.019875715 0.021047844 -0.018004315
0001e0 ab 05 c7 3c af 84 12 bd ee bf 93 3c 75 51 dc 3a
       0.024294695 -0.03577107 0.018035855 0.0016808944
0001f0 dc e0 e7 bb 8e fa f7 bc 9e fd 8f 3c c5 b4 a2 bc
       -0.007076366 -0.030270841 0.017576989 -0.019861588
000200 18 86 97 bc ad 69 54 3c 46 fe 43 39 d0 00 1b 3b
       -0.018496558 0.012964648 0.00018691373 0.0023651607
000210 a6 27 0d bd 4d 23 97 3b ff 59 0d bc 07 1a f0 bc
       -0.03446164 0.0046123625 -0.008627414 -0.029309286
000220 7d ad f7 3b ec 3e de bc 9d b1 02 bd 52 fc af bc
       0.007558523 -0.027129613 -0.031907666 -0.02148262
000230 0c fc 9c 3b 0d 6a 76 bc e2 01 b0 3c 51 ad bb 3c
       0.0047907885 -0.015039933 0.021485273 0.022909792
000240 ab 72 03 bc 67 8c 08 3c 40 45 37 bc 5d 00 63 bd
       -0.008022944 0.008334256 -0.011185944 -0.05542027
000250 56 56 a1 bc 69 74 7d bc b6 bf bc 3c 51 b7 9b 3c
       -0.019694488 -0.015469649 0.023040634 0.01900831
000260 d5 21 d1 3c da 6b 28 3c 22 8f 4a 3d 69 6d c7 bc
       0.025528828 0.01027962 0.04945291 -0.024344163
000270 a4 be e3 bb 37 e3 b7 bc 5e a1 c8 ba 49 eb 6f bb
       -0.0069502164 -0.022447212 -0.001530688 -0.0036608747
000280 f7 43 2e 3d 62 06 18 bc 4b 63 04 bd 06 b3 b9 3c
       0.042545285 -0.0092788655 -0.032321256 0.022668373
000290 ad 8b 97 3c 94 bf c5 3c 5b 43 fc 3c 6c 11 a1 3c
       0.01849922 0.024139203 0.030793836 0.019661628
0002a0 54 42 ce 3c c2 5e 21 3c 6c ba 5b bc 7f 1c 0b bc
       0.025178112 0.009849252 -0.013411146 -0.008490681
0002b0 bb 2c 84 3d 52 10 f5 bc e3 0d 6d bb 72 10 00 bb
       0.06453844 -0.029915009 -0.0036171607 -0.0019541052
0002c0 1f 46 ad 3b 9e f1 13 bc 25 d0 06 bb 06 1d a3 bc
       0.0052879 -0.009029774 -0.002057084 -0.0199113
0002d0 b6 04 01 bd d3 90 4e bc a1 fb 9f bb 59 72 44 bd
       -0.031498633 -0.012607771 -0.0048822914 -0.047960613
0002e0 1b 79 8c bc 1a 3f b9 bb 17 8c 3d 3d d8 cc 23 3d
       -0.017147591 -0.0056532742 0.04627618 0.039990276
0002f0 d6 06 ff 3b 0a 75 33 bc 06 95 a4 bb a2 81 ca 3b
       0.0077827973 -0.010953197 -0.005022648 0.006180004
000300 1c 12 73 3c e8 58 64 3c c3 78 2e 3c c5 b3 cd 3c
       0.014835861 0.0139372125 0.010648909 0.025110135
000310 46 b3 cd 3c 56 d3 28 3c 61 6c 98 3c 82 5e 2e 3c
       0.025109898 0.010304293 0.018606367 0.01064265
000320 f5 f3 c1 bc cc 96 8e 3b 6c a6 7a bc 61 fc c8 bc
       -0.023675898 0.0043514725 -0.015298467 -0.024534406
000330 59 e5 19 3c c0 a0 7c 3b 09 fb 98 3c a7 4d 8e bb
       0.00939306 0.0038547963 0.01867439 -0.004342753
000340 64 7b 5a 3c 7e ad d8 3b 5b 85 8f 3c 15 1f 3e bc
       0.013335083 0.0066124788 0.017519644 -0.01160409
000350 46 56 c1 3c 0b ce b7 3a e0 b1 c5 bc c6 64 d9 39
       0.023600709 0.0014023198 -0.024132669 0.00041464547
000360 c7 04 35 bd 64 bb 8b 3a 18 11 c4 3b 50 2e 5a 3c
       -0.04419401 0.0010660705 0.005983483 0.013316706
000370 8d a0 fb bc e6 96 51 bd 68 0c cb 3c a1 ab 42 bc
       -0.030716205 -0.0511693 0.02478619 -0.01188174
000380 ac f6 d1 3c 56 51 69 bc 3c c1 cc bb 91 69 1c bc
       0.025630318 -0.014240583 -0.0062486213 -0.009546653
000390 f4 2b c5 bc 74 0e 0a bb d3 ae be 3c 10 43 2d 3c
       -0.02406881 -0.0021065744 0.023276722 0.010575071
0003a0 68 09 92 3c 38 fa 87 bc f8 7e 76 3c d2 e0 a9 3b
       0.01782675 -0.016598806 0.01504492 0.0051842714
0003b0 f1 f1 51 bc 87 d6 ac bb 6a 1b db 3c 15 ba f8 bb
       -0.012814031 -0.005274597 0.02674647 -0.007590542
0003c0 88 fb 75 bc 5b 3b 91 3c d0 54 92 3c 05 6a 37 bd
       -0.015013583 0.017728498 0.017862707 -0.044778842
0003d0 f1 e0 97 3c af 35 98 bc 2f 18 fe bc a8 21 e7 3b
       0.018539878 -0.018580286 -0.031017391 0.0070535727
0003e0 37 c7 be bb 82 73 3b 3c a3 60 51 bc fd 2a d0 bc
       -0.005822088 0.011441113 -0.012779388 -0.025411123
0003f0 90 59 8e 3c 61 a0 64 bb 99 9b bf 3c 9e de dc 3c
       0.017376691 -0.0034885632 0.023389624 0.02696162

action_model._discrete_distribution.branches.1.bias f4 [3]
000000 72 3e d0 3c 37 25 79 bc db 4a 1a bc
       0.025420401 -0.015206627 -0.009417261

action_model._discrete_distribution.branches.1.weight f4 [3, 128]
000000 5f 3b 1a bb 8f 78 fa bb b1 2d d1 bb ea e2 40 3b
       -0.0023533923 -0.0076437662 -0.0063836207 0.0029432126
000010 e2 19 64 bc 50 d5 47 bb 46 66 fa 3c 75 f7 28 3c
       -0.013922187 -0.0030492134 0.030566346 0.010312905
000020 ba 6a a0 3b a3 8f 4c 3b f6 4b 2b 3b 14 83 c7 3b
       0.0048955353 0.0031213544 0.0026137806 0.006088624
000030 ca ca 80 bc a3 bd 70 b9 ab 9c 3d 3c f8 16 87 bb
       -0.015721697 -0.00022958829 0.011572997 -0.004122611
000040 81 3d c4 3b ae 77 1e bc b0 f3 0b 3c 98 85 99 3a
       0.005988777 -0.009672089 0.008541986 0.0011712788
000050 69 59 33 3d 43 71 5c bc 5c 34 13 bd 47 05 16 bc
       0.04378644 -0.013454738 -0.035938606 -0.009156532
000060 e0 15 76 bc 63 b4 21 bc ad 1b 46 bc c2 f1 28 bc
       -0.015019864 -0.009869668 -0.012091559 -0.010311546
000070 75 22 6b 3b ae 1c 14 bc 46 88 f1 3b 9f 25 48 bc
       0.0035878692 -0.009040041 0.0073709814 -0.012216001
000080 40 11 94 bb aa a4 91 3b b8 3a 1e 3b 9e 36 5f bc
       -0.004518658 0.0044446783 0.0024143886 -0.013623862
000090 f9 cc 18 bc 9d cd 77 bb 61 54 0f bd 6a 9f 75 3c
       -0.009326213 -0.0037811764 -0.03499258 0.014991621
0000a0 0b a5 c5 bc de 9c 5b bb 5c d6 16 3d dd 39 da 3a
       -0.02412655 -0.0033510248 0.036825523 0.0016649325
0000b0 69 7e 87 bc 97 11 88 3c 2f 17 40 bb f4 f9 2a 3b
       -0.01653977 0.01660995 -0.0029310693 0.0026088925
0000c0 ba d8 2a 3c 0a 29 26 3c 0f 27 95 3a ab 18 d8 3b
       0.010427648 0.01014162 0.0011379438 0.0065947375
0000d0 b1 18 a3 3b c8 3a 05 bb 2c 1d 05 3d b1 c9 15 3c
       0.0049773087 -0.0020329226 0.032498524 0.009142325
0000e0 3c 8c dc bb 2e 1e 78 bb 6a 86 e5 3a da 64 37 3b
       -0.0067305844 -0.0037859785 0.0017511372 0.0027983696
0000f0 0d c7 7e 3c 11 4f 22 3d ef 96 f9 bb b4 2d 6f bc
       0.015550387 0.039626185 -0.0076168696 -0.014598299
000100 ab 67 c3 bc 5a 39 33 3c 1c f8 a9 bb 97 a4 78 bc
       -0.023853144 0.010938967 -0.0051870476 -0.01517596
000110 a9 1f 35 bc 31 c4 71 bc cf 82 03 bd 60 3c db 3a
       -0.011054912 -0.014756248 -0.03210717 0.0016726367
000120 bc 40 a9 bc 27 fe f8 bb f5 3e 81 bb a5 27 a3 3c
       -0.02066075 -0.0075986567 -0.0039442726 0.019916365
000130 fa 7e 86 bb 59 f2 13 3c fe c0 30 bb 3b 46 da ba
       -0.0041044923 0.009029948 -0.00269705 -0.001665301
000140 30 59 c1 b9 d9 88 09 bd e3 27 88 bc a9 b4 88 bc
       -0.00036878278 -0.033577774 -0.016620582 -0.016687708
000150 97 97 b6 3a fa 58 fe bc a3 82 49 39 ba 40 5c bc
       0.0013930675 -0.031048287 0.0001921752 -0.013443166
000160 c0 81 01 bc 84 6b c4 3b aa d3 4b bc c5 c6 c0 3c
       -0.00790447 0.005994262 -0.012440601 0.02353228
000170 0b 6f 04 3c 7a fd 03 3d ef f9 a8 bb c2 48 98 3c
       0.008083115 0.032224156 -0.0051567475 0.018589381
000180 93 35 d8 bb e6 79 80 3b 00 1a 66 bc 59 89 11 bc
       -0.0065981834 0.0039207814 -0.014044285 -0.008882844
000190 99 b7 e0 3b ac e0 e6 bc 39 eb 10 bc b2 e2 39 bc
       0.006857824 -0.028183304 -0.008845144 -0.011345552
0001a0 82 61 77 bc 72 56 3b bb 1c ed 8d bc 3b 3d 06 bd
       -0.015098931 -0.002858546 -0.017324977 -0.032773238
0001b0 57 87 99 3c b9 e3 06 bb 17 b3 cf bb ff 94 b7 bb
       0.018741293 -0.002058251 -0.006338488 -0.0056024785
0001c0 f5 33 6a 3c 4b 6f d3 bc 36 43 c7 bc f7 d0 a6 bc
       0.014294614 -0.025809905 -0.02432404 -0.020363314
0001d0 d5 65 d9 39 6a 59 0b bb e3 52 e8 3a 83 18 a0 bc
       0.00041465336 -0.0021263012 0.0017724897 -0.019542938
0001e0 88 d5 87 bc 45 5a 8f bb ac bd a8 bc b4 23 0a 3b
       -0.016581312 -0.0043747746 -0.020598255 0.002107841
0001f0 10 68 fd 3a ab b2 91 3b ff 53 eb bb a6 03 8a bc
       0.0019333381 0.0044463477 -0.007181644 -0.016847443
000200 56 03 23 3d 0b 40 1f 3d c6 84 14 3d 3a d0 bd bc
       0.039798103 0.038879436 0.036259435 -0.02317058
000210 52 82 cb bc 1c e1 11 3d cd 97 79 3c 63 c7 a5 bb
       -0.024842415 0.03561507 0.015233946 -0.005059169
000220 58 3e f6 bc 09 93 81 bd ee 84 4c 3b b2 a3 1e bd
       -0.030059025 -0.06326873 0.0031207162 -0.03873033
000230 43 fa 1b 3d 0c 17 31 3d 54 74 a8 3c e7 7c 3c 3b
       0.038080465 0.04323487 0.020563282 0.002876097
000240 f0 0e 14 3d d0 6a 64 3d 6d 5f 0c 3d f9 4c 82 3b
       0.036147058 0.055765927 0.034270693 0.003976461
000250 75 3a 04 bd 1a 58 eb bc 71 87 33 3c f6 24 05 bc
       -0.03228231 -0.028728534 0.010957585 -0.008126488
000260 91 d4 23 bc 07 da 78 bb 72 e8 94 bd 6b e7 49 3d
       -0.00999941 -0.0037971751 -0.07270898 0.049292963
000270 10 c0 47 3d e9 51 09 3d 8e d0 88 ba 0c 13 0c 3d
       0.04876715 0.03352538 -0.0010438131 0.034197852
000280 89 98 ab 3c 6a bd cc 3c 16 67 32 3d 21 6e e7 b9
       0.020946758 0.024992663 0.04355534 -0.00044141806
000290 19 00 9e b9 20 1c 32 bd 9b 62 b7 3a 83 df 83 bc
       -0.0003013618 -0.043483853 0.0013991179 -0.01609779
0002a0 b7 c1 fc bc 2b f0 51 3b b7 4a f4 bb 84 e2 b1 3c
       -0.03085409 0.003203402 -0.0074551958 0.021714456
0002b0 a3 9d 1f bc 8e b3 2c 3c 16 d2 df bb 00 cb 5d bd
       -0.009742173 0.010540856 -0.006830464 -0.054148674
0002c0 f7 9f 2c bd 01 48 17 bd db 57 23 bd 3c 3c 9f bc
       -0.042144742 -0.036933903 -0.039878707 -0.019437902
0002d0 e5 b4 ef bb f3 64 c3 3b e2 1c 8d 3a 46 73 81 3d
       -0.0073152655 0.005962962 0.0010766054 0.06320815
0002e0 d3 38 f0 3c 4b 7b 81 bd 4b f6 c2 3a 52 6d cc bc
       0.02932397 -0.063223444 0.0014874426 -0.024954472
0002f0 44 88 2c bc 20 42 29 bd 7d e6 04 3d 62 f6 19 3d
       -0.010530535 -0.041322827 0.032446373 0.037588485
000300 24 46 b4 bc ce 30 02 3c e6 31 39 3d 3e 68 2e 3c
       -0.022006102 0.007946206 0.045213602 0.01064497
000310 8a b4 17 3d 9b 75 02 bc 6e 0f 84 3d 82 0c 0e 3d
       0.03703741 -0.00796261 0.064482555 0.034679897
000320 3e 00 37 3d 88 a3 2c bd c2 b4 10 bd 63 d4 11 bd
       0.044677965 -0.042148143 -0.035328634 -0.03560294
000330 9a 1e 1f bd 1c 8e 0c 3a 56 01 06 3d 0c 92 0a bd
       -0.038847543 0.0005361752 0.032716118 -0.033830687
000340 f1 a1 63 3d 6e e1 3f 3d 29 d7 46 3d 28 23 0a 3d
       0.05557436 0.046845846 0.048545036 0.033724934
000350 94 a9 67 3d 81 ad aa 3c fe 5f 0a 3d 3d 51 30 bd
       0.056558207 0.020834686 0.03378295 -0.043046225
000360 f0 c2 1c 3d 54 51 ee 3c 56 60 b6 3c 5b 82 6f bb
       0.038271844 0.029091515 0.022262733 -0.0036546204
000370 3b 23 b9 3b 5a 99 45 bd e9 eb 02 bd 4c e0 f0 bb
       0.0056499518 -0.04824195 -0.031963263 -0.007350957
000380 d0 01 65 3c b6 bf a3 bc 9c 60 26 bd 08 46 9d 3d
       0.013977483 -0.019988876 -0.040619478 0.07679373
000390 6a a0 1b bd 84 7c a7 bc f7 d4 a6 bc 30 71 02 3d
       -0.03799478 -0.020445116 -0.020365221 0.031846225
0003a0 e0 bd d4 3a 03 ca aa 3c 9d b4 3a 3d d9 8d 32 3d
       0.0016230904 0.02084828 0.045582402 0.043592308
0003b0 f2 c3 c8 3c e8 5e f3 3c 1b 8c a0 bc 0f 53 7f 3d
       0.024507497 0.02970834 -0.019598057 0.06233507
0003c0 d3 f4 56 3b b6 00 22 3d bc 37 18 3d ab 35 1a 3d
       0.0032799735 0.03955146 0.037162527 0.037648838
0003d0 b0 7f 0a 3d 31 b6 c7 3c 44 32 85 bc 91 8f 7d bc
       0.03381318 0.024378868 -0.01625932 -0.015476123
0003e0 9a 0e 95 3c d9 30 25 bd 7a f6 9a 3b bc 89 2e bd
       0.01819544 -0.040329788 0.0047290893 -0.042611822
0003f0 97 a6 91 3d 7f 44 48 3d 3f ec 37 bc 44 2d 25 bd
       0.071118526 0.048893448 -0.011225759 -0.04032637

action_model._discrete_distribution.branches.2.bias f4 [3]
000000 0f b3 b3 3c 51 9b 59 bc f5 74 1b bc
       0.021935968 -0.013281659 -0.009488334

action_model._discrete_distribution.branches.2.weight f4 [3, 128]
000000 26 a0 c7 bc a4 35 7f 3c ac 8d a1 bb 65 32 ae 3c
       -0.024368357 0.015576754 -0.0049302187 0.021264264
000010 71 fe 09 bd 7d f3 a9 bb 92 ef 1d bd ab 4f 80 bb
       -0.03368992 -0.005186497 -0.03855855 -0.003915747
000020 6b 8a 1f bb dc a5 cf 3b d0 26 0e bc ef ba d7 3c
       -0.0024343978 0.0063369107 -0.008676246 0.026334254
000030 c3 ad 1f bc 0b 73 57 3b 6e e1 9e 3b e2 66 be b9
       -0.009746018 0.0032874967 0.0048486507 -0.00036316278
000040 34 b2 4a bc a1 ab 79 bc 6d 69 2c bc 5a 90 f1 3b
       -0.0123715885 -0.015238673 -0.010523182 0.0073719444
000050 f3 25 ff bc 15 dc 1a 3c 27 41 18 bc 56 c3 c8 3a
       -0.031146025 0.009451886 -0.009292877 0.0015317004
000060 ff 1e d0 3c 9a dc 9e 3c ea 99 3c bc 56 fd ac bc
       0.025405405 0.0193923 -0.011511305 -0.021116894
000070 e4 5c bf 3b af 66 8e bc 93 bc 56 bc 58 34 94 3c
       0.005839931 -0.017382948 -0.013106483 0.018091366
000080 78 00 84 3b 4f 96 0d bd c7 ad 38 bc 69 cb 1c 3c
       0.004028376 -0.034567174 -0.0112719005 0.009569981
000090 3b 5c 27 bc 9d 16 61 bb 8b 5d f2 3a 87 de 40 3c
       -0.010214861 -0.0034345754 0.0018491013 0.011771805
0000a0 6c 21 c8 3c 1e f3 a1 3c 1e de 86 bb ff f8 4d bb
       0.02443 0.019769248 -0.004115834 -0.003142893
0000b0 9e fa 01 bc 0f 8b fd 3b 23 6e 62 b9 2f 46 15 bc
       -0.007933287 0.0077375243 -0.00021594069 -0.009110971
0000c0 44 00 5b 3c 16 3c c1 3c 53 10 ae 3a 5b 89 b9 3b
       0.013366763 0.023588222 0.0013280011 0.005662126
0000d0 f2 db f4 39 3a 33 99 ba e6 bc 96 38 af f6 e7 bc
       0.0004670318 -0.001168824 7.1877424e-05 -0.02831587
0000e0 a0 14 8d bb f0 e0 d4 3a 22 3a 94 3c d6 6d 40 3c
       -0.004305437 0.0016241353 0.018094126 0.011744937
0000f0 73 2c 0c 3c 58 b9 d2 3c b8 db ef 3a 42 18 00 bc
       0.008555519 0.025723144 0.0018299734 -0.0078182835
000100 a9 c5 e9 3b 91 ac a1 bc 12 c8 9e 3a 67 4c e1 bc
       0.0071341586 -0.019735606 0.0012114069 -0.027502252
000110 04 43 ac bb 5a a6 d1 bb 81 56 81 3b 39 bd 2f 3c
       -0.0052570123 -0.0063980045 0.0039470796 0.010726267
000120 9d 59 f6 bc cd 85 e4 3c 1b 96 c6 3c d5 5c 3e bb
       -0.030072028 0.027895832 0.024241498 -0.0029047031
000130 da 83 dd 3c 67 52 ed ba ca 87 81 bc 1c 85 e4 bc
       0.02704041 -0.0018106223 -0.01581182 -0.027895503
000140 44 eb 8a bc f0 2a 9b bc aa 4a d1 ba b3 b8 04 ba
       -0.016957887 -0.018941373 -0.0015967686 -0.0005062923
000150 bc 73 3f bc ef 48 f1 3c 8b 1c 66 3c 5b 34 ee 3c
       -0.011685308 0.029453723 0.014044891 0.0290777
000160 a8 e0 1a bc cf 98 83 bc 5f c2 cc bc 97 1f ab 39
       -0.009452976 -0.016064076 -0.024995027 0.00032639198
000170 25 5a 22 3c 05 a3 70 bc ac 39 41 3d ec ec 46 bb
       0.009909187 -0.014687304 0.04717414 -0.0030353619
000180 d6 a2 02 bc 40 4f a7 3c 00 df 5d 3c 46 81 ca bc
       -0.007973393 0.020423532 0.013541937 -0.024719846
000190 97 23 34 3c 26 ae 02 bc 7a d2 6c 3c 9f 0d f5 bc
       0.010994813 -0.007976091 0.014454478 -0.029913722
0001a0 b5 fd 08 3c 20 7a ac bc 2d 8b 8b 3c bf c2 b7 bb
       0.00836127 -0.021054327 0.017034138 -0.0056079323
0001b0 3c 90 89 bc ff 40 60 bc 51 89 ce ba 5c 97 0f bc
       -0.01679241 -0.013687371 -0.0015757476 -0.008764114
0001c0 83 ee d3 bb 21 9d c9 ba 46 da c0 3b ce 6b 93 bc
       -0.006467642 -0.0015381911 0.005885395 -0.017995741
0001d0 59 dc ec 3a c5 6a 2c bb 77 a5 d5 b9 fc 8d 23 3d
       0.001807104 -0.0026308757 -0.00040749807 0.03993033
0001e0 5b 4b db 3c 3b 12 c4 3b 82 c6 9d 3b 5b cb 75 3a
       0.02676933 0.0059836186 0.0048149237 0.00093763106
0001f0 e2 41 0d bc ca 64 69 bc 85 fc 94 3b ce b4 c1 3b
       -0.008621665 -0.014245221 0.0045467042 0.005911446
000200 d8 32 85 bc 2c 8b b2 bc f7 92 82 bc a7 0d 85 bb
       -0.016259596 -0.021794878 -0.015939219 -0.0040604654
000210 54 e4 8d 3c 94 9f 16 bc 9d ab 96 3c 09 75 0c bc
       0.01732079 -0.00919332 0.018392378 -0.008572825
000220 8d b8 e7 3c 2c ef 92 bb 7e b2 02 3c 0e ed 0e 3c
       0.028286243 -0.004484078 0.007977126 0.00872351
000230 14 cb db bb a9 65 d6 bc 36 12 55 bb b2 75 a2 3c
       -0.0067075584 -0.026171522 -0.0032512075 0.019831512
000240 19 ec d8 bc 9f 87 12 bc d6 08 4a 3b 8c 47 41 39
       -0.026479768 -0.008943467 0.003082802 0.00018432568
000250 b9 8c ac 3b da 86 77 3c 95 91 bc 3a 81 f6 1b 3b
       0.005265799 0.015107835 0.0014386649 0.002379805
000260 d7 9f c4 bb 2e 8f 29 bc 71 15 b3 3c c5 7f b8 3b
       -0.0060004997 -0.010349078 0.02186081 0.0056304657
000270 c6 c2 a1 bc 36 5b 1f bc f9 a0 52 3c 37 5d 8f bb
       -0.019746196 -0.009726336 0.012855762 -0.0043751257
000280 ae 59 93 bc 27 b8 86 bc 96 99 00 3c e2 67 9e bb
       -0.017987099 -0.016445233 0.007849118 -0.004834161
000290 db fd 9b bc a4 1e e2 bb 23 e9 04 bc 7e 43 76 bc
       -0.019041946 -0.0069006253 -0.008112225 -0.01503074
0002a0 94 ef 60 3c 50 02 e1 3b 18 2b a3 3c 3a 46 76 3b
       0.013728995 0.0068667307 0.01991801 0.003757848
0002b0 2d f2 67 3c 00 c0 4a 3c d1 ef ab ba 27 10 a0 bb
       0.01415686 0.012374878 -0.0013117736 -0.004884738
0002c0 4f 2f ec 3b de 26 20 3c 47 62 cf 3c a3 4c ea 3a
       0.007207788 0.009774892 0.025315417 0.0017875623
0002d0 18 c3 12 3c 7f 3b a6 bc d2 36 bd bc ed 0b d2 3b
       0.008957647 -0.020292042 -0.02309743 0.006410113
0002e0 f6 f1 24 bc 44 7e c2 b8 28 82 f0 3b df 78 5c 3c
       -0.010067454 -9.27416e-05 0.0073397346 0.013456552
0002f0 a7 69 04 bc 51 8d f1 3b 6e 88 53 bc 92 17 a6 bb
       -0.00808183 0.0073715826 -0.012910945 -0.005068728
000300 b3 48 b7 3c e4 07 fc bc be 0f 15 bc e5 aa ea bc
       0.022373533 -0.030765481 -0.0090979915 -0.028645942
000310 12 05 69 bc 63 de 9d 3b b0 35 36 bc b3 bf a0 bc
       -0.0142224 0.0048177703 -0.011121199 -0.01962266
000320 db d4 53 bb 94 ee 4c 3c 24 22 34 3c ce ff a9 3c
       -0.0032322917 0.012508053 0.010994468 0.02075186
000330 19 f1 01 3c d6 8f 21 bc e1 85 4e bb 76 b9 a0 3c
       0.007931017 -0.009860953 -0.0031512904 0.019619685
000340 15 7e a9 bc 7e e3 d5 bc 0f a6 06 bc 4c 68 f0 ba
       -0.020690003 -0.026109453 -0.008218302 -0.001834163
000350 3f 51 f2 b9 43 8b 0d bd bc cf e9 bb be 02 15 3c
       -0.0004621837 -0.03455664 -0.0071353596 0.009094892
000360 3d e3 b3 bc e5 1e 64 bb 98 aa dd 3a 6b 84 c5 bc
       -0.021958942 -0.0034808454 0.0016911803 -0.024110993
000370 a5 a0 af bc 15 f5 ec 3c 6c d5 ab 3c cc 13 05 3b
       -0.021438906 0.028925458 0.02097579 0.002030599
000380 4f 91 80 bb 87 ac 0f 3b 1f 6b aa 3c e7 95 1f bc
       -0.003923572 0.0021922903 0.020803032 -0.009740329
000390 d8 3b 9e 3c 7e a1 7a bc 0b 81 8c 3c 10 c5 71 bc
       0.019315645 -0.015297292 0.017151376 -0.014756456
0003a0 d2 74 b2 3b 7f 9b 15 bc 7a ad 59 3a d4 54 68 3b
       0.005446055 -0.009131311 0.0008303743 0.0035450952
0003b0 04 de 24 3c df 61 31 3c b0 87 5c 3b b7 87 f0 bc
       0.010062698 0.010826557 0.0033650212 -0.029361589
0003c0 dc 90 25 bb 31 bb 22 bc ad 2f 02 bc 26 71 05 bc
       -0.0025263345 -0.009932325 -0.007945937 -0.0081446525
0003d0 c0 05 04 3c 49 2b a2 ba 68 99 87 3b 9f 2f 18 3c
       0.0080580115 -0.0012372519 0.0041381605 0.0092886975
0003e0 e2 32 7f 3b 21 d2 80 3b 42 34 8b 3c 40 46 17 3c
       0.003894024 0.0039312993 0.016992692 0.0092330575
0003f0 10 85 6d bc 8a cc 76 3a cf ad 22 3b e2 44 4f 3c
       -0.014497057 0.0009414634 0.0024822836 0.0126507

network_body.linear_encoder.seq_layers.0.bias f4 [128]
000000 ef c6 8b 3b d1 85 14 bd 11 7b 82 39 ef d6 06 bc
       0.004265658 -0.03626043 0.00024887224 -0.008229955
000010 1c 71 06 bc 79 df b4 3c 8a 18 1e bc 71 68 9a 3b
       -0.008205678 0.022079216 -0.009649405 0.0047121574
000020 01 82 fc 3b 70 73 c7 3b f5 98 17 bc ae df 34 bb
       0.0077059274 0.0060867593 -0.009252776 -0.0027599144
000030 9a 64 ea 3b 51 66 80 bb b7 e0 6f 3c 54 05 3b 3b
       0.007153106 -0.003918447 0.014640979 0.0028537111
000040 de 4b 8b 3c 4d ce 23 3c 81 74 b2 3c b7 b0 24 bb
       0.01700395 0.009997916 0.021784069 -0.0025129744
000050 83 4d b3 3c 82 d5 ea bb d5 87 86 3c 8d 34 56 ba
       0.021887546 -0.0071665654 0.016422192 -0.0008171283
000060 ac 59 29 bc 45 11 90 3b 34 38 50 3c 14 ed 46 ba
       -0.010336321 0.00439659 0.012708712 -0.0007588428
000070 81 b0 76 bb c7 16 e4 3b fe 1e 76 3c 15 6e 89 3a
       -0.0037641826 0.006960723 0.015022038 0.0010485078
000080 6f 08 77 3c 7d 9c 73 bb 2e 77 a4 ba fd 9e c3 3a
       0.015077694 -0.0037172132 -0.0012547725 0.0014924702
000090 c7 5c da 3b 06 9d 8a ba da ce a4 bb 86 fb 68 bc
       0.006663892 -0.0010575361 -0.0050295414 -0.014220124
0000a0 1f 5f 48 3c cd 33 26 3c 63 03 1d 3b 2f f9 f5 bb
       0.01222971 0.010144186 0.0023958317 -0.0075065116
0000b0 9d 93 ae ba cd 5f 8c 3c b5 f3 5f 3c 7c 43 0c b9
       -0.0013319139 0.017135525 0.013668944 -0.0001337658
0000c0 0d da 10 3c 68 3d 17 3c 95 2b bd 3b 3b da 11 b8
       0.00884105 0.009230949 0.0057730176 -3.4773937e-05
0000d0 d2 ca 26 3b a3 cd b1 3b 30 5b a3 bb bb 34 ef bb
       0.002545048 0.005426125 -0.0049852356 -0.007299987
0000e0 f9 63 cd 3c 9a ec e6 bb f2 43 6b 3c 00 06 14 3c
       0.025072085 -0.007047248 0.014359461 0.009034634
0000f0 cb d6 6d bb 09 81 15 bc 44 f4 42 bb a5 2d a8 3c
       -0.0036291357 -0.009125003 -0.0029747644 0.020529578
000100 30 e0 45 bc c2 40 73 3c 2a b3 c0 bb b3 17 4c 3b
       -0.012077376 0.014846982 -0.005880733 0.0031142056
000110 e1 70 48 3c 5f e9 9c ba db 10 89 bb f2 62 46 bb
       0.012233944 -0.0011971405 -0.0041829175 -0.0030271378
000120 66 e2 10 3c 68 bb 6b 3c 15 5a 9a 3c 94 70 ff bc
       0.00884304 0.014387943 0.018841783 -0.031181611
000130 f4 48 1f ba b6 c0 80 3c 0b a4 35 3c 28 4b ef bb
       -0.00060762395 0.015716892 0.011086474 -0.0073026605
000140 4f 82 86 bb 99 df 04 bc ee 6d 53 3c ba 7e d6 3c
       -0.0041048895 -0.00810995 0.012904627 0.026183475
000150 97 e2 2a 3c 31 b8 de bb 93 fb fa 3b e3 2d 36 bc
       0.01043 -0.0067968597 0.0076593845 -0.011119339
000160 cc f6 2c 3b c5 eb 2d bb 04 a0 ef 3b d7 45 d3 bb
       0.002639222 -0.0026538235 0.0073127765 -0.0064475345
000170 f7 54 29 3d 20 5d ff 3b ee d9 c8 bb d9 42 32 38
       0.041340794 0.007793084 -0.006129495 4.2500764e-05
000180 aa bb 7b bb ae ab 95 3c f7 7b 96 ba bb 0e 91 3c
       -0.0038411417 0.01827034 -0.0011481036 0.01770722
000190 e5 75 c8 bc 15 7a 37 3c f4 24 5b 3c b5 52 d4 3a
       -0.024470279 0.01119854 0.0133755095 0.0016198965
0001a0 52 4e f5 3b 03 0a 6b 3a 3c 62 95 3a b8 51 f8 3b
       0.007486143 0.00089660304 0.0011397074 0.007578101
0001b0 3a 14 cc 3a 84 4e 3f 3c cf f9 3f 3c b1 76 99 bc
       0.0015569993 0.011676434 0.011717274 -0.018733354
0001c0 ff 31 3a bb 85 c1 07 bc 49 03 7c bc 94 f0 4c bc
       -0.0028411148 -0.008285885 -0.015381643 -0.01250853
0001d0 1d 90 75 bc a2 d9 76 bc f0 88 00 3a ff de e0 3a
       -0.014987973 -0.015066536 0.0004903218 0.0017156302
0001e0 12 9b a1 3a 4b c1 38 bb d5 5a 7f 3b c7 7d b4 39
       0.001232954 -0.0028191383 0.0038964052 0.00034425987
0001f0 a1 13 57 3c 3f 97 8c 3c 0e 4e 62 bb 5d d7 99 3a
       0.0131272385 0.017161964 -0.0034531388 0.0011737157

network_body.linear_encoder.seq_layers.0.weight f4 [128, 122]
000000 9e c7 17 3d 53 69 bb bd 68 20 56 bd 7d 89 ea bd
       0.037055604 -0.091509484 -0.052277 -0.11452005
000010 4b 35 b1 bc 22 d9 8e bb 98 09 ad 3d 77 3b 00 3e
       -0.021631857 -0.0043593803 0.084490955 0.12522684
000020 5b 00 bb 3d db 76 db 3d a6 8b 9f bc 43 6d ab bc
       0.09130927 0.10716029 -0.01947577 -0.020926123
000030 31 40 3a 3d 15 8d 05 be 3e 63 0e 3d 5f 47 f1 3c
       0.045471374 -0.130421 0.034762613 0.029452978
000040 ae e3 99 3d 87 53 8f 3d 5e dd 6c bc 81 b8 d2 3c
       0.075141296 0.069983535 -0.014457075 0.025722744
000050 34 a0 f3 3d be 37 7b 3d a9 7a 5a 3c 7a bb 38 3e
       0.11895791 0.061332457 0.0133349085 0.18040267
000060 7d 9d af bb 88 5b 9b bd 49 2d 44 3c 63 1d 73 3d
       -0.0053593502 -0.075858176 0.011973687 0.059354197
000070 65 af 62 bd 21 20 2a 3d 4f 20 1e bc 79 0a bf 3c
       -0.05534305 0.041534547 -0.009651258 0.023320423
000080 0b 3d 03 3e 81 2f f8 bd 2e 4c e7 3d 79 29 e1 3d
       0.12816255 -0.12118436 0.11293827 0.109942384
000090 9d 83 c9 3c 8a 69 c2 3d 8b 45 98 bc 84 a0 33 bc
       0.02459889 0.09492786 -0.018587848 -0.010963563
0000a0 be 24 6d bd df 87 7b bd 99 03 50 3e 55 2a e1 3d
       -0.05789637 -0.061408874 0.20313872 0.10994402
0000b0 df cd 56 3e ea 10 66 3c d3 f4 f7 3d ce 95 3b 3c
       0.20976971 0.014042119 0.121072434 0.01144929
0000c0 51 e9 85 3c 7c 39 a8 bd 3f 99 33 3c 2f ce 41 be
       0.016346605 -0.08214089 0.01096183 -0.18926309
0000d0 1b 35 1b bc 33 df e4 bd 37 f1 10 3e 17 02 3b be
       -0.009473111 -0.11175384 0.14154516 -0.18262516
0000e0 a4 47 05 3c 2d a9 5c bd 27 e3 1e 3b fd 2c 97 3d
       0.008134756 -0.053872276 0.002424428 0.07381628
0000f0 67 ed 01 3e 7c aa d3 bd 38 59 8d bc f2 ed ae bd
       0.12688218 -0.10335252 -0.017254457 -0.08541478
000100 e2 2d 25 bd 5a 55 91 3d a7 2c f0 3c 0e ab 13 3e
       -0.04032696 0.07096358 0.029318167 0.14420721
000110 c4 f6 63 3c 34 96 db bb b3 3e 99 bd 68 2a dd bd
       0.013913814 -0.006701255 -0.07482662 -0.10799104
000120 28 ee 34 bd 10 a2 cd bd fe 7a 81 3d db 30 d1 bc
       -0.044172436 -0.100406766 0.06322287 -0.025535991
000130 0b 55 e1 bd 09 a2 5e bd 90 1d c5 bd 18 80 88 3d
       -0.11002549 -0.054353748 -0.09624779 0.06665057
000140 54 fe 0c bd 57 34 01 3b 83 19 37 3e 3e 49 0b 3d
       -0.034422234 0.0019715035 0.17880826 0.034005396
000150 90 78 2a bd cf 9a 15 be 3e 72 bf 3c 82 ab e4 3c
       -0.041618884 -0.14609836 0.023369905 0.027913813
000160 e8 e9 07 bd a1 bb 8c bd bf 89 86 3d f1 30 59 bd
       -0.033182055 -0.06871725 0.06569242 -0.05302519
000170 62 dc 25 3e 8e 93 4b bd 63 1e 34 bc 03 76 91 bd
       0.1619735 -0.049701266 -0.010993573 -0.07102587
000180 c7 41 cf bc 6a 52 91 bd 98 23 de 3c 83 ef 9d bd
       -0.02529992 -0.07095797 0.027116582 -0.07711699
000190 c7 7a e1 3a b2 24 d4 3d d9 88 61 3d 37 f4 52 bd
       0.0017202728 0.103585616 0.05506215 -0.051502433
0001a0 9b 9b 4c be 45 03 87 3d a9 76 68 bd 9e 93 f3 3c
       -0.19981234 0.065924205 -0.05675379 0.029733475
0001b0 45 4e 04 3e 72 f6 1c 3e 30 f0 e0 3b 05 44 df 3d
       0.12920482 0.15328386 0.00686457 0.109016456
0001c0 38 27 c5 bc d3 3b d0 3d 1c 78 1b be f0 38 58 3e
       -0.024066553 0.101676606 -0.15182537 0.2111547
0001d0 6f 40 8a bd 8c 8f 61 bd 60 41 df bd 1b 65 80 3d
       -0.06750571 -0.055068538 -0.10901141 0.06269284
0001e0 f3 32 05 3d f0 66 4d bd d2 7d 58 3c 7d 6e 9f bb
       0.032519292 -0.050146997 0.013213592 -0.004865466
0001f0 be 0a 7a 3d f1 c5 c2 3d b5 ce 52 bc 81 cf fa 3d
       0.0610454 0.095104106 -0.012866666 0.122466095
000200 31 b5 3d 3d c7 d0 25 bd e1 90 8b 3b cc 06 d3 bb
       0.046315376 -0.04048231 0.0042592143 -0.0064400192
000210 17 43 33 be 7c 45 5f bd 58 15 e7 3c da 6a 0e be
       -0.17506061 -0.054509625 0.02820842 -0.13907948
000220 1e e4 c8 bc ae 38 67 3d 06 f8 62 3e 56 61 65 3d
       -0.024522837 0.05645054 0.22164926 0.05600103
000230 70 b7 58 3d 4a c0 04 be f5 7c db 3d 59 01 43 3d
       0.052909315 -0.12963977 0.10717193 0.047608707
000240 e7 c3 86 bd 9d 3d df bd 6c 81 ea 3d 3f f0 82 3d
       -0.06580334 -0.10900424 0.114504665 0.063934796
000250 4c 41 22 3e 7b ed 8f bd cd b1 11 be 63 cf 72 3d
       0.15845221 -0.07027718 -0.14227982 0.05927981
000260 61 9a f2 bd af da ad bd 3c d5 02 be a3 47 63 be
       -0.11845852 -0.08488976 -0.12776655 -0.22195296
000270 dc 4a cd bc 1b 41 cb bd 2b 56 53 bd 0a 5a c7 bd
       -0.02506011 -0.09924527 -0.051595848 -0.097339705
000280 06 bd 32 3d 08 9f 1e be d1 9f 1f 3e 88 87 1f be
       0.043637298 -0.15490353 0.15588309 -0.15579045
000290 0f ae 8e be e7 ad a3 3c 78 9e 73 bd 4d 7f 0a 3d
       -0.2786717 0.019980384 -0.0594773 0.03381281
0002a0 54 4f 1f 3e 23 a2 a5 3d 1b da bd bd 8b 97 15 be
       0.15557605 0.08087566 -0.09270116 -0.1460859
0002b0 d9 e8 6a be 53 cd b6 bd b8 63 f4 3b de f9 23 bc
       -0.22940387 -0.08925881 0.0074581765 -0.010008303
0002c0 98 47 af bd 3f 2c 08 3e ff ec 3d 3b 57 5d e2 3d
       -0.08558577 0.13298129 0.0028980372 0.110529594
0002d0 9d 53 8c 3b 5a 92 87 bd 73 d1 94 bd 79 c6 bb 3d
       0.0042824284 -0.06619711 -0.07266512 0.09168715
0002e0 71 0e e4 3d 8e b2 85 3c 25 ac ec bd d2 90 ae 3d
       0.11135567 0.016320493 -0.115562715 0.08523716
0002f0 7e 07 f9 bd a3 b7 3a bc 9a f3 9a 3b ee 00 13 be
       -0.12159632 -0.0113963215 0.0047287466 -0.14355823
000300 70 af e8 bb 50 de 65 3c 63 03 bd bd f8 a3 e0 bc
       -0.007100992 0.014030054 -0.092291616 -0.027421936
000310 64 e8 0a be 75 78 b2 bb d9 b5 87 bd f9 52 91 3c
       -0.13565212 -0.0054464885 -0.066264816 0.01773976
000320 f0 6b c4 3d 05 ff 68 3d 3c a6 2e 3d 49 b5 ee bd
       0.095909 0.05688383 0.042639002 -0.11655671
000330 44 b0 60 be 65 01 89 bc 94 56 6d 3c 7b 43 61 bd
       -0.2194224 -0.016724298 0.014485974 -0.054995995
000340 14 1b 9f 3d d8 ba 96 bd a4 57 9f 3c 49 5d b8 bd
       0.077688366 -0.07359856 0.01945097 -0.09002168
000350 c9 9c 21 3d 17 81 16 3d 40 a9 dc bc 76 d8 4a bc
       0.039456163 0.036744203 -0.026936173 -0.01238071
000360 1c ba 36 3e 6c 8a 46 bc ab 80 63 3d 8a 4e cf bd
       0.17844433 -0.012117963 0.05554263 -0.10122402
000370 ef 54 01 be e8 6f ff bd 95 e3 af bd e7 89 db 3d
       -0.12630056 -0.12472516 -0.0858833 0.10719662
000380 ba 8d 10 be a9 98 a7 3b 9f d4 7e bd e2 36 e2 bc
       -0.14116564 0.005114634 -0.06221449 -0.02761406
000390 be 5e 26 3e 2a 7d b2 3d 4a 50 f7 bd 88 ea 7d bc
       0.16247079 0.087152794 -0.12075861 -0.015497811
0003a0 26 35 54 bd ee 42 14 3e 36 e6 32 3e 54 5b 93 3d
       -0.0518085 0.14478657 0.17470631 0.07195154
0003b0 27 0a 16 be 46 6f 4c bb 80 2c c1 bd 71 b5 84 bd
       -0.1465231 -0.0031194254 -0.09432316 -0.0647992
0003c0 53 3d 00 3d 4e cc d4 3c 73 c1 40 3d 6e 6a d5 bd
       0.031308483 0.025976326 0.047059488 -0.104206905
0003d0 3d e5 a1 3d 93 d0 89 bc 16 48 31 3d 6b 30 08 3e
       0.07905052 -0.016823089 0.043281637 0.1329972
0003e0 d3 1a a6 bd 2e bf 07 3e 79 fb 9d bd 8a 77 cd 3c
       -0.08110585 0.13256523 -0.0771398 0.025081415
0003f0 59 33 89 bd e8 5d 02 3e cd 8e 18 bd 42 bd 1e bd
       -0.06699247 0.12731135 -0.03724556 -0.03875471

network_body.linear_encoder.seq_layers.2.bias f4 [128]
000000 ee 27 22 3c 70 eb 7e 3b 2e 13 b5 3b 74 e0 5b 3b
       0.009897215 0.0038897656 0.005525968 0.0033550533
000010 88 77 f3 37 05 0f 2b 3b c9 6f c1 3c 99 1b 4a 3c
       2.9023518e-05 0.0026101482 0.023612874 0.012335681
000020 5a 04 e8 3b 8b 38 0c 3c 2e 3b 21 3c 7c 15 6b ba
       0.007080597 0.008558403 0.00984077 -0.000896774
000030 02 c2 c4 3b 92 04 3f bb 13 1f c5 bb 65 27 c3 bb
       0.006004573 -0.0029147011 -0.006015667 -0.005955624
000040 ee 2a 16 38 86 e2 b0 bb 5d b6 d0 3b c3 e4 33 bc
       3.580277e-05 -0.0053980974 0.0063693956 -0.010979834
000050 76 8d 84 3c 5e 8f eb 3b 86 c9 66 bb 01 86 f1 ba
       0.016180735 0.0071887216 -0.0035215332 -0.0018426777
000060 b0 9a 43 3c 3d e2 9a 3b a6 5b 47 3c 86 c5 4a 3b
       0.011938736 0.0047266767 0.012167847 0.0030940487
000070 2b aa 3a 3b 0b 01 89 3c 27 a5 3e bc 65 36 e5 3b
       0.0028482776 0.01672413 -0.011636055 0.0069950097
000080 40 35 9a 3b cd e1 6f 3c 10 fe a9 bb ef 85 72 3b
       0.004706055 0.014641237 -0.0051877573 0.00370061
000090 01 a1 24 bc f4 5c 00 bc e0 cf ea bb 11 36 82 3b
       -0.010048152 -0.007834662 -0.007165894 0.0039737304
0000a0 71 5f df ba ab 8e e2 3b a9 43 8f 3b 5e dd 01 bc
       -0.0017041994 0.00691398 0.0043720794 -0.007926313
0000b0 81 ef 15 3c e5 8a b2 bb bc f3 e9 3a e4 d4 cf 3c
       0.00915134 -0.0054486864 0.0017849128 0.025370069
0000c0 f6 26 62 3b 82 a1 28 3b f6 b8 06 bb 19 27 68 bb
       0.0034508086 0.0025731032 -0.0020557023 -0.0035423695
0000d0 e5 d8 3b 39 05 3c 95 3c ea e8 c1 3b 1d 6d c4 bb
       0.00017914509 0.018217096 0.005917658 -0.0059944526
0000e0 d5 e0 14 b7 89 43 94 3b ef 71 94 3c 9e fc 5e 3c
       -8.873835e-06 0.0045246524 0.018120734 0.013610033
0000f0 8d 2b a8 bc d9 27 2d bb 21 27 ba 3b 71 a3 01 3a
       -0.02052858 -0.0026421456 0.005680934 0.0004945314
000100 03 ab b4 bb a1 d5 86 3c 9c 63 8f 3c 64 b6 5b bc
       -0.0055135502 0.016459288 0.017503552 -0.0134101845
000110 3d 3e 30 3c 5c cf 4c bb 27 d4 07 bc 19 62 c9 3c
       0.010757026 -0.0031251526 -0.008290327 0.02458291
000120 b3 37 23 3c 0b 2f 16 3c 93 7b da 3b 04 0e b5 ba
       0.00996201 0.009166489 0.006667563 -0.0013813381
000130 92 cc 79 3c 20 99 5c b9 8e 93 0f 3c d4 07 8d 3b
       0.015246527 -0.00021037878 0.008763207 0.0043039117
000140 0d 90 df 3a 0f 7e b8 bb 2a 67 5a ba 1c 46 7f bb
       0.001705648 -0.0056302617 -0.00083314127 -0.00389517
000150 e6 b5 3a 3b ef 1a 2d bc 88 54 51 bb 1e 77 93 bc
       0.0028489768 -0.0105655035 -0.0031941254 -0.018001135
000160 88 fb 18 bb fc 31 8d 3c 0a 9b 97 ba 13 b2 44 3b
       -0.0023343284 0.017235748 -0.0011566591 0.0030013367
000170 83 0b 02 3a a3 7a 8e 3a 30 9b 38 3c 40 18 70 3c
       0.0004960822 0.0010870289 0.011267468 0.014654219
000180 d6 66 ec 3b 7c d0 fe bb f8 bd 9d 3b 4f a0 40 3c
       0.0072144074 -0.007776318 0.004813906 0.011756971
000190 da 73 65 3b 36 b1 90 3c 35 07 eb 3b c4 48 15 bb
       0.003501168 0.017662626 0.00717249 -0.0022778967
0001a0 81 25 60 3a 2a 65 90 bb cc f4 a0 bb 55 71 9a bb
       0.00085505104 -0.004406591 -0.0049119946 -0.0047132173
0001b0 4c db dd 3a 0c 5f cc 3b b7 cb 2f bb b5 b8 8f 3a
       0.0016926317 0.0062369164 -0.0026824304 0.0010965081
0001c0 00 65 32 bc 00 2f c4 3b 84 81 53 3b 92 44 68 3b
       -0.010888338 0.005987048 0.0032273242 0.0035441262
0001d0 86 7b cb 3b e9 3a 10 3c b9 0c 6f 3b c5 4f 22 3c
       0.0062097935 0.008803108 0.003647609 0.009906714
0001e0 dc 12 b0 3c 68 57 74 3b 87 f9 01 3a fb 98 9b 3b
       0.021493368 0.0037283543 0.0004958142 0.0047484613
0001f0 a3 32 8f bb 4f 55 6e 38 cb 48 04 3c 4f aa 12 3c
       -0.00437005 5.682307e-05 0.008073996 0.008951738
