Project/results/VPlayer-Wist/VPlayer/VPlayer-499987.onnx (onnx, 681794 bytes, 15 tensors)

action_model._continuous_distribution.mu.weight f4 [1, 216]
0.0019319025 -0.012808927 -0.00085168413 -0.037676677 0.014612081 -0.0043090614 -0.014834862 -0.018270085
-0.00016702538 0.0038475457 -0.002112053 0.030608786 -0.0075579444 -0.002551214 0.0058235927 -0.0143514415
0.001252491 -0.0309756 -0.015004938 0.017264318 -0.013057529 -0.00090212806 -0.01848884 -0.026266983
0.011724741 -0.010551565 0.0011965068 0.0041783196 -0.010933577 -0.01041813 -0.0041983235 -0.010094137
-0.026944308 -0.031950384 -0.0028643403 0.0005481167 -0.0064361333 0.0130921565 0.0029909327 0.021332335
0.013863965 0.0031006038 0.0042938623 -0.008152846 0.014193887 0.019554691 0.022648852 -0.0029295604
0.03175837 -0.027693309 0.0012160098 -0.0057072523 -0.0054760706 -0.006845452 -0.006873087 0.0033019274
0.006310368 0.011691794 -0.007737322 -0.029001713 -0.029280253 -0.0006583178 0.0058504674 -0.018720053
0.042749878 0.008697452 0.01228279 -0.009517197 -0.017811958 -0.004324913 -0.014147023 -0.0022333667
-0.01160873 -0.010505481 -0.0020559023 -0.0081071835 0.0080621 -0.030576568 0.01758274 0.007830044
-0.0042870864 0.025665887 -0.010273489 0.0074488847 0.007063693 -0.007909543 -0.022020806 0.008340356
-0.022606941 -0.017153298 0.015422401 0.0040076384 0.018226633 -0.031184988 -0.022323236 -0.002341422
-0.017598337 0.005193777 0.02198226 0.014037008 0.015077927 0.010662282 -0.0022581404 -0.0047222194
-0.010074186 -0.013103387 -0.014487658 0.0028565344 -0.008679058 0.004479409 0.0021025122 -0.0012674428
-0.018412756 0.02436084 0.033499576 -0.010407256 0.005550733 -0.021773895 -0.004344044 -0.009732267
-0.026485441 -0.0041656536 0.00046188958 -0.011979146 -0.026846508 -0.01947978 -0.0028876949 -0.0065581007
0.038912818 -0.010333425 -0.01464139 0.014724466 0.0037161435 0.013787666 -0.0019427858 -0.0086507965
0.0032558835 0.0024282567 -0.00011697868 -0.008786761 -0.018293744 -0.02173584 0.022330027 0.006180075
0.011862972 -0.01260889 -0.023786765 -0.0058484026 0.0006795035 -0.026076537 -0.03610421 -0.02227392
0.007689346 -0.0023816472 0.0008326921 0.0030951397 0.0064051896 0.012601005 0.008263842 -0.0076431297
-0.020921245 -0.013719113 0.014814201 -0.0094613265 -0.006737575 0.024783263 -0.00871596 -0.022072498
0.03315303 0.00071488455 0.0061918246 -0.030088518 -0.019130733 -0.0018433311 0.014878634 0.030524034
0.017863844 -0.0038873912 -0.014100965 -0.00041829562 -0.019883115 0.007225707 0.0032704868 -0.011218608
0.019876469 -0.0030568084 -0.0347274 -0.017106494 -0.005383807 -0.058602173 0.0037507915 0.005249999
-0.019587833 -0.013368594 -0.033624038 -0.012275398 0.023627667 -0.0040296293 0.02246931 -0.009042493
0.011010625 0.055805102 -0.008574328 0.009897154 -0.0034936725 -0.039666634 0.020534001 -0.028746136
-0.02679261 -0.0076538427 0.0037353993 0.01897466 -0.0073580695 -0.008338938 -0.01774879 -0.018676803
00000000: e437 fd3a 89dc 51bc 8e43 5fba dc52 1abd
00000010: 8367 6f3c 0733 8dbb ec0d 73bc 25ab 95bc
00000020: 8923 2fb9 1b27 7c3b 5f6a 0abb 47bf fa3c
00000030: a2a8 f7bb 4532 27bb d6d3 be3b 4f22 6bbc
00000040: a02a a43a 8bc0 fdbc 45d7 75bc e66d 8d3c
00000050: 3fef 55bc ca7c 6cba e875 97bc db2d d7bc
00000060: 2119 403c 79e0 2cbc 1bd4 9c3a 49ea 883b
00000070: bf22 33bc ceb0 2abc 1792 89bb e161 25bc
00000080: 4fba dcbc 68de 02bd a8b7 3bbb 7daf 0f3a
00000090: 33e6 d2bb 7c80 563c 8603 443b 26c1 ae3c
000000a0: af25 633c 8033 4b3b 87b3 8c3b 8493 05bc
000000b0: 7a8d 683c 2931 a03c 168a b93c defd 3fbb
000000c0: 1115 023d 14dd e2bc 8562 9f3a e703 bbbb
000000d0: 9c70 b3bb d04f e0bb a237 e1bb 2665 583b
000000e0: 34c7 ce3b f08e 3f3c 5c89 fdbb 0095 edbc
000000f0: 24dd efbc f692 2cba 47b5 bf3b cc5a 99bc
00000100: 7f1a 2f3d c27f 0e3c c13d 493c 04ee 1bbc
00000110: 62ea 91bc 00b8 8dbb eac8 67bc ad5d 12bb
00000120: 8b32 3ebc 2e1f 2cbc 51bc 06bb fed3 04bc
00000130: e616 043c b67b fabc ae09 903c 9649 003c
00000140: b07a 8cbb 4441 d23c 2352 28bc c615 f43b
00000150: 8d76 e73b 0797 01bc fa64 b4bc fda5 083c
00000160: 3132 b9bc 1385 8cbc 3dae 7c3c 8252 833b
00000170: 0550 953c a977 ffbc 38df b6bc 8b72 19bb
00000180: 632a 90bc 8f30 aa3b 2414 b43c 7bfb 653c
00000190: 6909 773c dab0 2e3c 4ffd 13bb d9bc 9abb
000001a0: 330e 25bc 97af 56bc a45d 6dbc b234 3b3b
000001b0: 9c32 0ebc 02c8 923b 4dca 093b 5320 a6ba
000001c0: 59d6 96bc 6290 c73c da36 093d 3283 2abc
000001d0: ece2 b53b 2b5f b2bc 7b58 8ebb 1674 1fbc
000001e0: fff7 d8bc 0980 88bb c529 f239 2e44 44bc
000001f0: 35ed dbbc 0f94 9fbc 7b3f 3dbb 56e5 d6bb
00000200: 0c63 1f3d 874d 29bc 71e2 6fbc e33e 713c
00000210: 8b8a 733b aae5 613c 13a5 feba 12bc 0dbc
00000220: a960 553b 6323 1f3b 7352 f5b8 59f6 0fbc
00000230: c3dc 95bc 5c0f b2bc 76ed b63c 3a82 ca3b
00000240: e95c 423c 8595 4ebc 76dc c2bc f5a3 bfbb
00000250: b520 323a 769e d5bc 02e2 13bd cc77 b6bc
00000260: e9f6 fb3b 6915 1cbb 0549 5a3a d4d7 4a3b
00000270: a0e2 d13b 7274 4e3c 1165 073c 3873 fabb
00000280: 0863 abbc 21c6 60bc 43b7 723c ae03 1bbc
00000290: e0c6 dcbb 4506 cb3c 63cd 0ebc 62d1 b4bc
000002a0: 79cb 073d 1767 3b3a cae4 ca3b 327c f6bc
000002b0: 0eb8 9cbc ee9b f1ba 84c5 733c 8a0d fa3c
000002c0: 3257 923c 9ac3 7ebb bc07 67bc b04e dbb9
000002d0: eae1 a2bc a0c5 ec3b aa55 563b 41ce 37bc
000002e0: fad3 a23c bc54 48bb 513e 0ebd eb22 8cbc
000002f0: a56a b0bb d508 70bd d7cf 753b 2f08 ac3b
00000300: aa76 a0bc f307 5bbc 5cb9 09bd c01e 49bc
00000310: cf8e c13c fb0a 84bb 8f11 b83c f726 14bc
00000320: e965 343c e493 643d 577b 0cbc ac27 223c
00000330: 19f6 64bb 7b79 22bd ec36 a83c 047d ebbc
00000340: 2d7c dbbc 16cd fabb 9acd 743b bf70 9b3c
00000350: f61b f1bb 0aa0 08bc e965 91bc 1800 99bc

action_model._discrete_distribution.branches.0.bias f4 [3]
0.007186137 -0.029174808 0.01910742
00000000: b079 eb3b 0200 efbc 2a87 9c3c

action_model._discrete_distribution.branches.0.weight f4 [3, 216]
0.008260002 -0.060580626 -0.02666539 0.01277688 0.009022202 -0.03193632 -0.007283288 -0.0043340526
-9.839993e-05 0.01301919 -0.029920656 -0.0053822407 -0.03844767 0.016497914 -0.019597612 -0.024378078
-0.007826011 -0.0005864642 -0.03892079 -0.02307566 -0.009061989 -0.032704774 0.026255673 -0.011002457
0.043836802 -0.011266336 -0.00054798165 -0.039979782 -0.0058699995 -0.020092491 -0.0037826353 0.021609008
-0.015269984 0.04279799 0.0026517785 -0.0026639618 -0.010246495 -0.008227642 0.024149276 0.004774378
-0.037446734 -0.010559765 -0.014758802 0.022798901 0.00061420834 0.000991133 -0.0036131956 0.005798933
-0.00054594333 0.023043113 0.017674671 -0.019336302 0.0124646835 -0.003849698 0.00615074 0.028105851
-0.0038544724 0.0011083785 -0.0024446466 0.007339071 -0.02536892 -0.018444251 -0.007956517 -0.010825133
-0.042785797 -0.038298745 -0.033151187 0.008816602 0.004847628 0.0139576895 -0.042352516 0.010630017
0.018431002 -0.018100018 -0.035385944 -0.021292517 -0.03100522 -0.014892511 -0.011235158 -0.023571897
-0.012882333 -0.0062022945 0.023953082 0.0036541773 -0.045605686 -0.0022869897 0.0112914955 0.00079126516
-0.0024135294 -0.024206938 0.029345265 -0.07144235 -0.005876387 0.015417636 0.030778816 0.0019159971
-0.020760052 -0.018104888 0.014729466 -0.011851295 0.004965759 0.023062542 0.021722043 0.030808209
-0.025749624 -0.013680153 -7.386503e-05 0.023210282 0.0021590083 -0.0056490707 -0.028749252 -0.0375255
0.0017334778 0.00042034782 -0.010334208 0.028284637 -0.009539757 0.00795247 0.00351967 0.012169962
-0.04095152 0.0071617714 -0.0047121653 0.016228002 0.0014580063 -0.032541826 -0.006152037 0.026928514
0.004474372 -0.008928506 -0.03680705 0.037422314 0.03157032 0.004296466 0.0132098915 -0.033481553
-0.027235897 0.016703907 -0.031985223 -0.016174356 -0.0055863257 -0.0026248952 -0.05768223 0.042707015
-0.005690917 0.025981786 -0.0097560175 -0.042712495 -0.015344625 -0.038995214 -0.009585321 -0.0427212
0.015630301 -0.026138619 -0.04465575 -0.030903587 0.033317827 0.0045603043 0.011053332 0.046467464
-0.003519744 0.020522501 -0.021810867 0.026532749 -0.032640375 -0.018111978 0.0032505912 -0.032298546
-0.05034229 0.02848833 -0.019328434 0.021442313 -0.0034249343 0.008592655 -0.009470581 0.020060465
-0.011592285 -0.05033796 -0.030767834 -0.028815635 -0.0077560702 0.02062539 0.0013291935 0.044719532
0.012520332 0.010171 0.020805078 0.0107111065 0.03965173 -0.031424373 0.02161712 0.055667225
-0.03647933 0.018231198 0.009928328 0.0056722607 -0.046183117 -0.05290494 -0.01402096 -0.014631898
-0.010357739 -0.010843358 -0.019682545 0.025658878 0.0073542926 -0.0038783874 0.0102502955 -0.048673876
0.042228628 -0.03759567 -0.025031172 -0.019939592 -0.056669574 0.0009308282 -0.013122601 0.0032251368
0.009113442 0.042270657 -0.04181881 -0.02585278 0.008239913 0.06387571 -0.00151347 -0.014126566
0.020256858 0.0015843651 0.0014897257 -0.008735026 0.019457174 -0.0007772577 0.011613542 0.016074123
-0.014524661 -0.045496285 0.009497508 0.02567403 -0.034141883 0.055588514 0.0307022 -0.010005438
-0.045789063 -0.0099375835 0.04454658 0.06277789 -0.024134241 0.006711055 0.019534769 0.015099243
0.015770683 0.0040024286 5.533631e-05 0.038117446 -0.04510851 -0.0033992871 0.009155612 -0.016045976
00000000: f654 073c 6423 78bd 6071 dabc 1e56 513c
00000010: dcd1 133c a9cf 02bd a6a8 eebb ab04 8ebb
00000020: 0f5c ceb8 714e 553c 2a1c f5bc 825d b0bb
00000030: 4e7b 1dbd a226 873c 2c8b a0bc 89b4 c7bc
00000040: ab38 00bc f2bc 19ba 686b 1fbd 2b09 bdbc
00000050: bd78 14bc 71f5 05bd 2316 d73c a643 34bc
00000060: 388e 333d 7096 38bc 6da6 0fba d7c1 23bd
00000070: 2059 c0bb 0299 a4bc 17e6 77bb 6005 b13c
00000080: f42e 7abc f24c 2f3d 76c9 2d3b dd95 2ebb
00000090: eae0 27bc 3bcd 06bc b4d4 c53c 6372 9c3b
000000a0: bf61 19bd dd02 2dbc e7ce 71bc c3c4 ba3c
000000b0: d302 213a e8e8 813a 5dcb 6cbb fa04 be3b
000000c0: a31d 0fba e9c4 bc3c 79ca 903c 2a67 9ebc
000000d0: ac38 4c3c 374b 7cbb 268c c93b 3e3e e63c
000000e0: 519b 7cbb 0347 913a 5d36 20bb 977c f03b
000000f0: 7bd2 cfbc 6618 97bc 0d5c 02bc e65b 31bc
00000100: 2940 2fbd 25df 1cbd 8ac9 07bd 8273 103c
00000110: dad8 9e3b cbae 643c d579 2dbd 8629 2e3c
00000120: 9dfc 963c 7d46 94bc daf0 10bd a56d aebc
00000130: a9fe fdbc b8ff 73bc ab13 38bc da19 c1bc
00000140: 6c10 53bc 9e3c cbbb 4139 c43c ec7a 6f3b
00000150: 07cd 3abd 52e1 15bb f7ff 383c e86c 4f3a
00000160: 4e2c 1ebb a14d c6bc 7b65 f03c 5e50 92bd
00000170: b58e c0bb 419a 7c3c db23 fc3c 3222 fb3a
00000180: fc10 aabc b450 94bc dc53 713c ef2b 42bc
00000190: ceb7 a23b a8ed bc3c 6df2 b13c 7f61 fc3c
000001a0: e0f0 d2bc b822 60bc fce7 9ab8 7d23 be3c
000001b0: 267e 0d3b d71b b9bb 8d83 ebbc 57b4 19bd
000001c0: dd35 e33a 2162 dc39 cf50 29bc 2fb5 e73c
000001d0: a44c 1cbc 144b 023c 44aa 663b 8564 473c
000001e0: c8bc 27bd 4bad ea3b 8268 9abb 96f0 843c
000001f0: 931a bf3a 944a 05bd 0797 c9bb 3099 dc3c
00000200: c19d 923b de48 12bc fdc2 16bd 2448 193d
00000210: e14f 013d 5ec9 8c3b 4d6e 583c f423 09bd
00000220: d11d dfbc a2d6 883c f002 03bd 1580 84bc
00000230: 7f0d b7bb 6f06 2cbb 3444 6cbd 8ded 2e3d
00000240: df7a babb c1d7 d43c b4d7 1fbc 4cf3 2ebd
00000250: 0668 7bbc 72b9 1fbd c00b 1dbc 6dfc 2ebd
00000260: 1e0b 803c a820 d6bc f3e8 36bd 8529 fdbc
00000270: 4678 083d 9b6e 953b 0919 353c ab54 3e3d
00000280: 81ab 66bb ce1e a83c b4ac b2bc 355b d93c
00000290: eab1 05bd 925f 94bc df07 553b 7b4b 04bd
000002a0: b833 4ebd 5c60 e93c aa56 9ebc caa7 af3c
000002b0: dd74 60bb 35c8 0c3c 7f2a 1bbc d855 a43c
000002c0: 91ed 3dbc 2d2f 4ebd d30c fcbc c40e ecbc
000002d0: a226 febb 94f6 a83c 5538 ae3a d42b 373d
000002e0: 1422 4d3c 44a4 263c 696f aa3c a37d 2f3c
000002f0: da69 223d d8b6 00bd 6316 b13c 5103 643d
00000300: 5a6b 15bd 9859 953c 6daa 223c 5fde b93b
00000310: 822a 3dbd dab2 58bd 2bb8 65bc a1ba 6fbc
00000320: 82b3 29bc 57a8 31bc 4a3d a1bc 9132 d23c
00000330: 47fc f03b 8b2c 7ebb dbf0 273c 425e 47bd
00000340: edf7 2c3d ebfd 19bd 2c0e cdbc 5b58 a3bc
00000350: 5b1e 68bd d302 743a 2e00 57bc d15c 533b
00000360: 8c50 153c ff23 2d3d 334a 2bbd 36c9 d3bc
00000370: b300 073c 45d1 823d a05f c6ba 1d73 67bc
00000380: b6f1 a53c 79aa cf3a e642 c33a 5b1d 0fbc
00000390: a764 9f3c e2c0 4bba ba46 3e3c e1ad 833c
000003a0: d8f8 6dbc 505a 3abd 709b 1b3c 5852 d23c
000003b0: 5cd8 0bbd c8b0 633d 2e83 fb3c d9ed 23bc
000003c0: 508d 3bbd 3fd1 22bc 7a76 363d b291 803d
000003d0: 2cb5 c5bc 69e8 db3b 6107 a03c d162 773c
000003e0: 8531 813c ce26 833b e918 6838 0a21 1c3d
000003f0: b3c3 38bd 93c6 5ebb 6c01 163c da72 83bc

action_model._discrete_distribution.branches.1.bias f4 [3]
-0.013269271 0.014742249 -0.00041933873
00000000: 5b67 59bc 7989 713c b1da dbb9

action_model._discrete_distribution.branches.1.weight f4 [3, 216]
-0.0027305575 0.018689517 0.0027932385 0.02692977 -0.0089257965 0.035554014 0.03289203 0.018891355
-0.052009404 0.018598642 -0.009010413 0.006361822 0.0037897425 -0.008754413 0.0039449655 -0.0026098548
-0.00675042 0.025003608 0.024516707 0.009303622 0.015428232 0.032905076 -0.030623054 -0.0050598015
0.011673552 0.01995835 0.02063559 -0.001261408 0.030004343 -0.013056435 0.014724283 0.018524108
0.0034147473 0.0429806 -0.016525708 -0.018898569 -0.002824173 -0.009103176 0.002077401 -0.007985947
0.04236695 -0.0062978184 0.03963083 0.020318987 0.05102892 0.028108966 -0.0072968015 0.009884617
-0.013685736 0.047774486 0.007922145 0.008376158 -0.0027842873 0.032351725 -0.03456781 0.028797846
0.007106491 0.0030120518 -0.03721749 0.015049273 0.008861963 0.03424458 0.0077885557 0.009530662
0.046307728 0.05072804 0.02015688 0.063828096 0.034833 0.003698281 -0.017225338 -0.05182207
0.016038373 0.023286741 0.004995025 0.0017948868 0.04029916 0.0008729347 0.014029741 -0.004546436
-0.021433081 0.02770749 0.004302116 -0.011987953 0.005826125 -0.06899641 0.00372736 -0.00968633
-0.004048369 0.011631142 0.015298629 0.066909865 0.03067611 -0.017175177 -0.0012991495 -0.033640977
0.042253993 0.008151575 0.019661523 -0.016247358 0.009169857 -0.056607388 -0.017949762 0.0041011823
-0.0011202209 -0.0047541023 0.021278208 0.0043913797 0.0009140647 0.001497203 -0.015408633 -0.011658869
0.04802541 0.021819679 0.01495599 -0.023411892 -0.00540222 0.021179818 -0.0036490865 0.0446976
-0.005453612 0.003802925 0.02832327 -0.00045484988 -0.02157375 -0.0015692486 -0.036097467 -0.003958409
-0.0793609 0.05452767 -0.0028683904 0.0259525 -0.025109632 0.020375235 0.008941335 -0.016451813
0.004118774 0.0316021 -0.006866701 0.018944953 -0.010881683 -0.018037548 0.04277503 0.033991907
-0.031631812 0.045319635 0.061095204 -0.006151688 -0.022313206 0.018254383 -0.0024161614 -0.031606905
-0.0013216975 0.030518645 -0.02357444 -0.004574839 0.0083665885 0.02314896 -0.016659496 0.03246123
-0.030402882 0.004550233 0.0183064 0.037059356 0.044481847 0.019152295 -0.015582783 -0.004619266
0.04639664 -0.006867015 0.02840077 -0.0023206484 0.00038029623 -0.029554982 0.042186283 0.023484608
-0.0071342387 -0.008022656 0.024659904 -0.009857582 -0.016649367 0.0062827235 -0.024740243 -0.0017647974
-0.023210471 -0.0025105446 -0.008915056 0.05112454 0.008190826 0.027340354 0.03554095 0.050393697
-0.002160173 0.022663007 0.0012397711 -0.022071892 0.024866378 -0.010576254 -0.02955312 -0.016475648
0.010427956 0.0023497855 -0.031792603 0.0073916684 -0.051031265 -0.008933717 -0.022997092 0.030026913
0.038900115 -0.016978364 0.016208332 -0.033592153 0.00039063682 -0.037291083 -0.011173624 -0.019642437
-0.0134729585 0.0066181147 -0.017662091 -0.053081345 0.0055112974 -0.027269153 0.019605879 0.010470022
0.025759107 -0.015573878 -0.0035920688 0.0016042341 0.012971529 -0.003275107 -0.005990278 -0.046638142
0.011182116 0.027748955 0.0057673757 -0.0013788276 0.0007664477 -0.04754456 0.05851132 0.01363271
-0.04041127 -0.04184599 -0.04061699 -0.016613057 0.009893621 0.023539772 -0.017891027 0.019006286
0.028461471 -0.0579535 -0.009284862 0.028716182 -0.011608023 -0.003780143 -0.035172235 -0.0046792002
00000000: 27f3 32bb c21a 993c c40e 373b d29b dc3c
00000010: 813d 12bc 16a1 113d cbb9 063d 0bc2 9a3c
00000020: d007 55bd 2e5c 983c 69a0 13bc d576 d03b
00000030: 545d 783b ab6e 0fbc c544 813b 190a 2bbb
00000040: a132 ddbb 5ed4 cc3c 43d7 c83c 386e 183c
00000050: b2c6 7c3c 79c7 063d 33dd fabc b1cc a5bb
00000060: 6d42 3f3c b27f a33c f80b a93c d455 a5ba
00000070: abcb f53c a8ea 55bc 1e3e 713c dfbf 973c
00000080: f4c9 5f3b 6d0c 303d ec60 87bc 2cd1 9abc
00000090: c315 39bb 7d25 15bc 0125 083b 7dd7 02bc
000000a0: f888 2d3d ee5d cebb f053 223d 0174 a63c
000000b0: b303 513d c644 e63c 021a efbb 17f3 213c
000000c0: 233a 60bc 2eaf 433d e2cb 013c 273c 093c
000000d0: 9778 36bb 3e83 043d fa96 0dbd 76e9 eb3c
000000e0: 91dd e83b d865 453b 5e71 18bd 3a91 763c
000000f0: c431 113c 0b44 0c3d 2437 ff3b 7e26 1c3c
00000100: 2cad 3d3d 35c8 4f3d 0b20 a53c 4eb8 823d
00000110: 0cad 0e3d dc5e 723b 271c 8dbc 6143 54bd
00000120: e862 833c d6c3 be3c 4fad a33b 6842 eb3a
00000130: bb10 253d a8d5 643a 00dd 653c 45fa 94bb
00000140: 6e94 afbc d1fa e23c c4f8 8c3b 1f69 44bc
00000150: 14e9 be3b fd4d 8dbd b946 743b 6ab3 1ebc
00000160: 2ea8 84bb 8c90 3e3c 1aa7 7a3c 0a08 893d
00000170: 774c fb3c f5b2 8cbc 3948 aaba 1fcb 09bd
00000180: 8612 2d3d 2f8e 053c 3411 a13c 2e19 85bc
00000190: 2b3d 163c 26dd 67bd 610b 93bc 3663 863b
000001a0: 60d4 92ba 4dc8 9bbb a34f ae3c 90e5 8f3b
000001b0: d89d 6f3a cc3d c43a 7e74 7cbc d704 3fbc
000001c0: 4bb6 443d 2fbf b23c f809 753c 4cca bfbc
000001d0: 1b05 b1bb 4c81 ad3c 8325 6fbb d514 373d
000001e0: 37b4 b2bb 7f3a 793b 3406 e83c eb78 eeb9
000001f0: 6fbb b0bc 3faf cdba f0da 13bd 8bb5 81bb
00000200: f887 a2bd 6858 5f3d 9bfb 3bbb 569a d43c
00000210: b7b2 cdbc f7e9 a63c ad7e 123c f4c5 86bc
00000220: c8f6 863b 3471 013d 1002 e1bb 7232 9b3c
00000230: 1649 32bc 7bc3 93bc df34 2f3d 193b 0b3d
00000240: 5c90 01bd 15a1 393d f73e 7a3d 1994 c9bb
00000250: 2fca b6bc 378a 953c 7658 1ebb 3e76 01bd
00000260: cf3c adba 3d02 fa3c 2f1f c1bc 88e8 95bb
00000270: 0414 093c e3a2 bd3c 7f79 88bc 11f6 043d
00000280: 770f f9bc 1f1a 953b 4ef7 953c 8dcb 173d
00000290: 9932 363d 46e5 9c3c ee4e 7fbc 365d 97bb
000002a0: 670a 3e3d b204 e1bb bba8 e83c 0516 18bb
000002b0: 7f62 c739 4a1d f2bc 86cb 2c3d cb62 c03c
000002c0: 55c6 e9bb 7571 03bc 9103 ca3c b281 21bc
000002d0: 4164 88bc 4edf cd3b 0dac cabc c650 e7ba
000002e0: e323 bebc f387 24bb 7410 12bc f767 513d
000002f0: d032 063c e1f8 df3c 6393 113d 9f69 4e3d
00000300: b091 0dbb c5a7 b93c d17f a23a 1dd0 b4bc
00000310: 93b4 cb3c 0648 2dbc 6219 f2bc f0f7 86bc
00000320: 04da 2a3c dcfe 193b f638 02bd cf35 f23b
00000330: 2906 51bd ba5e 12bc 6664 bcbc 00fb f53c
00000340: ba55 1f3d 3616 8bbc 56c7 843c ed97 09bd
00000350: 63ce cc39 89be 18bd 9311 37bc 2de9 a0bc
00000360: afbd 5cbc c5dc d83b 17b0 90bc d36b 59bd
00000370: 1d98 b43b 8f63 dfbc 829c a03c 758a 2b3c
00000380: c304 d33c 9429 7fbc ea68 6bbb 2a45 d23a
00000390: 8986 543c 2da3 56bb 184a c4bb a307 3fbd
000003a0: 3235 373c c751 e33c 41fc bc3b c7b9 b4ba
000003b0: 6feb 483a 16be 42bd 91a9 6f3d bb5b 5f3c
000003c0: 4a86 25bd b366 2bbd 005e 26bd 1b18 88bc
000003d0: db18 223c 7bd6 c03c 3490 92bc 12b3 9b3c
000003e0: 0828 e93c a660 6dbd 891f 18bc 333e eb3c
000003f0: 942f 3ebc 47bc 77bb c310 10bd fa53 99bb

action_model._discrete_distribution.branches.2.bias f4 [3]
0.01803547 -0.025609987 0.0070168003
00000000: 1fbf 933c 09cc d1bc 30ed e53b

action_model._discrete_distribution.branches.2.weight f4 [3, 216]
-0.01792076 -0.032202233 0.007068351 -0.03896491 0.004086725 0.06562321 -0.012925156 -0.02140638
-0.006988415 -0.030601574 -0.040635034 -0.02168111 0.018665735 0.012398505 0.009113959 -0.08076101
-0.010671127 0.005528598 -0.020190937 -0.011730432 -0.010829022 -0.004440873 -0.02201504 0.01408444
-0.0077978466 0.056613404 0.02264647 0.01008627 0.018067865 -0.010757054 -0.010789581 -0.009146442
-0.0014741388 -0.036500465 0.03026778 -0.019234858 0.0017520279 -0.020802561 0.013598048 0.011110806
0.0009956174 0.03685151 0.0009977331 0.002366787 -0.015741209 -0.026711185 -0.003794543 -0.017025398
0.0014535836 -0.015539458 -0.0011061613 -0.010024885 0.05404509 -0.022886656 -0.0085826265 -0.016041514
0.017626828 0.024081964 -0.006902887 0.012325488 -0.011658288 -0.013102566 0.0029444455 -0.03306421
0.014414659 -0.0034398898 0.009082345 0.009572121 0.053103488 -0.02647904 -0.038168207 -0.021680424
0.015189494 0.001526996 -0.008683211 0.015896 -0.008958791 0.011523347 0.031037718 0.0053927386
-0.004506772 -0.011049698 0.004412195 -0.01097982 0.016832221 -0.011323316 0.0075281956 -0.008738126
0.00031358807 -0.013103424 0.016900837 -0.022925695 -0.010019635 -0.006678585 -0.0059832768 -0.0067735896
0.0070830057 -0.0055850474 -0.001919635 -0.026532212 0.023217473 0.013246814 0.005047795 0.041988913
-0.052860823 0.00666179 0.014279715 0.027280468 -0.005386805 0.016534718 -0.006036386 -0.034847654
-0.02942966 0.006403129 -0.009218324 0.010059182 0.015058996 -0.005749458 -0.0035554417 -0.045928292
-0.0036667439 0.020061564 0.00071601453 0.0414661 -0.039432626 0.008378417 -0.002844161 0.03410896
0.014425379 0.014822251 -0.038171288 0.0060464074 -0.0003241575 0.012155101 0.0066862926 -0.022498412
0.0103619825 -0.029041886 -0.025128437 -0.025726203 -0.025003783 0.016693417 0.006084811 0.014833367
0.024690647 -0.036422547 -0.030348763 -0.015498469 -0.023850959 -0.034602374 0.014949946 -0.019251488
-0.0194666 -0.014118109 -0.020904256 -0.004920248 0.03246128 0.012758939 -0.013561252 -0.040896136
0.01618456 -0.01828773 -0.010091435 0.010479216 0.033815667 0.00069804105 -0.012064984 -0.0074518253
-0.02707656 -0.0333502 0.016712412 0.00522718 0.0037697544 0.0030594545 -0.009539462 -0.0067809513
0.004204 -0.0001920161 0.02577246 -0.005470806 -0.010980307 0.012703376 0.004873804 -0.0020756705
-0.011150615 0.025232634 0.017900188 -0.05039762 0.068042055 -0.004229627 0.04841554 -0.009048759
-0.022342151 0.023968283 -0.0050667515 -0.031082233 0.008106215 -0.016419627 -0.00297682 -0.0051640044
0.008515878 -0.009587904 0.0042671543 0.0153655475 0.0034428085 0.008976245 0.033135463 -0.025253994
0.026111674 -0.021054413 -0.009260296 0.035948038 -0.043191597 -0.010790861 -0.0061499327 0.045892343
0.015589125 -0.021447698 0.045042 -0.024778318 -0.0033783778 -0.006070127 0.009903321 0.015443601
-0.0031863363 0.013378201 0.043981016 0.015364649 -0.018752126 0.00158242 -0.0020996567 -0.029903585
-0.009910565 0.008273086 -0.009356451 0.011610645 -0.012657558 -0.011781964 -0.0015621021 0.019563697
0.023616783 0.016840188 0.011562052 0.0139948325 0.045009226 0.0011452786 -0.030463608 -0.0043777004
-0.014205827 0.02266065 0.020272462 0.0050920984 0.024233015 0.0028914788 -0.017288115 -0.026487255
00000000: 8fce 92bc 7de6 03bd a09d e73b ab99 1fbd
00000010: efe9 853b 7665 863d 09c4 53bc 6f5c afbc
00000020: 13ff e4bb 27b0 fabc ec70 26bd 959c b1bc
00000030: e2e8 983c 1923 4b3c b752 153c 0766 a5bd
00000040: f3d5 2ebc 3e29 b53b 7767 a5bc ff30 40bc
00000050: 366c 31bc be84 91bb e358 b4bc 6cc2 663c
00000060: 1485 ffbb 75e3 673d 1785 b93c e240 253c
00000070: 0f03 943c 5b3e 30bc c8c6 30bc f5da 15bc
00000080: e437 c1ba 8381 15bd 23f4 f73c 6c92 9dbc
00000090: 4da4 e53a 226a aabc 59ca 5e3c 190a 363c
000000a0: 607f 823a 9cf1 163d 5ec6 823a 191c 1b3b
000000b0: b5f3 80bc 6ad1 dabc dead 78bb d978 8bbc
000000c0: 2c86 be3a 3699 7ebc 9dfc 90ba 6a3f 24bc
000000d0: 625e 5d3d cc7c bbbc 259e 0cbc 7e69 83bc
000000e0: 2366 903c 8a47 c53c 9d31 e2bb d8f0 493c
000000f0: 6702 3fbc 25ac 56bc 99f7 403b 566e 07bd
00000100: 762b 6c3c c66f 61bb 1ece 143c 63d4 1c3c
00000110: 0b83 593d 92ea d8bc 4456 1cbd 259b b1bc
00000120: 5bdd 783c 7c25 c83a 0744 0ebc 5438 823c
00000130: e5c7 12bc 6ccc 3c3c d042 fe3c 92b5 b03b
00000140: 8bad 93bb cb09 35bc 2d94 903b b4e4 33bc
00000150: bae3 893c 6e85 39bc 15af f63b 5b2a 0fbc
00000160: 1469 a439 beaf 56bc a073 8a3c abce bbbc
00000170: 6529 24bc 08d8 dabb 5d0f c4bb fdf4 ddbb
00000180: 8f18 e83b c602 b7bb 439c fbba 155a d9bc
00000190: 9232 be3c 2a09 593c f967 a53b 91fc 2b3d
000001a0: 9784 58bd 254b da3b 77f5 693c 4a7b df3c
000001b0: cc83 b0bb d173 873c e0cc c5bb 6abc 0ebd
000001c0: 7816 f1bc 57d1 d13b 7408 17bc 44cf 243c
000001d0: 02ba 763c f365 bcbb 6a02 69bb 4e1f 3cbd
000001e0: c14d 70bb 2658 a43c ecb2 3b3a 5bd8 293d
000001f0: 1b84 21bd a145 093c 1a65 3abb d6b5 0b3d
00000200: 6d58 6c3c 07d9 723c 7f59 1cbd f120 c63b
00000210: aff3 a9b9 3026 473c b018 db3b 974e b8bc
00000220: 4ec5 293c 40e9 edbc 27da cdbc c2bf d2bc
00000230: bcd4 ccbc a2c0 883c 1863 c73b a707 733c
00000240: 0a44 ca3c cf2f 15bd f89d f8bc 4aed 7dbc
00000250: 1663 c3bc 38bb 0dbd 9ef0 743c 4cb5 9dbc
00000260: 6b78 9fbc a44f 67bc 673f abbc 083a a1bb
00000270: 1ef6 043d de0a 513c 0330 5ebc b582 27bd
00000280: 7b95 843c 26d0 95bc 8c56 25bc 05b1 2b3c
00000290: 4c82 0a3d befc 363a 36ac 45bc 712e f4bb
000002a0: a9cf ddbc 389a 08bd 78e8 883c c448 ab3b
000002b0: fc0d 773b 2181 483b 674b 1cbc be32 debb
000002c0: b5c1 893b ee57 49b9 c420 d33c 7244 b3bb
000002d0: bfe6 33bc d221 503c 6eb4 9f3b f907 08bb
000002e0: 12b1 36bc abb4 ce3c 6aa3 923c bc6d 4ebd
000002f0: a259 8b3d af98 8abb 604f 463d 3f41 14bc
00000300: e306 b7bc 2259 c43c fe06 a6bb 2ba0 febc
00000310: eecf 043c 7482 86bc c116 43bb cf36 a9bb
00000320: 2e86 0b3c 9616 1dbc 7cd3 8b3b c7bf 7b3c
00000330: bea0 613b 1a11 133c 0db9 073d 77e1 cebc
00000340: 26e8 d53c 4e7a acbc 7fb8 17bc 403e 133d
00000350: ace9 30bd 27cc 30bc 6085 c9bb 9cf9 3b3d
00000360: 8869 7f3c 15b3 afbc f67d 383d e6fb cabc
00000370: c667 5dbb eae7 c6bb 8a41 223c 2807 7d3c
00000380: dad1 50bb 3e30 5b3c 7025 343d 02bc 7b3c
00000390: 0f9e 99bc 3469 cf3a 659a 09bb 5df8 f4bc
000003a0: ec5f 22bc d68b 073c cd4b 19bc 933a 3e3c
000003b0: a561 4fbc 2409 41bc 73bf ccba 0c44 a03c
000003c0: fc77 c13c 6ff4 893c c36e 3d3c 954a 653c
000003d0: 985b 383d 2c1d 963a d18e f9bc d072 8fbb
000003e0: 8fbf 68bc d4a2 b93c 6f12 a63c 9edb a63b
000003f0: 5184 c63c f77e 3d3b ce9f 8dbc cdfb d8bc

network_body.linear_encoder.seq_layers.0.bias f4 [216]
0.0007645213 -0.00928561 -0.034085613 -0.008072743 -0.014862514 0.01979627 0.0056934645 -0.003973774
0.007151989 0.010760949 -0.024260381 0.03910789 0.019950163 -0.009906803 -0.0052565304 -0.0065994943
-0.008753555 0.008601564 -0.020283898 0.0053634658 -0.00026121084 -0.0025683318 0.0087589985 0.037188105
-0.023056041 -0.0029970394 0.014636363 -0.02344166 -0.040731944 0.012473629 -0.01884126 -0.0054732314
-0.007515293 -0.01657737 0.001065487 -0.03246837 -0.020236483 0.005088323 -0.018572178 -0.0040200707
-0.0055176825 -0.02936981 -0.0020250017 -0.009588611 -0.014908019 -0.008042775 0.008686243 -0.024578886
0.015779043 -0.00867727 0.038856752 0.0071504447 0.0018234713 -0.017769812 0.011174682 0.0073477267
-0.0021083439 -0.03469473 0.006649895 0.021381248 -0.018909143 0.0032886243 -0.00043257413 0.032379977
0.00438912 -0.0136093395 -0.00073931855 -0.0004861431 0.00025062752 -0.0021439712 0.00355147 -0.019982684
0.0052269236 -0.018446537 0.006689739 0.039390195 0.013933915 -0.040753506 0.016388755 -0.007196631
-0.011513358 0.03553969 -0.008254154 -0.0008852056 -0.0015850178 0.014161453 -0.029278992 0.013412371
-0.022604557 0.0019264498 -0.008183242 -0.016830478 -0.032812946 -0.0064518107 -0.037520796 0.007042514
0.015705444 0.015185724 -0.008680797 -0.010330129 0.010351901 -0.0074802404 0.02441938 0.008219025
-0.0135629205 0.009459313 -0.017040867 -0.028519778 0.0036520495 -0.0038593777 -0.014547592 -0.004468049
-0.018038219 -0.011501054 0.028729443 0.006123504 0.008595908 -0.0049183336 -0.014038 0.008297443
-0.024364341 -0.024076788 -0.042676363 0.008727802 0.013119942 -0.012703513 0.015627848 -0.018327339
-0.024455922 -0.0048702103 0.014327018 -0.009146996 -0.013164818 -0.020088634 0.0027727385 -0.008888703
0.009180494 -0.0039208797 -0.0027314771 -0.010029027 0.021108685 -0.0068296827 -0.037415642 0.010368419
-0.0618669 -0.007937891 -0.013159499 -0.027398532 -0.027088437 0.0010144174 -0.00015664415 0.0041672434
-0.010458467 0.012329941 -0.0077388454 -0.0065203765 -0.0021994866 -0.0034211653 0.016213633 0.021574361
-0.0033769638 -0.023300782 0.0019007555 -0.00050841447 0.0010839758 0.00012588808 -0.0010636762 0.0057626683
-0.026060145 -0.047364015 0.0037397747 0.024216285 -0.029929025 -0.027610675 -0.02626889 -0.031926297
-0.008653955 0.022264397 -0.0007056061 0.023534147 -0.010909637 -0.010521977 -0.0111119365 -0.011711089
-0.01290594 -0.0014602985 -0.005778666 -0.0020267603 -0.014499982 -0.050768856 -0.0063210204 -0.014060661
-0.0033375141 0.0017554368 -0.011977247 -0.021748817 -0.023815809 -0.017644204 -0.021309396 0.012663807
-0.01894773 0.016801728 -0.01294021 -0.016588224 -0.01813818 0.00640191 -0.016288111 0.008723328
0.0042046583 0.04294316 -0.014379187 -0.028702494 0.008740792 0.0063205515 -0.009720659 -0.0072087683
00000000: 286a 483a ac22 18bc 5b9d 0bbd 8a43 04bc
00000010: e781 73bc ca2b a23c 3e90 ba3b 6f36 82bb
00000020: 3b5b ea3b b14e 303c b5bd c6bc 982f 203d
00000030: 866e a33c 2550 22bc f93e acbb 9240 d8bb
00000040: 126b 0fbc 93ed 0c3c 6b2a a6bc 03c0 af3b
00000050: 20f3 88b9 7551 28bb e781 0f3c 8e52 183d
00000060: 06e0 bcbc fa69 44bb 5bcd 6f3c b908 c0bc
00000070: 8ad6 26bd 315e 4c3c fc58 9abc cb58 b3bb
00000080: d942 f6bb 44cd 87bc d0a7 8b3a 8efd 04bd
00000090: fbc6 a5bc f2bb a63b ae24 98bc ccba 83bb
000000a0: adcd b4bb f598 f0bc e4b5 04bb 8d19 1dbc
000000b0: c440 74bc d8c5 03bc be50 0e3c a959 c9bc
000000c0: 0d43 813c 1c2b 0ebc 4228 1f3d 474e ea3b
000000d0: 8b01 ef3a ff91 91bc 0316 373c 33c5 f03b
000000e0: 242c 0abb 101c 0ebd 5de7 d93b ba27 af3c
000000f0: 59e7 9abc f685 573b 1ecb e2b9 dea0 043d
00000100: 9bd2 8f3b b5f9 5ebc d4ce 41ba 06e1 feb9
00000110: a866 8339 de81 0cbb c8bf 683b bab2 a3bc
00000120: 9d46 ab3b 311d 97bc 9935 db3b 9d57 213d
00000130: 134b 643c 26ed 26bd b641 863c b7d1 ebbb
00000140: 86a2 3cbc 1192 113d 6e3c 07bc 240d 68ba
00000150: 5fc0 cfba 7005 683c 7fda efbc 90bf 5b3c
00000160: 312d b9bc ee80 fc3a 0113 06bc 12e0 89bc
00000170: de66 06bd b669 d3bb 68af 19bd e4c4 e63b
00000180: b4a8 803c 8bcd 783c e739 0ebc b43f 29bc
00000190: 059b 293c ce1c f5bb 270b c83c 17a9 063c
000001a0: 0337 5ebc 3cfb 1a3c 4a99 8bbc 4fa2 e9bc
000001b0: 3957 6f3b 9ded 7cbb 0659 6ebc b668 92bb
000001c0: e3c4 93bc eb6e 3cbc 025a eb3c ada7 c83b
000001d0: dad5 0c3c f929 a1bb a4ff 65bc 00f2 073c
000001e0: ba97 c7bc af3c c5bc 69cd 2ebd 0eff 0e3c
000001f0: 06f5 563c 6522 50bc f905 803c 3723 96bc
00000200: c957 c8bc 4996 9fbb debb 6a3c 48dd 15bc
00000210: 40b1 57bc eb90 a4bc d5b6 353b eca1 11bc
00000220: c869 163c b97a 80bb 9502 33bb ca50 24bc
00000230: 1fec ac3c 88cb dfbb 2541 19bd 4de0 293c
00000240: 2668 7dbd ee0d 02bc f09a 57bc e372 e0bc
00000250: 92e8 ddbc 33f6 843a d840 24b9 5f8d 883b
00000260: fd59 2bbc 8503 4a3c 2496 fdbb e2a8 d5bb
00000270: 4325 10bb a135 60bb 74d2 843c b7bc b03c
00000280: 0d50 5dbb 48e1 bebc c522 f93a 1e47 05ba
00000290: 3114 8e3a d300 0439 0d6b 8bba c4d4 bc3b
000002a0: 167c d5bc c500 42bd 0217 753b 3b61 c63c
000002b0: b72d f5bc c82f e2bc db31 d7bc 26c5 02bd
000002c0: 51c9 0dbc d363 b63c 6cf8 38ba afca c03c
000002d0: 56be 32bc 5f64 2cbc d70e 36bc dedf 3fbc
000002e0: 7073 53bc 7d67 bfba f75a bdbb 65d3 04bb
000002f0: 5591 6dbc 01f3 4fbd 9020 cfbb b05e 66bc
00000300: 32ba 5abb af16 e63a 373c 44bc 932a b2bc
00000310: 5f19 c3bc 948a 90bc 0b91 aebc db7b 4f3c
00000320: 4538 9bbc c7a3 893c 2d03 54bc 07e4 87bc
00000330: 8596 94bc 1dc7 d13b a56e 85bc 4aec 0e3c
00000340: 3bc7 893b 2be5 2f3d ae96 6bbc 7e21 ebbc
00000350: 8a35 0f3c a11c cf3b 6643 1fbc 8837 ecbb

network_body.linear_encoder.seq_layers.0.weight f4 [216, 121]
0.04414018 0.001210711 -0.19880873 -0.12338476 -0.06983091 -0.021682216 -0.108846016 0.014573385
0.13624804 -0.10639812 0.03654423 0.051277835 0.024590097 -0.041523594 0.097750165 -0.08606807
-0.08771737 0.045365606 0.036655396 -0.015664376 0.07537883 -0.016099857 -0.07102152 0.06343926
0.025613958 -0.0009518974 0.06841701 0.13023579 0.19146629 -0.14482509 -0.094401926 -0.17432114
0.1468621 -0.016852194 0.022942994 0.018152084 0.076790154 -0.067019425 0.021429677 0.022119218
-0.11751584 -0.031639986 -0.057209436 0.11317239 -0.07156788 0.18942292 0.060687996 -0.08319415
-0.026542844 -0.019500352 -0.08906555 -0.00052511075 0.021092752 -0.046644084 0.070528515 -0.07492906
-0.12802976 0.14923367 -0.13578211 0.024865255 0.18020754 0.21906537 0.07085252 0.11435958
-0.16373125 0.17723025 0.09028393 0.01962595 0.097127184 0.031870402 -0.052045945 -0.1554723
0.056179196 -0.10182374 0.14745067 0.17883363 0.060639355 0.01162223 -0.081854366 0.012482489
-0.07350052 -0.2459201 -0.017196538 -0.04601357 0.05487869 -0.17350635 -0.0055166613 0.011124991
-0.16073792 -0.010584574 -0.0715291 0.13062447 0.027875513 -0.035246905 -0.16442645 -0.016539853
-0.22406825 0.022646358 0.053450007 -0.086081795 -0.014552266 -0.046856124 -0.09735382 0.053808704
0.062118936 0.1174524 0.0834924 -0.0029757852 0.055692684 0.0069855554 -0.021893222 -0.038936477
-0.09730606 -0.16943964 -0.0051402943 0.107072964 0.112037554 0.07465789 0.036199972 0.09885127
0.14405063 0.12712832 -0.04888711 0.09340231 -0.16940288 -0.037424766 -0.09803354 -0.029499862
-0.07562286 0.025755404 0.013731576 0.04970075 0.10501612 -0.029378096 0.034051638 -0.04847571
-0.07236566 0.02059553 -0.054636214 -0.056207534 -0.0702409 -0.107866906 -0.117196284 0.021415737
-0.022450907 0.12502992 0.049889956 -0.18637453 -0.08897266 0.14733076 -0.17213082 0.005011399
-0.074484386 -0.14804718 -0.04483012 -0.092411876 -0.08142654 -0.014760094 -0.019464102 -0.03056697
-0.049316864 -0.07960925 -0.0016325769 -0.19662619 -0.14213501 0.016901674 0.17072707 -0.16735971
-0.023145767 -0.11288041 0.11474001 0.045295246 0.03372412 -0.17125183 -0.03674139 -0.11256382
0.0025823677 -0.025847163 -0.017390173 -0.042643033 -0.026965152 0.1070189 0.22385967 -0.094437934
-0.003201658 -0.031529963 0.0007297221 0.029828044 -0.038547795 0.15317413 0.113817714 -0.14561854
-0.063781865 -0.07882295 -0.12349187 -0.08081818 -0.023044752 -0.046989303 0.044818647 -0.22102392
0.008185056 0.0889926 0.034605734 -0.029013552 0.010931449 0.06085894 -0.008140028 -0.04465222
0.014507525 -0.13351014 -0.03274523 0.15334474 -0.062203404 -0.024304038 0.0696612 -0.06520489
0.23322837 -0.08934021 -0.09393048 -0.006692889 -0.10703608 0.18886067 0.06473376 -0.005303558
0.004504627 -0.0876444 -0.040064596 0.04977847 0.044231437 0.03715017 -0.024461659 -0.028548053
0.07387751 -0.018061 -0.009471251 0.013615494 0.09001617 -0.07766858 -0.023239817 0.07646462
0.088994086 0.1058517 -0.13554128 0.2003965 0.049615506 0.07647761 -0.06104006 0.116044514
-0.1264465 0.028167889 0.113142684 0.104879215 -0.019849896 -0.016431272 0.13058244 7.1346454e-05
00000000: 55cc 343d b8b0 9e3a 8494 4bbe 26b1 fcbd
00000010: 8203 8fbd e79e b1bc a9ea debd 35c5 6e3c
00000020: 9b84 0b3e 42e7 d9bd 67af 153d b508 523d
00000030: 2c71 c93c a514 2abd 3d31 c83d 7544 b0bd
00000040: 2aa5 b3bd 49d1 393d f823 163d 9452 80bc
00000050: 3760 9a3d d9e3 83bc bb73 91bd 71ec 813d
00000060: 5dd4 d13c c188 79ba 381e 8c3d 885c 053e
00000070: bd0f 443e 074d 14be cc55 c1bd 3e81 32be
00000080: 0563 163e 9d0d 8abc f2f2 bb3c aeb3 943c
00000090: 2844 9d3d 7b41 89bd 4a8d af3c 5d33 b53c
000000a0: 25ac f0bd ee98 01bd 7154 6abd edc6 e73d
000000b0: 2e92 92bd 15f8 413e fa93 783d b261 aabd
000000c0: 6170 d9bc 34bf 9fbc 0068 b6bd 96a7 09ba
000000d0: b5ca ac3c de0d 3fbd 4171 903d 6874 99bd
000000e0: 3c1a 03be b6d0 183e 770a 0bbe 38b2 cb3c
000000f0: 5388 383e ac52 603e 201b 913d 5b35 ea3d
00000100: 2aa9 27be d97b 353e c8e6 b83d 9ac6 a03c
00000110: 9eea c63d 8a8a 023d 212e 55bd 2134 1fbe
00000120: 281c 663d f788 d0bd 4ffd 163e 2a20 373e
00000130: f960 783d 2a6b 3e3c 43a3 a7bd 5b83 4c3c
00000140: 7187 96bd 7bd2 7bbe c1df 8cbc ba78 3cbd
00000150: 7ac8 603d a6ab 31be 1cc5 b4bb 9845 363c
00000160: 7b98 24be ec6a 2dbc d97d 92bd 6cc2 053e
00000170: 305b e43c 0f5f 10bd 685f 28be 967e 87bc
00000180: 2672 65be db84 b93c 65ee 5a3d a74b b0bd
00000190: a16c 6ebc 35ec 3fbd 7161 c7bd 8466 5c3d
000001a0: 6d70 7e3d e28a f03d 10fe aa3d 6405 43bb
000001b0: 031e 643d 16e7 e43b 6a59 b3bc db7b 1fbd
000001c0: 6648 c7bd 9681 2dbe ea6f a8bb 1249 db3d
000001d0: f273 e53d 3ce6 983d 6c46 143d 8972 ca3d
000001e0: 0282 133e ed2d 023e da3d 48bd b649 bf3d
000001f0: f377 2dbe b64a 19bd cfc5 c8bd b2a9 f1bc
00000200: 28e0 9abd fffc d23c 67fa 603c 0393 4b3d
00000210: b112 d73d 55aa f0bc bb79 0b3d 778e 46bd
00000220: 7234 94bd f5b7 a83c 39ca 5fbd df39 66bd
00000230: 76da 8fbd 53e9 dcbd 9b04 f0bd 0e70 af3c
00000240: f7ea b7bc d807 003e 6959 4c3d f7d8 3ebe
00000250: 4c37 b6bd e0dd 163e 1043 30be a936 a43b
00000260: 458b 98bd ae99 17be ca9f 37bd 7042 bdbd
00000270: f5c2 a6bd 52d4 71bc 2e73 9fbc 9567 fabc
00000280: 7b00 4abd 2d0a a3bd 31fc d5ba 6058 49be
00000290: d78b 11be 6175 8a3c 14d3 2e3e 5860 2bbe
000002a0: 319c bdbc d82d e7bd cffc ea3d 8287 393d
000002b0: 4e22 0a3d a45c 2fbe 247e 16bd dc87 e6bd
000002c0: f13c 293b 6ebd d3bc d675 8ebc 76aa 2ebd
000002d0: 06e6 dcbc ba2c db3d 783b 653e ad68 c1bd
000002e0: e8d2 51bb 9025 01bd d24a 3f3a f159 f43c
000002f0: 4be4 1dbd aed9 1c3e 4319 e93d 071d 15be
00000300: 11a0 82bd ed6d a1bd 4ee9 fcbd 0184 a5bd
00000310: 59c8 bcbc db77 40bd c293 373d 1854 62be
00000320: 9d1a 063c c141 b63d bebe 0d3d d4ad edbc
00000330: d219 333c 3947 793d c15d 05bc 3fe5 36bd
00000340: f8b0 6d3c e2b6 08be dd1f 06bd 6706 1d3e
00000350: ffc8 7ebd 4319 c7bc 88aa 8e3d 248a 85bd
00000360: 6bd3 6e3e 00f8 b6bd a05e c0bd 0650 dbbb
00000370: bb35 dbbd b164 413e 2293 843d 78c9 adbb
00000380: 8d9b 933b e87e b3bd c61a 24bd 82e4 4b3d
00000390: 062c 353d c72a 183d d163 c8bc 9bdd e9bc
000003a0: 184d 973d aaf4 93bc 4e2d 1bbc 8513 5f3c
000003b0: 665a b83d b410 9fbd 6e61 bebc 7c99 9c3d
000003c0: 8842 b63d c7c8 d83d 55cb 0abe bd34 4d3e
000003d0: a139 4b3d 4ba0 9c3d 2405 7abd bfa8 ed3d
000003e0: 317b 01be 58c0 e63c 5ab7 e73d eaca d63d
000003f0: 409c a2bc e09a 86bc 67b7 053e d69f 9538

network_body.linear_encoder.seq_layers.2.bias f4 [216]
-0.027861515 0.00012458923 0.000308765 0.025309516 0.019302502 0.0091221845 -0.0076870173 -0.014825145
0.013410454 -0.02273348 -0.030639691 0.0069988267 -0.0059521515 0.006906594 0.004149903 0.0044978037
0.02043438 -0.013624779 -0.02414448 -0.0126282545 -0.00861203 0.0051725423 0.0062812595 -0.020107491
-0.0035499278 0.00548801 -0.008684923 -0.016457563 -0.010657025 -0.012759797 -0.03653054 0.00829009
0.0029718399 -0.013813363 -0.0019032324 -0.02426275 0.009078592 0.006846805 0.003452611 -0.022276914
0.011058174 -0.013514709 -0.022143954 -0.008554346 -0.006765423 0.02322366 0.020510241 -0.011441478
-0.0117329275 0.004923616 -0.011570729 -0.0016227767 -0.022587646 -0.023094842 -0.007333575 -0.01785269
0.010395114 -0.008974499 -0.039549716 0.0052117705 0.0036801116 -0.01119565 -0.009449108 0.015971681
-0.011880569 0.0010206632 -0.011315827 0.00819517 -0.007405336 -0.011115344 0.009480763 -0.0114696
0.0192584 -0.012563471 -0.01354867 -0.0068422793 -0.0034705473 -0.015221042 -0.004560278 -0.012195316
-0.004709891 -0.0063762506 -0.01448193 -0.006606809 -0.017325517 -0.012228573 -0.013153516 -0.02985012
-0.013116371 0.01945697 -0.008632314 -0.013314596 0.008211486 -0.0014553434 -0.0065709827 -0.01568624
0.0010279556 -0.0028441695 -0.021871343 0.0024862667 -0.010737403 0.00295024 -0.017313568 -0.002111265
-0.017018775 0.0066737467 -0.027170163 0.020825328 -0.0260934 0.0014046682 -0.00703941 0.0014674164
0.0061234175 -0.0039896662 -0.004293238 0.014805317 0.011115332 0.016756162 -0.017126832 0.0072865915
-0.019285439 -0.0095980475 0.0048967977 -0.02266414 0.00901164 -0.0063139787 -0.005349537 -0.0017992604
-0.019180646 -0.0037153673 0.004965823 -0.009523524 -0.00933368 0.0012805025 0.015806874 -0.029196218
-0.011806492 -0.012734266 -0.009269887 0.016904162 0.007005343 -0.016451418 -0.014536194 0.007947899
-0.009177076 0.010980576 -0.0028165553 0.0060101477 -0.021178344 0.025428124 0.00955111 0.024632065
0.0019269135 0.02118459 -0.022848062 0.019030293 -0.006292767 -0.013699752 0.020246752 -0.010672127
-0.0017454507 0.0035072814 -0.0055357 -0.020418989 0.00022597135 -0.018717146 -0.006288019 0.00428889
-0.014779661 0.00037385352 -0.0040947166 -0.00999203 -0.009121512 0.008557492 -0.006853012 -0.015834268
-0.021520125 -0.033129595 0.008138109 -0.008994629 -0.007926582 0.014544125 0.009885163 -0.029316202
-0.008461744 0.0027183548 -0.0015943546 -0.005813694 -0.0043958337 -0.03044698 -0.023129053 0.0058727516
-0.009577163 0.024843968 -0.009917306 0.016778883 0.0050676693 -0.028916115 -0.013106818 -0.020615423
-0.023228142 0.0014944922 -0.020429682 0.006110789 0.004024063 -0.0022051039 -0.0073237335 0.0019741184
-0.0073142196 -0.008488127 0.007998527 0.011944568 0.0019248382 0.013781926 -0.013844092 0.010964403
00000000: d53d e4bc 2ba4 0239 bde1 a139 e755 cf3c
00000010: 4820 9e3c 3775 153c 60e3 fbbb 2ae5 72bc
00000020: 85b7 5b3c 903b babc 1700 fbbc 6a56 e53b
00000030: 440a c3bb b650 e23b e9fb 873b 5062 933b
00000040: 0066 a73c 773a 5fbc a5ca c5bc bde6 4ebc
00000050: 7919 0dbc 6e7e a93b 06d3 cd3b 77b8 a4bc
00000060: e8a5 68bb c4d4 b33b 354b 0ebc 03d2 86bc
00000070: cd9a 2ebc 780e 51bc 0ca1 15bd 28d3 073c
00000080: 33c3 423b 7251 62bc e275 f9ba adc2 c6bc
00000090: 60be 143c 2a5b e03b 3345 623b 137e b6bc
000000a0: 582d 353c cc6c 5dbc 3d67 b5bc 8727 0cbc
000000b0: 7bb0 ddbb 8c3f be3c 1805 a83c 0975 3bbc
000000c0: 773b 40bc 4956 a13b 2893 3dbc 5ab3 d4ba
000000d0: ba09 b9bc 6531 bdbc 7c4e f0bb ce3f 92bc
000000e0: 4550 2a3c c709 13bc e2fe 21bd 80c7 aa3b
000000f0: 072e 713b f66d 37bc 6ed0 1abc 0bd7 823c
00000100: b8a6 42bc c6c7 853a 0566 39bc 0945 063c
00000110: 76a8 f2bb 221d 36bc 3455 1b3c fdea 3bbc
00000120: cbc3 9d3c 04d7 4dbc 3efb 5dbc 3335 e0bb
00000130: 1f72 63bb ad61 79bc 626e 95bb ddce 47bc
00000140: 6e55 9abb deef d0bb 9e45 6dbc ee7d d8bb
00000150: 3eee 8dbc 5a5a 48bc d881 57bc 3d88 f4bc
00000160: 0ce6 56bc 3964 9f3c 8d6e 0dbc 7725 5abc
00000170: 7889 063c 39c1 beba 6651 d7bb 6e80 80bc
00000180: 77bc 863a 3f65 3abb 882b b3bc a2f0 223b
00000190: efeb 2fbc d058 413b 2fd5 8dbc 265d 0abb
000001a0: f56a 8bbc 72af da3b f693 debc e199 aa3c
000001b0: d3c1 d5bc d81c b83a daaa e6bb 5356 c03a
000001c0: f3a6 c83b bfbb 82bb 4aae 8cbb 0092 723c
000001d0: 151d 363c 3844 893c 924d 8cbc 5cc4 ee3b
000001e0: 7ffc 9dbc 2141 1dbc 5175 a03b 26aa b9bc
000001f0: 8fa5 133c 7ee5 cebb 2b4b afbb 29d5 ebba
00000200: bb20 9dbc 857d 73bb 58b8 a23b 8e08 1cbc
00000210: 4bec 18bc 89d6 a73a 6b7d 813c e82c efbc
00000220: 0470 41bc 62a3 50bc b9e0 17bc 997a 8a3c
00000230: 148d e53b 20c5 86bc 3729 6ebc e837 023c
00000240: 725b 16bc e0e7 333c f595 38bb c6f0 c43b
00000250: 357e adbc a44e d03c 427c 1c3c 2fc9 c93c
00000260: 7d90 fc3a 4e8b ad3c dc2b bbbc 6be5 9b3c
00000270: 8e33 cebb ed74 60bc 84dc a53c 25da 2ebc
00000280: 9bc7 e4ba 6bda 653b d164 b5bb b945 a7bc
00000290: b9f2 6c39 b354 99bc ba0b cebb d189 8c3b
000002a0: 6426 72bc c501 c439 f92c 86bb 9db5 23bc
000002b0: 6572 15bc b934 0c3c 3b8f e0bb deb6 81bc
000002c0: f94a b0bc e6b2 07bd b455 053c 355e 13bc
000002d0: 7fde 01bc 7b4a 6e3c 61f5 213c 8828 f0bc
000002e0: 20a3 0abc 6d26 323b aaf9 d0ba cd80 bebb
000002f0: ed0a 90bb f26b f9bc 2479 bdbc 3670 c03b
00000300: 88e9 1cbc 9485 cb3c 327c 22bc de73 893c
00000310: b10e a63b 7de1 ecbc fbbd 56bc ade1 a8bc
00000320: f248 bebc d6e2 c33a 265c a7bc 033d c83b
00000330: 49dc 833b 8183 10bb eefb efbb 3660 013b
00000340: 1fac efbb c911 0bbc 410c 033c 26b3 433c
00000350: da4a fc3a 96cd 613c 55d2 62bc 0aa4 333c

network_body.linear_encoder.seq_layers.2.weight f4 [216, 216]
-0.059455946 -0.059604365 0.033686075 0.03436542 -0.026851203 0.065382764 0.044411633 0.019403225
0.044529766 -0.044864453 0.12992515 -0.0842655 0.16447732 -0.2023384 0.09919164 -0.012402831
-0.031062791 0.0036488767 -0.065218195 0.04372569 -0.017472913 0.049703985 -0.027951537 0.06950147
0.069291584 0.094542384 0.10778592 0.04453211 -0.048859313 -0.116130404 0.057822257 0.043964766
-0.0021243668 -0.041027285 0.021579685 -0.044676635 0.055960033 0.12383897 0.09216608 -0.074296884
-0.10338081 0.024569122 -0.08915664 0.09139865 -0.049620733 0.055886596 0.022020472 0.03767525
0.007554002 -0.028297648 0.09764496 0.03195458 0.06817706 -0.015717072 -0.09826583 0.037712622
0.07350833 -0.021527737 0.07479967 0.015249532 0.057005126 0.017265309 0.08088715 0.04431108
-0.074748084 -0.043533042 -0.011700362 -0.0342935 0.016328529 0.054762453 -0.025818542 0.058667433
-0.17181484 0.06672696 -0.035037972 0.30631778 0.050529677 0.05051943 0.02122662 0.030235803
0.0312179 0.1149836 0.0097705005 0.07437995 -0.025781933 0.08714485 0.073964685 -0.06588237
0.056486815 -0.03461016 -0.043684587 0.1323306 0.018364191 0.08151308 -0.007649255 -0.037895154
0.0027936357 0.02169366 -0.071531676 0.1391701 -0.2245253 0.050550353 0.11240906 -0.0069406405
0.06608346 -0.025657184 0.20633726 -0.061870262 0.0046868925 0.052036397 -0.091220215 0.04932616
0.069452725 0.16610369 -0.027725171 0.021677835 -0.043038007 0.054032166 0.04685578 -0.3237492
0.03935177 -0.12170222 -0.026029 0.036679 0.07312636 0.038999397 0.013230147 0.03709563
-0.06917319 -0.09180886 0.049056053 -0.070594594 0.060356103 0.08624748 0.14049149 0.0530886
-0.025855381 -0.035214443 0.079762556 -0.023781909 -0.10277443 0.022027945 -0.0016872303 -0.040257175
0.023195773 0.013458202 0.024549084 0.010099356 0.014755919 0.037769746 -0.08018201 -0.03381288
-0.10293753 0.09762742 -0.030676357 -0.055967193 0.07333639 0.030240728 -0.0033168928 0.06060309
0.13965921 -0.026097337 -0.10093311 0.073745914 0.11619398 0.0016302078 -0.09003769 0.057120156
0.1364857 0.15276554 -0.14415477 0.037645858 0.020523109 -0.05121883 0.03575884 0.1011324
-0.096958086 -0.041089267 -0.06874889 0.04506625 0.070177115 0.10758838 0.08988995 0.12942295
0.17265032 0.084791526 0.0013388357 -0.02763721 -0.01253518 0.042917613 -0.09882707 0.09138685
-0.08816993 -0.06229112 0.10709009 -0.12473357 0.20709266 -0.07693274 -0.0030290848 -0.07899968
0.025797417 0.12566112 0.117076784 0.11520484 0.20137933 0.046253767 -0.02482641 -0.037547223
-0.027465072 -0.055866957 0.07990019 -0.06998863 -0.021698898 -0.059717212 -0.045333892 -0.09194337
0.1764046 0.011039744 0.09741891 -0.01759155 0.043947376 0.10150448 0.027407227 -0.029480403
-0.07075577 -0.031166906 0.0992577 -0.029575624 0.023234807 0.08748618 0.21375701 0.0132540865
0.093908146 -0.12460428 -0.053214405 0.0063554295 -0.029745294 0.04424098 -0.11289975 -0.22483715
0.102186084 -0.056338437 0.20431069 -0.0003858354 0.07849215 -0.007838434 0.10734629 0.003763671
-0.039639242 0.030369226 -0.18393153 -0.038880013 -0.033841476 0.06762884 0.058365844 0.073840596
00000000: 1488 73bd b523 74bd 69fa 093d c1c2 0c3d
00000010: 0ef7 dbbc 66e7 853d f9e8 353d 83f3 9e3c
00000020: d864 363d cac3 37bd 190b 053e 6493 acbd
00000030: be6c 283e cc31 4fbe fd24 cb3d 3e35 4bbc
00000040: 6577 febc fe21 6f3b 1e91 85bd b619 333d
00000050: 5b23 8fbc 6896 4b3d 9ffa e4bc c956 8e3d
00000060: bfe8 8d3d 709f c13d ddbe dc3d 4d67 363d
00000070: b420 48bd c7d5 edbd 08d7 6c3d 6614 343d
00000080: f638 0bbb 3a0c 28bd e1c7 b03c d9fe 36bd
00000090: 5936 653d 499f fd3d 92c1 bc3d f728 98bd
000000a0: 51b9 d3bd 2f45 c93c c297 b6bd 372f bb3d
000000b0: 1c3f 4bbd 58e9 643d 4764 b43c 5d51 1a3d
000000c0: 9087 f73b 78d0 e7bc 15fa c73d cee2 023d
000000d0: 6aa0 8b3d 17c1 80bc 983f c9bd 8d78 1a3d
000000e0: 898b 963d f05a b0bc 9230 993d 2cd9 793c
000000f0: 357e 693d fa6f 8d3c 29a8 a53d 897f 353d
00000100: 8615 99bd b44f 32bd e0b2 3fbc 5777 0cbd
00000110: 68c3 853c 984e 603d 6881 d3bc 434d 703d
00000120: 3bf0 2fbe 25a8 883d fa83 0fbd afd5 9c3e
00000130: 35f8 4e3d 76ed 4e3d 73e3 ad3c 13b1 f73c
00000140: aebc ff3c 867c eb3d 7314 203c 8454 983d
00000150: a234 d3bc 0079 b23d cc7a 973d 56ed 86bd
00000160: b85e 673d 62c3 0dbd 9cee 32bd ac81 073e
00000170: 8070 963c 54f0 a63d 9aa6 fabb f337 1bbd
00000180: 6e15 373b e7b6 b13c 337f 92bd 9b82 0e3e
00000190: f6e9 65be e30d 4f3d b936 e63d 506e e3bb
000001a0: c456 873d 042f d2bc 134a 533e ac6b 7dbd
000001b0: 8194 993b 1e24 553d aad1 babd 3a0a 4a3d
000001c0: 3b3d 8e3d 1617 2a3e e61f e3bc b795 b13c
000001d0: 9f48 30bd d550 5d3d d9eb 3f3d 75c2 a5be
000001e0: 522f 213d 033f f9bd c53a d5bc b83c 163d
000001f0: 46c3 953d d5bd 1f3d 42c3 583c 96f1 173d
00000200: acaa 8dbd 4906 bcbd 00ef 483d e693 90bd
00000210: f637 773d 85a2 b03d 00dd 0f3e 6f73 593d
00000220: aace d3bc 053d 10bd 8d5a a33d 47d2 c2bc
00000230: 667b d2bd f373 b43c 0e26 ddba b5e4 24bd
00000240: 1005 be3c ca7f 5c3c 291b c93c c577 253c
00000250: cfc2 713c 73b4 1a3d 7736 a4bd 607f 0abd
00000260: e9d0 d2bd e3f0 c73d fc4c fbbc db3d 65bd
00000270: 6431 963d 67bb f73c 3a60 59bb f23a 783d
00000280: d302 0f3e 15ca d5bc 05b6 cebd 1908 973d
00000290: 1cf7 ed3d b2ac d53a ae65 b8bd d3f6 693d
000002a0: e8c2 0b3e 926e 1c3e 4f9d 13be 8b32 1a3d
000002b0: 1420 a83c d6ca 51bd dd77 123d 811e cf3d
000002c0: f691 c6bd 384d 28bd 38cc 8cbd 6397 383d
000002d0: 05b9 8f3d 4c57 dc3d 3918 b83d 7387 043e
000002e0: 3fcb 303e 2ea7 ad3d df7b af3a 6e67 e2bc
000002f0: 5b60 4dbc 61ca 2f3d d965 cabd 0729 bb3d
00000300: 7092 b4bd f924 7fbd 0d52 db3d 5074 ffbd
00000310: 1910 543e ea8e 9dbd 9c83 46bb 96ca a1bd
00000320: 1b55 d33c 4fad 003e f4c5 ef3d 84f0 eb3d
00000330: 6236 4e3e 9774 3d3d c160 cbbc 1ecb 19bd
00000340: 6efe e0bc c0d4 64bd b6a2 a33d 3356 8fbd
00000350: e3c1 b1bc 099a 74bd 08b0 39bd ce4c bcbd
00000360: 68a3 343e 0be0 343c 9183 c73d 271c 90bc
00000370: 2a02 343d 95e1 cf3d 1f85 e03c e380 f1bc
00000380: 67e8 90bd bd51 ffbc 9f47 cb3d 9448 f2bc
00000390: ec56 be3c f42b b33d 1ee3 5a3e ab27 593c
000003a0: ea52 c03d 8730 ffbd 59f7 59bd 3541 d03b
000003b0: 67ac f3bc 0836 353d fc37 e7bd b63b 66be
000003c0: f046 d13d 22c3 66bd d236 513e f349 cab9
000003d0: 7ec0 a03d c66c 00bc 5fd8 db3d eca7 763b
000003e0: c25c 22bd e2c8 f83c 8c58 3cbe a640 1fbd
000003f0: 5c9d 0abd fd80 8a3d 0611 6f3d bd39 973d
