Project/results/VPlayer-Wist/VPlayer.onnx (onnx, 681794 bytes, 15 tensors)

action_model._continuous_distribution.mu.weight f4 [1, 216]
0.01026045 -0.023690486 -0.009762462 -0.04494778 0.02162443 -0.013681188 -0.0061117527 -0.007097779
-0.00080667116 0.008812675 0.0077994354 0.0387732 -0.008526397 0.016578672 -0.005531366 -0.006250632
0.015747413 -0.036102396 -0.0007757867 0.029492142 -0.011843085 -0.013751864 -0.024207903 -0.01937408
0.025924735 -0.011040797 0.0015873798 -0.010571656 -0.035021197 -0.007745183 -0.0036395832 0.0047860895
-0.02138058 -0.030383592 -0.005137058 0.022135144 -0.004298094 0.026138863 0.017646698 0.027942557
-0.0019151304 -0.0038874734 0.005839826 -0.01204022 0.01279838 0.027314465 0.013346246 0.017544763
0.034560353 -0.034295313 0.0021116934 0.019699318 -0.0041996837 0.004839911 -0.0004865854 0.024721323
-0.0008308371 0.01661726 -0.0068264985 -0.04798637 -0.04027665 0.002821785 0.0076121497 -0.03233655
0.043971445 0.004694991 0.009323765 -0.012649069 -0.022041267 0.0007812131 -0.0069305007 -0.0072688083
-0.01732088 -0.02689935 0.009442597 -0.0049296585 -0.0035201022 -0.040963333 0.028041532 0.011977479
-0.018767467 0.029156344 0.0011953373 -0.0010739554 -0.006871613 -0.012381048 -0.017587282 0.025860878
-0.01512875 0.002048552 0.027230699 -0.0009205704 0.03857899 -0.04268419 0.004075124 -0.003385595
-0.019580137 0.006199055 0.026833804 0.0054119527 0.009978306 0.02392092 0.009484526 0.0067178793
-0.003388566 0.002561828 -0.029140295 -0.006872259 -0.010419179 -0.00507032 -0.014235545 0.0063839075
-0.020606231 0.03038905 0.040414736 -0.005082838 0.02823007 -0.027823022 -0.0017041422 -0.0020675946
-0.030563869 0.0015407953 -0.00062109606 -0.012887928 -0.035827883 -0.021693151 -0.0016202325 -0.009314771
0.034857295 -0.012678762 -0.013195907 0.036427118 0.008272183 0.010304181 -0.005089899 0.0016039322
0.0060282806 0.001715765 0.016672764 -0.019613752 -0.011403319 -0.0366343 0.017979411 0.0038053428
0.022402924 -0.0066536986 -0.032784194 0.008604768 0.018366283 -0.023656432 -0.040994182 -0.01036296
0.019346505 -0.001707155 0.0036623105 0.005453288 0.012670484 0.03240113 0.018604845 -0.013248684
-0.033637736 0.014542393 0.011281821 -0.017195301 -0.0052474155 0.037304822 0.0025540325 -0.04511236
0.0211816 0.008275393 0.0037546805 -0.030870736 -0.01920887 -0.000535784 0.002550722 0.044662032
0.020211488 -0.0075352076 -0.021111002 0.010502011 0.0016185886 -0.007915146 0.006416696 -0.011360212
0.019323697 -0.0044882637 -0.03986826 -0.027538894 0.0026865178 -0.07399759 0.004006405 0.011275434
-0.015266055 -0.009703816 -0.037323944 -0.008608308 0.034653377 0.0009375351 0.018002277 -0.012231757
0.039417606 0.046819493 0.0016681005 -0.0074399854 -0.00024101775 -0.04911308 0.026296264 0.002797171
-0.033762153 -0.007916424 0.021093348 0.051755372 -0.009519814 -0.020212213 -0.013817848 -0.03505984
00000000: 721b 283c 8d12 c2bc bcf2 1fbc 2a1b 38bd
00000010: b725 b13c 1027 60bc 1945 c8bb 7c94 e8bb
00000020: c976 53ba 0a63 103c 6892 ff3b a6d0 1e3d
00000030: 4db2 0bbc ffcf 873c 7640 b5bb 1ad2 ccbb
00000040: b800 813c 1be0 13bd 2a5e 4bba 8199 f13c
00000050: 8009 42bc 804f 61bc a74f c6bc 64b6 9ebc
00000060: 1c60 d43c 76e4 34bc a10f d03a bd34 2dbc
00000070: 6372 0fbd 4ecb fdbb 1386 6ebb a1d4 9c3b
00000080: 5326 afbc 03e7 f8bc c454 a8bb c354 b53c
00000090: 07d7 8cbb 2b21 d63c cf8f 903c cae7 e43c
000000a0: 1d05 fbba fbc4 7ebb 035c bf3b 5844 45bc
000000b0: 4cb0 513c 96c2 df3c 37aa 5a3c 09ba 8f3c
000000c0: 288f 0d3d 3e79 0cbd 5664 0a3b 7760 a13c
000000d0: 809d 89bb 1e98 9e3b 631c ffb9 5f84 ca3c
000000e0: 89cc 59ba ec20 883c d2b0 dfbb 5b8d 44bd
000000f0: 21f9 24bd b2ed 383b 576f f93b 5573 04bd
00000100: 671b 343d 70d8 993b b4c2 183c 0a3e 4fbc
00000110: e38f b4bc 53ca 4c3a 4119 e3bb 2f2f eebb
00000120: 85e4 8dbc 075c dcbc 1fb5 1a3c f988 a1bb
00000130: 84b1 66bb 2bc9 27bd 5bb7 e53c 303d 443c
00000140: 3bbe 99bc 49d9 ee3c ddac 9c3a f7c3 8cba
00000150: 452b e1bb e1d9 4abc 3413 90bc 31da d33c
00000160: 94de 77bc 0041 063b ea12 df3c 6f52 71ba
00000170: 0105 1e3d 9ed5 2ebd 9e88 853b dce0 5dbb
00000180: 8666 a0bc 7121 cb3b 91d2 db3c c056 b13b
00000190: 0c7c 233c cef5 c33c fc64 1b3c a821 dc3b
000001a0: b412 5ebb 57e4 273b a1b7 eebc b030 e1bb
000001b0: 34b5 2abc ed24 a6bb 343c 69bc 1930 d13b
000001c0: 66ce a8bc 75f2 f83c ec89 253d ef8d a6bb
000001d0: bf42 e73c 1bed e3bc 865d dfba 7b80 07bb
000001e0: 1461 fabc 83f4 c93a 0dd1 22ba e327 53bc
000001f0: 42c0 12bd d6b5 b1bc fb5d d4ba fb9c 18bc
00000200: 86c6 0e3d 95ba 4fbc a533 58bc 9a34 153d
00000210: 0d88 073c ded2 283c 2bc9 a6bb 093b d23a
00000220: e288 c53b 85e3 e03a 5295 883c 05ad a0bc
00000230: fdd4 3abc d90d 16bd 8f49 933c 0f63 793b
00000240: 5686 b73c 4507 dabb b848 06bd 03fb 0c3c
00000250: e374 963c 22cb c1bc 84e9 27bd 68c9 29bc
00000260: 907c 9e3c 9ec2 dfba 6003 703b 7fb1 b23b
00000270: dd97 4f3c 0cb7 043d 3069 983c 0211 59bc
00000280: b9c7 09bd 3843 6e3c 63d7 383c 29dd 8cbc
00000290: 83f2 abbb f1cc 183d 8e61 273b bdc7 38bd
000002a0: 0985 ad3c 8495 073c 1611 763b a0e4 fcbc
000002b0: ec5b 9dbc db73 0cba 042a 273b 89ef 363d
000002c0: 9092 a53c e7e9 f6bb fbf0 acbc a010 2c3c
000002d0: d226 d43a 87ae 01bc 2643 d23b 2f20 3abc
000002e0: bb4c 9e3c 4912 93bb e74c 23bd 3f99 e1bc
000002f0: 4a10 303b 0c8c 97bd 2948 833b 99bc 383c
00000300: 7a1e 7abc c1fc 1ebc fee0 18bd dc09 0dbc
00000310: b3f0 0d3d eac4 753a 8379 933c b567 48bc
00000320: 5b74 213d ccc5 3f3d 2aa4 da3a 1fcb f3bb
00000330: b6b9 7cb9 cc2a 49bd 436b d73c be50 373b
00000340: 2f4a 0abd e4b3 01bc f5cb ac3c 71fd 533d
00000350: fef8 1bbc 1594 a5bc 4164 62bc e89a 0fbd

action_model._discrete_distribution.branches.0.bias f4 [3]
0.019540215 -0.04369966 0.02111407
00000000: cd12 a03c 6afe 32bd 6af7 ac3c

action_model._discrete_distribution.branches.0.weight f4 [3, 216]
-0.009842329 -0.056762062 -0.0021069455 0.024058307 -0.026009377 -0.028460253 -0.012548965 -0.0052372366
-0.026537465 -0.001558423 -0.040860914 -0.013261515 -0.046946753 -0.0024059894 -0.00904874 -0.0023094313
-0.01113334 -0.0016773181 -0.042280316 -0.021171356 0.011830897 -0.030984486 0.03234382 -0.01194928
0.04905319 0.008568499 0.0015366555 -0.05285128 0.0031414814 -0.03661194 0.0039082626 0.0077860155
-0.029620817 0.0542235 0.0062015704 -0.011831931 0.02206508 0.0005233322 0.05153794 0.0019814614
-0.03328246 -0.012014369 -0.022804424 0.02606984 -0.011721216 -0.016264217 0.008374354 0.0044296947
-0.00992852 0.03273046 0.008771868 -0.031286426 0.022590654 0.0061374614 -0.0030289388 0.022894476
0.010595567 -0.0028238534 -0.0011021022 0.02598934 -0.010876608 -0.021798424 -0.00057608745 0.003168723
-0.06590344 -0.05909004 -0.037070177 0.015595859 0.018459845 0.030417142 -0.03305484 -0.0057386416
0.033013865 -0.018353807 -0.017588584 -0.013056525 -0.030275922 -0.04135149 -0.009456226 -0.025129916
0.008882439 0.0058875564 0.014849481 -0.0020791674 -0.028700693 -0.02301338 0.016308488 -0.008517065
0.02263089 -0.010882872 0.014834483 -0.060640726 -0.010941557 0.025358636 0.018231962 -0.014741756
-0.020459678 8.3718645e-05 0.007990142 -0.019781921 -0.009084671 0.004204026 0.010938216 0.029781567
-0.017210772 -0.0075439326 -0.0028698582 0.0404115 -0.01695434 -0.014130983 -0.05546187 -0.016718587
0.002586271 -0.0036686058 -0.016877871 0.0060821096 -0.028188605 0.005670426 0.023537958 0.019665346
-0.017889267 0.005379173 -0.0041263853 0.027055047 0.002395653 -0.013987082 -0.023251576 0.023726162
-0.012121739 -0.00089124806 -0.020986887 0.027136745 0.019370286 0.003593034 0.00011467975 -0.027419183
-0.020885939 0.0059543326 -0.035783447 -0.009997549 -0.016803388 0.008905167 -0.06402946 0.045087498
-0.019907868 0.04120226 -0.001191453 -0.055412356 -0.030246828 -0.061282005 -0.022471836 -0.054106914
0.0014827101 -0.02118443 -0.047737937 -0.03667977 0.032769386 -0.0017049765 -0.015602851 0.054606408
0.011562313 0.012834917 -0.0031843751 0.028764771 -0.021892091 -0.0242725 0.00473681 -0.029852953
-0.05594788 0.04081457 -0.0115284715 0.00845291 -0.008849907 0.010918362 -0.015003866 0.0093259765
-0.017154934 -0.06175589 -0.03409916 -0.021446526 0.00023566656 0.016558412 -0.015088519 0.078229316
0.024884192 0.016869914 0.031820364 0.019678753 0.048967715 -0.04174127 0.030831613 0.051804326
-0.039036248 0.017083488 -0.006933066 0.0054246094 -0.051999986 -0.05284665 -0.017959235 0.014504115
-0.020732272 -0.024459701 -0.011559728 0.03895972 -0.0146816755 0.0016101442 0.0062180366 -0.05851571
0.066103004 -0.029481169 -0.015696982 -0.031970214 -0.04917474 -0.018263659 -0.006737927 0.003751782
0.020866815 0.062485106 -0.04058467 -0.018357791 0.02302605 0.06237458 0.0060232887 -0.023586193
0.04833045 0.011655825 0.020672703 -0.00441791 0.025702536 0.014081065 0.0033522784 0.011946859
-0.004907787 -0.057032667 0.026506107 0.016279185 -0.0365971 0.06570846 0.027733969 -0.0032047029
-0.055368923 -0.021485144 0.0442737 0.069473356 -0.034517035 0.027706187 0.030906107 0.019297432
0.031305846 0.0022473643 0.0020722311 0.047839362 -0.049366836 0.0025021853 0.002743413 -0.043695733
00000000: b841 21bc 567f 68bd ae14 0abb ed15 c53c
00000010: 9e11 d5bc 7a25 e9bc 2d9a 4dbc 209d abbb
00000020: 1965 d9bc 0044 ccba c65d 27bd d346 59bc
00000030: 3d4b 40bd cead 1dbb 2b41 14bc d459 17bb
00000040: 9d68 36bc 75d9 dbba 202e 2dbd 8d6f adbc
00000050: 61d6 413c 2dd3 fdbc f47a 043d eac6 43bc
00000060: ffeb 483d e462 0c3c 9a69 c93a 957a 58bd
00000070: 50e1 4d3b 67f6 15bd e210 803b d521 ff3b
00000080: 5ba7 f2bc 7619 5e3d 8b36 cb3b b7da 41bc
00000090: d4c1 b43c 3b30 093a 7219 533d 68db 013b
000000a0: 3053 08bd ead7 44bc 58d0 babc 6b90 d53c
000000b0: 580a 40bc 893c 85bc 9634 093c f926 913b
000000c0: 3bab 22bc 6010 063d e2b7 0f3c 3226 00bd
000000d0: 0910 b93c c21c c93b 2981 46bb 328d bb3c
000000e0: 0799 2d3c 6610 39bb 6a74 90ba 99e7 d43c
000000f0: cd33 32bc 9c92 b2bc 9304 17ba 5aaa 4f3b
00000100: 62f8 86bd 6608 72bd e6d6 17bd c685 7f3c
00000110: 1a39 973c 5f2d f93c 8364 07bd 370b bcbb
00000120: 8c39 073d b95a 96bc ef15 90bc 09eb 55bc
00000130: 3605 f8bc 2e60 29bd 49ee 1abc 41dd cdbc
00000140: a687 113c 67ec c03b 3d4b 733c a442 08bb
00000150: b71d ebbc 8e86 bcbc 6199 853c 298b 0bbc
00000160: 6b64 b93c 134e 32bc 550c 733c 6962 78bd
00000170: 3744 33bc eabc cf3c 325b 953c 6887 71bc
00000180: 0e9b a7bc 1b92 af38 16e9 023c b20d a2bc
00000190: dfd7 14bc edc1 893b 3436 333c 79f8 f33c
000001a0: 9bfd 8cbc 1833 f7bb 3b14 3cbb 8786 253d
000001b0: d4e3 8abc a385 67bc fc2b 63bd 6bf5 88bc
000001c0: 6d7e 293b fe6c 70bb 7643 8abc 6f4c c73b
000001d0: caeb e6bc fbce b93b add2 c03c 3819 a13c
000001e0: 838c 92bc c643 b03b a136 87bb 8ca2 dd3c
000001f0: 6300 1d3b 132a 65bc 177a bebc 5e5d c23c
00000200: 429a 46bc a5a2 69ba b1ec abbc e14d de3c
00000210: 6fae 9e3c 1c79 6b3b 3980 f038 329e e0bc
00000220: fd18 abbc 901c c33b aa91 12bd c2cc 23bc
00000230: 42a7 89bc fae6 113c e121 83bd abad 383d
00000240: d315 a3bc b3c3 283d 872a 9cba 11f8 62bd
00000250: 32c8 f7bc d702 7bbd db16 b8bc 369f 5dbd
00000260: 7f57 c23a f88a adbc db88 43bd 873d 16bd
00000270: 3139 063d 8579 dfba 1aa3 7fbc f8aa 5f3d
00000280: db6f 3d3c 8b49 523c f3b0 50bb 19a4 eb3c
00000290: 0b57 b3bc 1fd7 c6bc 3e37 9b3b 2e8e f4bc
000002a0: 9b29 65bd 2e2d 273d eae1 3cbc 137e 0a3c
000002b0: 33ff 10bc eee2 323c c6d2 75bc fbcb 183c
000002c0: 8188 8cbc bef3 7cbd 90ab 0bbd a0b0 afbc
000002d0: 431d 7739 82a5 873c d635 77bc b136 a03d
000002e0: efd9 cb3c c632 8a3c 1256 023d 5635 a13c
000002f0: 5f92 483d e5f8 2abd 9492 fc3c c630 543d
00000300: 79e4 1fbd acf2 8b3c c62e e3bb ecc0 b13b
00000310: f0fd 54bd bb75 58bd 3f1f 93bc aba2 6d3c
00000320: bad6 a9bc b65f c8bc 0365 3dbc 3a94 1f3d
00000330: 698b 70bc 790b d33a acc0 cb3b 2bae 6fbd
00000340: 0361 873d 7e82 f1bc f596 80bc 33f3 02bd
00000350: 746b 49bd ab9d 95bc d4c9 dcbb 75e0 753b
00000360: e2f0 aa3c 62f0 7f3d 1c3c 26bd 1463 96bc
00000370: 20a1 bc3c 7d7c 7f3d 025f c53b d537 c1bc
00000380: 26f6 453d 13f8 3e3c cd59 a93c 1dc4 90bb
00000390: 208e d23c 44b4 663c e6b1 5b3b c2bc 433c
000003a0: 80d1 a0bb 169b 69bd 5623 d93c ed5b 853c
000003b0: d7e6 15bd 2892 863d 5932 e33c fe05 52bb
000003c0: 86ca 62bd 9d01 b0bc 5758 353d 0c48 8e3d
000003d0: bc61 0dbd 16f8 e23c ce2e fd3c a615 9e3c
000003e0: 8f3a 003d 8448 133b 45ce 073b 35f3 433d
000003f0: e134 4abd b4fb 233b d5ca 333b 4cfa 32bd

action_model._discrete_distribution.branches.1.bias f4 [3]
-0.006855292 0.012160789 -0.0038189879
00000000: 5ba2 e0bb 0c3e 473c fc47 7abb

action_model._discrete_distribution.branches.1.weight f4 [3, 216]
-0.016782988 0.019480268 0.0042157983 0.031836253 0.0054882816 0.04081479 0.0021313112 -0.013009017
-0.04174212 0.01850666 0.004377325 -0.006536046 0.01633969 -0.0049844636 0.011574438 -0.0022852484
-0.026214248 -0.005571436 0.020453438 0.002004217 -0.0017830594 0.026799586 0.017102912 -0.012754101
0.012369223 0.017789226 0.011679766 -0.0049050297 0.008769496 -0.016318075 0.021758454 0.032032702
0.002065572 0.06335203 -0.009818046 -0.0058407616 -0.008247682 -0.015403671 0.0022963507 0.009360597
0.04053606 -0.0067776702 0.03274568 0.02904563 0.04589168 0.029169673 -0.00732262 -0.01135791
-0.013252849 0.051867295 0.009873039 0.020352704 -0.020884577 0.018794116 -0.028757984 0.030660639
0.013495506 -0.011857274 -0.001712268 -0.0009098754 0.012540388 0.031200716 0.009959289 0.011094418
0.034500517 0.043941915 0.010274851 0.06628258 0.019239387 -0.0095555885 -0.013456742 -0.04632594
0.015566827 0.024324225 -0.0043582665 0.009455261 0.033655036 0.002760318 0.0024578336 0.0015597703
-0.04287094 0.012930418 -0.003474324 -0.0038440868 0.016574722 -0.05720045 -0.01421235 -0.007082919
-0.014355753 0.0059478907 0.01613852 0.06228812 0.010655102 -0.03163029 -0.01959151 -0.008610399
0.040589724 0.017418828 0.023373723 0.004040973 0.022844996 -0.055025287 0.0009219878 -0.0040483414
-0.0012189194 -0.022995219 0.017376663 0.0147728585 0.010367852 -0.011834643 -0.018781634 -0.010344368
0.04755129 0.025597375 0.013457545 -0.036321796 -0.02155261 0.033215404 0.0021344223 0.035814963
-0.018434374 -0.007921912 0.03021766 -0.0015100952 -0.012662458 -0.0011056414 -0.012764246 -0.0123473955
-0.10647229 0.05462707 0.005091673 0.028183177 -0.0030834223 0.03598521 0.024526022 0.0013437478
-0.007963485 0.035098508 -0.0031662337 0.018449595 -0.0014693125 -0.026244007 0.028630557 0.057913568
-0.018553918 0.034250777 0.04907035 -0.0052228463 -0.02170744 0.011987124 -0.0035005207 -0.012803244
-0.0048338026 0.027535988 -0.021188788 -0.009346552 0.013263926 0.009834095 -0.0015414255 0.046452284
-0.026558729 0.004287286 0.013944351 0.048281685 0.038780585 -0.0060060658 -0.004290194 -0.00022062712
0.03148552 -0.01742471 0.033728678 0.0075703724 0.005715505 -0.032779817 0.05217173 0.019975772
0.004447754 -0.0006604 0.026084138 -0.011975001 -0.029999848 0.022819921 -0.01863045 -0.009257348
-0.035254575 -0.008143248 -0.008336486 0.05144193 0.0015196779 0.0031244792 0.041072745 0.073538676
-0.007879543 0.0030237038 0.021696584 0.008302479 0.0031600986 -0.0020197802 -0.03273492 -0.026612831
-0.0023716083 0.009255122 -0.039421484 0.020729167 -0.05730364 -0.039251328 -0.017207945 0.024920264
0.060082592 -0.0055493074 -0.0020432633 -0.0235716 0.010441032 -0.0289708 0.0057734954 -0.029878128
-0.018970702 -0.0037444974 -0.017918812 -0.059163824 0.014119414 -0.041941714 0.038807463 0.010044627
0.03251188 -0.03243111 -0.024958938 0.015777705 0.037491433 -0.0027531944 -0.010964381 -0.063231274
0.026875935 0.043756902 0.020025965 -0.013547225 -0.008202921 -0.052277576 0.025159389 0.016277242
-0.020519083 -0.034830905 -0.04806578 -0.026444642 0.02531041 0.030152943 -0.036856286 -0.0011906388
0.018661194 -0.046673886 -0.0130066285 0.017970402 -0.017449906 0.002552082 -0.02675881 -0.010348581
00000000: 7a7c 89bc 1595 9f3c ae24 8a3b bb66 023d
00000010: 0bd7 b33b 692d 273d 78ad 0b3b c623 55bc
00000020: c9f9 2abd 479b 973c aa6f 8f3b 542c d6bb
00000030: d0da 853c b654 a3bb b6a2 3d3c 1bc4 15bb
00000040: 43bf d6bc 9890 b6bb f88d a73c 2e59 033b
00000050: 8cb5 e9ba ce8a db3c 681b 8c3c 94f6 50bc
00000060: 48a8 4a3c b6ba 913c 7d5c 3f3c 5fba a0bb
00000070: efad 0f3c 7cad 85bc c93e b23c b934 033d
00000080: 8c5e 073b b6be 813d dfdb 20bc dc63 bfbb
00000090: 4921 07bc ae5f 7cbc 5f7e 163b 305d 193c
000000a0: 2409 263d 3817 debb 5620 063d 1af1 ed3c
000000b0: eaf8 3b3d 3df5 ee3c 97f2 efbb 8716 3abc
000000c0: 7a22 59bc cd72 543d 87c2 213c b7ba a63c
000000d0: 2216 abbc 1ef6 993c dd95 ebbc 052c fb3c
000000e0: 411c 5d3c 0345 42bc 2e6e e0ba b484 6eba
000000f0: 3376 4d3c a598 ff3c 492c 233c 5dc5 353c
00000100: 6a50 0d3d 70fc 333d d957 283c 29bf 873d
00000110: eb9b 9d3c 0b8f 1cbc ab79 5cbc 45c0 3dbd
00000120: 010c 7f3c 9943 c73c cacf 8ebb 3dea 1a3c
00000130: ddd9 093d 74e6 343b 9b13 213b 3571 cc3a
00000140: 7099 2fbd 1bda 533c 7cb1 63bb 13ed 7bbb
00000150: b6c7 873c 054b 6abd ebda 68bc d517 e8bb
00000160: 6434 6bbc 86e6 c23b ee34 843c d421 7f3d
00000170: bd92 2e3c c38e 01bd 607e a0bc a212 0dbc
00000180: 6941 263d eeb1 8e3c 407a bf3c 236a 843b
00000190: 6e25 bb3c 3262 61bd 8eb1 713a f3a7 84bb
000001a0: 26c4 9fba 7860 bcbc 8159 8e3c dc09 723c
000001b0: ecdd 293c 17e6 41bc f1db 99bc 6d7b 29bc
000001c0: 24c5 423d 96b1 d13c 097d 5c3c 2ac6 14bd
000001d0: 198f b0bc e00c 083d aae1 0b3b b6b2 123d
000001e0: af03 97bc e8ca 01bc 078b f73c 63ee c5ba
000001f0: 3376 4fbc 2beb 90ba 2121 51bc bb4c 4abc
00000200: 250e dabd a2c0 5f3d 0dd8 a63b 68e0 e63c
00000210: 3e13 4abb 3a65 133d ccea c83c b220 b03a
00000220: 4779 02bc 74c3 0f3d 9680 4fbb 9b23 973c
00000230: f295 c0ba acfd d6bc a18a ea3c c736 6d3d
00000240: 63fe 97bc 8b4a 0c3d fefd 483d 6924 abbb
00000250: cdd3 b1bc a465 443c fe68 65bb b3c4 51bc
00000260: e064 9ebb 2793 e13c 1c94 adbc 4822 19bc
00000270: f050 593c 2f1f 213c a809 caba c044 3e3d
00000280: b191 d9bc 5d7c 8c3b d976 643c 04c3 453d
00000290: 64d8 1e3d 88ce c4bb c194 8cbb 2458 67b9
000002a0: f6f6 003d 44be 8ebc 1527 0a3d e310 f83b
000002b0: 2249 bb3b 2144 06bd 06b2 553d 3ba4 a33c
000002c0: 77be 913b b21e 2dba 67ae d53c cb32 44bc
000002d0: 3ec2 f5bc d8f0 ba3c e39e 98bc 22ac 17bc
000002e0: 1a67 10bd 426b 05bc c295 08bc c6b4 523d
000002f0: ee2f c73a 10c4 4c3b e53b 283d 729b 963d
00000300: 3319 01bc 5529 463b 09bd b13c 1f07 083c
00000310: a819 4f3b 4a5e 04bb 0d15 06bd 2703 dabc
00000320: fc6c 1bbb cca2 173c 6c78 21bd 37d0 a93c
00000330: 39b7 6abd 00c6 20bd adf7 8cbc 9525 cc3c
00000340: 2a19 763d f7d6 b5bb 45e8 05bb 3a19 c1bc
00000350: dd10 2b3c 2c54 edbc 972f bd3b fac2 f4bc
00000360: 7268 9bbc 3e66 75bb 79ca 92bc c455 72bd
00000370: 1d55 673c 13cb 2bbd 93f4 1e3d 3892 243c
00000380: 2d2b 053d 7cd6 04bd b076 ccbc 3f40 813c
00000390: 9e90 193d f06e 34bb f2a3 33bc 667f 81bd
000003a0: ec2a dc3c 703a 333d 7e0d a43c 2ef5 5dbc
000003b0: 8b65 06bc 0321 56bd 101b ce3c da57 853c
000003c0: a317 a8bc daaa 0ebd a0e0 44bd 6fa2 d8bc
000003d0: c757 cf3c 4e03 f73c 9ef6 16bd 350f 9cba
000003e0: 5cdf 983c 1e2d 3fbd c119 55bc aa36 933c
000003f0: 1bf3 8ebc d540 273b 4b35 dbbc 188d 29bc

action_model._discrete_distribution.branches.2.bias f4 [3]
0.03547592 -0.034276567 -0.0020269088
00000000: 334f 113d 9665 0cbd e3d5 04bb

action_model._discrete_distribution.branches.2.weight f4 [3, 216]
-0.022927845 -0.04874597 0.011869073 -0.04609134 0.0461 0.06432478 -0.0020801858 -0.031140741
0.013912223 -0.041241053 -0.05764719 -0.036130153 0.03685952 0.012593022 0.0007019039 -0.115159184
-0.0032058395 -0.007878507 -0.05441993 -0.034360655 -0.028318357 -0.018158896 -0.043403987 -0.008214038
0.022226112 0.05028628 0.009819142 0.0032307352 0.014005623 0.010564013 -0.012659879 -0.009730087
-0.019461274 -0.043915942 0.02588282 -0.02553624 -0.0011055436 -0.023009315 0.02137813 0.01975833
-0.013424958 0.02694824 -0.0012700154 -0.0017310716 -0.014253717 -0.04964194 0.019082213 -0.009078404
0.016773973 -0.024289498 -0.0039059452 -0.005057713 0.050107595 -0.0059871846 -0.027072426 -0.026515214
0.0023561562 0.029922076 -0.008513035 0.001636439 0.0052819755 -0.008510026 0.001881562 -0.021973094
0.047274046 0.015651692 0.0064289644 0.0054104486 0.0529391 -0.03710576 -0.065079644 -0.008582688
0.008686996 0.0016878077 -0.034214977 0.0028738775 -0.018267622 0.009060992 0.010026085 0.016167976
0.008476567 0.005683549 0.009946046 -0.003644009 0.034249526 -0.018181698 0.0037218877 -0.015826467
-0.018274682 -0.031888824 0.02199357 -0.014827121 -0.008313811 -0.011914792 -0.0051454324 -0.010795587
0.0075217774 0.020190526 0.0022931462 -0.038482837 0.041580476 0.037028242 0.017309792 0.04736582
-0.07192507 -0.0031477658 0.009188071 0.043848366 -0.003886667 0.023575252 -0.009964827 -0.050766587
-0.05013695 0.024691168 -0.0121359145 0.008382956 0.029069614 -0.013687716 -0.015767835 -0.05567045
-0.017600946 -0.0042789015 0.0070309998 0.030008335 -0.06010841 0.009741308 -0.0062751807 0.027825404
0.041402176 0.006891754 -0.061950874 0.013033472 0.008870229 0.017658161 -0.007653156 -0.048596285
0.015728673 -0.022878313 -0.031398177 -0.03693058 -0.028142598 0.017165784 0.015872296 0.027912358
0.04855512 -0.027231291 -0.049511064 -0.021900147 -0.0427495 -0.041109737 0.0019009254 -0.023328058
-0.016986657 -0.0032730948 -0.038378857 -0.0108420225 0.032193802 0.033622842 0.0025713926 -0.04008673
0.01984138 -0.0025465146 -0.01870501 0.021150097 0.024847256 0.0067817913 -0.016048856 -0.032347858
-0.026508875 -0.048046034 0.0028443947 0.005546787 -0.0006966611 0.008292832 0.010329929 -0.0062452997
-0.0117517775 0.0007061395 0.0065791784 0.011034547 -0.018509286 0.034101695 0.006864353 -0.024355277
0.003887118 0.036068097 0.0056533036 -0.05331486 0.065634966 -0.007877673 0.05716434 0.009164071
-0.042702798 0.010537148 0.008270838 -0.040847406 0.022966456 -0.042494174 0.012706925 -0.015207656
-0.0047358694 0.022713026 -0.002524037 0.041885354 -0.012359736 0.0017395328 0.031883575 -0.03442523
0.040885426 -0.043240827 -0.013919952 0.032040723 -0.06922625 -0.021345397 -0.015332394 0.04525712
0.0015109326 0.011893959 0.045002464 -0.014339935 -0.041609716 -0.007972506 0.023906404 0.020743506
-0.0046681818 0.032106422 0.074883156 0.011152854 -0.002074037 -0.015506314 0.002796414 0.016256625
-0.008801557 0.01409832 0.031167576 0.022245774 0.0008986138 -0.0013593843 0.009451615 0.032767814
-0.00023699961 0.02064165 0.016121412 0.008109393 0.04389365 -0.003338765 -0.008965823 -0.02236757
0.016045978 0.020700505 0.015709208 -0.022614045 0.029585034 -0.008278709 -0.01852227 -0.021580493
00000000: 2dd3 bbbc dba9 47bd 8076 423c 46ca 3cbd
00000010: 5bd3 3c3d b6bc 833d ba53 08bb de1a ffbc
00000020: 18f0 633c 61ec 28bd 761f 6cbd 36fd 13bd
00000030: 02fa 163d f652 4e3c f9ff 373a 94d8 ebbd
00000040: 1019 52bb da14 01bc 6fe7 5ebd c2bd 0cbd
00000050: e6fb e7bc f7c1 94bc 61c8 31bd 2c94 06bc
00000060: 8913 b63c fdf8 4d3d 77e0 203c beba 533b
00000070: d777 653c af14 2d3c 626b 4fbc f16a 1fbc
00000080: 406d 9fbc 34e1 33bd 3508 d43c 6031 d1bc
00000090: e3e7 90ba 087e bcbc 3021 af3c 39dc a13c
000000a0: 5bf4 5bbc 8ec2 dc3c a576 a6ba 20e5 e2ba
000000b0: 6c88 69bc 5955 4bbd 4d52 9c3c 96bd 14bc
000000c0: 9269 893c c5fa c6bc e3fa 7fbb 2cbb a5bb
000000d0: 9f3d 4d3d 2530 c4bb fec6 ddbc 6f36 d9bc
000000e0: be69 1a3b 241f f53c 427a 0bbc c87d d63a
000000f0: 6c14 ad3b a36d 0bbc bf9e f63a eb00 b4bc
00000100: 6ea2 413d fa37 803c 10aa d23b 224a b13b
00000110: abd6 583d 36fc 17bd 7a48 85bd 679e 0cbc
00000120: e753 0e3c 6e39 dd3a 0125 0cbd aa57 3c3b
00000130: fba5 95bc 8e74 143c 7344 243c b472 843c
00000140: 4de1 0a3c 113d ba3b bef4 223c 53d0 6ebb
00000150: 3b49 0c3d c9f1 94bc eaea 733b 82a6 81bc
00000160: c9b4 95bc db9d 02bd dc2b b43c 74ed 72bc
00000170: a736 08bc 4236 43bc 049b a8bb f9df 30bc
00000180: 3e79 f63b 9a66 a53c 9c48 163b 2ea0 1dbd
00000190: 4a50 2a3d edaa 173d 44cd 8d3c a902 423d
000001a0: 734d 93bd bf4a 4ebb 9089 163c 589a 333d
000001b0: 74b7 7ebb e320 c13c 8443 23bc a0f0 4fbd
000001c0: 675c 4dbd 2245 ca3c b7d5 46bc aa58 093c
000001d0: 6623 ee3c 7142 60bc 8c2b 81bc b306 64bd
000001e0: dc2f 90bc 0736 8cbb 4d64 e63b 0ad4 f53c
000001f0: 3c34 76bd 029a 1f3c 08a0 cdbb 1af2 e33c
00000200: 5495 293d 39d4 e13b 33c0 7dbd 588a 553c
00000210: 7054 113c d9a7 903c 53c7 fabb e60c 47bd
00000220: 6bd9 803c 4d6b bbbc 609b 00bd 8544 17bd
00000230: 4e8b e6bc 429f 8c3c 9e06 823c 75a8 e43c
00000240: bce1 463d 2814 dfbc 1dcc 4abd f067 b3bc
00000250: 1a1a 2fbd af62 28bd 7928 f93a 7c1a bfbc
00000260: 9a27 8bbc 6b81 56bb 2633 1dbd bda2 31bc
00000270: a6dd 033d 1bb8 093d cf84 283b fc31 24bd
00000280: 648a a23c 6de3 26bb 403b 99bc f842 ad3c
00000290: 798c cb3c ca39 de3b e478 83bc 307f 04bd
000002a0: 2429 d9bc ebcb 44bd 0669 3a3b d2c1 b53b
000002b0: 23a0 36ba a9de 073c dd3e 293c 5fa5 ccbb
000002c0: 878a 40bc 381c 393a 2696 d73b 3fca 343c
000002d0: c9a0 97bc 38ae 0b3d 5eee e03b b884 c7bc
000002e0: 05bf 7e3b 24bc 133d 593f b93b af60 5abd
000002f0: a06b 863d 5b11 01bc 2825 6a3d e624 163c
00000300: 21e9 2ebd 01a4 2c3c 6982 073c 9c4f 27bd
00000310: 2624 bc3c 5f0e 2ebd b530 503c 8829 79bc
00000320: 5a2f 9bbb ab10 ba3c 506a 25bb fa8f 2b3d
00000330: 7d80 4abc 0901 e43a 5a98 023d 7801 0dbd
00000340: 7a77 273d 4b1d 31bd 8310 64bc 223d 033d
00000350: 7ec6 8dbd 8bdc aebc b934 7bbc 885f 393d
00000360: 7c0a c63a e1de 423c 8154 383d 0cf2 6abc
00000370: f36e 2abd 1d9f 02bc 5dd7 c33c 49ee a93c
00000380: 8cf7 98bb 0682 033d 575c 993d 76ba 363c
00000390: 91ec 07bb 320e 7ebc 0b44 373b 9d2c 853c
000003a0: 6834 10bc a4fc 663c 2553 ff3c c53c b63c
000003b0: f490 6b3a 5e2d b2ba f2da 1a3c 8b37 063d
000003c0: 1983 78b9 ad18 a93c 0d11 843c 42dd 043c
000003d0: d4c9 333d 2ecf 5abb 63e5 12bc 323c b7bc
000003e0: db72 833c 1b94 a93c 99b0 803c 1741 b9bc
000003f0: 505c f23c 6ca3 07bc 04bc 97bc 93c9 b0bc

network_body.linear_encoder.seq_layers.0.bias f4 [216]
-0.012044815 -0.0041391514 -0.04468175 -0.022319574 -0.021368053 0.017823856 0.0031104262 -0.014846046
0.00719134 0.011246427 -0.03594184 0.03732041 0.016381541 -0.01447355 -0.01517727 -0.012964343
-0.008359759 -0.0049723806 -0.019179452 0.0075400183 0.017853063 -0.009447618 0.003587291 0.028161757
-0.03149394 -0.007926932 0.020528445 -0.02743285 -0.04761944 0.014817938 -0.029875055 -0.011549066
-0.02075119 -0.014664301 0.0011699031 -0.025633454 -0.040645283 -0.00045466475 -0.030142434 -0.014716699
-0.0036574758 -0.026091566 -0.0031590716 -0.010456488 -0.021345196 0.003467852 0.00577827 -0.030335078
0.016156962 -0.010195385 0.04970261 0.0057598646 0.0013301951 -0.011021102 0.019411586 0.0034677174
-0.008366125 -0.033431534 0.0015618851 0.013606672 -0.02759882 -0.0013547229 -0.008565635 0.028191054
-0.004990321 -0.012674531 -0.009310932 -0.0006019266 0.0054345247 0.0029368694 -0.0076156682 -0.019065881
0.0039896267 -0.024609178 0.0025409781 0.028968401 0.017732369 -0.046709422 -0.00022774516 -0.0018085173
-0.01239671 0.02860027 -0.005935331 -0.0033427938 -0.013420303 0.012985131 -0.020924218 0.017373797
-0.022179063 0.00996896 -0.020720482 -0.02762494 -0.03505059 -0.0009838892 -0.04098692 0.003628855
0.017442238 -0.0025130871 -0.0144375395 -0.023758003 0.010796503 -0.006377888 0.02999936 0.006280338
-0.01708691 0.017049864 -0.018851576 -0.019202445 0.0055745686 -0.013927587 -0.02285219 -0.02585388
-0.01732538 -0.016746458 0.03535333 -0.0051496644 0.018162582 -0.00024554014 -0.019806363 0.014531487
-0.031105757 -0.033500385 -0.03116229 0.010544298 0.0231963 -0.009085292 0.0022967958 -0.012821557
-0.029700536 -0.0088409865 0.0047070123 -0.017304627 -0.020469146 -0.02785474 -0.0013841202 -0.012325809
0.005875365 -0.0010842291 -0.022116357 -0.0076248003 0.023654927 -0.004127687 -0.042612206 0.014660699
-0.07494254 -0.0019276912 -0.019304143 -0.03662202 -0.03527217 -0.007774815 0.0030203573 0.0061554178
-0.012812841 0.0013541742 -0.008576506 -0.0056924024 -0.007901929 -0.004853595 0.011686224 0.018964581
-0.011065346 -0.025241774 -0.0089192195 -0.004163288 -0.013470065 -0.007131201 0.005331513 0.010634446
-0.018504895 -0.040482435 0.0035057624 0.043846212 -0.050684486 -0.037691273 -0.026677608 -0.034777544
-0.013821578 0.030701006 -0.00882932 0.025446668 -0.026775595 -0.02338083 -0.021028291 -0.023867412
-0.0045426884 -0.014559032 -0.015068964 0.006730635 -0.027564775 -0.053152755 0.003952087 -0.0007862526
-0.010954903 0.0027815388 -0.01898989 -0.027389562 -0.02281445 -0.013005719 -0.02083609 0.0013552222
-0.027436377 0.011772459 -0.030744478 -0.026305154 -0.030687958 0.005354917 -0.015349773 0.006277611
0.0027643084 0.03545874 -0.0039876406 -0.031462677 0.009753823 0.0064269854 -0.014317339 -0.028506104
00000000: 9e57 45bc b8a1 87bb 3604 37bd 8ad7 b6bc
00000010: 0e0c afbc 5603 923c 4bd8 4b3b d53c 73bc
00000020: 55a5 eb3b ef42 383c c037 13bd 49dd 183d
00000030: 9532 863c 7822 6dbc 16aa 78bc 6568 54bc
00000040: 5ff7 08bc 5aef a2bb 3a1e 9dbc 4212 f73b
00000050: 9640 923c 2fca 1abc c218 6b3b 7cb3 e63c
00000060: caff 00bd f6df 01bc 452b a83c dbba e0bc
00000070: 9a0c 43bd f0c6 723c 88bc f4bc 4b38 3dbc
00000080: 66fe a9bc 8942 70bc 6f57 993a 40fd d1bc
00000090: ab7b 26bd 1260 eeb9 44ed f6bc 4f1e 71bc
000000a0: 43b2 6fbb fbbd d5bc 6d08 4fbb b051 2bbc
000000b0: 1fdc aebc e744 633b a457 bd3b 4581 f8bc
000000c0: 9b5b 843c 8b0a 27bc f794 4b3d 3fbd bc3b
000000d0: f159 ae3a da91 34bc 0c05 9f3c a542 633b
000000e0: 1212 09bc 81ef 08bd 2bb8 cc3a 85ee 5e3c
000000f0: ec16 e2bc f590 b1ba e156 0cbc edf0 e63c
00000100: d985 a3bb d6a8 4fbc e18c 18bc 9cca 1dba
00000110: 1914 b23b 7e78 403b db8c f9bb 0d30 9cbc
00000120: 6abb 823b 3099 c9bc 8a86 263b 244f ed3c
00000130: 7943 913c 6152 3fbd e0ce 6eb9 c50b edba
00000140: 921b 4bbc 1d4b ea3c 2a7d c2bb c612 5bbb
00000150: d5e0 5bbc 96bf 543c 4469 abbc 7e53 8e3c
00000160: deb0 b5bc d954 233c 00be a9bc b34d e2bc
00000170: 3591 0fbd d8f5 80ba e7e1 27bd 16d2 6d3b
00000180: 06e3 8e3c 9bb2 24bb 6e8b 6cbc 25a0 c2bc
00000190: d1e3 303c 9afd d0bb 38c1 f53c 4bcb cd3b
000001a0: d9f9 8bbc 28ac 8b3c 9f6e 9abc 724e 9dbc
000001b0: dfaa b63b 8930 64bc 8434 bbbc 84cb d3bc
000001c0: f5ed 8dbc de2f 89bc a7ce 103d 84be a8bb
000001d0: b2c9 943c d7bb 80b9 f440 a2bc 7915 6e3c
000001e0: 80d1 febc b337 09bd 0f48 ffbc fec1 2c3c
000001f0: 2b06 be3c 7ada 14bc d785 163b 8211 52bc
00000200: 8a4e f3bc c9d9 10bc 483d 9a3b 6fc2 8dbc
00000210: e9ae a7bc a02f e4bc 5e6b b5ba 31f2 49bc
00000220: 2286 c03b b11c 8eba 5d2d b5bc 76d9 f9bb
00000230: fac7 c13c 8c41 87bb 238a 2ebd 6e33 703c
00000240: 797b 99bd 95aa fcba b923 9ebc f900 16bd
00000250: 8d79 10bd e0c3 febb 30f1 453b 63b3 c93b
00000260: f3ec 51bc 8c7e b13a 7984 0cbc 5587 babb
00000270: 1877 01bc e80a 9fbb 9377 3f3c 9c5b 9b3c
00000280: 6d4b 35bc d6c7 cebc eb21 12bc 316c 88bb
00000290: 8cb1 5cbc daac e9bb f9b3 ae3b 193c 2e3c
000002a0: 9497 97bc e9d0 25bd efc0 653b 1698 333d
000002b0: 899a 4fbd 2a62 1abd 008b dabc e672 0ebd
000002c0: e673 62bc ad80 fb3c daa8 10bc 8875 d03c
000002d0: 7e58 dbbc 2889 bfbc 8643 acbc 9785 c3bc
000002e0: d5da 94bb 0289 6ebc d1e3 76bc a98c dc3b
000002f0: 86cf e1bc b4b6 59bd 8280 813b 851c 4eba
00000300: 327c 33bc 7a4a 363b b090 9bbc 1360 e0bc
00000310: 5fe5 babc f015 55bc 73b0 aabc b6a1 b13a
00000320: 41c2 e0bc 46e1 403c d8db fbbc e87d d7bc
00000330: 5065 fbbc 4d78 af3b 9d7d 7bbc 6bb4 cd3b
00000340: 6629 353b 2f3d 113d c1aa 82bb 02df 00bd
00000350: 80ce 1f3c 7699 d23b 4693 6abc a285 e9bc

network_body.linear_encoder.seq_layers.0.weight f4 [216, 121]
0.033638105 -0.018753035 -0.18989402 -0.13881378 -0.078166686 -0.02996141 -0.10138108 0.004996219
0.14021124 -0.09522437 0.040517677 0.043706343 0.021051468 -0.047934573 0.088215485 -0.094682336
-0.091256 0.038954627 0.027120665 -0.024278682 0.07670842 -0.017326197 -0.03307622 0.055689387
0.010251309 0.0038390947 0.069600694 0.12774606 0.15530704 -0.15898056 -0.05611731 -0.16848727
0.12797531 -0.04354615 0.053355083 0.03168579 0.068412855 -0.078454085 -0.01593854 -0.008592262
-0.119475886 -0.026799278 -0.033728715 0.11559508 -0.10479224 0.16550472 0.039671626 -0.095484756
-0.095715046 -0.037008155 -0.08401175 -0.004123434 0.0032892015 -0.05693293 0.025458496 -0.0940601
-0.17614354 0.15014611 -0.13522439 0.017134912 0.18324718 0.22950105 0.055345315 0.10586553
-0.1931831 0.2319732 0.09207146 0.015495785 0.08680405 0.056327466 -0.078175515 -0.17433803
0.08121888 -0.06685792 0.11694261 0.161777 0.05392051 0.042362377 -0.062383767 0.022519844
-0.045074053 -0.21175161 -0.03557257 -0.053239316 0.083305195 -0.13933784 -0.023892732 0.003899243
-0.17740527 -0.0057520983 -0.057796568 0.11049569 0.023993777 -0.03206259 -0.18278703 -0.04513261
-0.20985468 0.0091837635 0.044824503 -0.0867772 0.011508331 -0.0756931 -0.11471446 0.045953237
0.05352186 0.12423489 0.07782198 -0.0036575745 0.044738587 -0.0053457497 -0.014565953 -0.04002524
-0.103303015 -0.17213053 -0.013030789 0.0976371 0.11577266 0.07425002 0.04302024 0.1001318
0.13471939 0.1483689 -0.068058975 0.13920778 -0.16487786 -0.020206112 -0.078191616 -0.028120602
-0.06467165 0.042325404 0.03138262 0.053289715 0.10539128 -0.01556815 0.05319555 -0.059966866
-0.06650265 0.03440546 -0.0354923 -0.067698665 -0.0643779 -0.08766471 -0.15384567 0.04365249
-0.013477063 0.14197592 0.07339529 -0.21719666 -0.079318464 0.12717415 -0.19678102 0.06708042
-0.05995302 -0.1557876 -0.07903732 -0.09434379 -0.051851466 0.009108195 -0.058982532 -0.06508783
-0.07332776 -0.040670462 0.026777444 -0.21680416 -0.13882153 -0.013821784 0.1441462 -0.20105644
-0.032016147 -0.10018717 0.13077235 0.041731924 0.042045243 -0.24357274 -0.05093559 -0.15982714
-0.011061996 -0.0135612395 -0.0034604992 -0.060822055 -0.027193641 0.10747377 0.24228631 -0.09924126
-0.0060909376 0.013686492 0.02310092 0.068983614 -0.0038370145 0.14079723 0.14167048 -0.15030888
-0.059082564 -0.043380428 -0.12417369 -0.10324725 -0.014667025 -0.025258884 0.09209131 -0.2316004
0.006306772 0.13498376 0.06999372 -0.04371778 0.015903898 0.106850095 0.027247995 -0.05935643
0.019479973 -0.15520039 -0.037707765 0.14804655 -0.048507214 -0.013215529 0.06818299 -0.0674029
0.22899537 -0.05885881 -0.091952264 -0.0121989595 -0.115275435 0.23323862 0.025708945 -0.0153587395
0.009680489 -0.08977884 -0.070967354 0.025939569 0.017568162 0.023861542 -0.01966214 -0.027148072
0.0574635 -0.022552686 -0.013927981 -0.0069070696 0.097277865 -0.08088949 -0.041008428 0.07461007
0.09244153 0.10860457 -0.1348559 0.17602998 0.0062144543 0.054776 -0.07280857 0.10316258
-0.11854515 0.010919729 0.1295861 0.11851112 0.004118378 -0.014256794 0.14014663 -0.014663697
00000000: 1cc8 093d f79f 99bc 9473 42be 3325 0ebe
00000010: db15 a0bd a271 f5bc e2a0 cfbd 53b7 a33b
00000020: 8993 0f3e ff04 c3bd ddf5 253d 6c05 333d
00000030: 2174 ac3c 0b57 44bd 52aa b43d d0e8 c1bd
00000040: 6de4 babd e38e 1f3d 282c de3c 16e4 c6bc
00000050: 4e19 9d3d abef 8dbc ee7a 07bd 8e1a 643d
00000060: 1bf5 273c 5299 7b3b cf8a 8e3d ddcf 023e
00000070: cf08 1f3e cdcb 22be 44db 65bd ed87 2cbe
00000080: f60b 033e 735d 32bd dc8a 5a3d f5c8 013d
00000090: 0a1c 8c3d 89ac a0bd 8b91 82bc 8fc6 0cbc
000000a0: c6af f4bd 298a dbbc 1f27 0abd 1dbd ec3d
000000b0: 509d d6bd 127a 293e b77e 223d 838d c3bd
000000c0: 4006 c4bd dd95 17bd 5a0e acbd df1d 87bb
000000d0: a58f 573b 8132 69bd 568e d03c 95a2 c0bd
000000e0: f95e 34be e7bf 193e 4378 0abe 845e 8c3c
000000f0: 26a5 3b3e 5302 6b3e c5b1 623d 07d0 d83d
00000100: cad1 45be 628a 6d3e f68f bc3d 08e2 7d3c
00000110: 52c6 b13d a1b7 663d 7c1a a0bd ab85 32be
00000120: 1656 a63d ceec 88bd 9b7f ef3d dfa8 253e
00000130: c1db 5c3d 2c84 2d3d 1f86 7fbd 897b b83c
00000140: 929f 38bd 6ad5 58be 8bb4 11bd 7811 5abd
00000150: ea9b aa3d 94ae 0ebe b1ba c3bc 718a 7f3b
00000160: baa9 35be 197c bcbb 18bc 6cbd 904b e23d
00000170: 998e c43c 1054 03bd 862c 3bbe f9dc 38bd
00000180: 25e4 56be 7f77 163c e699 373d 3fb8 b1bd
00000190: 708d 3c3c fc04 9bbd 6aef eabd 7639 3c3d
000001a0: bd39 5b3d dd6e fe3d 2161 9f3d ebb3 6fbb
000001b0: cf3f 373d 662b afbb 09a6 6ebc 82f1 23bd
000001c0: 8890 d3bd fc42 30be 177f 55bc f6f5 c73d
000001d0: 371a ed3d 6510 983d fe35 303d e711 cd3d
000001e0: e1f3 093e 04ee 173e 8162 8bbd 7c8c 0e3e
000001f0: bed5 28be 4a87 a5bc ed22 a0bd 2d5d e6bc
00000200: 9272 84bd 675d 2d3d 108b 003d 5146 5a3d
00000210: 62d7 d73d 8e11 7fbc 94e3 593d d19f 75bd
00000220: 8b32 88bd bdec 0c3d 6060 11bd 99a5 8abd
00000230: 8fd8 83bd 8e89 b3bd b889 1dbe f4cc 323d
00000240: e6ce 5cbc 2362 113e 4550 963d cd68 5ebe
00000250: b871 a2bd f139 023e f780 49be 7661 893d
00000260: 4c91 75bd c986 1fbe 52de a1bd 5137 c1bd
00000270: 3462 54bd 8a3a 153c ab97 71bd c54c 85bd
00000280: dd2c 96bd 1296 26bd 5f5c db3c e901 5ebe
00000290: 3b27 0ebe c474 62bc 109b 133e bde1 4dbe
000002a0: 5d23 03bd ee2e cdbd 30e9 053e 18ef 2a3d
000002b0: a237 2c3d 226b 79be d6a1 50bd baa9 23be
000002c0: 603d 35bc f62f 5ebc 8bc9 62bb 8c20 79bd
000002d0: 33c5 debc 351b dc3d e719 783e 003f cbbd
000002e0: 7d96 c7bb 4f3d 603c 243e bd3c 4847 8d3d
000002f0: 6c76 7bbb 262d 103e 1112 113e 92ea 19be
00000300: 8f00 72bd adaf 31bd c74e febd 4b73 d3bd
00000310: f64d 70bc b8eb cebc 5e9a bc3d a828 6dbe
00000320: 0aa9 ce3b 2f39 0a3e de58 8f3d 6a11 33bd
00000330: e448 823c 39d4 da3d 3037 df3c ba1f 73bd
00000340: 7794 9f3c daec 1ebe 7573 1abd 8499 173e
00000350: 80af 46bd f285 58bc 86a3 8b3d 880a 8abd
00000360: c37d 6a3e f015 71bd 7851 bcbd 25de 47bc
00000370: 8715 ecbd 1bd6 6e3e 919b d23c 39a3 7bbc
00000380: ea9a 1e3c f8dd b7bd 5557 91bd 387f d43c
00000390: 1beb 8f3c 4879 c33c 7f12 a1bc a265 debc
000003a0: d95e 6b3d 69c0 b8bc 3032 64bc b354 e2bb
000003b0: 9e39 c73d 64a9 a5bd 74f8 27bd 2acd 983d
000003c0: fc51 bd3d 136c de3d aa17 0abe 3441 343e
000003d0: 9fa2 cb3b cd5c 603d a91c 95bd e746 d33d
000003e0: cdc7 f2bd aae8 323c 38b2 043e f5b5 f23d
000003f0: 75f3 863b 5495 69bc 9982 0f3e 0140 70bc

network_body.linear_encoder.seq_layers.2.bias f4 [216]
-0.0336016 -0.009184655 -0.0023158637 0.012987354 0.019005165 -0.00255309 -0.020776175 -0.012995164
0.0087228175 -0.021826522 -0.037052542 0.0028807858 0.00024781446 0.014382415 0.0042368965 3.866703e-05
0.007965055 -0.01720053 -0.035394147 -0.008253872 -0.026890064 0.012280141 -0.0006773247 -0.016639017
0.0023836934 0.018580368 -0.027346095 -0.017711628 -0.025927076 -0.011841626 -0.03343145 -0.005663071
0.0026175317 -0.015122625 -0.00019455177 -0.024096066 0.0085295765 -0.009640975 0.004914919 -0.028875418
0.009659514 -0.02133808 -0.02562619 -0.021818262 0.00827867 0.024770377 0.011824587 -0.022541543
-0.019415654 0.0034700902 -0.029485406 -0.0035008881 -0.038231537 -0.03503096 -0.007956662 -0.022173496
0.011806225 -0.010615678 -0.024865896 -0.001430723 0.0032341948 -0.014755469 -0.021916704 0.017053453
-0.02709629 -0.008650668 -0.014000549 0.011227436 -0.00988063 -0.028145488 0.0057416675 -0.013546947
0.022434905 -0.021207448 -0.02158681 -0.006152708 -0.0102390135 -0.013839382 -0.014075338 -0.0225133
-0.010286539 -0.016115498 -0.022020452 -0.01059085 -0.01623878 -0.020837555 -0.021526214 -0.023263454
-0.024164705 0.016726058 -0.010206976 -0.020600453 0.005315191 -0.0154807195 -0.0068174005 -0.0122019155
-0.002754819 -0.0026245532 -0.035648026 0.0026155694 -0.012958839 -0.0010093133 -0.017701536 -0.005960604
-0.035645586 -0.004505416 -0.04246121 0.015574637 -0.035817914 -0.0032508217 -0.005318461 -0.009903849
0.0031284187 -0.011535237 -0.021628015 0.013336017 0.012647724 0.007943898 -0.013499221 0.002892193
-0.039914686 -0.0133908205 0.003634147 -0.0343551 0.004160369 -0.01550905 -0.012218945 -0.011642207
-0.02443999 -0.00386307 -0.00015914637 -0.012551468 -0.012188739 0.0030724455 0.015563961 -0.032402124
-0.028677834 -0.02546501 -0.017455708 0.009509139 0.0060537816 -0.018988624 -0.027199553 -0.00374102
-0.017977096 0.018851692 -0.00621094 -0.0018900555 -0.032145467 0.025798095 -0.0008384104 0.029442916
0.008188959 0.018077571 -0.0330642 0.019428585 -0.010862057 -0.02010001 0.01552412 0.002283158
-0.0077826953 -0.004423136 -0.010641994 -0.023057235 -0.0022218695 -0.026024003 -0.009248113 -0.0031521635
-0.00862545 0.0137036275 -0.0014806297 -0.019400079 0.001704101 0.0047981306 -0.010297158 -0.012307917
-0.02492661 -0.042750366 0.005204496 -0.0019336812 -0.00660213 0.00043505474 0.0032237899 -0.038668137
-0.017512245 0.0039832373 -4.6359317e-05 -0.011012943 -0.014694825 -0.04824589 -0.028280856 -0.004391803
-0.0034908701 0.025318198 -0.023769433 0.012266778 0.0011535172 -0.03357695 -0.031041365 -0.020716896
-0.016679341 -0.010835828 -0.014382005 -0.0038081566 0.0030986122 0.004205406 -0.009800861 0.00027151272
-0.009102686 -0.0030383891 0.012730632 0.01181274 -0.004550801 0.024617054 -0.016856039 0.008370573
00000000: d5a1 09bd 3c7b 16bc bfc5 17bb e9c8 543c
00000010: b8b0 9b3c be51 27bb cc32 aabc abe9 54bc
00000020: 26ea 0e3c 89cd b2bc 68c4 17bd 91cb 3c3b
00000030: 18ed 8139 39a4 6b3c aad5 8a3b 682e 2238
00000040: dd7f 023c 20e8 8cbc 74f9 10bd 403b 07bc
00000050: 8d48 dcbc a532 493c 7e8e 31ba 8c4e 88bc
00000060: bd37 1c3b db35 983c eb04 e0bc fa17 91bc
00000070: 0565 d4bc 6103 42bc 6bef 08bd 4891 b9bb
00000080: e58a 2b3b e3c4 77bc 9800 4cb9 1d65 c5bc
00000090: a3bf 0b3c 2ef5 1dbc 540d a13b 248c ecbc
000000a0: f042 1e3c 32cd aebc 04ee d1bc 36bc b2bc
000000b0: 42a3 073c 3feb ca3c eabb 413c 0ba9 b8bc
000000c0: 940d 9fbc 746a 633b 618b f1bc 286f 65bb
000000d0: ac98 1cbd a07c 0fbd a95c 02bc 31a5 b5bc
000000e0: e66e 413c 61ed 2dbc 90b3 cbbc 1987 bbba
000000f0: c9f4 533b ecc0 71bc a98a b3bc afb3 8b3c
00000100: 0af9 ddbc 88bb 0dbc 8f62 65bc 48f3 373c
00000110: 5ee2 21bc 5e91 e6bc 9924 bc3b 04f4 5dbc
00000120: 68c9 b73c 3ebb adbc d2d6 b0bc a89c c9bb
00000130: 89c1 27bc 93be 62bc 3f9c 66bc d06d b8bc
00000140: df88 28bc a604 84bc 3c64 b4bc 3f85 2dbc
00000150: 3107 85bc 85b3 aabc be57 b0bc 0093 bebc
00000160: 0ff5 c5bc 1605 893c 293b 27bc 48c2 a8bc
00000170: 0e2b ae3b d8a2 7dbc 8064 dfbb 8bea 47bc
00000180: 328a 34bb b200 2cbb aa03 12bd f969 2b3b
00000190: 4f51 54bc ef4a 84ba d002 91bc 2c51 c3bb
000001a0: 1b01 12bd 2ba2 93bb ceeb 2dbd c32c 7f3c
000001b0: ceb5 12bd bd0b 55bb 7c46 aebb c143 22bc
000001c0: 2806 4d3b 4afe 3cbc 3c2d b1bc 4f7f 5a3c
000001d0: 6638 4f3c 2027 023c d62b 5dbc f28a 3d3b
000001e0: 957d 23bd 2c65 5bbc df2a 6e3b efb7 0cbd
000001f0: b453 883b ac19 7ebc f831 48bc f5be 3ebc
00000200: 6036 c8bc 8f2b 7dbb 87e0 26b9 aca4 4dbc
00000210: 47b3 47bc 155b 493b fcff 7e3c 17b8 04bd
00000220: c7ed eabc ff9b d0bc 46ff 8ebc 38cc 1b3c
00000230: cd5e c63b 088e 9bbc 99d1 debc e72b 75bb
00000240: b444 93bc dd6e 9a3c 2485 cbbb bdbb f7ba
00000250: f7aa 03bd 8756 d33c c5c8 5bba 4532 f13c
00000260: fc2a 063c 6a17 943c 546e 07bd b228 9f3c
00000270: c5f6 31bc c7a8 a4bc e158 7e3c 09a1 153b
00000280: fb05 ffbb f4ef 90bb c25b 2ebc 87e2 bcbc
00000290: c99c 11bb 4a30 d5bc 6685 17bc 8794 4ebb
000002a0: c251 0dbc 2e85 603c b011 c2ba eaec 9ebc
000002b0: 245c df3a a339 9d3b 69b5 28bc 25a7 49bc
000002c0: e432 ccbc 021b 2fbd 7a8a aa3b 9373 fdba
000002d0: ae56 d8bb 0f18 e439 3846 533b 7b62 1ebd
000002e0: d775 8fbc d185 823b f071 42b8 a26f 34bc
000002f0: 90c2 70bc 7b9d 45bd 41ad e7bc 1de9 8fbb
00000300: 15c7 64bb 1c68 cf3c 1db8 c2bc 99fa 483c
00000310: 9d31 973a fc87 09bd 764a febc 7bb6 a9bc
00000320: 1da3 88bc c288 31bc 80a2 6bbc 4492 79bb
00000330: 1612 4b3b 81cd 893b ca93 20bc d259 8e39
00000340: 6f23 15bc b61f 47bb 2494 503c 398a 413c
00000350: e31e 95bb b4a9 c93c ad15 8abc ba24 093c

network_body.linear_encoder.seq_layers.2.weight f4 [216, 216]
-0.06310717 -0.06136108 0.036019504 0.037657473 -0.021953428 0.054757897 0.052239295 0.010655004
0.042362176 -0.057458084 0.14099889 -0.07954617 0.15210585 -0.20036915 0.091396414 -0.0035436174
-0.029037254 0.009445215 -0.07489094 0.033027925 -0.006961736 0.06461054 -0.02297868 0.06601927
0.07352048 0.09649724 0.10488152 0.05755306 -0.051441308 -0.10708702 0.050706927 0.02174603
0.012473076 -0.044148486 0.03553557 -0.067487784 0.06114333 0.10660347 0.08174109 -0.07136535
-0.095590524 0.029023394 -0.0632047 0.10303694 -0.059760515 0.047628507 0.01124352 0.042915326
0.03277673 -0.044810347 0.12918329 0.017782668 0.05377922 -0.012011008 -0.08683695 0.06165793
0.06918835 -0.037481084 0.07304805 -0.014521581 0.052541837 0.02020264 0.07538975 0.047136433
-0.072216116 -0.05938594 -0.0068171686 -0.032481957 0.0048725056 0.051566686 -0.027357576 0.046540186
-0.17404103 0.06294312 -0.045699503 0.28705984 0.072939284 0.05467959 0.009943693 0.034028947
0.023682367 0.12702706 0.011189369 0.06836335 -0.044768773 0.07357035 0.07072346 -0.06409479
0.043970674 -0.038497563 -0.040200435 0.12567502 0.0068168985 0.07881084 -0.006037697 -0.03931795
0.019012697 0.007657535 -0.09633932 0.13153677 -0.23641269 0.048096925 0.09821918 0.013429106
0.08348237 -0.0036100624 0.20901771 -0.060898896 -0.016448084 0.051884092 -0.08384138 0.03981684
0.07080681 0.16545998 -0.011867124 0.032025464 -0.0570905 0.051977325 0.028600557 -0.33355644
0.02586272 -0.11334882 -0.018862862 0.037725862 0.081191935 0.032530554 0.023559071 0.038264506
-0.07535166 -0.07909974 0.0569065 -0.06901922 0.036942255 0.087936595 0.1347568 0.045825228
-0.014479899 -0.0051692883 0.07305052 0.0069320262 -0.113176115 0.034044694 0.001968726 -0.06656569
0.027494209 0.02600674 0.00848399 0.0009850047 0.011018 0.038533326 -0.07317306 -0.019779075
-0.0930185 0.09600255 -0.024845354 -0.054647904 0.07087633 0.028149093 -0.023805978 0.057355933
0.13983978 -0.026593594 -0.07534187 0.069264375 0.10213636 0.007965924 -0.084729716 0.06258376
0.14473371 0.16338955 -0.14205351 0.053726926 0.013210061 -0.03950514 0.028825056 0.10269908
-0.10365409 -0.039962146 -0.05805576 0.054393046 0.07592855 0.088569194 0.07996511 0.13146956
0.15692408 0.06722073 0.011487467 -0.034777142 -0.007675143 0.05993895 -0.1186939 0.09929236
-0.0990382 -0.06505219 0.121243164 -0.10981931 0.20826559 -0.070572175 0.008314739 -0.07781682
0.039057724 0.121742636 0.10157501 0.113083005 0.19243139 0.050952762 -0.013999822 -0.027543975
-0.020455746 -0.0709862 0.080842905 -0.06577134 -0.020354206 -0.059513118 -0.057167728 -0.07801595
0.1812571 -0.0074148634 0.073618226 0.0012191491 0.03812656 0.105597384 0.024386154 -0.032158226
-0.066132456 -0.050403792 0.11089296 0.0008157846 0.028348621 0.07446379 0.21098728 0.027285254
0.09061239 -0.14021128 -0.07957947 0.007478598 -0.04539086 0.037854444 -0.13364911 -0.22576053
0.08985815 -0.05078479 0.23640397 -0.012924138 0.065156735 0.0013311802 0.114729404 0.010954657
-0.03417073 0.014841753 -0.20171602 -0.01890105 -0.030935338 0.10456797 0.0763682 0.05092518
00000000: 553e 81bd c155 7bbd 3089 133d b93e 1a3d
00000010: add7 b3bc d149 603d dff8 553d 5392 2e3c
00000020: f683 2d3d 2b59 6bbd 0362 103e 1ae9 a2bd
00000030: a3c1 1b3e 922d 4dbe 0b2e bb3d 093c 68bb
00000040: 89df edbc 1ac0 1a3c 6c60 99bd 4a48 073d
00000050: 461f e4bb 8852 843d c93d bcbc 1c35 873d
00000060: e891 963d 58a0 c53d 1fcc d63d c2bc 6b3d
00000070: 1fb4 52bd 7150 dbbd 11b2 4f3d bb24 b23c
00000080: df5b 4c3c 0bd5 34bd bf8d 113d 0937 8abd
00000090: 6e71 7a3d ec52 da3d df67 a73d ff27 92bd
000000a0: f7c4 c3bd 78c2 ed3c 7771 81bd 0805 d33d
000000b0: 71c7 74bd 1c16 433d be36 383c fbc7 2f3d
000000c0: e440 063d 0e8b 37bd a048 043e f5ac 913c
000000d0: 9947 5c3d d2c9 44bc 92d7 b1bd 078d 7c3d
000000e0: 9fb2 8d3d c485 19bd 379a 953d edeb 6dbc
000000f0: 1c36 573d 0280 a53c f165 9a3d 2212 413d
00000100: 0be6 93bd ac3e 73bd 8e62 dfbb cd0b 05bd
00000110: 8aa9 9f3b 9737 533d ff1c e0bc eca0 3e3d
00000120: d037 32be 53e8 803d 672f 3bbd 82f9 923e
00000130: 3161 953d b5f7 5f3d dfea 223c f061 0b3d
00000140: 8601 c23c 6213 023e 9d53 373c 1602 8c3d
00000150: 765f 37bd 0dac 963d 76d7 903d 2144 83bd
00000160: 981a 343d 9faf 1dbd 36a9 24bd f4b0 003e
00000170: 4a60 df3b 9467 a13d e0d7 c5bb dc0b 21bd
00000180: 84c0 9b3c 0fec fa3b 8d4d c5bd 93b1 063e
00000190: 2b16 72be 4801 453d 2327 c93d c105 5c3c
000001a0: cef8 aa3d cc96 6cbb bd08 563e 1f71 79bd
000001b0: 22be 86bc 6a84 543d 08b5 abbd fc16 233d
000001c0: 2903 913d 576e 293e 536e 42bc 222d 033d
000001d0: bad7 69bd 2de6 543d b74b ea3c e9c7 aabe
000001e0: 0ede d33c 6d23 e8bd 4a86 9abc 6f86 1a3d
000001f0: f547 a63d c23e 053d f4fe c03c 3ebb 1c3d
00000200: f951 9abd 0bff a1bd ca16 693d f359 8dbd
00000210: c350 173d 1a18 b43d b0fd 093e 3cb3 3b3d
00000220: 193d 6dbc 2263 a9bb 839b 953d 0d26 e33b
00000230: e1c8 e7bd 7372 0b3d be05 013b 9853 88bd
00000240: 893b e13c 160c d53c 6f00 0b3c 461b 813a
00000250: d784 343c 1fd5 1d3d c2db 95bd ba07 a2bc
00000260: 7c80 bebd fc9c c43d 7c88 cbbc 7bd6 5fbd
00000270: 9c27 913d ed98 e63c c104 c3bc 0eee 6a3d
00000280: 2932 0f3e cfda d9bc d74c 9abd 7bda 8d3d
00000290: de2c d13d 8283 023c c686 adbd ea2b 803d
000002a0: 1335 143e 974f 273e 7a76 11be c410 5c3d
000002b0: 036f 583c 24d0 21bd 8622 ec3c e553 d23d
000002c0: 9848 d4bd 59af 23bd e0cb 6dbd 3ecb 5e3d
000002d0: 6d80 9b3d c463 b53d bfc4 a33d f59f 063e
000002e0: b5b0 203e 06ab 893d ee35 3c3c 7a72 0ebd
000002f0: c47f fbbb 8b82 753d ca15 f3bd cb59 cb3d
00000300: 8ad4 cabd 153a 85bd 564e f83d f2e8 e0bd
00000310: 9343 553e 2588 90bd 8b3a 083c 6d5e 9fbd
00000320: fefa 1f3d 3454 f93d 8f06 d03d 1098 e73d
00000330: bc0c 453e d8b3 503d 825f 65bc e7a3 e1bc
00000340: cf92 a7bc 3661 91bd f790 a53d 20b3 86bd
00000350: ddbd a6bc 07c4 73bd b528 6abd d4c6 9fbd
00000360: 769b 393e 62f8 f2bb 27c5 963d dbcb 9f3a
00000370: 992a 1c3d 7143 d83d 79c5 c73c 58b8 03bd
00000380: 7470 87bd 3574 4ebd d91b e33d 61da 553a
00000390: 5e3b e83c 7980 983d 0d0d 583e 5385 df3c
000003a0: fd92 b93d 8c93 0fbe 90fa a2bd 070f f53b
000003b0: c4eb 39bd 430d 1b3d 50db 08be c52d 67be
000003c0: 8d07 b83d b603 50bd e213 723e c4bf 53bc
000003d0: e570 853d ff7a ae3a 40f7 ea3d 297b 333c
000003e0: 9bf6 0bbd d32a 733c a58e 4ebe 60d6 9abc
000003f0: 1b6c fdbc bb27 d63d ee66 9c3d ec96 503d
