Project/Project/Assets/Cylinder-Thing/Brains/CT-Night.onnx (onnx, 37653 bytes, 9 tensors)

46 f4 [1, 2]
00000000: ad83 c2be ea08 f9be
-0.37991086 -0.48639613

distribution.mu.bias f4 [2]
00000000: a9db 0ebd 2840 2b3f
-0.034877453 0.6689477

distribution.mu.weight f4 [2, 64]
00000000: cb1a 5a3c 16c5 4abc d659 0238 0394 983b
00000010: 95b9 723c 1260 03bd 79ba 853d 3b70 66bc
00000020: c021 30bd 4e9e 23bc 2ee9 473e 1dfc e33c
00000030: 8750 a13c 979f 623c 6896 c7bc 913f 4e3c
00000040: 21d4 2e3e 0d43 3a3c 01fb 81bc a0da 323e
00000050: a1b6 4dbe 6609 29ba 70f4 82bc 9e2a 8ebc
00000060: 7955 2f3d f679 573e 86d3 333e af51 3abd
00000070: ab1a 913b d781 b03b 0c39 89be 9ff8 dfbc
00000080: fee5 febc c626 cf3c 3c38 acbc d409 02bc
00000090: 5bb9 c23e ee14 f939 a535 2a3e 147f 893d
000000a0: 3456 293b c1de 15be 8d75 edbc 089f d6ba
000000b0: b16b 083c f6d6 a33d ed72 49ba f96d 3a3e
000000c0: 8411 3f3c 77ac b23c f0ed bd3c 2660 423d
000000d0: dfef 2dbe a6e8 02bc 5f76 a73d 6c07 003d
000000e0: 7ff1 3a3b 27b1 7a3e 24b6 473d 03d0 a3ba
000000f0: 20f2 a13b 77d7 763b a8bb d43b b01e 5a3e
00000100: abbd 7cbd 013e c4ba 466a 09be 3be9 cb3a
00000110: 2fe3 50bb 5d5b a4bd 856b 78bd 297d 49be
00000120: 42d7 8d3d c7d5 0d3b 7a57 3abe bba0 01bc
00000130: 9d8f 2b3e c230 b33a f799 173e 6c08 8f3a
00000140: 9f2a 1a3e fe63 c0bc f538 093e 98e3 ce3d
00000150: c829 023e 21d4 343d cf94 003d f852 5d3d
00000160: dc33 793c 008c 8bbd 314c 8bbe 7201 0ebe
00000170: 724f c33b e321 8ebd d0ca 333e bcfc 773d
00000180: 5ec8 e03c e65d c63c cb70 1a3d c521 273d
00000190: c2f2 df3c 807e 0b3d f796 89bd be58 043d
000001a0: d490 af3c c479 0bbe f3c4 283e feb3 4abe
000001b0: b558 873b 252b 27bd 458d 673c df88 5ebd
000001c0: 734e 9b3b 6a05 d93c 41b1 d8bd a90f d33c
000001d0: 6918 ccbd 84a5 833c d3be 113c 4268 373d
000001e0: a2ff 95ba 2acc d53d e369 d9bc 547a eabc
000001f0: aea4 fc3c cfa4 123e 6760 9fbc 5b27 a93e
0.013312052 -0.0123760905 3.107808e-05 0.0046563162 0.014814754 -0.03207404 0.065297075 -0.014064844
-0.043000937 -0.009986473 0.19522545 0.027830178 0.019691719 0.0138319945 -0.024363711 0.012588398
0.17073108 0.011368525 -0.015866758 0.17466211 -0.20089199 -0.0006448239 -0.015985698 -0.017354306
0.042806122 0.21042618 0.17561159 -0.045488056 0.004428228 0.005386572 -0.26801336 -0.027340231
-0.031115528 0.025287043 -0.021022908 -0.0079369135 0.3803204 0.00047508575 0.16622026 0.06713691
0.0025838735 -0.14635755 -0.028986717 -0.0016374299 0.008326457 0.07999985 -0.0007684667 0.18206014
0.011661891 0.021810753 0.023184747 0.047454976 -0.16986035 -0.007990038 0.08176874 0.031257078
0.002852529 0.24481641 0.048757687 -0.0012497905 0.0049421936 0.0037665048 0.006492097 0.21300769
-0.06170432 -0.0014972092 -0.13419446 0.0015557179 -0.0031873693 -0.08025239 -0.060649414 -0.19676651
0.06925823 0.0021642314 -0.18197432 -0.007911856 0.16754003 0.0013671147 0.14804827 0.0010912544
0.15055321 -0.02348518 0.13400634 0.10102004 0.12711251 0.044147614 0.031391915 0.054034203
0.015210118 -0.06813812 -0.27206567 -0.13867739 0.0059603984 -0.06940057 0.17557836 0.06054376
0.027439293 0.024214696 0.037705224 0.04080369 0.027337436 0.034056187 -0.067182474 0.032311194
0.021431364 -0.13620669 0.1648138 -0.19795224 0.0041304477 -0.04081263 0.014132802 -0.05432975
0.0047395765 0.02649184 -0.105806835 0.025764303 -0.09965593 0.016070135 0.008895594 0.044777162
-0.0011443982 0.10439332 -0.026539749 -0.028622784 0.030840244 0.14320682 -0.019455148 0.33037838

network_body.linear_encoder.seq_layers.0.bias f4 [64]
00000000: a616 00be 1a96 123e ec09 a2be 3797 aabd
00000010: f43f 003e 9bc1 06be 3208 a6bd 7b80 213d
00000020: f5a3 0c3d aa7f a03c 5dec 57be 6d5c 43be
00000030: 8ab3 efbe 8c66 1c3d 236b a93d 3a9b a03d
00000040: 636e 32be 95b4 efbd d9fa d7bd 3a4e 3b3d
00000050: 0e72 75bd f077 7abc 586e 6e3c 5495 41be
00000060: 45ff 193e d40d a7bd cc75 a2be 254e 06bf
00000070: 2f45 dcbd 4938 28be aa88 bbbe fb39 88be
00000080: 04f7 8d3d 825d e8bd 4586 8abe 9f04 b8be
00000090: 43b7 79bd 1804 96be 2bdd bbbc 2277 95bc
000000a0: 83a2 99be 9ae9 9fbd 4abd 92be 996d 3fbe
000000b0: e3fd ecbc 59c5 06bf de0f bdbe df7b 84bd
000000c0: f07a 59bd c279 3ebe b113 03be e250 2dbe
000000d0: fce9 473e cb70 10be 8b36 39be bd7d 6abd
000000e0: a2a9 0abe db51 3e3c 206c 6cbe 4174 89bd
000000f0: 9ca0 92be 0359 acbe 2aa2 ddbe 2614 30bd
-0.1250864 0.14315072 -0.31648195 -0.08329623 0.12524396 -0.13159792 -0.08107032 0.03942917
0.03433605 0.019592125 -0.21086259 -0.19078226 -0.46816665 0.038183734 0.08272388 0.07842107
-0.17424922 -0.11704365 -0.10545892 0.0457289 -0.059923224 -0.015287384 0.014552675 -0.1890462
0.15038784 -0.081569344 -0.31730497 -0.5246299 -0.10755383 -0.16427721 -0.36627704 -0.26606736
0.0693188 -0.1134596 -0.27055565 -0.35941026 -0.060965788 -0.29299998 -0.02293261 -0.018245284
-0.300068 -0.07808228 -0.2866004 -0.18694152 -0.028929656 -0.5264488 -0.36926168 -0.06468939
-0.053095758 -0.18601134 -0.1280048 -0.16925386 0.19522852 -0.14105527 -0.18087213 -0.05724882
-0.13541272 0.011616196 -0.23088121 -0.06711627 -0.2863816 -0.3366166 -0.43287784 -0.042987965

network_body.linear_encoder.seq_layers.0.weight f4 [64, 6]
00000000: c1d0 09bf f183 da3d 3640 aa3e b2ba c63c
00000010: 711f ee3e d768 d5be 3c79 873a d7a2 163f
00000020: 1b88 f73c d191 c13c 32ba a4be dd62 d83b
00000030: 3ad0 bebe 56a3 583f bee5 9ebd 6cb2 923d
00000040: a3ff 3abd 2a41 e2bc 48bb 3f3f 562c b6bc
00000050: 5f06 c6bd a08a a53e 7d96 0abd a695 1fbd
00000060: f513 f3be 1d27 0f3e 31cd 153f ef3c 8bbd
00000070: 5786 553e 8b45 e53d 175e 93bd bcd2 abbe
00000080: b9ce 36bf 65e0 b73e 443e a13e 4c74 b7be
00000090: 7d37 643f 119a 2cbd 11fa 3f3f a688 893e
000000a0: 53a7 673f 3be6 b3bd e7b7 ad3f 1e66 c63d
000000b0: 84e1 92be 4470 a9be 62cb 67bd 68ee 8c3e
000000c0: 5ad9 d93c 5d2b 953e 9c9e 263d 9328 05bd
000000d0: 28ae 0fbe a8f2 88bc 3e7f 023f fad7 a93e
000000e0: e28d 7e3f a531 65bf 1103 6e3e dcd0 213f
000000f0: c96e 763f 216d 553f 380b 84be 0b77 15be
00000100: a7dc 9cbc 0bdb d73e 5005 163f f995 5e3d
00000110: e3ed ddbe 351b f43d 57f7 173f 5c6f cabe
00000120: c2e9 0ebe 7913 a43e 19f5 babe e215 9fbd
00000130: c770 2ebe 46e6 443e 165a 05bf 8ad5 1fbe
00000140: 4e58 ad3f 462d cc3d 0fd3 19bf 02c0 a63e
00000150: e231 76bd 3604 f0bd b82a 093b 1b75 3dbc
00000160: 24aa 51be 3e6a 693d 6bc4 f33e 8c26 a6be
00000170: 86a2 61bf 1e0a 243e 129f d6bd b6ad ebbc
00000180: 5fd6 693d 8e65 b83e b07c 013f 7ebe 1abe
00000190: 82bd 0bbf 7124 8cbd 5f28 c03e 38e3 ebbe
000001a0: 2454 4a3e a93e 6ebd 3e79 053f 91ed 1e3b
000001b0: 04f3 8ebe 1d71 c43e 1e7e 32bf 1281 30be
000001c0: 22d2 ccbe 7a31 7e3e ec22 a63e 9707 543e
000001d0: b076 d33e 42a9 2fbd ce0b e2bc b3e4 653c
000001e0: 2c59 f73c f08b dc3c c9d6 e6bc 947b e93c
000001f0: 9a13 e23d 8a21 d3bc 0947 40bf acf4 92bd
00000200: 8a84 0d3f 65c7 2d3d 49f8 f7be 44fb 593e
00000210: df15 98bf 7e46 1ebe 0615 1b3e fb3a 8dbd
00000220: 45f0 69bc 3ca7 783e 1eb5 cdbe 336d babe
00000230: 170b a1bd 6c10 9f3d 251e 13bf bf3f 36be
00000240: 39a0 7e3f 41b6 a63e a8a8 bbbd 8776 a73e
00000250: 7a26 6d3e 2720 7ebe c25a 0abe cea6 e33d
00000260: 8aac 85bf 8439 433d ccc4 d63e 9ef7 b93e
00000270: 7230 c3be 9167 dc3e fe5b 423f 765f 303c
00000280: d8ce 2ebf b593 0f3f aea0 0abf 74ea 663f
00000290: e3cd 2e3f 4422 c23e 297e 36bf 204c 313e
000002a0: 47e5 97bd 3fba 21be 1038 1cbf 8419 e33e
000002b0: 65b0 213e 1523 8a3e e2c7 6d3f c37b 3abe
000002c0: 96d7 f6be de37 bc3f b0b8 37be 1280 babd
000002d0: a266 e03e d92f 1e3f a85e 153e 8a9c d8bd
000002e0: e999 5a3c f2cd 98bd c5da 3c3e fa0d 8b3f
000002f0: eca2 663f 073f 1f3f e8ed 6f3e a696 5e3e
00000300: 663e c73e ae3e b73e ee95 1f3f f9d2 9abe
00000310: 76d2 6bbe fc94 863e af0f 4c3f 5b3c ca3e
00000320: 178c 2dbf 0487 a9bd 144a 0fbd a3de 29bf
00000330: 7da1 60bf 369f 493e ca36 cb3e 2a3f 533e
00000340: cd2e 2ebf b548 293f 2cc1 303e 2375 593f
00000350: c228 2cbf daf4 1e3f 150f 19bf bd41 0f3e
00000360: 50aa 82be 6333 edbe 4064 98be b7a9 793d
00000370: f3e8 23bf 8cae 343c 3532 a83b a110 043f
00000380: 0def 573e 04a9 9b3e 7134 ec3d 8652 553f
00000390: a1eb ae3d 38e8 06bd eddf 483d 3c70 853b
000003a0: a598 62bb c74f 603c 933d 88bf 54f9 003f
000003b0: fe0e e4be 99dc ca3e 0fe9 80bf 4277 1cbe
000003c0: 05eb 69bf 4c53 5c3f 341e 48bd 0de2 7a3e
000003d0: c197 15be af87 76be 33ce ae3e 3025 593e
000003e0: d880 633f 3637 c7be 8789 febe c7fa 2bbd
000003f0: 99ad bd3e 8db1 cb3e 117c 4d3f f907 c23e
-0.5383416 0.10669697 0.33252114 0.024258945 0.46508363 -0.4168155 0.0010335813 0.58842224
0.030216267 0.023629101 -0.32173306 0.0066035823 -0.3726824 0.8462423 -0.077586636 0.071629375
-0.04565395 -0.027618963 0.74895144 -0.022237938 -0.09669184 0.32332325 -0.033834923 -0.038961075
-0.47476164 0.13979764 0.5851622 -0.067987315 0.20852028 0.11194905 -0.071956806 -0.33559215
-0.71409184 0.35913387 0.31492817 -0.35830915 0.8914717 -0.042139117 0.74990946 0.26862067
0.9048969 -0.08784147 1.3571748 0.09687446 -0.2868768 -0.33093464 -0.056590445 0.2752564
0.0265929 0.29134646 0.040678605 -0.032509398 -0.14031279 -0.01671727 0.50975406 0.3317259
0.99435246 -0.89528877 0.23243357 0.6320932 0.96262795 0.8336964 -0.2578981 -0.14596193
-0.019148184 0.42159304 0.58601856 0.054342244 -0.43345556 0.11919252 0.59361786 -0.39538085
-0.13956359 0.32046106 -0.3651512 -0.07767846 -0.17035209 0.19228467 -0.52090585 -0.15608802
1.3542573 0.09969573 -0.60087675 0.32568365 -0.060106166 -0.11719553 0.0020930003 -0.011563565
-0.2047506 0.056986086 0.47610793 -0.32451284 -0.88138616 0.16019484 -0.10479559 -0.028769355
0.057089206 0.3601498 0.50580883 -0.1511173 -0.5458604 -0.06842888 0.375308 -0.46071792
0.1975866 -0.058165226 0.52138126 0.0024250487 -0.2791978 0.3836755 -0.6972369 -0.17236736
-0.4000407 0.24823561 0.32448518 0.2070602 0.4130149 -0.042886026 -0.02759352 0.014031577
0.030193888 0.026922196 -0.02817859 0.02850131 0.11038895 -0.025772829 -0.7510839 -0.07175574
0.55280364 0.042426486 -0.48431614 0.21287256 -1.1881675 -0.15456578 0.15144739 -0.06896015
-0.014278476 0.24282545 -0.40177244 -0.36411437 -0.07863443 0.07766804 -0.5746787 -0.17797755
0.9946323 0.32560924 -0.09163028 0.32707617 0.23159209 -0.24816953 -0.13511184 0.111158
-1.044328 0.047662273 0.4194702 0.3632173 -0.38122898 0.43047765 0.7592162 0.010764947
-0.6828437 0.5608476 -0.5415143 0.902015 0.6828291 0.37916768 -0.71286255 0.17314196
-0.07416778 -0.15793703 -0.61023045 0.44355404 0.15789945 0.2697989 0.9288312 -0.18211274
-0.48211354 1.4704549 -0.17941546 -0.09106459 0.43828303 0.6179176 0.1458689 -0.105767325
0.013342359 -0.07461156 0.18442829 1.086364 0.9009235 0.6220555 0.23430598 0.21737155
0.38914794 0.35790008 0.6233815 -0.30239084 -0.23029503 0.2628554 0.7971143 0.39499173
-0.67791885 -0.08277705 -0.034982756 -0.6635534 -0.8774641 0.1968964 0.39690238 0.20629564
-0.6804016 0.6612657 0.17261189 0.8494436 -0.6724969 0.62092364 -0.5978864 0.13989921
-0.25520563 -0.46328267 -0.29763985 0.06095287 -0.6402733 0.011027943 0.0051329383 0.51587874
0.21087284 0.30402386 0.1153344 0.83329046 0.085410364 -0.032936305 0.049041677 0.0040722173
-0.0034575847 0.013690895 -1.0643791 0.50380445 -0.44542688 0.39621428 -1.0071124 -0.15279868
-0.91374236 0.860646 -0.04885693 0.24500294 -0.14608671 -0.24075197 0.34141693 0.21205592
0.88868475 -0.3890931 -0.497143 -0.041987207 0.37046507 0.39783898 0.80267435 0.37896708

network_body.linear_encoder.seq_layers.2.bias f4 [64]
00000000: beae 86be 4eb7 a0be 76a5 99be f092 9abe
00000010: 7d5b 9ebe 8936 9dbe 0b94 4ebe 3827 16be
00000020: 8bc4 e3be e0c3 ecbd fb1f 4dbe 2d08 c1bd
00000030: 8c03 1bbe 5dbb 3dbe a1d1 9bbe 67ad 9b3b
00000040: a0b3 70be 805c 6cbe b3a2 6cbe 4975 85be
00000050: 804a 6ebe 94bc 3abe 7128 55be e98c c4bd
00000060: c6b9 77be e91d a3be 02ff 30be 0ef5 51be
00000070: 2530 9bbd 79fc 10be ce31 b2be 0cb8 90be
00000080: 0714 b5bd 8f5b 68be 57fd f1bd 69a4 94be
00000090: bfd4 1abd ee1c a3be d563 aebe 2244 a9be
000000a0: b0ab 7ebe 863f c0be ab0a 2abe 9df5 a0be
000000b0: 3bc8 70be 9459 45be a8f4 05bd 95cd b7be
000000c0: 2b51 98be ee03 b1bd 5240 943c 10c5 c1be
000000d0: ed07 94be 7977 cdbd 53dc 68be 5e0b d3be
000000e0: 19a4 abbe 9b6c 9bbe 51d7 5ebe cdc3 38be
000000f0: ec56 e0be 966a 60be a520 8abe 2315 75be
-0.26305193 -0.3138985 -0.3000905 -0.3019023 -0.30929175 -0.3070567 -0.20173661 -0.14663398
-0.44485888 -0.11560798 -0.20031731 -0.094253875 -0.15138072 -0.18528505 -0.30433372 0.004750896
-0.23506021 -0.23082161 -0.2310894 -0.26066044 -0.23270607 -0.18236 -0.20816208 -0.09597189
-0.2419196 -0.31858757 -0.17284778 -0.20503637 -0.07577542 -0.1415881 -0.34803623 -0.28265417
-0.088417105 -0.22691177 -0.11815899 -0.29031685 -0.037800547 -0.3185801 -0.3406054 -0.33059794
-0.24870181 -0.37548465 -0.16605632 -0.31437388 -0.23513882 -0.19272453 -0.032704026 -0.35899034
-0.29749426 -0.08643328 0.018097077 -0.3784566 -0.28912297 -0.10032553 -0.22740297 -0.4121961
-0.33523634 -0.30356297 -0.21761824 -0.18043442 -0.43816316 -0.2191566 -0.2697803 -0.23933844

network_body.linear_encoder.seq_layers.2.weight f4 [64, 64]
00000000: 34f0 d2bd 78a6 01be 352f 033e a527 693c
00000010: 6509 533e 3001 50be 02e6 00bb 7bd0 0bbf
00000020: 4180 a6bd 7e2a f33d 9ecc ca3d b868 17bf
00000030: 7ca7 82bd f648 223e a790 053e 5efa eebe
00000040: 7891 813e 03f6 cdbe 23aa 413e 679e 25bc
00000050: 8103 d2bc b5d9 383e c68a 5e3c f70b be3e
00000060: 9291 b3be 070a cabe 0d7d 8f3e 2654 943d
00000070: 7107 bdbc 3025 b3be 5036 56be 6318 4e3d
00000080: 15d6 d13e e4be 29bf 5b3d a53d 5988 8cbe
00000090: 4578 1c3e d7d7 403e 0155 24be ccb7 9f3e
000000a0: 56b8 9e3e d749 473e 14a1 273e 6785 9e3d
000000b0: 0029 2d3e b65a 0cbe 7600 91be d916 0f3e
000000c0: 2237 b93e d474 b5be 2ff4 eebd 9070 1f3d
000000d0: f0dc 19bf bb07 abbb 344b 8cbe 7009 993e
000000e0: f2cc 36be 0bcb adbd bd2d 1a3e 3aae 40be
000000f0: d920 e0be 952d 95bd 005d b2bb 8c86 8d3e
00000100: 5657 95be 75ca 21bc 931e a93e d590 c4b9
00000110: 1699 96be 528c b8bd 5c50 b6bd 4190 933e
00000120: c767 3f3e f650 ecbb 5a5a 333e e42b e03b
00000130: 5a86 abbe 05c7 10be 856a 293e 120f 9c3d
00000140: 4457 773e c092 6a3e b7c8 f6bd c39e 2ebe
00000150: b664 87bd c5bc 20bd dc47 7a3e 941a 4f3e
00000160: 76aa 6d3d a23b b9be 6dee be3d 2eae a13d
00000170: b153 4dbe 393c 75be 62cd 3e3e 6035 b6bc
00000180: dee9 9cbb a188 57bd 144f f83c 7ee0 e2bd
00000190: 8e08 5b3e ae4f 213d 3d66 09bd 37fb fa3d
000001a0: dc8b 19be deb7 563d 2db9 1abe 0265 0cbe
000001b0: 6f2a 483e 7608 fa3c 4c38 1c3e 23b7 b13d
000001c0: bba6 c5bc d853 293e 6c27 93be 7f59 583e
000001d0: c70e 80bc c722 34bd 6afb 853e ddac f93d
000001e0: c7e5 89be 2dfe fcbd 54a4 393e 4e24 98be
000001f0: fcc0 ebbd 4b69 b0bd 98cd 453e 8c09 63be
00000200: 6c21 64bd a6d0 2ebe a6b9 c83d 2f06 593d
00000210: a059 9a3d 810a 08bd c875 d63d 3f62 f2bd
00000220: 0b11 923e 4989 2cbf df8b cb3c 4fb5 f0be
00000230: 0610 2bbe dd66 1a3e 376d c6bc 66c9 92be
00000240: e254 d3bd 806a 97be 31d0 eebc eea9 5cbe
00000250: e5b8 ab3c 3265 b33d 18f0 f13c e5c2 023e
00000260: 3a3e bd3c e7ab 4cbe 9989 0dbe b6d2 73bd
00000270: 758c 75be 0fb4 82be 628f 0f3e 16d0 acbe
00000280: 8bc2 e6be 47a2 86be a185 83be 576f 94bd
00000290: 6804 6d3e d511 8abe 1350 98be fd95 923e
000002a0: 6823 123e 91a6 f23d c960 d63d 7151 c0bd
000002b0: 6488 f3bd a7d2 2a3e b395 993d 0d4a 813e
000002c0: baeb 81be cf95 a4be 8ff8 1cbe 71ac f0ba
000002d0: 7541 b4be 858e b73c 56a5 8e3d 042c b8bd
000002e0: 23ed 033c 1225 cabd 2338 b13e 1e55 1ebe
000002f0: 0832 f3be 6fbf 193e b718 8c3c cf0c 4e3d
00000300: 4fd5 9cbe 08dc 963c 5dcb 1d3e 2609 b9bd
00000310: 2425 1ebe 2606 2fbe 18a3 5c3e 1730 b2bd
00000320: ae1c 5a3e ee1b abbd a4fa 8cbd dcb1 06be
00000330: 995a 8dbd d13f 4f3e 832b 373e e150 b4be
00000340: 7766 453e 25da 683e 6776 9fbd 5cd6 093e
00000350: c99d c0bd cf91 a2bd d6c2 e6be ede1 233e
00000360: 48dc 08be f3b4 423d 714e 67be 7190 4a3e
00000370: a64b 78be e507 f7bd 5736 8abc 0855 9d3e
00000380: 72bb 9cbe 6a13 59be f757 b3be 7e29 fabd
00000390: cfab 9ebc 8477 74bd 504e 8dbe 65e6 8cbe
000003a0: ed71 483e ae4b 48be 9c4b 8c3e c8af 9fbe
000003b0: 0515 ad3e f8a6 493d 7114 27be a1e9 86bd
000003c0: 19c4 5a3e ccf4 5fbe 6891 c3bb 4f39 b539
000003d0: 7053 28bd 0ff9 c0bd e433 96be 36db 883e
000003e0: e7c9 51bd 6358 0bbd 67b9 933e 191b 01be
000003f0: 7fd8 31be 86e0 96be bb9d 093e 7816 9cbd
-0.10299721 -0.12661159 0.12810977 0.014230643 0.20609052 -0.20312953 -0.0019668345 -0.5461499
-0.08129931 0.11873339 0.09902309 -0.59144163 -0.06379601 0.15848145 0.13043462 -0.4667539
0.25306296 -0.40226755 0.18912558 -0.010108567 -0.025636436 0.18051799 0.013582891 0.37118503
-0.35072 -0.39460775 0.28025094 0.072426125 -0.023074837 -0.3498931 -0.20919156 0.050316226
0.40983644 -0.663069 0.08068343 -0.27447775 0.15280254 0.18832336 -0.16048051 0.31194913
0.31000012 0.19461761 0.1637004 0.07740288 0.16910172 -0.13706478 -0.28320664 0.1397356
0.36174875 -0.35440695 -0.11667668 0.038925707 -0.6010275 -0.0052194274 -0.27401125 0.29890013
-0.17851618 -0.08485993 0.1505651 -0.18816462 -0.4377506 -0.07284085 -0.0054432154 0.27641714
-0.29168195 -0.00987493 0.3303114 -0.00037491941 -0.2941367 -0.09011139 -0.08902046 0.28820994
0.18691932 -0.0072117997 0.17514935 0.0068411697 -0.3350094 -0.1413842 0.1654454 0.07620062
0.24154383 0.22907543 -0.12050002 -0.1705275 -0.06611006 -0.039242525 0.24441475 0.20224983
0.058023892 -0.3617831 0.0932282 0.0789455 -0.20051457 -0.23948754 0.18633035 -0.022242248
-0.0047886213 -0.052620534 0.030311145 -0.11077975 0.21389982 0.03938263 -0.033544768 0.12254947
-0.14994758 0.052421443 -0.15109701 -0.13710406 0.19547437 0.030521613 0.1525585 0.08677509
-0.024127355 0.1653589 -0.28741014 0.2112789 -0.015632046 -0.04397848 0.26168376 0.12191174
-0.2693312 -0.12353168 0.18129092 -0.29715198 -0.11511418 -0.08613833 0.19316709 -0.2217161
-0.055695936 -0.1707178 0.09801035 0.052984413 0.07536626 -0.033213142 0.10471684 -0.11835145
0.28528628 -0.6739698 0.02484697 -0.47013327 -0.16705331 0.15078302 -0.024222 -0.2866928
-0.103189245 -0.2957344 -0.029152008 -0.21549198 0.020962188 0.08759536 0.029533431 0.12769659
0.023100961 -0.1998745 -0.1382202 -0.05952712 -0.23979361 -0.25528 0.1401954 -0.33752507
-0.450703 -0.26295683 -0.25687888 -0.07247799 0.23146212 -0.2696673 -0.29748592 0.28630057
0.14271319 0.11848176 0.10467679 -0.09390534 -0.11891249 0.1668192 0.07499256 0.2525181
-0.25375158 -0.32145545 -0.15329193 -0.0018361938 -0.3520619 0.022406826 0.06965129 -0.0899277
0.008052143 -0.09870352 0.3461314 -0.15462157 -0.47499108 0.15014432 0.017101629 0.050305184
-0.30631492 0.018415466 0.15409608 -0.09034948 -0.15443856 -0.17092189 0.2154659 -0.08700579
0.21300003 -0.083549365 -0.068837434 -0.13153785 -0.06902046 0.20239188 0.17887692 -0.35217956
0.19277368 0.22739466 -0.07786255 0.13460678 -0.09405095 -0.07937967 -0.45070523 0.16004153
-0.1336528 0.047535848 -0.22588517 0.19781663 -0.24247608 -0.12062053 -0.016871614 0.30728936
-0.3061176 -0.21198812 -0.3502805 -0.12214945 -0.019369034 -0.05968429 -0.2759881 -0.27519527
0.19574709 -0.1956012 0.27401435 -0.31188798 0.338051 0.0492315 -0.16316392 -0.0658753
0.21363868 -0.21870726 -0.0059682615 0.00034565708 -0.041095197 -0.09422504 -0.29336464 0.26729745
-0.05121794 -0.03401984 0.28852388 -0.12607993 -0.17367743 -0.29468173 0.13439076 -0.07621473

network_body.linear_encoder.seq_layers.4.bias f4 [64]
00000000: a329 8bbe c1a2 8fbd 7a9b 5abe a42c 42bd
00000010: e5d5 cbbc 1606 04bf 2eed 19be b75f 1dbf
00000020: 3396 13be abd1 a9bc 674d 90be ff9e 02be
00000030: a646 453d 9a20 10be 9614 3a3d b18e 6cbe
00000040: 3b50 423e de10 bdbd 93aa fcba 5222 1a3e
00000050: 0fd7 493e 6ce1 0fbe c085 20bd a820 ccbc
00000060: 71a4 5fbe 7f86 413b d80d 77be 73ae debe
00000070: 67fe b8bd 3114 05be 005c ac3e 4df3 44bd
00000080: 05c7 a03d 7203 07be deca 21be ebb7 44bd
00000090: 5c2e 773e e25e e3bd ecc5 d8bd bc32 15be
000000a0: cde3 c2bd 2985 75be 61b8 8f3d 6bbc 1ebf
000000b0: a913 10be 9ffb ffbd b3de dbbd df7d bc3a
000000c0: 7a3e 89bd aeae 43bd 0834 4fbe b167 81bc
000000d0: b086 99bd 4a7c c1bd 1bb7 c2bc 4f81 d5bc
000000e0: cde1 a73b 48cd a03d 7457 51be 01de aebe
000000f0: e915 aa3c 670b 913c 00de 00be 0585 d93e
-0.27180204 -0.07013465 -0.21348372 -0.047405854 -0.024882266 -0.51571786 -0.15031883 -0.61474174
-0.14412765 -0.02072986 -0.28184053 -0.12755965 0.04816308 -0.14074937 0.04542979 -0.23101307
0.18975918 -0.09231733 -0.0019276909 0.15052155 0.19710945 -0.14050835 -0.039190054 -0.024917915
-0.21840073 0.0029529629 -0.24126375 -0.4349247 -0.090328984 -0.12995984 0.3366394 -0.048083592
0.0785046 -0.13184908 -0.15800044 -0.04802696 0.24138778 -0.11102082 -0.105846256 -0.14570135
-0.09516106 -0.23976578 0.07017589 -0.62006253 -0.1407 -0.12499165 -0.10735836 0.0014380774
-0.067013696 -0.04777401 -0.20234692 -0.015796514 -0.07496393 -0.094475344 -0.023768952 -0.026062636
0.005123353 0.07851654 -0.20443517 -0.3415375 0.0207624 0.017705632 -0.12584686 0.42484298

network_body.linear_encoder.seq_layers.4.weight f4 [64, 64]
00000000: 8bc6 3e3d 83ba 53bd 6262 923e 0908 32bd
00000010: d608 01be e979 c53d d0e5 953c 9d84 3cbe
00000020: d12d c73d 69b9 a9bc 6bcb 793e 69a3 30bd
00000030: eaf2 1dbe 4b69 0ebe 1686 26be 48ad 9bbe
00000040: 69a1 7d3e 72b8 a7be 4397 d5bd 434a 073d
00000050: d3b7 203c 3bdc 983e 031c 43be 131e b4bd
00000060: ea78 82be ea19 813d 19cc 17be 2e8f f6bd
00000070: 9847 90bd 976e 873c 2bde d43d 553e 743e
00000080: f3bd 99be b91a a5bd 7192 8e3d c778 05be
00000090: a686 98be 9392 203c 7906 753e 58f6 323e
000000a0: 90db e33d e28e 03be dca0 20be 9e12 453e
000000b0: f5c3 6f3e bb61 fabd 212d 9bbd f169 e7bc
000000c0: cbe7 58be 9dfb 72be 1668 4ebe 62e4 e93d
000000d0: 12cd db3d 44ec 5f3c 257b 013e 4e7e 153e
000000e0: b79d 32bd c87c 8d3d 9922 83be f21e c5bd
000000f0: 48bb 583e 0adc 1e3c e264 b13d 4180 cc3d
00000100: b9fb af3d 6584 733d 5623 413d 7011 59bd
00000110: 8d41 b83c cff5 babd d23e 353e 0c9f 643e
00000120: 8e08 113d 7462 e53b bc00 9cbc 5bb0 85bd
00000130: d32a ce3d 4614 0d3e 9bdb 93bd 160f 22bd
00000140: 7226 9bbc 1c9c dc3d 549c 7a3e 83a2 27ba
00000150: bce6 26bd bdb7 9d3d 9957 54bd 1b9b 3ebd
00000160: de20 36be 50ee 013e f254 8fbd 24fb 813d
00000170: 4f55 3abd 6022 36bc 9fd9 16bd 5513 8bbd
00000180: d045 c6bc 314a 413d b915 5dbd a567 39bd
00000190: d765 25bd c23f 5ebc d164 4c3d 27e9 11be
000001a0: 2f2e f4bd 6c34 a53d fe21 6bbc 14c4 1a3e
000001b0: 00b4 3dbc 562e 0fbe bd7f f1bc 00fa 48bd
000001c0: cfc4 1c3e 676a a0bc 6334 883d 57c1 a5bd
000001d0: 3bcb 07bd 1dfd da3d 88b1 87bd b771 afbd
000001e0: 54bc ab3c 6c4b 9abd 34f7 6d3d f753 d43d
000001f0: 11e7 3ebe cf2f 09be a265 773e e631 083d
00000200: 1f1a 80be 20dc 64be c9ea 02be 429e a13d
00000210: 03db 993c cb0c 66be 16b6 ebbd 7ab7 f2bd
00000220: ff5f 303d d1d7 8d3d 769c b03d 7bcb 5e3d
00000230: 4fcc 31be df66 a43d 629f fdbd 1e2b 7bbd
00000240: 6f03 863c dc9a 31bd 1105 383d ba6a 22bc
00000250: 2abe 10bd 0c0f bdbd baca 44bd 0e14 463e
00000260: d376 11be 0876 f2bd d22c 12bb ade7 063e
00000270: d181 c3be 99ac 52be 15b1 77bd cc5a fa3d
00000280: beb1 363e 4797 babd 5e1c 80be 7786 06be
00000290: 9d35 493c 8914 8abe 25d8 613e 3291 86bc
000002a0: 7e27 183c ec8a 243e de29 263e a11a 9b3d
000002b0: 403b 3e3b 8afb 8abe eff4 d2be 2c0b d0bd
000002c0: 4430 8d3e 38bb ce3d 7733 98be f1d5 6a3b
000002d0: 1a3e 1dbd e843 20bf c65a 3c3e c781 2b3c
000002e0: 7f57 65be 3fa7 943d 274f 81be df04 4e3d
000002f0: 9bed 91bd 41d5 dd3d 25e2 13be a913 c43d
00000300: 6c05 b83c 04b7 fcbd 83fd 0cbe 50df f0bd
00000310: e3fe 37bd 0965 26be 31e3 353c 2af7 463e
00000320: c2f2 703e e8ad c9bd 9ef2 b8bd 144f bebd
00000330: 1673 5abd 35e1 123e 8d19 5dbd 9a3b 2abd
00000340: 0cda 483d 9796 b8bd 14c5 ffbd ed76 d53c
00000350: 61b5 cd3d f5cc cbbd 4b1b ce3c 12f6 f7bc
00000360: 7d87 5fbd ce0e bbbd 9cda de3c 49f3 63bd
00000370: 5b9e ec3d 6368 66bd 17e3 673e cd1c e53d
00000380: 588d 633c 3d79 693e bcf3 953d cb16 aebd
00000390: a111 be3c 8db7 4b3e 0b15 123d 86d8 56be
000003a0: 3bf3 c6bd 37b5 debb 3a12 053e fd18 cd3d
000003b0: 523c 9ebd b8fd 373c 59a4 07bd 6a9f 023d
000003c0: 4812 c9bd 301e e23d 158e 9b3c ea8a 1d3d
000003d0: 7231 cf3d 13e9 083e 2468 033e e46b b9bd
000003e0: 668c 833d 9f6b e03e 1cb8 eabc 915d dfbc
000003f0: f82a 4e3e 6022 05be 6931 c03c 3770 113d
0.046576064 -0.051691543 0.28590685 -0.043464694 -0.12601027 0.09642393 0.01829806 -0.18409963
0.09725536 -0.020718293 0.24394004 -0.04312459 -0.15424696 -0.13907354 -0.16262087 -0.3040564
0.24768604 -0.32757908 -0.104292415 0.033029806 0.009809452 0.29855523 -0.19053654 -0.08794799
-0.25482875 0.06303771 -0.14823951 -0.12039028 -0.070449054 0.016532226 0.10393938 0.23851903
-0.30027732 -0.080617376 0.06961525 -0.13034354 -0.2979023 0.009800571 0.2392825 0.17476785
0.111258626 -0.12847474 -0.15686363 0.19245383 0.23414595 -0.12225672 -0.07576967 -0.028248759
-0.21182172 -0.23728795 -0.20156893 0.11420514 0.107324734 0.01366717 0.12644632 0.14598963
-0.04360744 0.06908566 -0.25612333 -0.09625043 0.21165192 0.009696016 0.0866182 0.099854
0.08592934 0.059452433 0.04715284 -0.052995145 0.022492195 -0.091289155 0.17699745 0.22326297
0.03540855 0.007000262 -0.019043319 -0.06527778 0.10066762 0.13777265 -0.07219621 -0.03956517
-0.01893923 0.10771963 0.24473697 -0.00063947606 -0.04074739 0.07701061 -0.051841352 -0.04653464
-0.17785975 0.12688565 -0.06998624 0.063467294 -0.045491513 -0.011116594 -0.036828633 -0.06790797
-0.024203211 0.047189895 -0.053975794 -0.04526486 -0.040380325 -0.013565006 0.049900834 -0.14249097
-0.11922871 0.08066639 -0.014351366 0.1511386 -0.01157856 -0.1398252 -0.029479856 -0.049066544
0.15309452 -0.019581987 0.06650617 -0.08093517 -0.0331528 0.10692809 -0.06625658 -0.08566611
0.020963825 -0.07533917 0.05809708 0.103675775 -0.18642832 -0.13397144 0.24159864 0.03325071
-0.2501993 -0.22349596 -0.12784876 0.078915134 0.01878119 -0.22465818 -0.115093395 -0.118514016
0.0430603 0.06925929 0.086235926 0.054393273 -0.17363094 0.080274336 -0.123839155 -0.061320417
0.01635906 -0.043360576 0.044926707 -0.009913141 -0.035337605 -0.092313856 -0.048044898 0.19343588
-0.14205484 -0.11838919 -0.0022304547 0.13174315 -0.3818498 -0.20573653 -0.060471613 0.122243494
0.17841241 -0.09110885 -0.25021642 -0.13137232 0.012280849 -0.26968792 0.22055109 -0.016426656
0.009286759 0.1606862 0.16226909 0.075734384 0.0029027015 -0.27145034 -0.41202495 -0.10158381
0.27575886 0.10094303 -0.29726765 0.0035833085 -0.038389303 -0.62603617 0.18394002 0.010467953
-0.22396658 0.07258462 -0.252557 0.050297614 -0.07125398 0.108316906 -0.14441736 0.095740624
0.022463523 -0.12339595 -0.13768582 -0.117613435 -0.044920813 -0.1624948 0.01110153 0.19430223
0.23530105 -0.09847623 -0.090306506 -0.09292427 -0.05333241 0.14343722 -0.053979445 -0.041560747
0.04903607 -0.09013098 -0.124887615 0.026057685 0.10044361 -0.09951202 0.025159499 -0.030268703
-0.05457257 -0.09133683 0.02720385 -0.055651937 0.115536414 -0.056251895 0.22645222 0.11187134
0.013888679 0.22800155 0.07321879 -0.08500441 0.023201765 0.19894238 0.0356646 -0.20981035
-0.09714361 -0.006796505 0.12995234 0.10014532 -0.07726349 0.011229925 -0.03311572 0.03189031
-0.0981794 0.11040914 0.018988648 0.038462557 0.10116853 0.13370161 0.12832695 -0.09053782
0.06423263 0.43832108 -0.028652243 -0.027266296 0.20133579 -0.13001394 0.02346106 0.035507407
